forward.pth (torch_old, 3074 bytes, 12 tensors)

Fc.0.weight f4 [5, 6]
0	0xbe34fa63	-0.1767364
1	0xbdb43b1f	-0.08800339
2	0x3e1df094	0.15423805
3	0x3d2ea080	0.042633533
4	0x3d52382e	0.05132311
5	0x3e163f29	0.14672531
6	0xbdb8dbb9	-0.09026284
7	0x3df3bacd	0.11900864
8	0x3bfc4b03	0.007699372
9	0xbd5d8544	-0.05408217
10	0xbdb72d7d	-0.08944223
11	0xbbe9fb9c	-0.00714059
12	0xbe2f4a52	-0.17118195
13	0xbcc444e0	-0.023958623
14	0xbd0d135b	-0.034442287
15	0x3d867464	0.065651685
16	0xbda0ecc9	-0.07857663
17	0x3d949c8f	0.07256424
18	0xbcce269e	-0.025164898
19	0x3de24c54	0.11049715
20	0xbd62ef79	-0.05540416
21	0x3dc51050	0.09622252
22	0xbe101d3c	-0.14073652
23	0x3cd81295	0.026376048
24	0x3d94e8b0	0.07270944
25	0x3c081c9c	0.008307602
26	0x3d41e867	0.047340777
27	0xbd8ae27a	-0.06781478
28	0xbe2d6490	-0.16932893
29	0x3bf6c19b	0.007530404

Fc.0.bias f4 [5]
0	0xbc694929	-0.014238634
1	0xbb9c8e09	-0.004777674
2	0x3ce2137a	0.027597178
3	0xbbac5cc0	-0.00526008
4	0xbbd87bdb	-0.0066065616

Fh.0.weight f4 [1, 6]
0	0xbd3632cf	-0.04448205
1	0xbe8fe950	-0.2810769
2	0x3e067a51	0.13132598
3	0xbde75734	-0.112959296
4	0x3bc70f77	0.0060748416
5	0xbd49e423	-0.049289834

Gc.0.weight f4 [5, 6]
0	0x3c40d05f	0.01176843
1	0x3b8eda2f	0.0043595056
2	0xbe3a5503	-0.18196492
3	0x3e26471b	0.16238062
4	0xbe3d8ee2	-0.18511537
5	0x3ca0ac1c	0.019613318
6	0xbc965d6e	-0.018355098
7	0x3be9f160	0.00713937
8	0xbc5fdc1a	-0.013663316
9	0x3dd989ed	0.106220104
10	0xbdb511b9	-0.08841271
11	0x3e91aa39	0.28450182
12	0xbd1c4400	-0.038150787
13	0xbd2cdc80	-0.042202473
14	0x3a430a94	0.0007440236
15	0x3e349d95	0.17638238
16	0x3bec592c	0.0072127786
17	0xbd8375db	-0.064189635
18	0xbe985d78	-0.2975881
19	0xbdfa0532	-0.12208022
20	0x3dd5efef	0.10446154
21	0xbc87d3e8	-0.016580537
22	0xbd03251b	-0.03201781
23	0x3e048871	0.12942673
24	0xbd1ebcf4	-0.03875442
25	0x3d3302ba	0.043703772
26	0x3df80d37	0.121118955
27	0x3cdb9fb0	0.026809543
28	0xbcbc0c79	-0.022955166
29	0x3c63ff0e	0.01391579

Gc.0.bias f4 [5]
0	0x3ce18c2b	0.027532658
1	0x3def6d46	0.11690764
2	0xbc98c8f0	-0.018650502
3	0xbd2b47ae	-0.041816406
4	0x3c929c85	0.0178969

Gh.0.weight f4 [1, 6]
0	0x2a46b187	1.7647525e-13
1	0x25b8a2b1	3.2029156e-16
2	0xa4a7eaa3	-7.2822195e-17
3	0xa5cd88b6	-3.565447e-16
4	0x234fb5ca	1.1259988e-17
5	0x9f8da2a2	-5.9984876e-20

Z.0.weight f4 [5, 6]
0	0x3cb71620	0.022349417
1	0x3c670c67	0.014102078
2	0xbd95bdbe	-0.07311581
3	0x3de260f5	0.11053649
4	0xbdc5fbde	-0.096671805
5	0x3cfc297a	0.030781496
6	0x3d7d80db	0.061890464
7	0x3d849591	0.0647384
8	0xbc93859e	-0.01800805
9	0x3e5324bc	0.20619482
10	0x3dbf996a	0.09355433
11	0x3d78ef89	0.060775314
12	0xbcf3f2d5	-0.029778877
13	0x3d9114b8	0.0708403
14	0x3bdd9a58	0.006762784
15	0xbdfd3b4a	-0.12364824
16	0xbd93f00b	-0.07223519
17	0xbdeabbd1	-0.114616044
18	0xbe168415	-0.14698823
19	0xbd80a092	-0.06280626
20	0xbd33ece1	-0.043927077
21	0x3ce6825d	0.028138334
22	0x3d48c4a2	0.04901565
23	0xbe0574d4	-0.13032848
24	0xbd07c9c3	-0.0331514
25	0x3d5e70c2	0.054306753
26	0xbe12e1d4	-0.14343959
27	0x3df9c261	0.12195278
28	0x3cac2120	0.021011889
29	0x3dab9eea	0.0837992

Z.0.bias f4 [5]
0	0x3d935b7e	0.07195185
1	0x3d170ce8	0.036877543
2	0xbd947636	-0.072491094
3	0xbc207a15	-0.009794732
4	0x3d0b9915	0.034081537

L.0.weight f4 [1, 6]
0	0xbe50eb05	-0.20402153
1	0x3f079943	0.52968234
2	0x3e9afe1d	0.30271998
3	0xbe6dcdd6	-0.23223051
4	0xbe4c4b96	-0.19950709
5	0x3ebf6208	0.3737948

A.0.weight f4 [1, 2]
0	0xbd65be78	-0.05608985
1	0xbd2c403a	-0.04205344

u0p f4 [3, 5]
0	0xc016b8c7	-2.355028
1	0xc04854b7	-3.1301706
2	0xc03ac20f	-2.9180944
3	0x403769ca	2.8658319
4	0xc00265a4	-2.0374537
5	0xc01864f9	-2.381163
6	0xc0547d97	-3.3201654
7	0x402358a7	2.552286
8	0xbfd1f2de	-1.6402242
9	0x40358aa9	2.8365881
10	0x3ff38d57	1.9027508
11	0xbfce2375	-1.6104571
12	0xc0209a9d	-2.5094368
13	0x3faef9f4	1.367003
14	0xc0784ac0	-3.8795624

u0q f4 [3, 1]
0	0x00000000	0.0
1	0x00000000	0.0
2	0x00000000	0.0
