fparam.pth (torch_old, 3026 bytes, 11 tensors)

Fc.0.weight f4 [5, 6]
0	0xbd66c30c	-0.056338355
1	0x3cb02fc5	0.021507153
2	0x3d64542f	0.055744346
3	0x3de30195	0.11084286
4	0x3dd5e007	0.104431204
5	0x3e26aa4e	0.16275904
6	0xbdaee280	-0.08539295
7	0x3d703f30	0.05865401
8	0x3cc1e641	0.023669364
9	0xbda64f25	-0.08120564
10	0xbe1b521c	-0.15168041
11	0xbc6b3599	-0.01435604
12	0xbe0f5eda	-0.14001027
13	0xbcc98767	-0.024600698
14	0xbca77e2a	-0.020445902
15	0x3dc120dc	0.094300956
16	0xbe0b6eaf	-0.13616441
17	0x3d013d65	0.03155269
18	0xbc74b98e	-0.014936818
19	0x3d9a1121	0.07522798
20	0xbd745ddd	-0.059659828
21	0x3db0bd56	0.08629863
22	0xbde37231	-0.11105765
23	0x3c82823a	0.015931237
24	0x3d69db64	0.057093993
25	0x3d3d457f	0.046208855
26	0xbc86d66a	-0.016459662
27	0xbd9a8ac0	-0.07545996
28	0xbd876211	-0.066105016
29	0x3d9ca673	0.07648935

Fc.0.bias f4 [5]
0	0xbd0cbdd7	-0.034360733
1	0xbba9bc10	-0.0051798895
2	0x39bd665c	0.00036125153
3	0xbc7812ba	-0.0151411835
4	0x3d5e3a78	0.05425498

Fh.0.weight f4 [1, 6]
0	0xbdcbc2a2	-0.09949233
1	0xbda7896e	-0.081805095
2	0x3cdfb7ac	0.027309261
3	0xbe0bd505	-0.13655479
4	0x3e835b94	0.25655806
5	0x3ddfa864	0.1092079

Gc.0.weight f4 [5, 6]
0	0xbcd62c99	-0.026144313
1	0xbcc1b2b8	-0.02364479
2	0xbcc71899	-0.024303721
3	0xbbc02a91	-0.0058644493
4	0xbe4730f7	-0.19452272
5	0xbc02b625	-0.007977997
6	0xbb732408	-0.0037100334
7	0x3de9622c	0.11395678
8	0x3d01412e	0.0315563
9	0x3e093da1	0.13402416
10	0xbe325ccf	-0.17418216
11	0x3e8fd1d2	0.28089768
12	0x3d03a277	0.03213736
13	0xbd202925	-0.03910174
14	0xbbed2b71	-0.0072378446
15	0x3e436f57	0.19085442
16	0xbd9ef7f1	-0.07762135
17	0xbd962c69	-0.07332689
18	0xbeb5afad	-0.35485592
19	0xbdc9086d	-0.0981606
20	0x3da22244	0.07916692
21	0xbd0abf35	-0.033873755
22	0xbdbc418a	-0.09192188
23	0x3e5bda75	0.21470053
24	0x3c89d472	0.016824935
25	0x3ca7dc5d	0.02049082
26	0x3e5a8342	0.21339133
27	0xbd87a9e6	-0.066242024
28	0xbdd9af0e	-0.10629092
29	0xbd8f316d	-0.06991849

Gc.0.bias f4 [5]
0	0x3d45aeca	0.048262395
1	0x3da2109b	0.079133235
2	0xbc8edd49	-0.017439501
3	0x3d33a204	0.043855682
4	0xbd5e7293	-0.054308485

Gh.0.weight f4 [1, 6]
0	0x244754c1	4.3223036e-17
1	0xa00b5e5e	-1.1804981e-19
2	0x1ec5fef1	2.0963628e-20
3	0x9d40ed90	-2.5533805e-21
4	0x1dea06ce	6.194632e-21
5	0x1a31827a	3.670814e-23

Z.0.weight f4 [5, 6]
0	0x3cd5307b	0.026024094
1	0x3d89ca65	0.06728057
2	0x3d8e8ce3	0.06960466
3	0x3dd8cc4a	0.1058584
4	0x3c969f0d	0.018386388
5	0xbd7458ed	-0.05965512
6	0xbd083a23	-0.03325857
7	0x3d5d74de	0.05406653
8	0xbcf53649	-0.029933112
9	0x3e84c843	0.25934038
10	0x3c8d888d	0.017277027
11	0x3d66562c	0.056234524
12	0xbd46d732	-0.04854507
13	0x3ca218af	0.01978716
14	0x3ce21478	0.02759765
15	0xbe6c269c	-0.23061603
16	0x3d8f865a	0.070080474
17	0xbe0471ec	-0.12934083
18	0xbe0be460	-0.13661337
19	0xbdcf5320	-0.10123277
20	0xbd3aa074	-0.045563176
21	0x3d108893	0.035286497
22	0xbcfe7225	-0.031060288
23	0xbdbdf318	-0.09274882
24	0x3d5da1d0	0.054109395
25	0x3d405e5d	0.04696499
26	0xbcf6bf45	-0.030120501
27	0x3dda2811	0.10652173
28	0xbd4b7f24	-0.049681798
29	0xbcf630cf	-0.03005257

Z.0.bias f4 [5]
0	0xbd630925	-0.055428643
1	0x3d5a2e0a	0.053266563
2	0xbd9abddf	-0.07555746
3	0x3cb76b38	0.022389993
4	0xbd9270e9	-0.07150442

L.0.weight f4 [1, 6]
0	0xbea1a58d	-0.31571618
1	0x3eafe375	0.34353223
2	0xbe16f28e	-0.14740965
3	0x3dc8b75f	0.098006
4	0xbe3a4e4a	-0.18193927
5	0xbde347e6	-0.11097698

A.0.weight f4 [1, 2]
0	0x3bf03a99	0.007331204
1	0x1d9d275a	4.1598243e-21

u0p f4 [1, 5]
0	0xbffff8fe	-1.9997861
1	0xc0262819	-2.5961974
2	0xc01a3ba7	-2.409891
3	0x401fd6a6	2.497476
4	0xc0030faa	-2.047831
