param.pth (torch_old, 3074 bytes, 12 tensors)

Fc.0.weight f4 [5, 6]
0	0xbe054579	-0.13014783
1	0xbdaf6315	-0.0856382
2	0x3e02ee8a	0.12786308
3	0x3d03bbdf	0.03216159
4	0x3c89bd56	0.016813915
5	0x3e2a147a	0.16609374
6	0xbde4f390	-0.11179268
7	0x3def6cae	0.11690651
8	0x3c983734	0.01858101
9	0xbd843a30	-0.06456411
10	0xbdc743af	-0.097297065
11	0xbbf0dff5	-0.0073509165
12	0xbdd27e18	-0.10277957
13	0xbcbd60c0	-0.023117423
14	0xbd5a6caf	-0.053326305
15	0x3da152b3	0.07877102
16	0xbdcd053f	-0.10010766
17	0x3d5e3b63	0.054255854
18	0xbd035560	-0.03206384
19	0x3dadf22a	0.08493455
20	0xbd8a1a48	-0.06743294
21	0x3de9a541	0.11408473
22	0xbd83f0fb	-0.06442448
23	0x3d2650ca	0.04060439
24	0x3d5c3962	0.053765662
25	0x3c8a5f4e	0.016891148
26	0x3d26efd6	0.04075607
27	0xbd58c84a	-0.052925386
28	0xbe28883e	-0.16458222
29	0xb96f9ffe	-0.00022852418

Fc.0.bias f4 [5]
0	0x3bacb166	0.005270171
1	0xbb8ed73c	-0.004359154
2	0x3d1446d9	0.036200378
3	0x3c354a23	0.011065039
4	0xbc992f4b	-0.018699309

Fh.0.weight f4 [1, 6]
0	0xbdad6a60	-0.08467555
1	0xbdb2a1b7	-0.08722251
2	0xbd27228e	-0.04080444
3	0x3c956e53	0.018241083
4	0x3e0dfdda	0.13866368
5	0x3df0ed7e	0.11764048

Gc.0.weight f4 [5, 6]
0	0x3c0d3d7f	0.008620619
1	0xbc2ce375	-0.010552277
2	0xbe2568ff	-0.16153334
3	0x3e111868	0.14169466
4	0xbe452e66	-0.19255981
5	0x3cefce12	0.029273067
6	0x3d5945f0	0.053045213
7	0x3d49bdef	0.0492534
8	0x3e039785	0.12850769
9	0x3a87a7d0	0.0010349695
10	0xbe6fbbec	-0.2341153
11	0x3e321dfe	0.17394254
12	0xbc4fcade	-0.012682645
13	0xbd321bb1	-0.04348344
14	0xb96d66e2	-0.00022640408
15	0x3e275fed	0.16345187
16	0xbca4a98c	-0.020100378
17	0xbd3122c9	-0.043246064
18	0xbe837b05	-0.25679794
19	0xbe007dc8	-0.12547982
20	0x3dfb4576	0.12269108
21	0xbd87bfb6	-0.06628363
22	0xbd8c12fe	-0.0683956
23	0x3e19ae84	0.15007979
24	0x3cc44e67	0.023963166
25	0x3d23bdde	0.039975993
26	0x3dd1653a	0.102243856
27	0x3d0c33bc	0.034229025
28	0xbd332e06	-0.043745063
29	0x3cc4e684	0.0240357

Gc.0.bias f4 [5]
0	0x3d1809d0	0.037118733
1	0xbc6bb4bd	-0.014386353
2	0xbc20131b	-0.00977018
3	0xbcaeed4d	-0.021353388
4	0x3d008339	0.031375144

Gh.0.weight f4 [1, 6]
0	0x3862aa78	5.404136e-05
1	0xb399ec8c	-7.167645e-08
2	0x328a889a	1.6127434e-08
3	0x33ab9f14	7.991744e-08
4	0xb12af1a3	-2.487561e-09
5	0x2d6906fc	1.32460674e-11

Z.0.weight f4 [5, 6]
0	0xbc2550f5	-0.010090102
1	0x3d106cf8	0.03526017
2	0xbd6d41c8	-0.057924062
3	0x3df62d8f	0.12020408
4	0xbdac4ceb	-0.084131084
5	0xbb3148df	-0.0027051491
6	0x3d5fba5b	0.05462108
7	0x3d6d5dbd	0.057950724
8	0x3c8ae557	0.01695506
9	0x3e418af8	0.18900669
10	0x3d02fecf	0.031981286
11	0xbaf8ee67	-0.0018991948
12	0x3b7ebe82	0.0038870876
13	0x3dc849aa	0.09779675
14	0xbc2ff476	-0.010739436
15	0xbe3a4cfc	-0.1819343
16	0xbca8f9ad	-0.020626867
17	0xbdc3f4f5	-0.09568206
18	0xbe1dd348	-0.15412629
19	0xbd9ee697	-0.07758825
20	0xbd2bf14c	-0.041978166
21	0xbabde8e8	-0.0014488967
22	0x3c25c0fa	0.01011681
23	0xbdf84380	-0.121222496
24	0xbdb35c1a	-0.08757801
25	0x3d181ce3	0.037136924
26	0xbe1bb1f0	-0.15204597
27	0x3df54d6f	0.1197766
28	0x3ced9903	0.029003626
29	0x3dd1d00b	0.10244759

Z.0.bias f4 [5]
0	0x3d192198	0.037385553
1	0xbcb4a837	-0.022052867
2	0xbd0aaf3b	-0.03385852
3	0xbbecf575	-0.007231409
4	0x3d5bee1f	0.053693887

L.0.weight f4 [1, 6]
0	0xbc1c8fb6	-0.009555748
1	0x3eaf814f	0.34278342
2	0x3e06d249	0.13166155
3	0xbd9f353e	-0.07773827
4	0xbd6f2cf9	-0.0583925
5	0x3db554a4	0.088540345

A.0.weight f4 [1, 2]
0	0x3d43ca82	0.04780055
1	0x3d0abfd4	0.033874348

u0p f4 [3, 5]
0	0xbfc7de68	-1.5614748
1	0xc01409fb	-2.3131092
2	0xc0068e44	-2.1024332
3	0x3ffd5555	1.9791666
4	0xbfc99011	-1.574709
5	0xbfb10dff	-1.3832396
6	0xbfe7255e	-1.8058279
7	0x3ffa5b91	1.9559194
8	0xbfb0c7da	-1.381099
9	0x400971ff	2.1475828
10	0x3f5c13f3	0.8596794
11	0xbf3922fc	-0.72319007
12	0xbf57ac9f	-0.84247774
13	0xbf401af3	-0.7504112
14	0xc04ada86	-3.1695876

u0q f4 [3, 1]
0	0x00000000	0.0
1	0x00000000	0.0
2	0x00000000	0.0
