param.pth (torch_old, 3105 bytes, 12 tensors)

Fc.0.weight f4 [5, 6]
00000000: 8a64 23bd ffbb a0bd ea79 5f3d 9c19 813d
00000010: 686c 473d f4b2 453e bed0 ddbd 3674 e53d
00000020: a476 5f3c 2f78 7bbd fe60 01be 9c88 06bc
00000030: 7c94 cfbd 59c2 efbc f51f 0abd 62ad c93d
00000040: ea10 cfbd d4b6 e63c f011 0fbc 2693 d03d
00000050: 9156 54bd 41ea 973d bf5b a3bd fee5 f03c
00000060: a065 9e3c 7475 65bc 83d0 1b3d a2d1 08bd
00000070: 39d9 d8bd 02aa d53c
-0.039890803 -0.078483574 0.054559626 0.06303713 0.04868737 0.19306546 -0.1083083 0.11203806
0.013639126 -0.061393913 -0.12634656 -0.008211281 -0.10135743 -0.029267477 -0.033721883 0.09847523
-0.10110648 0.028163351 -0.008732304 0.10184316 -0.05184037 0.07417727 -0.079764836 0.029406544
0.019335568 -0.014005054 0.03804065 -0.033403046 -0.10588307 0.026082043

Fc.0.bias f4 [5]
00000000: 6017 03bb 0af2 023b 14e5 02bb b2f7 02bb
00000010: b423 033b
-0.0020002946 0.0019980692 -0.0019972967 -0.0019984064 0.0020010294

Fh.0.weight f4 [1, 6]
00000000: 28b5 8fbd 458a 7bbc a493 0c3c 22a7 7abd
00000010: 450f a13d 8660 913d
-0.07016975 -0.01535279 0.008580122 -0.061194547 0.078642406 0.070984885

Gc.0.weight f4 [5, 6]
00000000: dd8f 623c 94dc 133c 9e98 a3bd 57fc 7a3d
00000010: 0141 42be 4d07 5dbd b8b2 623d 86d3 2e3d
00000020: 6297 c63d b50e 323d b278 18be f471 4e3e
00000030: 74d6 363c e59e 1abc b03a 49bb 9c18 0b3e
00000040: 4384 d4bc 5cd8 59bd 9ef1 94be 09ab 1cbe
00000050: a7d5 d53d 39cf 14bd 2fde 92bd 1323 303e
00000060: e39c 053d 90ca c23d f98d 163e edaa ebbb
00000070: ab38 79bd cfe2 47bc
0.013828245 0.009024758 -0.07988094 0.061275806 -0.1897011 -0.05396204 0.05534622 0.042682193
0.09696843 0.043471057 -0.14889792 0.20160657 0.011159528 -0.0094372975 -0.0030705146 0.13583606
-0.025941974 -0.053184852 -0.2909059 -0.1529962 0.104411416 -0.036330435 -0.071712844 0.1720088
0.032620322 0.09511292 0.14702596 -0.007192007 -0.06084506 -0.0122000715

Gc.0.bias f4 [5]
00000000: 8223 033b b3e3 02bb 76fb 023b e7fc 023b
00000010: 2624 033b
0.0020010178 -0.0019972145 0.0019986308 0.0019987167 0.002001056

Gh.0.weight f4 [1, 6]
00000000: 729e c4bd c4f0 5dbd 6923 e03c e0b7 593d
00000010: 6a55 1f3c 0e34 b137
-0.096005335 -0.05418469 0.027360635 0.053153872 0.009724954 2.1124284e-05

Z.0.weight f4 [5, 6]
00000000: 326d 14bc fd77 743d 0a7c 74bc 1889 f73d
00000010: 5754 61bc ccbe d6bb 4ab6 803d 1c67 4e3d
00000020: 60f5 863c 4fce 403e ffb7 173d 98d7 ad3b
00000030: ffb0 d5bd 5d52 9a3d d727 ec3c b2e1 54be
00000040: efdd 623d e95a 53bd 84ca acbd a6b1 bdbd
00000050: 0e99 7abd 92e4 8b3c f718 b3bc 9ece f0bd
00000060: 7006 f3bc 12ab c43d aefe eebd 0a79 a63d
00000070: df28 cf3b 52fc 243d
-0.009059237 0.059684742 -0.014922151 0.120866954 -0.013753018 -0.0065535065 0.06284769 0.0503913
0.016474426 0.188287 0.037040707 0.005305242 -0.1043415 0.07535241 0.02882759 -0.20789221
0.055387434 -0.05160037 -0.08437064 -0.092623994 -0.06118112 0.017076764 -0.02186249 -0.11758159
-0.029666156 0.096029416 -0.1166967 0.08128555 0.006322011 0.040279694

Z.0.bias f4 [5]
00000000: 780d 03bb bf00 033b ea0f fe3a a643 02bb
00000010: b818 03bb
-0.0019997042 0.0019989458 0.0019383405 -0.0019876747 -0.0020003747

L.0.weight f4 [1, 6]
00000000: 04bc 0bbe 629b 343e f894 99bc a24c d6bb
00000010: dd6e bbbd bfcf 04be
-0.13645941 0.17637399 -0.018747792 -0.006539897 -0.09152005 -0.12969874

A.0.weight f4 [1, 2]
00000000: 4407 a23c c8d2 5fbc
0.019778855 -0.013661094

u0p f4 [3, 5]
00000000: d837 b6be 0917 8dbf e532 68bf ce30 5a3f
00000010: f62c 2abe 9ebd 86be 31d3 dfbe e851 8d3f
00000020: 8d49 0ebf 04b8 9d3f 799d b0be a2a1 60bd
00000030: d493 96bf d3b1 e6be 16ad 54c0
-0.3558948 -1.1022655 -0.9070266 0.8523072 -0.16618714 -0.2631654 -0.43715814 1.1040621
-0.5558098 1.2321782 -0.34495142 -0.054841645 -1.1763864 -0.45057544 -3.3230643

u0q f4 [3, 1]
00000000: 0000 0000 0000 0000 0000 0000
0.0 0.0 0.0
