param.pth (torch_old, 3074 bytes, 12 tensors)

Fc.0.weight f4 [5, 6]
00000000: 9f46 16be 4740 eebd 1795 cc3d ac66 713d
00000010: 88d8 823c c6a5 443e c6b1 15be d4ee f53d
00000020: 083b e63c 3413 4dbd 2a47 5ebd b5f8 c6bc
00000030: b298 13be 1929 1dbd 453a 64bd d5a5 a43d
00000040: e3c1 89bd 965f bf3d d683 c2bc 1d77 fb3d
00000050: 2a37 33bd b72b b33d 76fa 37be e35d 883c
00000060: e291 833d 8576 673c 8c8c 5f3d 170f 90bd
00000070: ebd5 33be 5fc0 aa3b
-0.14675377 -0.11633354 0.09989374 0.058935806 0.01597239 0.19203863 -0.14618596 0.120084435
0.02810432 -0.05006714 -0.054267086 -0.024288515 -0.14413717 -0.038369272 -0.055719633 0.080394424
-0.06726434 0.093444034 -0.023744505 0.122785784 -0.04375378 0.08748572 -0.17966637 0.016646331
0.06424309 0.014127378 0.054577395 -0.07034128 -0.17562072 0.0052109207

Fc.0.bias f4 [5]
00000000: dccd 9e3c 3bb5 93bc 2b25 7e3d 502e 79bc
00000010: 6231 5abc
0.01938527 -0.018030753 0.062047165 -0.015208796 -0.013317438

Fh.0.weight f4 [1, 6]
00000000: c4d9 553c 53c9 89be 5ab8 e03d 0955 f5bd
00000010: 2237 3b3d f678 b0bd
0.013052408 -0.2691141 0.10972662 -0.1197911 0.045706876 -0.086168215

Gc.0.weight f4 [5, 6]
00000000: e3e6 88bd 6d55 f93c ea2f 10be a83a 123e
00000010: 7165 05be ed61 b7bc 187b 30bd d2a2 c93b
00000020: fb56 babc 0c78 ea3d 05f5 61bd 35b9 983e
00000030: 74ba b0bd e2af 29bd 2a55 233d fc5a 283e
00000040: 5b72 953b 0576 9bbd 6740 94be fd8d 0cbe
00000050: 97ac 953d 4783 933b 0644 24bd b7f8 0d3e
00000060: 6a52 f3bc b1ce 0c3d c3d0 f33d 9eae f33c
00000070: 2c2b babc 4c64 a73c
-0.06684663 0.030436242 -0.14080778 0.14280188 -0.13026978 -0.022385562 -0.04308614 0.006153443
-0.022746554 0.114486784 -0.05516531 0.29828802 -0.08629313 -0.0414275 0.03987614 0.16440958
0.0045607514 -0.0759087 -0.28955385 -0.13726039 0.073083095 0.0045017335 -0.040103935 0.13864408
-0.029702384 0.034376804 0.119050525 0.02974635 -0.022725664 0.020433567

Gc.0.bias f4 [5]
00000000: bef3 e7bb cbec f73d 4450 2ebd 7314 fabc
00000010: b3aa d43c
-0.007078617 0.121057115 -0.042557016 -0.03052733 0.025960302

Gh.0.weight f4 [1, 6]
00000000: 9ef4 b61e 9fd2 371a 4704 1799 db8f 4f9a
00000010: ede4 b517 cad8 f693
1.9371171e-20 3.801365e-23 -7.807381e-24 -4.2922802e-23 1.175464e-24 -6.23129e-27

Z.0.weight f4 [5, 6]
00000000: 4726 5bbc 2c2b fe3c 7e1b 23bd 5757 c43d
00000010: 10b3 a0bd 8b46 1d3b c131 d83c 6119 a13d
00000020: 7c13 a43c d8ab 593e df5e e33d 793e 333d
00000030: 350c c8bc 5c69 923d 46bd f9bc 58da fabd
00000040: e09c b3bd c994 e4bd 831e 1fbe 0935 95bd
00000050: d517 4abd a8dc 133d 8773 443d a3ed ffbd
00000060: ee68 babc 0186 3d3d f7f4 1dbe 2115 063e
00000070: c1eb 013d 83a6 bf3d
-0.013375825 0.031026445 -0.03982114 0.09586971 -0.078466535 0.0023998346 0.026390912 0.07866169
0.020028822 0.2125696 0.111020796 0.04376075 -0.024419883 0.07149002 -0.03048576 -0.12248677
-0.08770156 -0.11161191 -0.15538983 -0.07285506 -0.049339134 0.036099106 0.047961738 -0.124964975
-0.022755112 0.046270374 -0.15425478 0.13093998 0.031718973 0.093579315

Z.0.bias f4 [5]
00000000: d450 3f3d d493 003c 878f 88bd 792f f1bb
00000010: 11a4 2f3d
0.046707943 0.007847745 -0.06668001 -0.0073603955 0.042881075

L.0.weight f4 [1, 6]
00000000: cd35 86be 982a 1a3f 2c8a bf3e 487f 6ebe
00000010: de39 6abe 60fa 0f3f
-0.26212922 0.6022124 0.37410104 -0.23290741 -0.22873637 0.56241417

A.0.weight f4 [1, 2]
00000000: db6a 05be f1c5 d7bc
-0.13029043 -0.026339503

u0p f4 [3, 5]
00000000: f0e8 1cc0 1fa7 52c0 a01f 44c0 a80c 3f40
00000010: 1f73 09c0 941f 1ec0 9cd3 5ec0 8783 2540
00000020: 3758 d3bf 22d2 3440 cd51 d03f da7a 06c0
00000030: e887 14c0 8daf 883f 1bfc 79c0
-2.4517174 -3.2914503 -3.0644302 2.9851475 -2.1476514 -2.4706774 -3.4816656 2.5861528
-1.6511296 2.8253255 1.6274964 -2.1012483 -2.320795 1.0678574 -3.9060123

u0q f4 [3, 1]
00000000: 0000 0000 0000 0000 0000 0000
0.0 0.0 0.0
