param.pth (torch_old, 3073 bytes, 12 tensors)

Fc.0.weight f4 [5, 6]
000000 b0 7d 27 bd cd c7 a2 bd e5 93 63 3d f2 19 7e 3d
       -0.04089135 -0.07948265 0.055560965 0.062036462
000010 b7 23 3b 3d 2a b9 46 3e 45 c5 db bd ee 7e e7 3d
       0.045688357 0.19406572 -0.107309856 0.11303507
000020 70 17 4f 3c 06 65 77 bd 60 b5 fc bd 73 e2 16 bc
       0.012639865 -0.060399078 -0.12339282 -0.009209263
000030 69 9f d1 bd f7 eb f7 bc 54 0f 06 bd 93 1e c8 3d
       -0.10235483 -0.030263884 -0.03272946 0.097714566
000040 91 05 cd bd 18 e2 ee 3c ae 71 1f bc 2c 88 ce 3d
       -0.10010827 0.029160544 -0.009731693 0.100845665
000050 9c 5e 50 bd 6b ec 9d 3d fd 53 a1 bd 9b 13 f9 3c
       -0.050871477 0.07711109 -0.078773476 0.030404856
000060 06 92 a6 3c 45 13 55 bc 84 bd 17 3d 88 b9 04 bd
       0.020333301 -0.0130050825 0.03704597 -0.0324035
000070 15 df da bd c7 76 cd 3c
       -0.10687081 0.025081052

Fc.0.bias f4 [5]
000000 6d 12 83 ba 6d 12 83 3a 6e 12 83 ba 6d 12 83 ba
       -0.0009999998 0.0009999998 -0.0009999999 -0.0009999998
000010 6c 12 83 3a
       0.0009999997

Fh.0.weight f4 [1, 6]
000000 db a8 8d bd f9 30 6b bc 0a 62 f8 3b 89 8e 76 bd
       -0.06916972 -0.014354938 0.0075800465 -0.060194526
000010 3d 22 9f 3d 9f 54 8f 3d
       0.07770202 0.06998562

Gc.0.weight f4 [5, 6]
000000 9a f7 72 3c 2d 3e 24 3c 0b a5 a5 bd c3 15 7f 3d
       0.014829541 0.0100245895 -0.0808812 0.062276613
000010 b5 43 43 be e5 20 61 bd 26 9b 5e 3d ba c1 2a 3d
       -0.19068797 -0.05496301 0.05434718 0.04168866
000020 1b a4 c8 3d 6c f6 2d 3d 64 8a 1b be 58 77 4f 3e
       0.09796926 0.042471334 -0.1518951 0.2026037
000030 bf 36 47 3c cb 45 0a bc 8e af 07 bb 4c 12 0a 3e
       0.012159049 -0.0084394915 -0.0020704004 0.13483542
000040 55 b2 dc bc 6a ef 5d bd 93 6e 94 be 66 a5 1b be
       -0.026940504 -0.0541834 -0.2899061 -0.15199813
000050 6c c9 d3 3d f1 b9 10 bd 7b e9 94 bd 49 1d 2f 3e
       0.103411525 -0.035333578 -0.07271095 0.17101015
000060 c3 b6 09 3d 9e d6 c4 3d 95 87 15 3e 2e dd ca bb
       0.03362156 0.096112475 0.14602502 -0.0061909175
000070 2b 4f 7d bd 5a 49 58 bc
       -0.06184308 -0.013201082

Gc.0.bias f4 [5]
000000 64 12 83 3a 6a 12 83 ba 6a 12 83 3a 66 12 83 3a
       0.0009999988 -0.0009999995 0.0009999995 0.000999999
000010 61 12 83 3a
       0.0009999984

Gh.0.weight f4 [1, 6]
000000 d5 9e c6 bd 53 e0 61 bd 51 bb e7 3c b0 a6 5d 3d
       -0.096982636 -0.055145573 0.028287562 0.054114044
000010 a9 e7 2c 3c b7 1b 3c 38
       0.010553279 4.4848504e-05

Z.0.weight f4 [5, 6]
000000 44 d0 24 bc c2 60 70 3d 88 c7 92 bc 4e 7d f5 3d
       -0.01005942 0.058686025 -0.01791741 0.119867906
000010 d6 38 89 bc 24 fd b5 bb 65 c2 82 3d 80 7d 52 3d
       -0.016750734 -0.0055538584 0.06384734 0.051389217
000020 e0 87 7d 3c 19 d4 41 3e 8a 00 24 3d 64 1c 8d 3b
       0.01547429 0.18928565 0.040039577 0.004306363
000030 89 a6 d3 bd 69 45 98 3d 2e fc e3 3c fd db 53 be
       -0.103344984 0.07435114 0.02783021 -0.20689388
000040 b3 d4 5e 3d a7 33 57 bd a1 d4 ae bd 9a ae b7 bd
       0.054402065 -0.052539494 -0.085366495 -0.089688495
000050 45 83 76 bd 05 b7 83 3c d2 fa aa bc e1 c8 ee bd
       -0.060183782 0.016078481 -0.020871554 -0.11659408
000060 43 39 fb bc fd 9e c2 3d bd f1 ec bd 59 6c a4 3d
       -0.030666953 0.09502981 -0.115695454 0.08028478
000070 0b f4 ef 3b 3c 15 29 3d
       0.0073227934 0.041280016

Z.0.bias f4 [5]
000000 6e 12 83 ba 6e 12 83 3a 65 12 83 3a 6c 12 83 ba
       -0.0009999999 0.0009999999 0.0009999989 -0.0009999997
000010 6e 12 83 ba
       -0.0009999999

L.0.weight f4 [1, 6]
000000 b1 b5 0a be 0d a1 35 3e bd c8 a1 bc fe 85 b5 bb
       -0.13545872 0.17737217 -0.01974904 -0.0055396548
000010 21 62 b9 bd d6 d5 05 be
       -0.0905192 -0.13069853

A.0.weight f4 [1, 2]
000000 b0 19 aa 3c 10 b8 4f bc
       0.020764202 -0.012678161

u0p f4 [3, 5]
000000 75 17 b1 be 90 5e 8e bf 16 c2 6a bf 2f fc 52 3f
       -0.3458821 -1.1122608 -0.917024 0.8241605
000010 0d ee 1f be 69 9d 81 be ac ed e4 be 0d 0a 8c 3f
       -0.15618153 -0.25315407 -0.4471258 1.0940567
000020 15 bb 0b bf bc fe 9e 3f 67 80 ab be 36 bc 84 bd
       -0.5458234 1.2421489 -0.334964 -0.06481211
000030 78 4d 95 bf 70 e7 f0 be 1b 09 54 c0
       -1.1664267 -0.47051573 -3.3130558

u0q f4 [3, 1]
000000 00 00 00 00 00 00 00 00 00 00 00 00
       0.0 0.0 0.0
