param.pth (torch_old, 3025 bytes, 11 tensors)

Fc.0.weight f4 [5, 6]
-0.037090816 -0.07564305 0.051927257 0.065645926 0.051406704 0.19027542 -0.110964864 0.10939411
0.008032306 -0.05631264 -0.12854472 -0.0056200097 -0.10510115 -0.026890144 -0.02746539 0.09328842
-0.10346843 0.025684182 -0.013367617 0.10421964 -0.04561061 0.071808614 -0.0795899 0.027119607
0.026011366 -0.007225229 0.03170427 -0.027101332 -0.103497766 0.02556446
00000000: 8aec 17bd beea 9abd adb1 543d 5f71 863d
00000010: d68f 523d 8fd7 423e 8c41 e3bd 050a e03d
00000020: ef99 033c 15a8 66bd 3aa1 03be 0f28 b8bb
00000030: 463f d7bd b848 dcbc 19ff e0bc 000e bf3d
00000040: 42e7 d3bd a267 d23c d903 5bbc 1b71 d53d
00000050: 31d2 3abd 6510 933d 0800 a3bd f029 de3c
00000060: ca15 d53c 9dc1 ecbb 56dc 013d 9d03 debc
00000070: a3f6 d3bd 8f6c d13c

Fc.0.bias f4 [5]
-0.0047978824 0.0045930874 -0.004469008 -0.004291431 0.0015047039
00000000: 8e37 9dbb 9c81 963b c270 92bb 229f 8cbb
00000010: 7c39 c53a

Fh.0.weight f4 [1, 6]
-0.07259233 -0.017964732 0.004422148 -0.06269655 0.080741875 0.07358716
00000000: 4aab 94bd c62a 93bc abe7 903b 0c67 80bd
00000010: ff5b a53d ddb4 963d

Gc.0.weight f4 [5, 6]
0.011095403 0.0062342207 -0.0773378 0.05874749 -0.19595565 -0.051240526 0.057998847 0.04191792
0.09438191 0.046045106 -0.14606088 0.20305845 0.008742659 -0.011977107 -0.005091963 0.1374119
-0.024672352 -0.050799772 -0.2932572 -0.15548398 0.09832528 -0.02982215 -0.078113206 0.17370038
0.02982137 0.09217777 0.14952506 -0.009765339 -0.06734341 -0.010531565
00000000: 7ec9 353c 6f48 cc3b 4863 9ebd 35a1 703d
00000010: 99a8 48be 96e1 51bd 3390 6d3d 20b2 2b3d
00000020: 4e4b c13d cb99 3c3d fc90 15be 8eee 4f3e
00000030: 5f3d 0f3c a13b 44bc 7bda a6bb b5b5 0c3e
00000040: ac1d cabc 6c13 50bd cf25 96be 3137 1fbe
00000050: c45e c93d 954d f4bc d1f9 9fbd 83de 313e
00000060: f24b f43c b3c7 bc3d 191d 193e cdfe 1fbc
00000070: 57eb 89bd 968c 2cbc

Gc.0.bias f4 [5]
0.004737488 -0.00046445715 0.0043808934 0.003680692 0.0036214052
00000000: ee3c 9b3b 6282 f3b9 998d 8f3b c437 713b
00000010: 1955 6d3b

Gh.0.weight f4 [1, 6]
-0.09305875 -0.0512779 0.024539204 0.050248824 0.0071742036 -3.156002e-05
00000000: 9695 bebd c608 52bd 7106 c93c b6d1 4d3d
00000010: 9515 eb3b 505f 04b8

Z.0.weight f4 [5, 6]
-0.0062368587 0.062382217 -0.012534802 0.1236097 -0.017212471 -0.009222357 0.060477003 0.04779509
0.01037698 0.19059691 0.04273821 0.0077528143 -0.10562396 0.07715055 0.03129776 -0.21031655
0.05303085 -0.057887133 -0.084459834 -0.09486294 -0.06343111 0.019399064 -0.01632585 -0.11124037
-0.026829304 0.09867023 -0.11227348 0.082874194 0.006937854 0.037732907
00000000: 905e ccbb 7f84 7f3d c55e 4dbc 1527 fd3d
00000010: 2b01 8dbc 5e19 17bc bcb6 773d c9c4 433d
00000020: 3504 2a3c d62b 433e 430e 2f3d 520b fe3b
00000030: 6051 d8bd 1c01 9e3d 1432 003d 395d 57be
00000040: e036 593d 0f1b 6dbd 47f9 acbd 8047 c2bd
00000050: 2be8 81bd c9ea 9e3c cabd 85bc fed1 e3bd
00000060: 21c9 dbbc 9e13 ca3d a3ef e5bd f2b9 a93d
00000070: f056 e33b d28d 1a3d

Z.0.bias f4 [5]
-0.0046734605 0.0044484297 -0.0043200925 0.00435897 -0.004545729
00000000: d423 99bb 22c4 913b 908f 8dbb b1d5 8e3b
00000010: 57f4 94bb

L.0.weight f4 [1, 6]
-0.13898346 0.17379563 -0.021794407 -0.008422981 -0.08543457 -0.12704226
00000000: ae51 0ebe 7bf7 313e 2f8a b2bc 8b00 0abc
00000010: 52f8 aebd 5e17 02be

A.0.weight f4 [1, 2]
0.018682664 -0.0074953195
00000000: 630c 993c 4c9b f5bb

u0p f4 [1, 5]
-0.29505035 -1.0806158 -0.88067067 0.8274222 -0.14703526
00000000: d710 97be 9e51 8abf a273 61bf f1d1 533f
00000010: 6990 16be
