workspace/point_processes/dataset:poisson-pid:5433/params.pth (torch_old, 5419 bytes, 17 tensors)

F.linears.0.weight f4 [20, 5]
0	0x3d4c23c5	0.0498388
1	0x3d9310b3	0.071809195
2	0xbe6b8199	-0.22998656
3	0x3d3efbe9	0.04662696
4	0xbdb9677f	-0.090529434
5	0x3ce66dbe	0.028128501
6	0xbd8f956e	-0.07010923
7	0x3d9a67bb	0.07539316
8	0xbdfd1812	-0.12358107
9	0x3e031a03	0.12802891
10	0x3bc5d6f5	0.0060375878
11	0x3db60611	0.08887876
12	0x3e0eb0ab	0.13934581
13	0x3e01981f	0.12655686
14	0xbde55f38	-0.11199802
15	0x3e70a4d8	0.23500383
16	0x3ded79b9	0.115954824
17	0xbb929368	-0.0044731386
18	0xbda900b8	-0.0825209
19	0xba698199	-0.0008907556
20	0xbd0a841f	-0.033817407
21	0xbd5765aa	-0.05258719
22	0xbde3e9ad	-0.111285545
23	0xbd7abe5d	-0.0612167
24	0xba009a4a	-0.00049058034
25	0xbe1bf402	-0.152298
26	0xbd92fdcd	-0.07177315
27	0xbd404867	-0.04694405
28	0xbdf679cf	-0.12034952
29	0xbd3917f2	-0.04518885
30	0x3e063f01	0.13109972
31	0x38bd5745	9.0284775e-05
32	0xbde870c3	-0.113496326
33	0x3d5898c3	0.05288006
34	0x3cfc324e	0.030785706
35	0x3e051ff1	0.13000466
36	0xbd133c70	-0.03594631
37	0xbd4e3b8d	-0.05034976
38	0xbe8a4e9f	-0.27013108
39	0xbe17c928	-0.14822829
40	0xbc2d1d0d	-0.010566008
41	0x3be23899	0.0069037196
42	0xbd8cf1c7	-0.06882053
43	0x3e423809	0.18966688
44	0x3d47f78e	0.04882007
45	0x3de28d5d	0.11062119
46	0x3e17cbf3	0.14823894
47	0xbbd096e3	-0.0063656433
48	0xbdfccb5d	-0.12343476
49	0xbda0c274	-0.07849589
50	0x3e41ad72	0.1891382
51	0xbdb3aa40	-0.08772707
52	0xbcb23d72	-0.021757815
53	0x3cfe0eb9	0.03101288
54	0x3df7e1b3	0.121035956
55	0x3d429f5b	0.047515254
56	0xbe2b5493	-0.16731481
57	0xbdf9e44c	-0.12201747
58	0xbe4f7313	-0.20258741
59	0x3e02c196	0.1276916
60	0xbc6c2395	-0.01441278
61	0xbe2c1a44	-0.16806895
62	0xbacfcb24	-0.0015853387
63	0xbd5e4981	-0.054269318
64	0xbc886bcb	-0.016652962
65	0x3e1356af	0.14388536
66	0xbbc805db	-0.0061042137
67	0x3c8861be	0.01664817
68	0x3d9821f2	0.074283496
69	0x3d5ae94d	0.05344515
70	0x3bfb39bd	0.007666795
71	0x3b37b6d3	0.0028032556
72	0x3afc7071	0.0019259584
73	0xbc6bc24c	-0.014389586
74	0xbe109767	-0.14120255
75	0x3cf4bac0	0.029874206
76	0x3debf5fc	0.11521527
77	0x3e2e0d93	0.16997366
78	0xbe8dc7dc	-0.27691543
79	0xbd8551e1	-0.06509758
80	0xbc1dab9b	-0.009623433
81	0x3e25254a	0.16127506
82	0xbd80001e	-0.06250022
83	0x3c0263d4	0.007958371
84	0xbdc5ba95	-0.09654728
85	0xbd5c5ae8	-0.053797632
86	0xbe50a81b	-0.20376627
87	0xbd3df195	-0.04637297
88	0x3cc0102f	0.023445217
89	0x3d968cb3	0.07351055
90	0x3db3df8f	0.08782875
91	0xb7cc32b0	-2.4342298e-05
92	0xbe2f5f13	-0.17126112
93	0xbe356178	-0.17712963
94	0x3d323731	0.043509666
95	0x3da6cc35	0.08144418
96	0x3e125d7c	0.14293474
97	0xbd7f8ce5	-0.062390227
98	0x3db6308b	0.088959776
99	0xbd6652ac	-0.056231186

F.linears.0.bias f4 [20]
0	0xbddcb2ea	-0.10776313
1	0xbcd46aee	-0.025929894
2	0x3d5067ee	0.050880365
3	0xbc45e7ec	-0.01207922
4	0x3d58ba15	0.052911837
5	0xbc87bea2	-0.016570393
6	0xbd99bd84	-0.0750685
7	0x3be901a0	0.0071107894
8	0x3d07200a	0.03298954
9	0x3d57b49e	0.052662484
10	0x3ca6bf84	0.020354994
11	0xbda91a55	-0.082569756
12	0xbd0e5196	-0.034745775
13	0x3d8422f8	0.06451982
14	0xbd70ceec	-0.058791086
15	0x3be65ab7	0.007029857
16	0x3db34139	0.087526746
17	0xbcad30fd	-0.021141523
18	0x3cf32364	0.029679962
19	0x3d8f3f1d	0.0699446

F.linears.1.weight f4 [3, 20]
0	0xbe073072	-0.13202074
1	0x3c0a317e	0.008434651
2	0xbbe5c371	-0.007011824
3	0xbd06de94	-0.03292711
4	0x3df1477e	0.11781214
5	0x3e5d55bd	0.21614738
6	0x3db68800	0.08912659
7	0x3ca15618	0.019694373
8	0xbd92a2a2	-0.07159926
9	0xbe119067	-0.14215241
10	0x3dbd0673	0.09229746
11	0x3ca64e34	0.020300962
12	0x3d007802	0.03136445
13	0xbd060081	-0.032715324
14	0xbe65436b	-0.22388999
15	0x3e0ef76a	0.13961568
16	0x3caf72be	0.021417018
17	0x3d661615	0.056173403
18	0x3ec63219	0.38710096
19	0xbd2cba19	-0.042169664
20	0x3d53f107	0.051743533
21	0x3ccb8348	0.024842873
22	0xbdabac9c	-0.08382532
23	0xbde2bca8	-0.110711396
24	0xbdedb81d	-0.116073824
25	0x3e61c8b0	0.22049212
26	0xbdcc88bd	-0.09987018
27	0xbe6309bc	-0.22171682
28	0xbe3dec42	-0.18547156
29	0x3d92c4d7	0.071664505
30	0xbdacb50d	-0.0843297
31	0x3e6b915b	0.23004667
32	0xbe06aeb4	-0.13152581
33	0x3cf7732f	0.030206291
34	0x3e30856f	0.17238401
35	0x3da06dee	0.078334674
36	0x3df35316	0.11881082
37	0x3d0f558c	0.034993693
38	0x3e3d98dc	0.18515342
39	0x3d211418	0.039325804
40	0xbe11f360	-0.14252996
41	0x3da14240	0.07873964
42	0x3d22dae2	0.039759524
43	0x3de527e3	0.111892484
44	0x3d5071c1	0.050889734
45	0xbe0f0654	-0.13967258
46	0xbd00d3a7	-0.031451847
47	0xbdeef2c9	-0.11667401
48	0xbe2e66ae	-0.17031357
49	0x3d875392	0.06607737
50	0x3dbc6467	0.09198838
51	0x3dc25e7d	0.094906785
52	0xbe53f404	-0.20698553
53	0x3e7b0a3f	0.24515627
54	0xbe0759d7	-0.13217865
55	0xbcc85ffc	-0.024459831
56	0x3e39b8e1	0.18136932
57	0x3dea9ba6	0.11455469
58	0x3ec60646	0.3867666
59	0x3e0e17fb	0.13876335

F.linears.1.bias f4 [3]
0	0x3d5fa311	0.05459887
1	0x3d3ce49a	0.04611645
2	0x3cccf31f	0.025018273

G.0.linears.0.weight f4 [20, 3]
0	0xbda0d04c	-0.078522295
1	0xbe0d1d53	-0.13780718
2	0x3e568d6e	0.20952389
3	0x3d40927f	0.04701471
4	0x3d8592b8	0.06522125
5	0x3c9ff2f8	0.019525036
6	0x3d94a972	0.07258882
7	0x3d3febd4	0.046855763
8	0xbdf2de6f	-0.11858832
9	0x3e032cd0	0.12810063
10	0xbdf221d6	-0.1182286
11	0x3cdacfad	0.026710356
12	0x3ceecae2	0.029149476
13	0x3e125e4e	0.14293787
14	0x3e221ec9	0.15832056
15	0x3d35536d	0.044269014
16	0xbe5fa71b	-0.2184109
17	0x3dbe333e	0.092871174
18	0x3d04c001	0.03240967
19	0xbd19e10e	-0.037568145
20	0xbd38cef5	-0.045119245
21	0x3e2c7209	0.16840376
22	0xbc9b60eb	-0.018967113
23	0x3dd06746	0.10175948
24	0xbd96f577	-0.073710375
25	0x3d7b24c4	0.06131436
26	0x3d0222ae	0.031771354
27	0xbb872469	-0.0041242135
28	0xbb8711bf	-0.0041219885
29	0xbc447e68	-0.011993028
30	0x3d4dd0b8	0.050247878
31	0xbde68848	-0.11256462
32	0x3eb07167	0.3446152
33	0xbbeefb6f	-0.007293157
34	0x3d16a5b4	0.03677912
35	0xbcbc2311	-0.02296594
36	0x3be88333	0.0070957183
37	0x3e5f2b69	0.21793903
38	0xbe2b978f	-0.16757034
39	0xbdea7a4c	-0.114491075
40	0x3de643c4	0.11243394
41	0x3d62a7aa	0.05533568
42	0x3e47dcdf	0.1951785
43	0xbe67b460	-0.22627401
44	0x3e0b3ed4	0.13598186
45	0x3cb50027	0.0220948
46	0x3d6719b3	0.056420993
47	0x3e013093	0.12616186
48	0x3d8bb9b4	0.068225294
49	0x3d97faf4	0.074209124
50	0xbd814665	-0.06312255
51	0x3b593d26	0.003314802
52	0xbd955bab	-0.07292875
53	0x3c86e315	0.016465703
54	0xbb1befbd	-0.0023794018
55	0x3d7e8002	0.062133797
56	0x3cc622cb	0.024186512
57	0x3aec67ce	0.0018036307
58	0xbe4c6857	-0.19961677
59	0xbe05356f	-0.13008665

G.0.linears.0.bias f4 [20]
0	0xbd4756e1	-0.04866684
1	0x3d45e932	0.048318096
2	0xbcfbce63	-0.030738061
3	0x3dc58085	0.09643654
4	0xbda48f8b	-0.08035191
5	0xbcaed56a	-0.021341998
6	0xbd88fc64	-0.06688765
7	0x3dc52dee	0.09627901
8	0xbd88cdb9	-0.066798635
9	0xbd826c88	-0.06368357
10	0x3d73e0ee	0.05954068
11	0xbd6957f1	-0.056968633
12	0xbd4c4f64	-0.0498804
13	0x39df48da	0.00042588153
14	0x3d4f6de9	0.050641928
15	0xbd8744bb	-0.06604906
16	0x3d15d549	0.036580358
17	0x3bccadd1	0.0062463065
18	0x3d883c11	0.06652082
19	0x3dcbfe9c	0.09960672

G.0.linears.1.weight f4 [2, 20]
0	0xbd958864	-0.07301405
1	0x3cb77c2c	0.022398077
2	0x3e4361d7	0.19080292
3	0xbe42b379	-0.19013776
4	0x3d7bafc7	0.06144693
5	0xbe878ca1	-0.2647448
6	0x3cee184a	0.029064316
7	0xbd959f08	-0.073057234
8	0x3de7dea9	0.11321766
9	0x3e05de69	0.13073124
10	0xbe1d7cc2	-0.15379623
11	0x3d4b95f5	0.049703557
12	0x3d64b86b	0.055839937
13	0xbaaffe46	-0.001342722
14	0xbe1bc062	-0.15210107
15	0xbccd5821	-0.025066437
16	0x3d1ed67a	0.03877876
17	0xbdcd2006	-0.100158736
18	0xbde89e4d	-0.113583185
19	0xbd27625c	-0.040865287
20	0x3e0ca966	0.13736495
21	0x3b2bba51	0.0026203583
22	0xbd138e73	-0.036024522
23	0x3e426714	0.18984634
24	0xbe070db5	-0.13188823
25	0x3ef1c0d9	0.47217444
26	0xbd0d2b82	-0.03446532
27	0x3e1024e5	0.14076574
28	0xbd61e955	-0.055154163
29	0x3d9a3105	0.07528881
30	0x3e6d998d	0.23203106
31	0xbd1953dd	-0.037433494
32	0xbdf72303	-0.12067225
33	0xbdb5c384	-0.08875182
34	0x3e11bd6d	0.14232416
35	0xbd807c84	-0.062737495
36	0xbcd22296	-0.025651257
37	0x3d3e0557	0.04639181
38	0xbc08bf3d	-0.008346376
39	0x3d5d19b4	0.05397959

G.0.linears.1.bias f4 [2]
0	0xbdaa4545	-0.08313993
1	0x3ce020ac	0.02735933

W.linears.0.weight f4 [20, 4]
0	0xbe04d0fb	-0.12970345
1	0xbe4427b3	-0.19155769
2	0xbe0d9efe	-0.13830182
3	0xbde77885	-0.11302284
4	0xbe90d8e1	-0.28290465
5	0xbde0d95d	-0.10978959
6	0x3d48b67a	0.04900215
7	0xbe05228d	-0.13001461
8	0x3dbcc349	0.09216935
9	0x3de55194	0.111972004
10	0x3d00a919	0.031411264
11	0x3e50feb6	0.20409665
12	0xbe498259	-0.1967863
13	0x3d0e144a	0.034687318
14	0xbe32b47c	-0.17451662
15	0x3d917405	0.07102207
16	0xbd8f0246	-0.069828555
17	0x3d843d8e	0.06457053
18	0xbd076186	-0.03305199
19	0xbcbf0029	-0.023315506
20	0xbd8ec3be	-0.069709286
21	0xbca2aeb9	-0.019858705
22	0xbe18ebe5	-0.14933737
23	0x3c034b67	0.008013583
24	0x3df395d7	0.11893814
25	0xbd8c4996	-0.06849973
26	0x3c3d1ded	0.011542779
27	0xbdcaa20e	-0.09894191
28	0xbdd548bc	-0.104142636
29	0x3dda17b9	0.10649056
30	0xbdd76a28	-0.105182946
31	0xbdb4f293	-0.0883533
32	0xbe274f27	-0.16338788
33	0xbd0cb189	-0.034349
34	0x3cdbfb86	0.026853334
35	0x3e18136b	0.14851157
36	0x3da77517	0.0817663
37	0x3da9ebca	0.08296926
38	0xbddfdebe	-0.109311566
39	0x3c4b9d84	0.012427691
40	0xbd3b3824	-0.045707837
41	0x3de76d59	0.11300153
42	0xbdf477b9	-0.11936898
43	0x3a69a57b	0.0008912903
44	0xbddbd8cf	-0.10734712
45	0x3d92d96c	0.07170376
46	0xbe2c9d7d	-0.16856952
47	0xbd5836d2	-0.052786656
48	0x3ea23e6c	0.3168825
49	0xbdf82c3a	-0.121178105
50	0xbdec81e5	-0.11548213
51	0xbdadc0dc	-0.08484051
52	0x3d0d501c	0.034500226
53	0x3dfe16e8	0.12406713
54	0x3c9add4f	0.018904356
55	0xbe15c25f	-0.14624928
56	0xbd4611ab	-0.048356693
57	0xbcb508c9	-0.022098916
58	0xbc2157f1	-0.009847627
59	0xbdad05b6	-0.08448355
60	0xbcc3da2e	-0.023907747
61	0xbb7ec785	-0.0038876247
62	0x3e146041	0.14489843
63	0x3d88ff26	0.06689291
64	0xbdc423f4	-0.0957717
65	0x3cb256db	0.021769932
66	0xbd34463e	-0.0440123
67	0x3e514116	0.20434985
68	0xbe2dcc3b	-0.16972439
69	0x3e010153	0.12598161
70	0xbde8ad26	-0.113611504
71	0xbdb52910	-0.08845723
72	0xbd922d00	-0.07137489
73	0xbcdf6df2	-0.027274106
74	0x3d35e7a9	0.04441038
75	0xbe04ebce	-0.12980577
76	0xbe2961ca	-0.1654121
77	0xbe3fe4e5	-0.1873966
78	0x3e4e0d0c	0.20122164
79	0xbd728d8d	-0.059217025

W.linears.0.bias f4 [20]
0	0xbe10b4b2	-0.1413143
1	0xbd78e029	-0.06076065
2	0x3db463b3	0.088080786
3	0x3d392599	0.04520187
4	0x3df31886	0.11869912
5	0x3c290e3c	0.010318335
6	0x3e0ba1f3	0.13635997
7	0x3da88fcd	0.08230553
8	0x3cf4bb6a	0.029874522
9	0x3d10c24c	0.035341546
10	0xbdf248d0	-0.11830294
11	0xbdc7b0ca	-0.09750517
12	0xbcc27ab7	-0.023740156
13	0xbdcd4f1e	-0.10024856
14	0x3b6c9ac5	0.0036102992
15	0x3da83a72	0.082142726
16	0xbce2976d	-0.027660096
17	0xbd701629	-0.058614884
18	0x3d439b12	0.04775531
19	0x3cbfe35d	0.023423845

W.linears.1.weight f4 [2, 20]
0	0x3c9ccf3b	0.019141784
1	0x3c889c00	0.01667595
2	0xbd5a708e	-0.053329997
3	0x3e0cd796	0.13754115
4	0x3e04a760	0.12954473
5	0x3dd8f3c4	0.105933696
6	0xbc3f1051	-0.011661605
7	0x3e5c1b36	0.21494755
8	0xbd082388	-0.03323701
9	0x3da2a151	0.07940925
10	0xbdd1d9cb	-0.10246619
11	0x3dd594b0	0.104287505
12	0xbcab92c0	-0.020944
13	0x3cb838f9	0.022488104
14	0x3b458c99	0.0030143617
15	0xbcb00340	-0.021485925
16	0x3b59cdcf	0.0033234244
17	0x3e069c85	0.13145645
18	0xbdfa7379	-0.12229056
19	0xbe9d57de	-0.307311
20	0xbdd8440b	-0.10559853
21	0xbdbfb2ab	-0.0936025
22	0x3e7c0f46	0.24615201
23	0xbab97162	-0.0014148171
24	0x3dc38f2b	0.095487915
25	0xbd00a05c	-0.03140293
26	0x3de5385b	0.111923896
27	0x3ba4d2a9	0.0050299955
28	0xbbd31b80	-0.0064424872
29	0x3db5d29f	0.088780634
30	0xbe167ef5	-0.14696868
31	0xbd5a3cda	-0.05328069
32	0x3ded3b9c	0.11583635
33	0xbd6be9b4	-0.057595924
34	0xbe0e5fe1	-0.13903762
35	0x3e13b8cd	0.14425965
36	0xbb9bde79	-0.0047567454
37	0xbdf99bed	-0.121879436
38	0xbe848c79	-0.25888422
39	0xbdaf2a2c	-0.085529655

W.linears.1.bias f4 [2]
0	0x3dd1c040	0.10241747
1	0x3dedc6af	0.116101615

L.0.linears.0.weight f4 [20, 5]
0	0xbddbc42f	-0.107307784
1	0x3e0d3cc1	0.13792707
2	0xbe1036e3	-0.14083438
3	0xbcae1512	-0.021250281
4	0xbc411c0d	-0.011786473
5	0xbe08fdb4	-0.1337803
6	0x3d2aa382	0.04165984
7	0xbd4ede89	-0.050505195
8	0xbd3184b2	-0.04333944
9	0xbd0e5aad	-0.034754444
10	0x3e1d5d73	0.1536768
11	0xbc82939b	-0.015939524
12	0x3e2ef48c	0.17085475
13	0xbd7903ba	-0.06079457
14	0x3d90aad1	0.07063831
15	0xbd58bc8a	-0.05291418
16	0x3e3fc569	0.1872765
17	0xbe66b14a	-0.22528568
18	0xbda2b453	-0.0794455
19	0xbd3d08fc	-0.046151146
20	0xbdcafdd9	-0.09911699
21	0x3c92d69a	0.017924596
22	0x3cc66bfe	0.024221417
23	0xbe412243	-0.18860726
24	0xbd65263e	-0.055944674
25	0xbc983d52	-0.018583927
26	0xbe76a3c6	-0.24085912
27	0x3c89d999	0.016827391
28	0xbc08770e	-0.008329166
29	0xbe5669fa	-0.20938864
30	0x3e0d0d83	0.13774686
31	0xbe3657ac	-0.17806882
32	0x3e124954	0.14285785
33	0x3bc11d2d	0.0058933706
34	0x3daeb2c7	0.08530193
35	0xbd280026	-0.041015767
36	0xbd17cb8c	-0.03705935
37	0x3e0c841e	0.13722274
38	0xbcf33b7d	-0.029691452
39	0x3d6b8dfc	0.057508454
40	0x3df19c02	0.11797334
41	0x3e194945	0.14969356
42	0x3d9545ce	0.07288705
43	0x3e02c1db	0.12769262
44	0x3cf484b9	0.029848443
45	0x3e0707e7	0.13186608
46	0xbc60b774	-0.013715614
47	0x3e93bb56	0.28853863
48	0x3e3c5d84	0.18395048
49	0x3de15a13	0.110035084
50	0x3e28df11	0.16491343
51	0xbdd56ae6	-0.1042078
52	0xbcb1f0dc	-0.021721296
53	0xbd17af5e	-0.037032478
54	0xbd24c9cd	-0.040231515
55	0x3d47658f	0.04868084
56	0xbe2ecd13	-0.17070417
57	0x3e5fba73	0.21848468
58	0x3d9e9adc	0.07744381
59	0x3e280d39	0.16411294
60	0x3dc42c90	0.09578812
61	0xbdac4822	-0.08412196
62	0x3dacdb2a	0.0844024
63	0x3dc434ea	0.09580405
64	0x3dd84e88	0.10561854
65	0xbd089072	-0.03334088
66	0x3e0a5268	0.13507998
67	0xbea7183e	-0.32635683
68	0xbd27e9e7	-0.04099455
69	0xbda411aa	-0.08011182
70	0xbda9930a	-0.082799986
71	0xbd549192	-0.05189664
72	0xbe13faa7	-0.14451085
73	0xbda55202	-0.080722824
74	0xbcfd9867	-0.03095646
75	0x3daed46d	0.08536611
76	0x39302063	0.00016796733
77	0xbc198e73	-0.009372341
78	0x397dd368	0.00024206715
79	0x3d18fd2b	0.037350815
80	0x3e33868d	0.17531796
81	0x3d75077a	0.059821583
82	0x3d90b4ca	0.07065733
83	0x3dd2c91c	0.10292265
84	0x3d122358	0.035678238
85	0xbd348bfc	-0.044078812
86	0xbca97294	-0.020684518
87	0x3e034f9d	0.12823339
88	0x3d235c5f	0.039883014
89	0x3dc8ff86	0.09814362
90	0xbd672d15	-0.056439478
91	0x3dcfd67f	0.10148334
92	0xbdca917c	-0.0989103
93	0x3c0097c1	0.007848681
94	0xbe6344be	-0.22194192
95	0xbd4d137f	-0.05006742
96	0xbddc72a0	-0.107640505
97	0xbe976cb9	-0.29575136
98	0x3da20bdf	0.079124205
99	0xbdf4764c	-0.11936626

L.0.linears.0.bias f4 [20]
0	0x3cd10501	0.025515081
1	0xbdf75e80	-0.12078571
2	0x3d99922b	0.074985825
3	0xbcbf8db7	-0.023383005
4	0xbe25c05f	-0.16186665
5	0xbc8f7787	-0.01751305
6	0x3deffced	0.11718164
7	0x3e1dcf50	0.15411115
8	0xbc2c444b	-0.010514329
9	0x3b9cf12c	0.004789492
10	0x3e096d9c	0.13420719
11	0x3dffffcd	0.12499962
12	0xbc5b25fb	-0.0133757545
13	0xbe2783bb	-0.16358845
14	0xbe43e446	-0.19130048
15	0xbcd869c8	-0.026417628
16	0x3d3a173c	0.045432314
17	0x3e2a32ac	0.16620892
18	0xbdc961c8	-0.098331034
19	0xbcda43f4	-0.02664373

L.0.linears.1.weight f4 [1, 20]
0	0x3e857de7	0.26072618
1	0x3e8bd0b4	0.27307665
2	0xbe115c78	-0.1419543
3	0x3e4bbb4f	0.19895671
4	0x3e5df95c	0.21677154
5	0xbc9ce153	-0.019150412
6	0xbe0fa68d	-0.14028378
7	0xbe2d34e9	-0.16914715
8	0xbd8740c0	-0.06604147
9	0xbdbc684a	-0.09199579
10	0xbe086cc5	-0.13322742
11	0xbe381244	-0.17975718
12	0xbe4f6f3c	-0.20257276
13	0x3ddead31	0.108728774
14	0x3de2fc1f	0.110832445
15	0xbc820107	-0.01586963
16	0xbe2b648a	-0.16737571
17	0xbeac36e0	-0.33635616
18	0x3e63849e	0.22218558
19	0x3e77525e	0.24152514

c0 f4 [3]
0	0x3ff46e9f	1.9096259
1	0xbfb656d7	-1.4245251
2	0x3fc4c03e	1.5371168

h0 f4 [2]
0	0x00000000	0.0
1	0x00000000	0.0
