self_inhibiting/params.pth (torch_old, 11970 bytes, 22 tensors)

F.cur.0.linears.0.weight f4 [20, 5]
000000 78 15 2d bd f5 63 00 3e 43 01 e1 3d 3a d7 b7 3d
       -0.042256802 0.1253813 0.10986569 0.08976598
000010 44 f8 f8 3d d9 e0 9a 3d 51 06 81 bd 67 95 cd bd
       0.12156728 0.075624175 -0.06300033 -0.10038262
000020 5d 31 95 3d 91 fa 71 bc b4 13 7b 3a a6 16 ac 39
       0.07284806 -0.014769212 0.0009577826 0.0003282327
000030 cd 14 97 3b c4 30 5c 3e 10 c3 32 bd af 98 3c 3d
       0.004610634 0.21502978 -0.043643057 0.046044048
000040 d6 3a 56 3d cc 38 b8 3d b2 b5 1c be 20 77 bb bd
       0.052302204 0.08995208 -0.15303686 -0.09153581
000050 12 c7 d8 3c de e4 2b 3c 07 3c 8d 3d 99 ce ba 3c
       0.026462112 0.010491578 0.06896215 0.022803592
000060 39 1f cd 3d d0 b3 2d bd 4a 23 dd 3d 8f fc 9b 3d
       0.10015721 -0.04240781 0.107977465 0.07616531
000070 2d 4a 40 3c 60 16 a2 bd a1 93 d8 bc 03 95 19 be
       0.011736435 -0.07914424 -0.026437582 -0.1499825
000080 96 20 a3 bd 91 27 0d 3d c7 a1 fa 3d 38 a9 38 be
       -0.079652 0.03446156 0.12237888 -0.18033302
000090 8c 59 c0 bd af d3 07 3c b9 a6 cf bd da cb 08 be
       -0.0939208 0.008290215 -0.10139222 -0.13359013
0000a0 db 98 36 3d a9 bd a5 3c 9b 58 28 3d f0 0d 08 be
       0.044579368 0.020232039 0.041100126 -0.13286567
0000b0 97 aa c4 3b 5e 67 45 3c e3 82 06 bd 2e c3 b7 be
       0.006001781 0.01204857 -0.032839667 -0.35891098
0000c0 83 46 80 3e 50 8d 26 3e 95 57 6a 3c bc 69 b5 3d
       0.25053796 0.16264844 0.014303108 0.08858058
0000d0 2c 66 73 bc 17 5c 8d bc 5d ac 2b 3c 68 6b 35 3e
       -0.014855903 -0.017255826 0.010478106 0.17716753
0000e0 ae db c4 3d 64 24 63 bd d5 3b 21 bd fc 3d 83 3b
       0.09612213 -0.055454627 -0.0393637 0.004005192
0000f0 f6 f6 39 bc d9 6b 6c 3e 02 32 13 3e f2 8e 81 bb
       -0.011350384 0.23088016 0.14374545 -0.003953808
000100 38 33 73 3d e2 57 5a 3b 90 5f 86 bd f5 d1 74 3d
       0.059375018 0.0033316542 -0.06561196 0.059770543
000110 39 3c 52 bc 57 d4 b1 bd c8 0f b7 3d 2b 7b 65 bd
       -0.012831741 -0.08683079 0.08938557 -0.056025665
000120 39 32 eb bc f9 66 b5 3d 2c 25 23 be 74 4c 07 bd
       -0.028710471 0.08857531 -0.15932149 -0.033031896
000130 46 e8 b2 bd 4f c1 1c bd ba 5a 2d bd 4f c4 df bc
       -0.08735709 -0.03827029 -0.04232285 -0.027315287
000140 66 3a 9b 3d 68 0b 92 be 9a ca 9e 3d 94 8a 61 bc
       0.07579498 -0.28524327 0.07753487 -0.01376595
000150 25 ae 6c 3d b6 94 7f bd f0 64 f0 3c 26 36 59 bd
       0.057783265 -0.06239768 0.029345006 -0.053030156
000160 61 f3 18 3d 6f 4e 2c 3e 58 15 8c 3d 1a b3 b2 bc
       0.03734148 0.16826795 0.068400085 -0.021813918
000170 15 fe e6 3c 6e 80 9d 3d f4 12 0d be 28 70 bd 3d
       0.028197328 0.07690512 -0.13776761 0.09249908
000180 25 03 16 3d 75 74 25 3e f4 c0 77 3d 16 9a 33 3e
       0.036624093 0.16157706 0.06048675 0.17539248

F.cur.0.linears.0.bias f4 [20]
000000 e4 63 57 bd 2e 26 83 3b c5 d9 3b bd 41 25 1f 3d
       -0.052585497 0.004002354 -0.045861978 0.038853887
000010 25 d6 40 3d 8c f0 3c bd 29 2d 49 bc 29 d2 33 bd
       0.047079224 -0.04612784 -0.012278833 -0.043901596
000020 d6 f4 2e bd 1e 18 94 3d 64 02 de 3c 2c 1f 1e 3d
       -0.042713962 0.072311625 0.02710075 0.038603947
000030 2f 5c 3b bd 41 e6 af bc e5 82 57 bd cd af 43 bd
       -0.04574221 -0.021472098 -0.052615065 -0.04777508
000040 31 ae aa bd 02 9e 52 bc ff 57 5b 3d 30 51 71 3d
       -0.083340056 -0.012855055 0.053550716 0.058915317

F.cur.0.linears.1.weight f4 [20, 20]
000000 19 59 10 be 19 e7 5f 3e 84 f1 b1 bd b7 5b 04 3e
       -0.14096488 0.218655 -0.086886436 0.12925611
000010 72 69 6b bd 4d cb 56 3d 24 2c 40 3e f6 f1 6d bd
       -0.057473607 0.052439976 0.18766838 -0.05809208
000020 fc 80 1e bd 60 74 31 bc e5 91 1f 3d e7 77 ac bd
       -0.038697228 -0.010830969 0.038957495 -0.08421307
000030 ff 6b a2 3d 7b 42 07 bd b6 2a 8c 3b d0 4f be 3b
       0.07930755 -0.033022385 0.0042775525 0.0058078542
000040 9d 00 9f 3d 08 fa c0 3d f5 dd 1a be 75 d4 45 be
       0.07763789 0.0942269 -0.15123732 -0.19319327
000050 9b ad 59 3b 56 79 a1 3d 5c da 18 be da f0 80 3d
       0.003321505 0.07884471 -0.14927047 0.06295939
000060 a8 7a 23 bd 95 42 36 3e 13 6a 86 3d 02 7b 83 3d
       -0.039911896 0.17798837 0.06563201 0.06419946
000070 5e b7 ed bd 2c 2a e2 bd e8 97 99 3d 44 99 d3 3c
       -0.1160724 -0.110432 0.07499677 0.025829919
000080 5f 6b b4 3d 47 c7 b3 3d 3f 11 d5 bd b0 60 1f bd
       0.08809542 0.087782435 -0.1040368 -0.038910568
000090 5c 1b 27 3a c2 f6 06 be 88 92 fc 3d 4b bb 1c bd
       0.00063746213 -0.13180068 0.12332636 -0.038264554
0000a0 3f d3 1b be 93 09 9d 3d 8a 0a f9 bd 39 51 4d bc
       -0.15217303 0.07667842 -0.12160213 -0.012531572
0000b0 11 75 3c 3e 33 4b 8b be 20 78 d7 3c 08 fb 0a bd
       0.18404032 -0.2720581 0.026302397 -0.03393081
0000c0 2c ac 7f 3d 54 79 13 3e 6c 98 0a 3e e5 53 15 be
       0.062420055 0.14401752 0.13534707 -0.14582784
0000d0 f2 1f 9b bd 1b 2e cf bd 4e 52 1f 3d e8 04 56 3d
       -0.075744525 -0.10116216 0.03889685 0.052250773
0000e0 ba ae a0 3b 10 01 3c 3d a5 2a 63 bc d6 c9 30 3e
       0.0049036415 0.04589945 -0.013865148 0.17264494
0000f0 97 6b ed bc 06 71 2b be 1f ec d9 bd cd de a5 bc
       -0.028981967 -0.16742334 -0.1064074 -0.020247841
000100 a9 5b 8c 3d 75 26 f5 bc 69 3d c9 bd 22 90 16 3d
       0.0685342 -0.029925564 -0.09826166 0.03675855
000110 09 31 41 bd c6 0f df bd 3c 21 26 3e 80 d3 63 3d
       -0.047165904 -0.108916804 0.16223615 0.055621624
000120 62 b3 51 be 95 96 9a 3d fb 8d 3a 3d 6b d6 67 bd
       -0.20478585 0.075482525 0.04554556 -0.05660097
000130 8d 53 e5 3c cd b6 a6 bc 19 9b 55 3e 69 58 09 bc
       0.027993942 -0.020350838 0.20859946 -0.008382895
000140 4e 7c fa bc e1 86 ce 3c 5f 06 52 3d af f3 b5 3c
       -0.030576851 0.0252108 0.051275607 0.022210924
000150 0c ae 2c bd 6b ff e1 bd b2 7d 22 3e c4 4c f2 bd
       -0.04215817 -0.11035045 0.15868261 -0.11831048
000160 fb 7e d0 bd 11 c2 8b bb 40 ec f0 bd d6 2a 9b 3d
       -0.101804696 -0.004265078 -0.11763811 0.0757653
000170 ad d1 87 3c 89 d1 f7 3d b2 19 db 3d 08 ae a0 bc
       0.016579473 0.121005125 0.1069826 -0.019614235
000180 49 57 4e be a0 ba aa 3d 7a 17 f0 3d ef 3f 13 3e
       -0.20150484 0.08336377 0.11723228 0.14379857
000190 56 84 37 bc cc 36 16 3e 6d 9e 2c bd 85 60 04 3d
       -0.011200985 0.14669341 -0.042143274 0.03231861
0001a0 5f c4 cc bd d6 e8 31 be c4 be 68 3d 0c f0 aa bc
       -0.09998392 -0.17373976 0.056822553 -0.020866416
0001b0 bf c1 91 bd 26 54 05 3e 99 07 4f 3d 7a af 2c bd
       -0.07117032 0.13020381 0.050544355 -0.042159535
0001c0 32 35 75 3d 58 cb 05 3c c8 39 2f 3e d2 55 6d 3d
       0.059865184 0.008166157 0.17111886 0.057943173
0001d0 23 a7 40 3e b4 a7 34 3d 6a 80 31 be 33 d3 8b bd
       0.18813758 0.044105247 -0.17334142 -0.068273924
0001e0 aa d7 9d bc 91 3f 7a 3d 29 c6 a0 bc fd 5e aa 3c
       -0.019267876 0.061095778 -0.01962574 0.020797247
0001f0 31 0e 6b 3d 1f 78 43 be 4f 49 96 bd 28 74 e7 bc
       0.05738658 -0.19088791 -0.07338201 -0.02825363
000200 31 eb 96 3d 9b f6 8c bc 46 2b 02 bd fe 9c 39 3c
       0.07369078 -0.017207434 -0.03177955 0.011328934
000210 04 8f 55 3d b5 ba c6 3d 70 c3 f8 bd 48 40 12 be
       0.052138343 0.0970358 -0.12146652 -0.14282334
000220 fe e3 01 bd f7 64 31 bd a9 2c a6 3d 9e 9a da 3c
       -0.03171157 -0.04330918 0.08113987 0.026685055
000230 89 38 20 3d b5 fe a5 3e d6 95 dd 3c dd 2b 0c 3e
       0.039116416 0.3242089 0.027048986 0.13688608
000240 3b b3 89 bd 64 f7 8f be 20 b6 8c bd ca 09 1e be
       -0.067236386 -0.28118432 -0.06870675 -0.15433422
000250 bf 6e b4 bd d4 a8 5d 3e e7 cd 94 be 77 9a 1c 3e
       -0.08810186 0.21646434 -0.2906334 0.15293299
000260 79 71 f4 bd 4d b5 c1 bd c6 1b 3d 3e d5 6f 3d bc
       -0.11935706 -0.094584085 0.18467626 -0.011562307
000270 82 88 05 be 14 4a 70 3c a7 0d f8 bd a7 51 99 bd
       -0.13040355 0.014666099 -0.12111979 -0.07486277
000280 4a 8b be bd 6b 31 5e be 0f 9f 03 be 30 fa 3b bd
       -0.09303911 -0.21698539 -0.12853645 -0.045892894
000290 2f 14 7a be e2 68 00 be 1d a6 6a 3d 42 1b bf bd
       -0.24421762 -0.1254001 0.057287324 -0.09331371
0002a0 ad 9b 36 3d 5c b9 0e 3e 5f 3b 45 3c e7 a2 28 3e
       0.044582058 0.13937896 0.012038081 0.16468392
0002b0 33 8d 5c be 1a ef 1a 3c fe 56 2f be de b8 23 3d
       -0.21538238 0.00945642 -0.17123029 0.039971225
0002c0 fa ef fd bd 74 73 69 3d 6b 9f 3e bd 20 d1 35 bd
       -0.123992875 0.05699487 -0.04653875 -0.04438889
0002d0 9c 7e 23 bd e8 9b ad bd d5 2d 01 bd 14 d7 dc 3d
       -0.039915666 -0.084770024 -0.03153785 0.107832104
0002e0 b6 e2 81 3d 82 de ea bd 1b 40 86 bc 4e a2 29 be
       0.0634207 -0.11468221 -0.01638799 -0.1656582
0002f0 0c ce e9 bd b0 b0 87 3d 56 31 97 bd 31 ae b3 bd
       -0.114162534 0.06625497 -0.07382457 -0.08773459
000300 18 33 e8 bd e5 df be 3b 99 c6 53 3d 36 75 34 3e
       -0.1133787 0.00582503 0.05170307 0.17622837
000310 5b 38 77 3c 9e d2 b9 3d 48 d9 0b be 29 9a 99 bc
       0.01508912 0.09073375 -0.13657105 -0.018750267
000320 66 63 73 3c 1b cc 21 3e 10 d8 b0 bd 51 56 c2 3c
       0.014855241 0.15800516 -0.08634961 0.0237228
000330 2e 14 a4 bd d8 d7 18 3d 4e 16 a0 bd 2e d3 e7 3c
       -0.080116615 0.03731522 -0.07816754 0.02829894
000340 60 86 9e 3e 18 32 da bd ae bc ed bd 2a 63 b9 bd
       0.30961895 -0.10654086 -0.116082534 -0.09052117
000350 36 1e a9 3d 16 4c f1 3d e9 5c 64 3d c3 63 a4 bd
       0.082577154 0.1178209 0.05575267 -0.080268405
000360 84 61 b4 3c 67 ed e3 bc 83 ea 47 3c 58 ac 3f bd
       0.022019155 -0.027823163 0.012201908 -0.04679522
000370 e4 0d b4 bd cb 5f 3e bd ce 15 da 3d 2a bc 0e 3d
       -0.08791712 -0.046478074 0.1064869 0.034847416
000380 3e 7c a7 bd 66 21 ee ba 9f 86 01 bb bf 5e 6f 3e
       -0.08177994 -0.0018167912 -0.0019764078 0.23375987
000390 ff f0 ed bd ab e3 11 3e 5f 6c 0b bd 28 23 02 3c
       -0.11618232 0.14247005 -0.034038898 0.007942952
0003a0 cc df e7 bc 4c 40 aa 3c 5a 11 13 3d 02 9a d8 bd
       -0.028304957 0.020782612 0.03590522 -0.1057625
0003b0 ce ef 17 be c5 87 e9 bd 13 c6 27 3e dc a0 11 bd
       -0.14837572 -0.11402849 0.16384153 -0.035553798
0003c0 f4 4e 13 3d a4 42 98 bd 15 5d 02 3e dc 9a 8f bd
       0.035963967 -0.07434586 0.1273082 -0.07011959
0003d0 1e e3 53 be 93 12 48 3d 8e 19 a4 3c cb 85 93 bd
       -0.20692107 0.04884584 0.020031717 -0.07203253
0003e0 33 55 05 bd 66 d2 b1 3c de e4 b4 3d 02 d2 f7 3d
       -0.032551955 0.021706771 0.088327155 0.12100603
0003f0 39 31 a1 3d f0 49 90 3e 80 36 82 be 10 a9 1e be
       0.078707166 0.2818141 -0.25432205 -0.1549418

F.cur.0.linears.1.bias f4 [20]
000000 8a 94 5a 3d 63 f4 5a bd a6 ac 77 3d 44 d3 5b 3d
       0.053364314 -0.05345572 0.060467385 0.053668275
000010 63 9f 7c 3d fc 84 95 bd 70 a1 79 3d 87 f9 97 3d
       0.06167544 -0.073007554 0.060944974 0.074206404
000020 2b 5d 5d 3d db b4 2c 3d 34 e7 84 bd 2f 8e 58 3d
       0.05404393 0.042164665 -0.06489411 0.05286997
000030 a4 a9 44 bd 62 63 5e 3d 69 bc 46 bd e7 b3 73 3d
       -0.048013344 0.054293998 -0.048519526 0.05949774
000040 ba 35 80 3c 77 6a 27 bd 96 b9 82 bd 62 6d 1c bd
       0.015650619 -0.040873017 -0.06383054 -0.038190253

F.nbr.0.linears.0.weight f4 [20, 10]
000000 04 ab 1a 3a 89 59 aa 3b 38 4f a0 b8 b8 c1 14 3b
       0.0005900117 0.0051986617 -7.64415e-05 0.0022698473
000010 94 58 69 3b 65 cd 16 39 28 7c 5c bb 76 62 a6 ba
       0.0035605775 0.0001438163 -0.0033643339 -0.0012694139
000020 48 bd 0c bb 36 65 62 3b 6e 3e 35 b9 7f 74 c1 3a
       -0.0021475125 0.003454519 -0.00017284762 0.001475945
000030 18 05 92 3a 41 e7 8c ba f1 4e 6a 3b f1 e5 95 3a
       0.0011140434 -0.0010750071 0.003575262 0.0011436326
000040 56 99 12 3b 7c b5 ae 39 87 a0 66 3b 78 20 df 39
       0.0022369227 0.00033323083 0.0035190897 0.00042558066
000050 1e 11 cf bb 7f 92 22 3b fb 03 95 3b 61 29 ce 39
       -0.006319179 0.0024806557 0.0045475936 0.00039322212
000060 5a a7 cb 3a 63 7e dd 3a 26 6b b3 ba 91 0e c8 b8
       0.0015537546 0.0016898628 -0.0013688549 -9.5394564e-05
000070 e7 a6 16 bb b8 ed 49 39 e3 ef 19 bb 90 fb f5 38
       -0.0022987665 0.00019257411 -0.002348893 0.000117293675
000080 09 b5 2e 3b b6 0f 90 38 65 62 62 bb cc 60 fb b7
       0.0026658198 6.8693815e-05 -0.003454351 -2.9966606e-05
000090 08 ba 01 bb e3 9f 6b 3b 26 ef ce bb cc e9 73 3b
       -0.001979472 0.0035953454 -0.00631513 0.0037218211
0000a0 82 e7 6a 3b 00 0b 1d b9 10 1e 13 39 0a 97 ae ba
       0.0035843556 -0.00014976785 0.00014030212 -0.001332016
0000b0 85 08 c5 3a 7e 49 d9 3a ea 8b 4d 39 6b 48 80 b9
       0.0015032446 0.0016577689 0.00019602446 -0.00024468018
0000c0 0e 82 7f 3a 21 c3 4b ba 03 cf 41 3b 7d a6 92 3a
       0.00097468577 -0.0007772912 0.0029572851 0.0011188533
0000d0 09 22 da b8 93 18 52 ba 2d 1e 7f 3a 24 d7 98 3a
       -0.000104013896 -0.0008014526 0.00097319746 0.0011660797
0000e0 80 19 0e bb 2a f3 4f ba 40 f3 70 38 c0 31 84 b7
       -0.002168268 -0.00079326576 5.7447003e-05 -1.5758793e-05
0000f0 4c ad 2e ba a4 8c 8c 3a 8c 5a d2 b9 5d a0 9e bb
       -0.00066633965 0.0010723067 -0.00040121784 -0.004840894
000100 e1 39 8d ba 9e df 14 39 fe 01 2f 3a 92 35 18 ba
       -0.0010774696 0.00014197684 0.0006676017 -0.00058063224
000110 aa 44 60 3b ad 5e 86 39 2c 82 fa b9 c2 6e 7a bb
       0.0034220614 0.0002562901 -0.000477807 -0.003821299
000120 49 72 db ba 9a 61 8e ba be 84 d0 3a 5d b1 c2 3a
       -0.0016742434 -0.0010862828 0.0015908701 0.0014853884
000130 86 b7 d5 3b 7a 25 1a bb ae fa 19 3b 6b 0f aa 3a
       0.006522122 -0.0023520873 0.0023495364 0.0012974566
000140 c6 ed 07 39 58 5f 0d 3a 34 18 50 3b 44 af d0 3b
       0.00012963181 0.00053929305 0.0031752707 0.0063685495
000150 46 98 2c bc cc 16 8a 38 c6 28 57 3b 89 5e 91 3a
       -0.010534352 6.584599e-05 0.00328307 0.0011090796
000160 56 56 0d bb c8 e3 4d b9 f7 91 74 bb 16 3c 66 bb
       -0.0021566353 -0.00019635179 -0.0037318447 -0.003513103
000170 3a 4a e9 39 30 1e bd 3a c7 d0 e9 39 d4 ba 9e 3a
       0.00044496526 0.0014428552 0.00044596774 0.0012110122
000180 97 a2 c7 bb 92 92 ca bb f7 e8 40 bb 92 60 17 bb
       -0.0060923803 -0.0061820233 -0.0029435733 -0.0023098332
000190 af 36 6d bb 00 68 08 b8 ed 77 8d b9 44 2c 81 39
       -0.0036195924 -3.2521784e-05 -0.00026982967 0.00024637778
0001a0 a0 72 09 3b e0 53 b4 b8 fa d5 5c bb 6a 95 7f ba
       0.0020972863 -8.598692e-05 -0.0033696876 -0.00097497425
0001b0 06 68 0d bb 62 f0 b8 bb 4c a0 d9 3a 58 af 24 bb
       -0.0021576895 -0.0056438902 0.0016603558 -0.0025128927
0001c0 22 e2 b1 39 84 81 d1 bb 42 c5 53 3a 4a 1a b0 ba
       0.00033928553 -0.0063936133 0.0008078405 -0.0013435569
0001d0 32 a6 74 3b e1 63 cd bb 5a e3 ab 3a 80 65 14 bb
       0.0037330505 -0.00626801 0.0013114021 -0.0022643507
0001e0 31 9a 9d 3a 73 73 2e 3b 8b 85 c4 3a c0 b8 68 bb
       0.0012024102 0.0026619106 0.0014993412 -0.003551051
0001f0 6b 5a 1f bb f1 c7 ae 3a 29 61 d4 3a a4 6c 86 3b
       -0.0024315368 0.0013334734 0.0016203272 0.0041023064
000200 78 4f 07 39 b0 7b 4d b8 ce cd 1c 3b 1e 2c c8 3b
       0.00012904208 -4.8991e-05 0.002392638 0.006108775
000210 02 18 8d 39 aa 57 94 3b 97 6d 20 ba 3e 5c eb b9
       0.00026911503 0.004527052 -0.0006119846 -0.0004489142
000220 fc e1 91 39 8b b2 91 3a a2 c6 5b 3b 83 c2 9b 3b
       0.00027824927 0.0011115832 0.0033535142 0.004753412
000230 c0 13 1f ba 8c 4a b0 3a c6 3d 19 39 66 e9 93 38
       -0.00060683116 0.0013449951 0.0001461423 7.05298e-05
000240 95 fc f4 3a e4 74 8d b8 cf f5 98 3a 82 4b 98 ba
       0.0018690998 -6.7451765e-05 0.0011669936 -0.0011619183
000250 3e 5b b5 37 80 30 06 3a 2e 7e 69 bb 1e 55 4c b9
       2.161937e-05 0.00051189214 -0.0035628187 -0.00019486665
000260 80 68 4b b9 6b 2e d2 3a 17 4d fa 3a fd 62 3f bb
       -0.00019398518 0.0016035562 0.0019096461 -0.0029203289
000270 36 b0 6a 3a 7c 9f 33 39 b7 9c 73 3b 6e 1e b3 ba
       0.0008952649 0.00017130183 0.0037172267 -0.0013665685
000280 69 73 fd b9 1a 6e bc b9 f8 51 57 3b f4 8c c7 3a
       -0.00048341908 -0.00035940186 0.0032855254 0.0015224502
000290 b6 25 b3 37 0c 1b 11 bb f7 a4 15 bc e4 02 bb bb
       2.1356023e-05 -0.0022141365 -0.009133569 -0.0057071317
0002a0 32 9e 90 3a 3b ce c4 3b 0e 24 51 b9 22 29 c4 bb
       0.0011033474 0.00600603 -0.00019945225 -0.0059863487
0002b0 97 d0 f2 ba 46 d6 db 3b 7e 85 9e 39 f1 a5 b8 3b
       -0.0018525299 0.006708893 0.00030235568 0.005635016
0002c0 b5 f2 8d 3a b4 f8 a6 3a c6 b8 72 3a 57 e6 f7 3a
       0.0010829779 0.0012738914 0.0009259101 0.0018913251
0002d0 28 c4 cf 38 76 49 98 3a 66 49 bd 3a 13 5f b7 ba
       9.907066e-05 0.0011618573 0.001444143 -0.0013990126
0002e0 9a 58 ff ba 1e 49 0a 38 af 96 2f bb 1a f3 86 bb
       -0.0019481361 3.296986e-05 -0.0026792695 -0.0041183354
0002f0 11 34 9a 3b 64 8c 16 3b e4 85 f3 ba d8 e7 69 bb
       0.004705914 0.0022971863 -0.0018579331 -0.0035691168
000300 74 ac e3 b9 ca 02 35 bb a3 fa 9a 39 8d 17 6b 3a
       -0.00043425302 -0.002762007 0.00029559908 0.0008968048
000310 b9 92 5d ba 98 d9 3c 3b 98 cd 1e ba dc 4c aa ba
       -0.00084523443 0.002881622 -0.00060578575 -0.0012992877

F.nbr.0.linears.0.bias f4 [20]
000000 00 00 00 00 00 00 00 00 00 00 00 00 00 00 00 00
       0.0 0.0 0.0 0.0
000010 00 00 00 00 00 00 00 00 00 00 00 00 00 00 00 00
       0.0 0.0 0.0 0.0
000020 00 00 00 00 00 00 00 00 00 00 00 00 00 00 00 00
       0.0 0.0 0.0 0.0
000030 00 00 00 00 00 00 00 00 00 00 00 00 00 00 00 00
       0.0 0.0 0.0 0.0
000040 00 00 00 00 00 00 00 00 00 00 00 00 00 00 00 00
       0.0 0.0 0.0 0.0

F.nbr.0.linears.1.weight f4 [20, 20]
000000 6a e7 40 3b f0 5e 82 39 40 7c 1a bb a1 a6 e3 bb
       0.0029434809 0.00024866266 -0.0023572594 -0.006947354
000010 cf 09 60 3b 4c f3 b0 3a 0c b5 8a bb 9a 08 62 3b
       0.0034185534 0.0013500242 -0.0042330083 0.003448999
000020 c2 17 d4 3b 3b 3d 14 3b 1c 64 92 3a d4 94 66 bb
       0.0064725587 0.0022619504 0.0011168751 -0.0035183923
000030 24 2e c6 b8 d8 f4 5d 3b a0 c6 0b 39 f7 be c7 bb
       -9.44997e-05 0.0033867862 0.00013330067 -0.006095763
000040 82 bd 47 3a 5a a2 0b 3a 01 ef e8 39 9a 69 de 39
       0.00076194864 0.00053266215 0.0004442856 0.0004242182
000050 ea 47 e5 ba cc e5 be bb 5d 1e 13 3b 6f 10 a1 ba
       -0.0017492746 -0.0058257338 0.0022448518 -0.0012288223
000060 74 70 61 3b 17 be 66 3b 3c f8 b5 38 fc 5d dc 39
       0.0034399303 0.0035208517 8.67699e-05 0.00042031694
000070 0c 1d d9 3a f5 25 4a b9 73 32 d3 3b c2 48 4f bb
       0.0016564443 -0.00019278361 0.006445223 -0.003162906
000080 58 ab 0e bb ee 1f c9 b9 8e 85 2d 3a d0 5f 61 bb
       -0.002176961 -0.00038361497 0.00066193275 -0.0034389384
000090 8c 40 c1 3b c9 c0 7e ba 24 b8 05 3a e3 66 09 3b
       0.005897587 -0.0009718058 0.00051009865 0.0020965866
0000a0 96 32 42 ba f2 e5 f3 ba be 2d 9d ba fe 56 07 bb
       -0.00074080506 -0.0018607958 -0.0011991782 -0.0020651217
0000b0 ff a8 d6 bb 94 8e bc ba 42 87 71 bb 96 70 73 3b
       -0.0065509076 -0.0014385753 -0.0036854302 0.0037145964
0000c0 dd 6d b1 3b d5 59 59 ba dd bd bd ba ee 62 d5 bb
       0.005414708 -0.0008291279 -0.0014476139 -0.0065120375
0000d0 f3 d8 4b 3a bc 88 52 ba d0 ce 85 3a d8 57 c2 39
       0.00077761634 -0.0008031239 0.001020873 0.00037068012
0000e0 99 22 a6 3b 30 a6 74 bb 20 3f a2 b9 8b f0 c7 ba
       0.0050700423 -0.00373305 -0.0003094608 -0.0015254183
0000f0 cd ec 47 ba 39 cd bb ba ee ca 39 b7 26 fb 13 3b
       -0.00076265336 -0.0014328129 -1.10741075e-05 0.0022580116
000100 12 2f c0 39 62 e0 7b bb ca af 22 b9 86 c7 14 3b
       0.00036656164 -0.0038433303 -0.0001551501 0.0022701933
000110 57 cc 85 b9 b2 b5 eb 3a 46 67 f5 3a 75 01 8f 39
       -0.00025519982 0.0017983227 0.0018722794 0.0002727617
000120 64 27 b6 bb 3b cc 5f bb 7b 8e 6a 3b 16 cf b3 b9
       -0.005558895 -0.003414883 0.0035790491 -0.00034295832
000130 af 2d 97 ba a0 2b 6a 38 d4 d0 1d b9 50 2d fd 39
       -0.0011534 5.5830576e-05 -0.00015050481 0.0004828968
000140 62 be 39 b9 00 ad ce 38 ec e4 94 ba 62 ff 12 b9
       -0.00017713898 9.855069e-05 -0.0011359728 -0.00014018783
000150 2c 5c 6f ba 57 4c 03 ba 0c ae 90 b9 c7 dd 8e ba
       -0.0009130861 -0.0005008629 -0.00027595495 -0.0010899835
000160 ce a0 d5 bb d0 cc 9c 3a 04 2a fb b9 ae b2 d6 bb
       -0.0065194136 0.0011962894 -0.00047905755 -0.006552062
000170 7a 55 6e 3b cc c5 65 bb 5f 82 a9 b9 a4 58 a1 bb
       0.0036366866 -0.0035060523 -0.00032331326 -0.004923897
000180 d0 a5 1b bb 4f 6c 71 bb b1 cc 96 3a 78 19 70 3a
       -0.0023749955 -0.0036838239 0.0011505095 0.00091590686
000190 aa 83 bf ba 5a f3 d3 ba 1e 86 bd bb b0 99 af 38
       -0.0014611383 -0.0016170547 -0.0057838103 8.373277e-05
0001a0 c8 29 47 39 2e cc 34 3b 72 17 17 ba e9 ee 13 3a
       0.00018993684 0.002758752 -0.00057636865 0.00056432054
0001b0 80 9f ac b8 be e9 c4 39 54 6b ca 39 3d 26 02 bb
       -8.231308e-05 0.00037558185 0.00038608408 -0.0019859218
0001c0 98 c3 62 38 6c 2d 47 3b 69 bf b7 bb 3c 7e 93 b9
       5.406476e-05 0.0030392064 -0.0056075347 -0.00028132077
0001d0 f6 a7 21 ba bc d5 08 39 a4 43 5f ba 59 70 24 3c
       -0.0006166691 0.00013049593 -0.0008516854 0.010036551
0001e0 d8 78 a3 ba c0 3f 39 b8 46 fb 61 3b 66 9e d5 ba
       -0.0012471927 -4.416681e-05 0.0034482046 -0.0016297817
0001f0 3c 34 0f 39 b4 aa ce 3b 19 2d 56 ba 52 22 b0 ba
       0.00013657002 0.0063069705 -0.0008170172 -0.0013437963
000200 b0 50 78 b9 22 49 16 bb ae 73 d0 39 07 be ce ba
       -0.00023681181 -0.0022931774 0.0003975904 -0.0015773185
000210 62 aa 9a bb 47 6a 4a ba 2c 90 d6 bb cc 4c ab ba
       -0.0047200182 -0.0007721525 -0.0065479483 -0.0013069152
000220 bb a0 07 bb bd 36 5e ba a4 e3 d2 3b fc b8 5f 3c
       -0.0020695168 -0.00084767846 0.0064358283 0.013654944
000230 69 95 af 3a 83 86 61 bb 25 c1 0c ba b7 54 cd 38
       0.0013395968 -0.003441245 -0.0005369357 9.790941e-05
000240 b0 dd ae bb 92 85 5e bb e6 f6 ba ba ca a0 97 3a
       -0.005336486 -0.0033954126 -0.0014264255 0.0011568305
000250 72 b6 fc 3a a0 d8 32 39 2a e5 be b9 81 ed 92 ba
       0.0019280447 0.00017056102 -0.00036410365 -0.0011209698
000260 d4 10 b6 bb 6c 91 fe b9 b8 14 23 b9 d4 05 9e 3a
       -0.0055562053 -0.00048555003 -0.0001555261 0.001205618
000270 1c 26 80 ba d2 0e 80 3b b0 d8 87 b9 bb 4f 74 3a
       -0.0009776982 0.0039080167 -0.0002591065 0.0009319742
000280 f2 0e fe 39 62 a8 dc ba a5 0a be 3b 7c ec 93 39
       0.0004845779 -0.001683485 0.005799609 0.0002821422
000290 22 45 32 3b 40 6e 1b bb ac 32 61 b8 8a 72 3d ba
       0.002720185 -0.0023716837 -5.3691372e-05 -0.00072268455
0002a0 e4 5a a2 ba 66 74 ab 3b 95 84 74 bb 38 d5 16 3a
       -0.0012386707 0.0052323816 -0.003731047 0.0005753818
0002b0 51 80 d4 ba 00 d1 3a b9 64 4a 53 39 b7 93 89 ba
       -0.0016212558 -0.00017816201 0.00020150241 -0.0010496293
0002c0 f1 34 64 3a 6d 41 96 3a df 27 85 3a 68 f0 92 3a
       0.00087053986 0.001146359 0.0010158977 0.0011210563
0002d0 3c fa 4e bb ba 01 81 3a 97 5a 4f 3b 4e a1 0c bb
       -0.0031582257 0.0009842434 0.003163969 -0.002145845
0002e0 57 c2 4a ba e0 5f 17 ba f0 d9 bd 37 59 93 c8 b9
       -0.00077346474 -0.00057744794 2.263204e-05 -0.00038256755
0002f0 46 34 d6 b8 08 25 be 38 0c ab 5c ba ae 70 02 3a
       -0.00010214052 9.0668036e-05 -0.0008417822 0.0004975897
000300 88 f7 c8 bb ac 61 3c 3b 70 12 3d 3b bf 7d 18 bb
       -0.0061330236 0.002874474 0.00288501 -0.002326831
000310 6d e3 d6 3b 32 65 16 3a ae 24 1c 3a 49 db d1 3a
       0.006557873 0.0005737125 0.00059563934 0.0016010787
000320 d8 4e a6 39 9f 41 18 bb 44 9a e4 b8 40 38 d4 ba
       0.0003172073 -0.0023232473 -0.000109006214 -0.001619108
000330 5a 00 c1 ba 77 c8 d5 3b 16 b9 4c 3b fd 91 b4 b9
       -0.0014724836 0.0065241414 0.003123825 -0.00034441045
000340 6f 6c 09 3b 7c 16 16 3b ae 1c 47 3a be f3 5d 3b
       0.0020969172 0.0022901585 0.0007595521 0.0033867205
000350 82 25 87 3a e6 76 74 3b 4b a9 4c bb 54 a5 44 ba
       0.0010310861 0.0037302314 -0.0031228836 -0.00075014425
000360 97 a9 e7 ba e7 82 cf ba f7 66 b0 ba 82 a0 4b ba
       -0.0017674443 -0.0015831859 -0.001345842 -0.0007767753
000370 08 b4 14 39 02 57 f3 3a e9 2f c2 3b d0 dd d6 bb
       0.00014181447 0.0018565359 0.0059261215 -0.006557204
000380 60 cf 75 b7 aa b7 96 ba b2 5a ca bb 41 d4 1f 3b
       -1.4651421e-05 -0.0011498828 -0.0061753625 0.0024387988
000390 80 3f db b8 19 5a f6 3b f7 45 4b ba 59 ba d8 b9
       -0.000104545616 0.0075180647 -0.0007754261 -0.0004133757
0003a0 24 47 09 3b 00 4f ff b6 6b 13 4d 3b 1a 21 bb ba
       0.0020946944 -7.608789e-06 0.0031292092 -0.0014276833
0003b0 b4 60 7b b9 fd 59 21 bb 7e ad d7 39 ce 19 85 ba
       -0.0002397325 -0.0024620288 0.00041137257 -0.0010154785
0003c0 b9 28 74 bb 16 d0 b2 3a 94 78 73 b9 52 f8 dc b9
       -0.0037255718 0.0013642337 -0.00023219205 -0.00042146683
0003d0 92 82 e5 b9 f0 0a 1e 39 9c 64 c6 3a 6d cb be 3a
       -0.00043775566 0.00015072129 0.0015136185 0.0014556475
0003e0 1a 5e 2a 3b 30 c0 9e 38 b0 65 29 3a e1 22 ef 39
       0.002599603 7.569825e-05 0.0006461991 0.0004561162
0003f0 82 8a fd 3a cd 83 8f 38 75 4c 66 ba f9 1a b5 39
       0.0019343647 6.843321e-05 -0.00087851967 0.00034543106

F.nbr.0.linears.1.bias f4 [20]
000000 00 00 00 00 00 00 00 00 00 00 00 00 00 00 00 00
       0.0 0.0 0.0 0.0
000010 00 00 00 00 00 00 00 00 00 00 00 00 00 00 00 00
       0.0 0.0 0.0 0.0
000020 00 00 00 00 00 00 00 00 00 00 00 00 00 00 00 00
       0.0 0.0 0.0 0.0
000030 00 00 00 00 00 00 00 00 00 00 00 00 00 00 00 00
       0.0 0.0 0.0 0.0
000040 00 00 00 00 00 00 00 00 00 00 00 00 00 00 00 00
       0.0 0.0 0.0 0.0

F.out.weight f4 [5, 40]
000000 ae f4 b5 bd b6 d0 19 3e d8 92 88 bd 9c f5 5d be
       -0.088845596 0.15021023 -0.06668633 -0.21675724
000010 e4 64 6c be 0f 74 c2 3d 2d 9a de bd 55 a8 5e be
       -0.23085362 0.09494793 -0.108692504 -0.21743901
000020 92 ea e3 bd 36 ae 4c be ad 8c 14 3e e1 de bd bd
       -0.11128725 -0.19988331 0.14506789 -0.092710264
000030 f3 50 b9 3c 69 f6 2a be 35 aa 24 3e 3a 84 3c be
       0.022621607 -0.1669556 0.16080554 -0.18409815
000040 0f ba 3c 3d 7f 4b 5a 3e 96 bd dc 3d e6 31 0b 3e
       0.046075877 0.21317862 0.10778348 0.13593253
000050 8d f1 10 ba b3 64 74 3b 48 f0 dd b9 1a fa 0e b9
       -0.0005529158 0.0037291467 -0.00042331428 -0.00013635345
000060 90 4b b7 ba e4 2b d1 3b 1c 66 ca ba ba 7b 02 3a
       -0.0013984311 0.006383406 -0.0015441808 0.0004977543
000070 7c d2 bf ba 1c 0d 63 3a 7a 16 62 3a e3 e7 5b 3a
       -0.0014634873 0.0008661316 0.0008624565 0.0008388741
000080 2f 49 73 3b 84 dd 63 3b 9a 4a ac ba ea a4 55 ba
       0.0037122478 0.0034769485 -0.0013144792 -0.0008149879
000090 3b 4c 0f 3b f8 0a ce ba 42 ed 58 3b 0a 6a 9d b8
       0.0021865505 -0.0015719822 0.00331004 -7.506095e-05
0000a0 0b fb 97 3d 5d a3 ca bb 44 c6 26 3e 9c b5 4e 3d
       0.074209295 -0.006184025 0.1628657 0.050466165
0000b0 89 f1 cf 3d 98 e3 6b be 58 6b 3f 3e 52 ad 93 3c
       0.10153491 -0.23036039 0.18693292 0.018026982
0000c0 55 aa bf 3d e4 3b 2e bd da d9 03 be 6a 32 26 3e
       0.0935866 -0.042537585 -0.12876073 0.16230169
0000d0 0c d7 c0 bc 54 56 8a 3d f2 a7 46 bd fe 9e 43 3e
       -0.023540042 0.06754747 -0.04850001 0.1910362
0000e0 65 e8 da bd c5 03 53 bd 10 41 10 bd 15 02 9a 3d
       -0.10688857 -0.051517267 -0.0352183 0.07519928
0000f0 e6 0a 97 ba 68 9c 8d 38 2d 21 5e bb 4e d5 fe 38
       -0.0011523634 6.752537e-05 -0.0033894286 0.00012151395
000100 76 cb e4 ba 8c 41 14 b9 dd 46 c8 3a d9 d6 0f 3b
       -0.0017455656 -0.00014138798 0.0015279908 0.0021948128
000110 ba 5f 4f ba 66 64 5d bc 5e 19 9a ba 3f 18 53 ba
       -0.0007910688 -0.013512706 -0.0011756828 -0.0008052624
000120 76 d8 d4 bb 12 8f 1e 3b f2 63 44 ba 04 4c c0 ba
       -0.0064955307 0.0024194163 -0.00074916997 -0.0014671092
000130 99 c4 d6 3b 69 68 5e b9 ce 0a 9d bb d8 32 b4 37
       0.006554198 -0.00021210466 -0.004792548 2.1481348e-05
000140 29 b0 3d be 99 47 cd bd e0 be 81 3d 36 77 84 be
       -0.18524231 -0.10023422 0.06335235 -0.258722
000150 74 a2 89 3d 56 ed 94 3d 9b e8 34 bd 6a f4 e1 3d
       0.067204386 0.07271831 -0.044167142 0.110329464
000160 a4 62 5d bd 48 28 db bd 4c 34 e3 3d 5a 9d d7 3d
       -0.05404915 -0.107010424 0.11093959 0.10528059
000170 bd d0 16 3d df 93 11 3d ee ff 8e bc c6 89 a9 bb
       0.036820162 0.03554141 -0.017456021 -0.0051738946
000180 9a 15 00 be 04 93 3f bb 9d ce 62 bc 5b ba c4 bd
       -0.1250824 -0.0029231915 -0.013843206 -0.09605857
000190 52 c0 2a 3a 25 6a b5 3a 11 4c 96 3b dc 34 a8 b9
       0.00065136433 0.0013840838 0.0045867045 -0.0003208284
0001a0 fe 55 cf b9 af fe 63 3a 97 cc aa 3a 36 20 38 3a
       -0.00039546186 0.00086973136 0.0013030943 0.0007023843
0001b0 b2 3b 03 39 f7 1d b7 bb 90 39 b0 3a ec 6b 53 3a
       0.00012515372 -0.005588289 0.0013444889 0.0008065093
0001c0 50 99 a5 ba 50 4b a8 39 be 73 b5 b9 0c 7c 5b 3a
       -0.0012634192 0.0003209957 -0.00034609245 0.00083726714
0001d0 ee ef 6c 3b 07 b4 70 3b d0 74 93 bb a7 aa c4 3a
       0.0036153751 0.0036728398 -0.004500009 0.0015004472
0001e0 81 48 c1 bd 38 57 e5 3c 69 db a3 3d e7 2d ed bb
       -0.09437657 0.02799569 0.080008335 -0.007238138
0001f0 fb 1e 23 3c 98 73 d9 3c 2d ef d3 3d a6 29 f6 bd
       0.009956117 0.026544377 0.103483535 -0.120196626
000200 76 f4 4a 3e ef 74 cb bd 9a 2e f0 bd 47 f1 40 be
       0.19819817 -0.09934413 -0.117276385 -0.1884204
000210 31 76 68 bd 0d d0 0f 3d e6 12 49 3e 60 4e 53 3e
       -0.05675334 0.035110522 0.19636115 0.20635366
000220 17 bb 32 3d 4a 1e 96 bd c3 2c 03 3d a1 0b 0d 3e
       0.043635454 -0.07329996 0.03202511 0.13773967
000230 b0 9e e3 ba bb 66 84 bb 2e 10 df 39 78 a2 e8 3a
       -0.0017366018 -0.0040405667 0.0004254593 0.0017748615
000240 6d 70 64 3a a0 f5 fb b8 88 33 8d 3a 36 3a 9e ba
       0.00087142625 -0.00012014364 0.0010772804 -0.0012071792
000250 2e eb f5 b9 f8 52 2f bb 60 06 02 bb 0b 9e 95 3a
       -0.00046905264 -0.0026752334 -0.0019840226 0.0011414898
000260 e0 8b 0e bb 28 5f 46 b9 b5 ab 1b 3a 90 18 2e 3b
       -0.0021750852 -0.000189182 0.0005938367 0.0026564933
000270 de 6f 8f bb f6 51 e9 3a 0e 96 fc ba ce 2b 60 3b
       -0.0043773493 0.0017800916 -0.0019270794 0.0034205797
000280 83 fd 0d be 61 2e e3 3d 7f eb 6b be 91 68 61 bc
       -0.13866238 0.110928304 -0.23039053 -0.013757841
000290 1e 03 7a bd 11 be aa 3d ca cf 80 be 30 e7 3f bc
       -0.06103813 0.083370335 -0.2515853 -0.011712834
0002a0 0a 65 7d bd f3 81 26 3c 52 8c cb 3c 05 2c 07 bd
       -0.061863936 0.010162818 0.024847183 -0.033000965
0002b0 76 97 6e 3d c6 23 d9 bc 55 b0 00 bb f8 06 51 ba
       0.058249913 -0.026506316 -0.0019636352 -0.0007973756
0002c0 c3 47 24 be 4d db d4 bd 95 18 ed 3d c1 cc 36 3e
       -0.16043 -0.10393391 0.11576954 0.17851545
0002d0 dd 04 0c ba a7 db 1c bb 76 94 44 bb 15 2b 71 bb
       -0.0005341301 -0.0023934634 -0.0029995716 -0.003679936
0002e0 20 a6 96 ba 8d a4 d4 3a 08 6d 74 3a 60 29 b7 38
       -0.0011493601 0.0016223356 0.0009324108 8.733827e-05
0002f0 b5 b7 89 3b c2 4f 45 3a 66 a1 97 3a e9 07 69 bb
       0.004202808 0.00075268385 0.0011568486 -0.0035557693
000300 68 c1 c7 b9 01 55 e9 3a 26 08 ca ba 34 f6 8e 38
       -0.00038100337 0.0017801822 -0.0015413805 6.8169466e-05
000310 3a f7 13 ba d0 82 85 3a 54 3e f6 b9 c8 31 06 3a
       -0.00056444446 0.001018608 -0.00046967214 0.00051191123

F.out.bias f4 [5]
000000 8b 1a 21 be b5 05 88 3d c6 f4 44 bd e7 84 31 3d
       -0.15732782 0.066417135 -0.048084997 0.043339636
000010 45 15 8d bd
       -0.068888225

G.0.linears.0.weight f4 [20, 5]
000000 8c 9c dc 3c a1 5e bf 3c 1d c2 23 bd 36 34 76 3d
       0.026930116 0.023360552 -0.039980043 0.060108386
000010 a5 64 2f bd 53 0b 69 3d ef 19 1f 3e 30 6f 3c be
       -0.04282059 0.056895565 0.15537237 -0.1840179
000020 b5 a6 25 be ed 9d 08 3c df 5d 6c be 38 e9 5a bc
       -0.16176875 0.008338434 -0.23082684 -0.013361268
000030 fb 92 22 be 0d 9d 29 3d a7 1e 18 bd 7b 16 ae ba
       -0.15876381 0.04140954 -0.037138607 -0.0013281846
000040 ab ed 97 bd d3 a9 91 3d f0 e5 0f 3e eb f8 10 bd
       -0.074183784 0.071124695 0.14052558 -0.035393637
000050 df 82 30 be 1b 33 8f 3d f4 35 0b bd 6a 5b 64 3e
       -0.17237423 0.069921695 -0.033987 0.22300497
000060 0f 43 c7 3c 20 92 7c 3d 92 7d da 3c 45 1c b6 bd
       0.024323968 0.061662793 0.026671205 -0.08892111
000070 4b 9e 4a bd 0e b1 3e 3e 24 c4 16 be c3 c5 77 bd
       -0.049467366 0.18622229 -0.14723259 -0.060491335
000080 cc 5e dd bc d2 bf 68 3d 68 1f 8d bd fb 94 89 bd
       -0.027022742 0.05682356 -0.06890756 -0.06717869
000090 b2 05 2f 3c 12 52 d2 bb d4 61 3d 3d 5a bd a2 3d
       0.01068251 -0.006418475 0.046235874 0.07946272
0000a0 ed 34 d6 bb 48 62 f7 3d 51 f4 1a 3d 4a 2c e5 3d
       -0.006537071 0.120792925 0.037830655 0.11190088
0000b0 da 50 48 3d 38 11 c4 bd 36 3e e4 bd f7 77 28 bd
       0.04890523 -0.09573597 -0.11144678 -0.041130032
0000c0 f5 0b 4e 3e 91 c2 8d 3c f4 d6 ad 3e eb 53 79 bd
       0.20121749 0.01730469 0.3395306 -0.060871046
0000d0 cd 15 7d bd 39 2b 2c 3d 57 f2 75 bc 20 f1 fc bd
       -0.06178837 0.042033408 -0.015011392 -0.123506784
0000e0 6e f7 ff 3c f4 14 89 bd ae 21 9a 3d ec d4 07 3d
       0.031245913 -0.066934496 0.07525955 0.033162042
0000f0 aa 77 4a be 32 63 c5 bb f7 0f 89 bd a2 4c f7 bd
       -0.1977221 -0.006023788 -0.06692498 -0.120751634
000100 cb 52 a1 bc e3 c3 27 bd a5 ea 44 3d 7a 38 9b bd
       -0.0196928 -0.040958297 0.048075337 -0.075791314
000110 c2 19 9a 3d 7e d2 b1 bc a8 28 b1 3d a6 0a aa 3d
       0.07524444 -0.021706816 0.08650333 0.08302812
000120 a5 3b 1f be 2b 4c 9b bd 94 2d d4 bd 5c ed a2 3d
       -0.15550096 -0.07582887 -0.10360256 0.07955429
000130 4d 1f 4d 3e f3 98 60 bd 5c da d3 3d 0a 1b 49 3d
       0.20031472 -0.054833364 0.10344383 0.049098052
000140 8d f4 37 3d 6e 85 2b bd 89 a7 d2 bc 3d f6 cc 3d
       0.044910956 -0.041875295 -0.025714653 0.10007904
000150 54 62 98 3d 6f 97 a0 3d 86 00 9f bd 06 59 4a bd
       0.074406296 0.07841384 -0.07763772 -0.049401306
000160 aa 69 fa bd 98 82 86 3d 2d 27 71 3d 19 f4 15 3e
       -0.12227185 0.065678775 0.05887525 0.14643897
000170 9f 0b aa bd 1b 26 ea 3d 73 45 3b be 8b e8 da bd
       -0.08302998 0.11433049 -0.18288212 -0.10688885
000180 86 e2 f7 bd 5e 23 a6 bd 87 6b 3f 3d 18 87 0d be
       -0.12103753 -0.081122145 0.046733405 -0.13821065

G.0.linears.0.bias f4 [20]
000000 ce 30 b0 3d ee 4c 8d 3c 88 d0 96 3d b6 13 35 3c
       0.08603059 0.017248597 0.07363993 0.011052063
000010 20 2c b1 bc f0 cb 98 b8 36 a2 04 3c c6 af 65 3b
       -0.021627486 -7.285911e-05 0.008095315 0.0035047396
000020 c1 73 48 3e 00 a8 a4 3d cd 59 78 3c 46 a5 a2 bc
       0.19575407 0.08039856 0.015158129 -0.0198542
000030 cd ef ca bc 69 b6 ec bc dd dc 81 3c 1f f9 a2 bb
       -0.024772549 -0.028895574 0.015852386 -0.004973545
000040 d6 f5 48 3a 6e 93 86 3c b8 9d d2 bc 26 9c a5 bc
       0.0007666027 0.016427722 -0.025709972 -0.020216059

G.0.linears.1.weight f4 [5, 20]
000000 5a 33 5c 3d b1 60 1e bd 34 5d 50 be b0 95 2e bd
       0.05375991 -0.03866643 -0.20348054 -0.042623222
000010 d3 9c d1 bd 92 50 84 bd 55 b9 f3 3c 66 ed 8b 3e
       -0.1023499 -0.0646068 0.02975146 0.27329558
000020 28 54 0a 3c de 68 07 bd a0 b2 96 3d 9b 69 1e 3d
       0.008442916 -0.033058994 0.07358289 0.038674932
000030 05 8f 76 bd 37 b9 09 3d 5a 7e f9 3a ee 84 f6 bd
       -0.060194988 0.0336239 0.0019034848 -0.12037073
000040 86 49 16 3d 53 51 e2 3d c2 be a9 bc 50 9b 15 3d
       0.03669121 0.110506676 -0.020720843 0.03652507
000050 db d2 88 bd bf 90 fb bd b7 c9 15 3e 8e e3 1c bd
       -0.066808425 -0.122834675 0.1462773 -0.03830295
000060 c5 85 4c 3e df b8 aa bd 7e 26 bd 3d 75 28 ac 3d
       0.19972904 -0.083360426 0.092358574 0.08406154
000070 81 f5 4a bd 8c 1b 0b bd c7 ff 27 bd 5b 73 f8 3d
       -0.049550537 -0.033961818 -0.041015413 0.12131377
000080 f2 34 9e bc 2d 2d 93 3d 0a e5 0e be b6 a6 27 be
       -0.019312356 0.07186351 -0.13954559 -0.16372189
000090 40 10 e0 3c a2 88 26 bc 52 df cd 3d 9a 38 43 3d
       0.027351499 -0.010164412 0.100523606 0.0476614
0000a0 81 85 a7 bd dc fc 3b 3e e6 61 f9 3d 7a 75 12 3e
       -0.08179761 0.18358177 0.12176876 0.14302626
0000b0 35 c0 c1 3d 2f f3 af 3d 07 c5 07 3d be cd ed 3d
       0.09460489 0.085913055 0.033146884 0.11611508
0000c0 55 f6 18 3d 00 a2 37 bd 87 b7 3d be 30 04 1b 3d
       0.037344296 -0.04483223 -0.18527041 0.03784579
0000d0 29 ec 01 be 85 cc 08 3e c0 dc 60 be 74 d4 03 be
       -0.12687744 0.13359268 -0.2195921 -0.12874013
0000e0 fc 33 bc bb 32 26 ad bc 65 08 5e bd b1 6b d9 3b
       -0.0057435017 -0.021136377 -0.054207224 0.0066351523
0000f0 d3 a7 ca bd 81 4b f8 3c ad 8b 81 be 64 2e 75 3c
       -0.09895291 0.03030944 -0.25301877 0.014964674
000100 0b d8 c1 3d e7 20 43 3e 5e f6 b8 3d 22 8d 86 3e
       0.09465035 0.1905552 0.09031366 0.2627955
000110 1c 72 87 be 16 e5 fe bd 0e f6 d0 3d 6e 3d 49 3b
       -0.26454246 -0.124460384 0.10203181 0.003070678
000120 63 86 89 3d 29 c5 d4 3c 0b 45 7b 3d 19 45 b8 3d
       0.06715085 0.02597292 0.06134514 0.08997554
000130 74 22 4b 3d d8 6d 57 be 4f 5a bd 3c ff cb ee bc
       0.049593404 -0.21037996 0.023114352 -0.029150007
000140 bb 3d cc bc d5 6b ac bc 87 02 f6 bd 2f 6c 98 bc
       -0.02493178 -0.021047512 -0.12012201 -0.018606273
000150 0a 5a 08 3e 8a c2 47 3d fb d1 16 be d5 ce 79 3d
       0.13315597 0.04876951 -0.14728539 0.060988266
000160 da 06 df bd 46 62 20 bd 9c 91 ac 3c 2e cd e9 bd
       -0.10889979 -0.03915622 0.021065526 -0.11416088
000170 6d 8c 08 3e a0 3a 33 bd c7 81 9f 3c 48 0c 9f bc
       0.13334818 -0.04375708 0.019471062 -0.019415036
000180 90 d8 b7 3d 80 d1 af 3c 76 0c ee 3d 9d 8a ae 3d
       0.08976853 0.021462202 0.116234705 0.08522532

G.0.linears.1.bias f4 [5]
000000 07 7b a5 bd d2 b5 a4 bc 43 2e 44 bc 18 8d f6 3c
       -0.08080106 -0.02010623 -0.01197392 0.030096576
000010 b9 65 5f 3a
       0.0008521933

W.0.linears.0.weight f4 [20, 5]
000000 6a ec 29 bb 91 56 d4 3b f9 aa 08 ba 60 3a de b9
       -0.0025928267 0.006480046 -0.0005213465 -0.00042386632
000010 72 99 ea ba e4 ac aa 3a 91 51 01 ba 38 e3 67 b8
       -0.0017898513 0.0013021496 -0.0004933114 -5.5286306e-05
000020 2e 18 69 bb 1e d3 6f 3a 3f 64 9c b9 64 e3 24 3a
       -0.003556739 0.00091485854 -0.00029829328 0.00062899874
000030 4d c4 19 bb 9b 58 c2 ba e9 15 9b b9 d0 b6 59 b9
       -0.0023462952 -0.0014827432 -0.00029580228 -0.00020762836
000040 02 d7 29 bc 40 98 cd b9 77 38 9f 3b ce d9 36 3a
       -0.010366203 -0.00039214082 0.004859026 0.00069752045
000050 57 80 35 b9 9c 0d c9 bb f4 73 b6 b8 a4 90 dc b8
       -0.00017309315 -0.0061356556 -8.700034e-05 -0.00010517359
000060 c2 f1 b8 b8 54 cd 13 bb e8 9f db 3a 5d bd 47 bb
       -8.8188346e-05 -0.0022552805 0.001675603 -0.003047786
000070 42 29 c2 3b 32 4b 1d 3b 84 ab d4 3a 9a 01 be b9
       0.0059253285 0.0024001119 0.0016225432 -0.00036240817
000080 0e 52 5f ba 82 d3 a6 b9 29 ae c4 ba 28 e0 ad 39
       -0.0008519002 -0.00031819573 -0.0015005517 0.0003316414
000090 3a d3 d2 b7 6c 78 1b 3b 73 0e 71 3b be ab a2 3a
       -2.513231e-05 0.00237229 0.0036782294 0.0012410802
0000a0 70 03 c7 3a 24 33 76 39 1e 98 2d 3b 18 1f 58 39
       0.001518352 0.0002347944 0.0026488374 0.00020610949
0000b0 fe 14 42 b9 64 6e 6a 3a 28 cb d5 ba 6a c9 47 bb
       -0.00018509102 0.0008942841 -0.0016311156 -0.0030485042
0000c0 e8 3d 67 38 a2 75 c5 b9 f1 85 b2 38 0f ce 1b ba
       5.5132346e-05 -0.0003766241 8.51265e-05 -0.0005943486
0000d0 a0 d5 82 39 c2 04 51 3b 46 28 0c bb 83 e4 96 ba
       0.00024954695 0.0031893705 -0.002138631 -0.0011512194
0000e0 ba b1 d8 38 3d 62 c7 ba a7 79 d2 3a d6 53 d2 ba
       0.00010332787 -0.0015211772 0.0016057984 -0.0016046714
0000f0 8d b1 45 3a aa 08 b2 39 ee 2f 69 bb ac 9a 82 39
       0.0007541411 0.0003395726 -0.0035581547 0.00024910772
000100 a4 a3 4c bb f2 6f 12 3b 51 6a 1b bb f6 14 20 3b
       -0.0031225467 0.0022344557 -0.0023714493 0.0024426556
000110 12 9b 03 3a 76 b8 9c ba 63 6c 0a b9 a2 f7 a7 b9
       0.00050203607 -0.0011956829 -0.00013201083 -0.00032037223
000120 fb 1e f2 3a 2b 75 bf ba 0f 47 aa b9 ed e2 6e bb
       0.0018472368 -0.0014607062 -0.0003247787 -0.0036451176
000130 04 75 ec 39 00 f7 7a b7 74 ec 7d 37 2e a4 2d ba
       0.0004510061 -1.495867e-05 1.5135029e-05 -0.0006623891
000140 65 85 03 3a eb bf 96 3a 89 e0 b4 39 48 66 8a 3a
       0.0005017131 0.0011501288 0.00034499567 0.0010559047
000150 32 7e 6f ba b7 50 98 ba 6c 74 0a bb 1e 71 bf bb
       -0.0009135931 -0.0011620735 -0.0021126522 -0.005842342
000160 08 92 74 bb 76 93 e6 3b 2a 85 c1 3a a6 62 0a b9
       -0.0037318487 0.0070366217 0.0014764417 -0.00013197455
000170 67 fc 69 bb 74 db 6a 3a 07 c6 6b 3b 36 ab fb b9
       -0.0035703422 0.00089590927 0.0035976188 -0.00048002013
000180 1a 38 0c bb 0b 24 1f 3b 8d 03 42 3b 88 78 c2 38
       -0.0021395744 0.0024282958 0.0029604167 9.2730916e-05

W.0.linears.0.bias f4 [20]
000000 00 00 00 00 00 00 00 00 00 00 00 00 00 00 00 00
       0.0 0.0 0.0 0.0
000010 00 00 00 00 00 00 00 00 00 00 00 00 00 00 00 00
       0.0 0.0 0.0 0.0
000020 00 00 00 00 00 00 00 00 00 00 00 00 00 00 00 00
       0.0 0.0 0.0 0.0
000030 00 00 00 00 00 00 00 00 00 00 00 00 00 00 00 00
       0.0 0.0 0.0 0.0
000040 00 00 00 00 00 00 00 00 00 00 00 00 00 00 00 00
       0.0 0.0 0.0 0.0

W.0.linears.1.weight f4 [5, 20]
000000 58 50 03 3a 3a 5a 64 ba 46 96 b7 3b 67 82 1b bb
       0.00050092256 -0.00087109546 0.005602631 -0.002372885
000010 9e 5d ee b8 9f aa 81 39 17 08 86 3a 4e 6b c4 39
       -0.00011366162 0.0002473192 0.00102258 0.0003746398
000020 da de 29 b9 02 5f 22 ba 38 18 62 b8 a4 6f 8f ba
       -0.00016200115 -0.0006193967 -5.3905154e-05 -0.0010943306
000030 ed 6e 20 3a f0 18 03 b9 7e 3e 83 b9 f8 2d 02 ba
       0.0006120045 -0.00012502423 -0.00025032827 -0.00049659563
000040 1d 18 44 3b 22 64 c4 39 14 9f 6d 39 4d aa 1b 3b
       0.00299216 0.00037458638 0.00022661343 0.002375263
000050 fc fd 37 bb 93 d2 1f 3b a2 32 74 bb 8d 9c 73 b8
       -0.002807497 0.0024386987 -0.0037261625 -5.8081514e-05
000060 b0 6b 1a b9 87 ac 25 ba 75 39 71 bb 4b 12 cb 3b
       -0.00014726701 -0.0006319959 -0.0036807929 0.006197249
000070 24 22 ea b8 be 0d 2b b9 fa 2d 11 3a f3 bc b1 ba
       -0.00011164349 -0.0001631295 0.0005538162 -0.001356034
000080 58 7d 37 3b 9e 1c 3f 3b ae 00 cc 3b 10 0c 3e 39
       0.0027998295 0.0029161344 0.006225667 0.00018124306
000090 ef 77 76 3a f2 ed 03 3b bc 17 4d 3a 84 f4 35 ba
       0.0009402027 0.002013084 0.0007823666 -0.0006941038
0000a0 7d 64 3f ba df b8 4c bb 87 62 3e b9 f7 a7 33 bb
       -0.00073010457 -0.0031238121 -0.00018156516 -0.0027413347
0000b0 fa ea e7 b9 6b 7b df 38 de 46 0a b9 df 66 4b 3a
       -0.00044234825 0.00010656457 -0.00013187106 0.00077591644
0000c0 f6 b3 b6 3a fb 41 90 b9 04 8e c3 bb 12 e4 2f b9
       0.0013939131 -0.0002751498 -0.0059678573 -0.00016774263
0000d0 08 ea 47 39 4c 51 1a ba ef b3 78 ba 26 ce a6 ba
       0.00019065302 -0.0005886748 -0.00094872614 -0.0012726232
0000e0 d4 64 27 39 29 97 5a 3a a0 e0 b8 3b 2a 26 58 ba
       0.00015963922 0.00083385647 0.0056420118 -0.0008245433
0000f0 8e 31 39 ba 7e 5a 75 b9 92 b0 72 38 05 da 73 3b
       -0.0007064574 -0.00023398732 5.786174e-05 0.0037208807
000100 db 78 8b 3a 57 e9 97 3a a2 58 d8 3a c1 72 d2 ba
       0.0010640876 0.0011589926 0.0016505907 -0.0016055928
000110 2e b3 0e b9 74 54 44 39 66 ac b7 b9 b3 28 d2 3a
       -0.00013608925 0.00018723478 -0.00035032927 0.0016033858
000120 a9 c8 c6 3a 19 f8 da 39 a0 e8 58 b9 e5 66 65 ba
       0.0015166003 0.00041765047 -0.00020686025 -0.0008750989
000130 80 be 98 ba 2f ac fb 38 cd 5d 64 ba 26 33 4a ba
       -0.0011653453 0.000120006844 -0.0008711487 -0.000771331
000140 d0 51 a5 3a 3c ac 3b 3b 46 3e 98 3a 75 e3 10 bb
       0.0012612883 0.0028636595 0.0011615239 -0.0022108231
000150 3d 47 c8 ba 2c 1f d4 bb 77 e8 57 3b fe 8f 57 3a
       -0.001528002 -0.0064734425 0.0032944956 0.00082230556
000160 28 6a 26 b8 48 89 61 b9 57 e3 6b ba 3e 84 dd b9
       -3.967635e-05 -0.00021508813 -0.0008998415 -0.00042250933
000170 71 5a 19 bb b8 a2 d4 3a 42 fb 82 3a 56 28 07 bb
       -0.0023399855 0.001622281 0.0009993094 -0.0020623407
000180 85 3d 07 bb 01 7b d4 39 04 35 73 b9 a6 31 d3 ba
       -0.0020636034 0.00040527436 -0.00023194036 -0.0016112819

W.0.linears.1.bias f4 [5]
000000 00 00 00 00 00 00 00 00 00 00 00 00 00 00 00 00
       0.0 0.0 0.0 0.0
000010 00 00 00 00
       0.0

L.0.linears.0.weight f4 [20, 5]
000000 78 5c 23 bd d3 4c 1b 3e 1e 4d 56 3e 0b 26 a2 3d
       -0.039883107 0.15166025 0.20927855 0.07917412
000010 36 7e 10 be 84 5a 5d 3c a1 44 b4 bc 7e 0f 19 3e
       -0.14110646 0.01351035 -0.022005381 0.14947316
000020 ae d8 84 be 42 22 f5 bd e8 0f 26 3e d6 85 ac bd
       -0.25946563 -0.11969425 0.16217005 -0.08423965
000030 e1 95 64 3e 66 ad 93 be 90 9b 1f 3e 5e 13 dc 3c
       0.223228 -0.2884323 0.15586686 0.026864704
000040 2a 1d 2b 3d d4 b8 81 bc ed a7 f7 3d ee 3e 56 be
       0.04177586 -0.015835203 0.12092576 -0.20922443
000050 8d 54 bb bd 1a 10 4c 3e cd 47 16 be 39 61 0f 3e
       -0.09146986 0.19928017 -0.14675827 0.14001931
000060 b2 5d be 3c ac d9 86 3e e3 a3 a8 bd 8d 57 c3 3d
       0.023238037 0.26337945 -0.08234384 0.09538183
000070 bc 69 81 3d c8 63 b6 3d 57 88 91 3d 69 40 81 bd
       0.06318995 0.089057505 0.07106083 -0.063111134
000080 44 0c 1b 3e e0 ca a1 bd f5 ae d6 bb a0 4c 1a bd
       0.15141398 -0.079000235 -0.006551618 -0.03767073
000090 08 e9 eb 3d fb fb 9f bb bd 61 78 3d 53 06 a9 3d
       0.115190566 -0.0048823333 0.060640085 0.082531594
0000a0 7f 08 44 3e 63 60 89 be 75 46 67 3d c9 b9 90 be
       0.19143866 -0.2683135 0.056463677 -0.28266743
0000b0 74 9c 13 3e 73 21 a6 bd c5 fa 53 3d 01 65 7e 3d
       0.14415151 -0.08111849 0.051752824 0.062108044
0000c0 52 e8 5f bd 29 ca 0e be e3 d8 e7 bd bc cd 19 3e
       -0.054664917 -0.13944305 -0.11320665 0.15019888
0000d0 76 1f b3 bd 3e 57 11 3d c7 ee 10 be f1 89 71 be
       -0.08746235 0.03548359 -0.14153586 -0.23587777
0000e0 76 ae c5 bd c2 68 ee bd 89 4c ca 3d 67 7c 81 bd
       -0.096524164 -0.11641075 0.09877879 -0.06322556
0000f0 52 ca cf 3d 57 a3 e1 bd 7f 04 96 3d ee 91 42 be
       0.101460114 -0.11017483 0.07325076 -0.1900098
000100 7b 7c 35 3e 4a 3c ff bd 03 23 c4 3d c7 f3 4c bd
       0.17723267 -0.12462671 0.095769905 -0.05003717
000110 22 77 d8 bd 47 27 f1 3d de 34 a7 bd fb ec 24 bd
       -0.10569598 0.1177507 -0.081643805 -0.040265065
000120 f1 c9 07 be 3b 0f df 3d f0 41 c4 3d db 5f 0a be
       -0.13260628 0.10891577 0.09582889 -0.13513128
000130 49 07 c8 bd 63 0d d5 bd 69 3d 04 be 2e d6 2d be
       -0.097670145 -0.10402944 -0.12914051 -0.16976234
000140 04 25 92 3e 5d 2f 03 bb 55 e7 31 be 72 f6 db bb
       0.28543866 -0.0020017244 -0.17373402 -0.006712728
000150 53 8d c0 3d e8 93 a4 3d ff 6b fb bd a1 1d 63 3d
       0.094019555 0.080360234 -0.12276458 0.05544818
000160 29 42 68 3d 31 4d 12 bd 44 0d 17 3b df 1b 03 3e
       0.05670372 -0.035718147 0.0023048678 0.128036
000170 9d c3 30 3e 7d ce 1f be 73 f7 26 3d a3 f0 84 3d
       0.1726212 -0.15606113 0.04076333 0.0649121
000180 c5 ef 8c bb 86 17 c0 bd 92 97 eb bc c8 f0 5d bd
       -0.0043010437 -0.09379487 -0.028758798 -0.054184705

L.0.linears.0.bias f4 [20]
000000 da 43 f0 3d fa 46 24 be ae a3 2b be 9f d3 1d 3e
       0.11731692 -0.160427 -0.16761658 0.15412758
000010 98 97 1e 3e 63 22 2c be 40 47 2a be 46 77 20 3e
       0.15487516 -0.16809992 -0.16628742 0.15670499
000020 e3 e4 31 be 51 cc 20 3e 20 37 22 3e cb 21 1d 3e
       -0.1737247 0.1570294 0.15841341 0.15344922
000030 05 da 2b be b4 ab 20 be d4 bc dc 3d 08 e1 1f 3e
       -0.16782387 -0.156905 0.107782036 0.15613186
000040 3e bb 23 be 9e bc 29 be 4d 1b 20 3e 9e f8 17 3e
       -0.15989396 -0.16575858 0.15635414 0.14840934

L.0.linears.1.weight f4 [1, 20]
000000 e7 63 65 3d cd 9b ed bd 49 c4 a2 be 6e 27 d5 3d
       0.056003477 -0.11601982 -0.3179038 0.10407911
000010 64 82 dc 3d a6 93 f5 bd f4 e8 57 be db 12 16 3e
       0.107670575 -0.11991052 -0.21084958 0.1465563
000020 ae e1 0d be 8b 5d 31 3e 63 b5 81 3e c4 d1 03 3e
       -0.13855621 0.1732084 0.253337 0.12872988
000030 38 ce 8e be 55 ae 5a be 67 c5 78 3d 7f e3 29 3e
       -0.27891707 -0.21355565 0.060735133 0.16590689
000040 02 fa 37 be 5b 59 5d be 86 6a 30 3e e5 9e a3 3d
       -0.17966464 -0.21616118 0.17228135 0.07989291

z0 f4 [1, 5]
000000 92 44 0f 40 9f 98 14 3f 08 71 04 3d ec 0a c3 bf
       2.2385602 0.5804538 0.032334358 -1.5237708
000010 7e 77 cf 3e
       0.40520853
