self_inhibiting/params.pth (torch_old, 4728 bytes, 13 tensors)

F.cur.0.linears.0.weight f4 [20, 5]
00000000: 9023 cdbd 29c9 f53d 35f2 5f3d 843f 92bd
00000010: b213 2c3c 1948 1bbe 4198 e33c 1f3e c63d
00000020: 8e11 5a3e 14a5 18bd d505 913e e742 bbbd
00000030: 8950 7e3e b9a1 433e e47a 04bd e812 dbbc
00000040: a7da ba3d 72f1 f0bd 7a1b b7bd 7d70 86be
00000050: 0a4f e1bd 90bb 293e c71e c63e ec2c f13d
00000060: ce65 6c3c 72dc 853e 544d ddbd 9616 513e
00000070: 47ff 9d3e dded 5dbc d020 673e da38 cb3c
00000080: 7453 cfbe 18b2 a3be ccea 263e 5127 053e
00000090: 4dfc f5bd 63ac 7abe d649 69be 06dd 2b3b
000000a0: df74 2a3e 063e bd3d e47a 90bd 2359 8abc
000000b0: 3738 2c3e 8cae df3d 132b ca3d 600f 70bb
000000c0: fd07 243d 37d3 0e3c 6812 313e 8448 753d
000000d0: cd27 bfbe 49ad 93be 7e94 093d 32f8 5cbd
000000e0: 4069 c0bc 299b 893d cf5a a9bd 0282 843d
000000f0: b2a0 59bd 67db 0c3e 0913 4e3d 85a5 34be
00000100: 162a 933d e38a 1cbe 898f 423d 08d7 02be
00000110: fbfd e9bd b692 babd 23fb 1a3e 29e2 51be
00000120: 1701 903e 6597 963d 0a8a 143d c8e5 193c
00000130: 0485 d7bd a476 6a3c b2d0 ab3e 73d6 56be
00000140: f8e4 f5be 87b2 4cbe a55b 813e 6022 7b3e
00000150: 1b78 13bd 4722 efbe dc49 95be c253 a03e
00000160: 8d54 413e a615 49bd 493d 94bd 01e9 b43c
00000170: 2dc5 833e 5adb 803e 7524 5dbd 2263 343d
00000180: 8251 bbbc 9be6 5ebe 3724 d7bd 7b5f 2b3e
-0.10016549 0.12001259 0.054674346 -0.07141021 0.010502743 -0.15164222 0.027782561 0.096798174
0.21295759 -0.037266806 0.28324762 -0.0914362 0.24835409 0.19104661 -0.03234376 -0.026742414
0.09123736 -0.11764802 -0.089407876 -0.26257697 -0.11001404 0.16575456 0.38695356 0.11776146
0.014428569 0.2614475 -0.10805765 0.20418772 0.30858824 -0.013545481 0.2257111 0.024807382
-0.40493357 -0.31971812 0.16300505 0.1300328 -0.12011013 -0.24479823 -0.22782072 0.002622427
0.16646145 0.09240346 -0.070546895 -0.016888207 0.1681832 0.10921964 0.09871497 -0.0036630258
0.04004668 0.00871735 0.17292178 0.05988361 -0.37335053 -0.28843144 0.03358888 -0.053947635
-0.023487687 0.067190476 -0.082692735 0.064701095 -0.053131767 0.1375557 0.050311122 -0.17641266
0.07185762 -0.15287356 0.047500167 -0.1277734 -0.11425396 -0.09110014 0.15134864 -0.2049643
0.2812583 0.07353095 0.036264457 0.009393163 -0.105234176 0.014310513 0.3355766 -0.20980243
-0.48026252 -0.19989978 0.25265232 0.24524832 -0.036003213 -0.4670584 -0.29157913 0.31313902
0.1887991 -0.04909291 -0.07238252 0.022083761 0.2573637 0.25167352 -0.053989846 0.044039853
-0.022866014 -0.21767657 -0.10504954 0.16735642

F.cur.0.linears.0.bias f4 [20]
00000000: cda8 033e 0ed4 a83d be84 a53d 1d23 76bd
00000010: 55ea ac3d c651 663e 3291 e2bd b2be edbd
00000020: 0548 20bd 091d 2ebd d144 12bd fd5e dabd
00000030: ca7f 813d 45df 0ebe 8d39 873d 31ed 603e
00000040: f6df 423e e744 503e 8a98 8c3d d6e1 13be
0.12857361 0.08243571 0.08081959 -0.06009208 0.08443133 0.22492132 -0.1106285 -0.11608638
-0.039131183 -0.04250816 -0.03571016 -0.10662649 0.06323202 -0.13952358 0.06602774 0.21965481
0.19030747 0.20338784 0.06865032 -0.14441618

F.nbr.0.linears.0.weight f4 [20, 10]
00000000: f5f2 b081 57aa 4381 0869 8400 a783 9a01
00000010: e6b3 0301 a0d7 a080 e079 6500 ee52 9c80
00000020: 84c4 7b01 545c 8d81 f457 c900 4bd5 ef00
00000030: 84af b581 ec78 1401 7cd4 e080 55b0 4901
00000040: be03 4481 c6e8 1900 74cf b201 fa7e 9901
00000050: 5656 0d80 a839 d100 0aed 4201 9b8e 9d81
00000060: 760d 6f81 caa9 2d00 e29c 8280 8626 4901
00000070: 4816 ea00 fe60 0301 9bb2 2701 d420 2501
00000080: 7c29 c381 36b3 1901 1f97 9e01 af4a 1800
00000090: e8b3 6a00 0a7c 9980 fc40 1300 3b5d 6680
000000a0: d983 8701 c08b 5700 6f50 6c00 5461 0080
000000b0: 1f97 7001 aa04 c100 a83e 6381 d2f8 0301
000000c0: a18d 7101 6358 7601 a842 0980 3061 b801
000000d0: fadd 0c81 334e 2f81 8ee1 4901 524a 0180
000000e0: 01d2 9881 8931 0e81 134b 3a80 9052 7881
000000f0: 9937 0181 6dbe 9481 e0ad 8f10 dcec 3a81
00000100: 503e f900 847c 9e01 5f02 eb80 2fcf 2a00
00000110: e52f 8680 526c a281 94a2 a981 acf9 1781
00000120: 67e4 3e80 4e2b bf81 cc1f 4b81 9cd6 3001
00000130: a044 8a00 c053 4481 f4c4 1101 eed5 5801
00000140: 78b6 f580 8c99 3d80 ab43 4280 7574 ab01
00000150: f06b 3d00 b87b 8f81 aba0 0500 fafd b280
00000160: bc83 7581 fc31 ee00 3ffa 0880 1ee3 d280
00000170: 406c a481 15dc 1a00 6c8a f080 3235 2a01
00000180: 3690 c680 39cc b801 5c76 a201 59ed 3800
00000190: 023f bc80 1cd5 8281 7d2d 9f81 6184 0881
000001a0: d67f e080 765a 7b01 ae05 b981 097f b400
000001b0: ccf7 a680 fcb7 e700 b698 9d81 1073 0500
000001c0: 0391 6200 d0b9 a881 5d9a 8581 c6b8 1480
000001d0: a8fa 6300 83be d580 e93a 9b81 9b56 9b80
000001e0: 4a3f 6600 6137 1c01 aca0 4580 b490 2081
000001f0: d4ad 1081 3dd3 d380 ee5f 4581 1419 a700
00000200: daad 8d01 603b 3f80 786f 8781 7bc2 a081
00000210: e041 2681 b422 af81 8554 7b00 7413 e380
00000220: be29 bf81 e4a6 9c81 5735 ac81 24cf 3680
00000230: e16f 7c80 ca20 5601 1843 5c81 081a 8580
00000240: e4f5 5e01 8e2e 6681 549c fa80 6c91 e280
00000250: 6ed7 4400 7acf fa00 d8de 6681 8ec2 5981
00000260: f8fd a501 0e49 f000 37fe ce80 ecd5 e800
00000270: 14c4 3501 ae10 4b01 d1ee a481 defe ce80
00000280: 0127 a581 9843 a200 cc4b 7300 f10b 2300
00000290: 72fa ae81 ae98 8200 3416 a400 8fe2 3081
000002a0: 57e9 bc01 44ac 5a81 b6b3 c100 be39 8601
000002b0: 1c24 2381 2b1d 8f81 a017 7e01 b633 7080
000002c0: 42b9 7e01 d306 7e01 becb 7c01 8fd0 7481
000002d0: 3a0e 1481 f70d 5200 cccc c081 faea 3e01
000002e0: 20ff e980 012a 7b01 2841 a581 2886 da00
000002f0: 60e5 8a81 0409 0201 5cd7 0f80 3280 9000
00000300: d509 6801 ef26 b901 46f9 6301 6597 0c01
00000310: eff1 a501 24d6 8981 9392 9b01 c759 ba00
-6.5000816e-38 -3.5938056e-38 1.2159964e-38 5.675958e-38 2.418997e-38 -1.4771031e-38 9.319106e-39 -1.4356087e-38
4.6242412e-38 -5.1927704e-38 1.8490486e-38 2.2025199e-38 -6.674075e-38 2.7270064e-38 -2.0647376e-38 3.7044381e-38
-3.60022e-38 2.379391e-39 6.5684554e-38 5.6385526e-38 -1.224833e-39 1.9214302e-38 3.580224e-38 -5.787732e-38
-4.3907025e-38 4.193506e-39 -1.1994893e-38 3.694551e-38 2.1497499e-38 2.4130488e-38 3.08012e-38 3.0329267e-38
-7.1691214e-38 2.823024e-38 5.825688e-38 2.230843e-39 9.799101e-39 -1.4095328e-38 1.768186e-39 -9.400665e-39
4.978036e-38 8.039821e-39 9.947088e-39 -3.4915e-41 4.4189462e-38 1.7725924e-38 -4.173827e-38 2.423942e-38
4.4366323e-38 4.5246478e-38 -8.50431e-40 6.773038e-38 -2.58732e-38 -3.219853e-38 3.7079697e-38 -1.18497e-40
-5.613732e-38 -2.611682e-38 -5.35339e-39 -4.5609642e-38 -2.3733447e-38 -5.463986e-38 5.667145e-29 -3.4332743e-38
2.2889392e-38 5.8218705e-38 -2.1582192e-38 3.931414e-39 -1.2323138e-38 -5.9664834e-38 -6.2314084e-38 -2.791345e-38
-5.775736e-39 -7.022446e-38 -3.7308025e-38 3.248007e-38 1.2697916e-38 -3.6059602e-38 2.67736e-38 3.982642e-38
-2.2565154e-38 -5.657048e-39 -6.085417e-39 6.2982587e-38 5.640686e-39 -5.270743e-38 5.16814e-40 -1.6437828e-38
-4.5093908e-38 2.1874779e-38 -8.24455e-40 -1.9366928e-38 -6.0399417e-38 2.466673e-39 -2.2090175e-38 3.1262234e-38
-1.8235161e-38 6.788397e-38 5.967924e-38 5.227932e-39 -1.7287676e-38 -4.8060255e-38 -5.847265e-38 -2.5074232e-38
-2.061701e-38 4.6166322e-38 -6.7966417e-38 1.6575961e-38 -1.5333585e-38 2.1280001e-38 -5.789182e-38 5.00454e-40
9.051899e-39 -6.198008e-38 -4.9077984e-38 -1.902994e-39 9.181633e-39 -1.9629303e-38 -5.702254e-38 -1.426557e-38
9.389924e-39 2.8692407e-38 -6.394287e-39 -2.9491178e-38 -2.6573338e-38 -1.9453068e-38 -3.6252012e-38 1.5345524e-38
5.2044685e-38 -5.806936e-39 -4.975112e-38 -5.9053783e-38 -3.0536648e-38 -6.4334644e-38 1.1326086e-38 -2.0853636e-38
-7.0222216e-38 -5.7544826e-38 -6.325936e-38 -5.033425e-39 -1.1427736e-38 3.9329117e-38 -4.0455756e-38 -1.2223459e-38
4.0951378e-38 -4.227773e-38 -2.3014954e-38 -2.080699e-38 6.322095e-39 2.3033303e-38 -4.240421e-38 -3.9996191e-38
6.0975855e-38 2.2066726e-38 -1.9009307e-38 2.1382576e-38 3.338513e-38 3.7297179e-38 -6.058677e-38 -1.9009541e-38
-6.0667395e-38 1.4901598e-38 1.0588273e-38 3.218526e-39 -6.4276877e-38 1.1993386e-38 1.5068986e-38 -3.2488642e-38
6.939512e-38 -4.016387e-38 1.7788719e-38 4.930668e-38 -2.996428e-38 -5.257176e-38 4.6669382e-38 -1.0304126e-38
4.6785348e-38 4.6657328e-38 4.6431268e-38 -4.4965356e-38 -2.7193514e-38 7.53552e-39 -7.082353e-38 3.5066076e-38
-2.1489192e-38 4.6131555e-38 -6.070492e-38 2.0068264e-38 -5.102233e-38 2.3883697e-38 -1.454789e-39 1.3270299e-38
4.2618724e-38 6.8014134e-38 4.187216e-38 2.582256e-38 6.0958585e-38 -5.063313e-38 5.714833e-38 1.7113608e-38

F.nbr.0.linears.0.bias f4 [20]
00000000: 359e 8481 33a0 8f80 585e 0c00 2e32 6c81
00000010: 7d59 8e01 3fda b500 3499 1301 3a7e 9181
00000020: 4eaf 2881 8e52 9e01 a5f5 9701 824d b801
00000030: a43d 3800 4365 8401 4818 1181 e8c2 ce00
00000040: 596b 7f01 b0f2 a581 e89a ec00 6ed5 2e01
-4.871616e-38 -1.3189945e-38 1.13587e-39 -4.3382356e-38 5.229097e-38 1.6700517e-38 2.7109554e-38 -5.3445714e-38
-3.0982502e-38 5.8158494e-38 5.582112e-38 6.7702143e-38 5.1649e-39 4.8634445e-38 -2.6649715e-38 1.8988031e-38
4.691312e-38 -6.0959667e-38 2.1728747e-38 3.211188e-38

F.out.weight f4 [3, 40]
00000000: d1ba 063d 3bc7 023d 5b61 febd cfab 3a3e
00000010: 2732 a73d 61e9 93be 2a88 01be 8bde d8bd
00000020: e840 45be dc8c edbd 4a18 773d 5674 63bc
00000030: 51c0 58bd 11ee 463e 04a3 0ebe d96a 023d
00000040: fb50 663e 20ba 5b3e 7bda f53c 558c bdbd
00000050: 8201 bc01 fa2d ad80 ce53 6481 85e0 9700
00000060: 92a0 b600 26ec b201 883d 7d01 ce3b 5200
00000070: d4be 2d01 b227 8c81 d02e 2f81 6cd6 e500
00000080: 777d 4101 c245 5581 65ec 6701 9c94 e080
00000090: d23c 5281 14a4 ad81 9413 3900 dcdd b301
000000a0: 6b49 123d 912a 52be 7ce9 76be ce04 823e
000000b0: 8570 a4bd 48da 3dbe 7b8f 7a3e 7b69 8a3e
000000c0: 58a9 973e e8db 14bd 5dc1 a43e 6f1a 7dbc
000000d0: d014 a83d 1e89 973e 4530 eebe 95a7 2abe
000000e0: a592 91be ad74 d5be cce1 a1be c810 b43e
000000f0: cd0a a281 c053 3680 6039 1280 5aa4 f300
00000100: da14 9301 8538 1e80 4347 1101 8cee 2081
00000110: b409 7c81 0cae 2e81 f420 b001 4402 dd80
00000120: dab4 0e81 e790 8381 ab65 ef07 253f 6680
00000130: d2df 6781 7c63 de00 8284 3401 1422 9f00
00000140: 1c29 bd3d 5056 193d d563 683d 5d7a 253e
00000150: 8aca 103e 8915 363e dc10 75bd 5883 4fb9
00000160: aca2 23be 7d59 41bd 0669 8dbd 8dad 1dbe
00000170: 6218 f73d 6279 88bd 180b 40bc 18b5 983d
00000180: 9f6d 493c c1cb 933d 6dbd 003e 1199 2fbe
00000190: 9433 0a81 4baa ba81 9a02 0401 e0e6 1480
000001a0: b20c 8401 6204 6480 3f6f 6581 2c37 e600
000001b0: 6c92 4600 ae04 ee00 d04d b300 b568 3080
000001c0: 98b9 e180 88f0 1401 bfee 8501 b437 5801
000001d0: ff78 1201 4a1f a800 f351 4900 7058 4801
0.032893006 0.031928282 -0.12420913 0.18229602 0.08163863 -0.2888899 -0.12649599 -0.10589322
-0.19263041 -0.115991324 0.0603259 -0.013882717 -0.052917782 0.19426753 -0.13929373 0.03184018
0.22491829 0.2145772 0.030011406 -0.09255282 6.9062457e-38 -1.5904034e-38 -4.1937113e-38 1.3947702e-38
1.6771662e-38 6.572573e-38 4.6512908e-38 7.551965e-39 3.1911994e-38 -5.148484e-38 -3.217601e-38 2.1107249e-38
3.5538518e-38 -3.917197e-38 4.2597604e-38 -2.0624462e-38 -3.8614545e-38 -6.3785604e-38 5.241647e-39 6.607257e-38
0.035714548 -0.2052405 -0.24112505 0.2539429 -0.08029274 -0.18540299 0.24468796 0.270336
0.29621387 -0.03634253 0.32178774 -0.015448197 0.08207095 0.295968 -0.46521202 -0.1666549
-0.28432193 -0.4169058 -0.31617582 0.35169053 -5.95249e-38 -4.98916e-39 -1.673621e-39 2.2374984e-38
5.402919e-38 -2.77534e-39 2.6683422e-38 -2.9558508e-38 -4.6292052e-38 -3.2083625e-38 6.4699475e-38 -2.0296457e-38
-2.6211036e-38 -4.8329725e-38 3.6020478e-34 -9.389873e-39 -4.2588582e-38 2.0423168e-38 3.3155848e-38 1.4614069e-38
0.092363566 0.03743583 0.056735832 0.16159959 0.14139763 0.17781653 -0.05983053 -0.00019789988
-0.15980023 -0.047204483 -0.06904797 -0.15398236 0.120651975 -0.06663777 -0.011721395 0.07456416
0.012294202 0.07216597 0.1257226 -0.17148234 -2.5383602e-38 -6.856997e-38 2.4246438e-38 -1.919532e-39
4.850736e-38 -9.185122e-39 -4.2140472e-38 2.1141956e-38 6.481011e-39 2.1858527e-38 1.6466468e-38 -4.445666e-39
-2.0729565e-38 2.735588e-38 4.919907e-38 3.97129e-38 2.6902775e-38 1.5439588e-38 6.733389e-39 3.679765e-38

F.out.bias f4 [3]
00000000: 9589 97bc 7d7e 19bd 73db eb3d
-0.018498221 -0.037474144 0.11516466

G.0.linears.0.weight f4 [2, 3]
00000000: 6cef f03d d683 16be b37e ebbb 9a6d 83bf
00000010: 9649 c63e 04ee 5abf
0.11764416 -0.14698729 -0.0071867346 -1.0267823 0.38728017 -0.85519433

G.0.linears.0.bias f4 [2]
00000000: ab4f a2bd fe62 1abf
-0.07925352 -0.603073

W.0.linears.0.weight f4 [2, 3]
00000000: 56a5 debe 75cf 713e 8dc4 38be 2f6c 1e3e
00000010: b552 a83e a9c3 fdbd
-0.43485516 0.23614295 -0.18043728 0.15470956 0.328756 -0.12390835

W.0.linears.0.bias f4 [2]
00000000: aac5 ecbc 2563 4abe
-0.028902847 -0.19764383

L.0.linears.0.weight f4 [1, 5]
00000000: 75f0 04be a6fe e3be 15ad 053e 69c9 e63e
00000010: a1a8 6ebe
-0.12982352 -0.4453022 0.13054307 0.4507554 -0.23306514

c0 f4 [1, 3]
00000000: b848 08c0 7f87 bb3f 4cfa 973f
-2.1294384 1.4650725 1.187326

h0 f4 [1, 2]
00000000: 0000 0000 0000 0000
0.0 0.0
