results/SingleLayerExponentialHawkes/params/params.pth (torch_old, 3026 bytes, 11 tensors)

Fc.0.weight f4 [5, 6]
0	0x3c5def98	0.013545893
1	0xbe23ce51	-0.15996672
2	0x3e6f0d6a	0.23344961
3	0x3e88fa13	0.2675329
4	0x3d95ed87	0.07320695
5	0xbe8f76d9	-0.2802036
6	0xbe34c441	-0.1765299
7	0x3e000b9c	0.12504429
8	0xbcaecd20	-0.021338046
9	0x3d6349e7	0.0554904
10	0xbd736515	-0.05942257
11	0xbe266c64	-0.16252285
12	0xbe62ca28	-0.22147429
13	0x3e26cf4b	0.16290013
14	0xbce8e42d	-0.028429115
15	0x3d17c2a7	0.03705087
16	0xbd121b62	-0.035670646
17	0xbd9796b6	-0.07401793
18	0x3d167eb2	0.03674192
19	0x3dae3a1f	0.085071795
20	0xbe0e3f64	-0.13891369
21	0x3e2d13b4	0.16902047
22	0xbd95fe8e	-0.07323943
23	0x3ebd7dee	0.3701014
24	0xbdd8d0f6	-0.10586731
25	0x3e3d44a9	0.18483223
26	0xbdb6787c	-0.08909699
27	0xbe06c394	-0.13160545
28	0xbd02620b	-0.031831782
29	0x3edfa91a	0.43683702

Fc.0.bias f4 [5]
0	0xbd7d6bf6	-0.061870538
1	0x3d8cd394	0.06876293
2	0x3c9fd0c9	0.019508736
3	0xbd31ccff	-0.04340839
4	0x3d931d98	0.07183379

Fh.0.weight f4 [1, 6]
0	0xbd8e8074	-0.06958094
1	0xbde41054	-0.11135927
2	0x3d71a28e	0.058992915
3	0xbc0aec28	-0.008479156
4	0xbe495eed	-0.19665118
5	0xbd33cd1d	-0.043896783

Gc.0.weight f4 [5, 6]
0	0xbf07e2af	-0.53080267
1	0x3ec03f3c	0.37548244
2	0xbecf1425	-0.40445057
3	0x3eb9f749	0.36321476
4	0x3ddbe77c	0.107375115
5	0x3efa69bc	0.48908794
6	0xbccdb5d6	-0.02511112
7	0x3d892764	0.06696966
8	0xbd87783a	-0.06614728
9	0x3e65079b	0.22366183
10	0xbd0fbd4f	-0.035092648
11	0x3f0b1960	0.54335594
12	0xbe602d52	-0.21892288
13	0xbd645368	-0.055743605
14	0xbe1c5909	-0.15268339
15	0x3f0b9781	0.5452805
16	0x3dacba2d	0.08433948
17	0x3e682d87	0.22673617
18	0xbf7ade9b	-0.9799592
19	0x3eccb188	0.39979196
20	0xbea492cf	-0.32143256
21	0x3f2290ac	0.63502
22	0x3ee3ca9c	0.44490516
23	0x3f464e72	0.7746345
24	0xbef4d67c	-0.4781989
25	0x3ed38673	0.41313514
26	0x3d988aa9	0.07448322
27	0x3e7e85a3	0.24855666
28	0x3e90b375	0.28261915
29	0x3e85d7b8	0.26141143

Gc.0.bias f4 [5]
0	0x3e91915b	0.2843121
1	0x3dabbfc7	0.08386188
2	0x3dd74376	0.10510914
3	0x3ed91b4c	0.42403638
4	0x3e89696d	0.26838246

Gh.0.weight f4 [1, 6]
0	0x1c9e91d2	1.0493257e-21
1	0x185cf494	2.8557814e-24
2	0x17073dbe	4.369878e-25
3	0x1814d02a	1.9233648e-24
4	0x164e0ec6	1.6645209e-25
5	0x116855e8	1.8328045e-28

Z.0.weight f4 [5, 6]
0	0x3d911298	0.070836246
1	0x3c874f4f	0.01651731
2	0x3e221654	0.1582883
3	0x3e6a7367	0.22895585
4	0xbd15eb4a	-0.036601342
5	0xbea6c81e	-0.32574552
6	0xbcf1d75f	-0.029521642
7	0x3c27e1ff	0.010246753
8	0xbd1d3caa	-0.038387932
9	0x3e2e42fe	0.17017743
10	0x3bcf62bc	0.0063289087
11	0x3e346332	0.17615965
12	0xbd6f7120	-0.058457494
13	0x3dc858c1	0.097825535
14	0xbd8b515f	-0.0680263
15	0xbe5aa494	-0.21351844
16	0x3db30c3c	0.08742568
17	0xbe83ca1b	-0.25740132
18	0xbe4df8ae	-0.20114395
19	0xbdda189c	-0.10649225
20	0x3e1c9f05	0.15295036
21	0xbd630906	-0.055428527
22	0xbcc382ff	-0.023866175
23	0xbecbb433	-0.3978592
24	0xbd0f7061	-0.035019282
25	0xbc441dba	-0.011969978
26	0x3d82d007	0.06387334
27	0x3e3e27d9	0.18569888
28	0xbe112aea	-0.14176527
29	0xbe77c1e6	-0.2419506

Z.0.bias f4 [5]
0	0xbd7775a1	-0.060414914
1	0x3d47b5fd	0.048757542
2	0xbd4045b7	-0.046941485
3	0x3d8de71b	0.069288455
4	0xbcd46c91	-0.025930675

L.0.weight f4 [1, 6]
0	0xbeddca31	-0.43318322
1	0x3e8aa700	0.27080536
2	0xbdc7d14f	-0.09756719
3	0xbf1fb268	-0.623816
4	0xbebe3dd7	-0.37156555
5	0x3e474caf	0.19462846

A.0.weight f4 [1, 2]
0	0x3f423d1f	0.75874513
1	0x161acf52	1.250544e-25

u0p f4 [1, 5]
0	0xc0a71af3	-5.2220397
1	0xc07f590a	-3.9898095
2	0xc0986e0f	-4.763435
3	0x408e4bc0	4.446747
4	0x409c44f2	4.883416
