workspace/point_processes/dataset:powerlaw_hawkes-pid:18034/params.pth (torch_old, 14850 bytes, 49 tensors)

F.linears.0.weight f4 [20, 5]
-0.009763091 0.08670902 -0.0045617167 0.15714698 0.15358533 0.18428425 -0.24268402 -0.1503506
-0.53222275 -0.37605786 0.042495564 -0.014690273 0.35277593 0.31704128 0.1788897 0.41284284
-0.0063649993 -0.09688648 -0.31486702 -0.23299204 0.09039072 -0.05207807 -0.32474393 -0.16188593
-0.19788735 -0.2133437 -0.07625295 -0.32870108 -0.010434922 -0.028789187 0.29794273 -0.08053524
-0.0098394975 0.066575505 0.22934738 0.23655047 -0.038586162 0.004639489 -0.21965395 0.011828281
0.008000738 -0.021560121 0.22617777 0.37929666 0.59635484 0.113067545 0.10019704 0.0022383956
-0.17904015 -0.2947271 0.4730403 -0.11801641 -0.23605862 -0.0780683 -0.20550342 0.08901581
-0.12649125 -0.29480422 -0.48746112 -0.3651415 0.007255638 -0.2656969 0.19477427 -0.024714133
0.4124633 0.24201769 -0.01038911 -0.16617434 -0.13371399 -0.18747143 -0.06595938 0.048273347
0.11932261 0.043489125 -0.12783682 -0.0006842519 0.14909987 0.096060045 -0.15701354 -0.08913281
0.008309262 0.09496996 -0.2221323 -0.22860953 -0.32011148 0.07535819 -0.26679814 -0.4004669
-0.16936992 -0.2031248 0.07093429 0.017906941 -0.36708483 -0.42047027 -0.3422177 0.1191812
0.088877305 -0.25422215 -0.20869057 -0.2915374
00000000: 5ff5 1fbc 8094 b13d 747a 95bb 23eb 203e
00000010: 7945 1d3e 03b5 3c3e 2982 78be 82f5 19be
00000020: c03f 08bf a88a c0be d40f 2e3d 79af 70bc
00000030: 0c9f b43e 3c53 a23e dd2e 373e 2360 d33e
00000040: 7c91 d0bb 6b6c c6bd 4036 a1be 7795 6ebe
00000050: c51e b93d d04f 55bd d644 a6be 6dc5 25be
00000060: fba2 4abe c576 5abe 822a 9cbd 824b a8be
00000070: 3cf7 2abc 4dd7 ebbc f38b 983e a9ef a4bd
00000080: d835 21bc bd58 883d 0ada 6a3e 493a 723e
00000090: 860c 1ebd db06 983b f7ec 60be 68cb 413c
000000a0: 8715 033c da9e b0bc 259b 673e 2c33 c23e
000000b0: b6aa 183f f58f e73d 1b34 cd3d 0cb2 123b
000000c0: 4d56 37be 78e6 96be 5732 f23e 96b2 f1bd
000000d0: 5ab9 71be 46e2 9fbd 7d6f 52be ec4d b63d
000000e0: ec86 01be 94f0 96be 8194 f9be d4f3 babe
000000f0: b4c0 ed3b 6d09 88be e872 473e 4b75 cabc
00000100: 642e d33e 7cd3 773e 1637 2abc 9b29 2abe
00000110: 52ec 08be 83f8 3fbe b615 87bd 46ba 453d
00000120: 6a5f f43d a721 323d a8e7 02be 5e5f 33ba
00000130: a3ad 183e 21bb c43d 28c8 20be 438b b6bd
00000140: 9223 083c 9c7f c23d a676 63be 9e18 6abe
00000150: a7e5 a3be 6555 9a3d c499 88be ff09 cdbe
00000160: 4f6f 2dbe f3ff 4fbe ff45 913d 94b1 923c
00000170: 8bf2 bbbe e147 d7be 2937 afbe 4615 f43d
00000180: 4e05 b63d 6829 82be fbb2 55be 6444 95be

F.linears.0.bias f4 [20]
-0.10569453 0.3619881 -0.15267572 -0.051234152 0.23655832 0.28219503 -0.1351787 -0.049906
-0.16398029 0.12476601 0.10565179 0.25016302 -0.18979998 0.32000005 -0.05058592 0.30730945
0.4684812 0.22993514 0.3607887 0.5034922
00000000: 6076 d8bd 8156 b93e 0657 1cbe e7da 51bd
00000010: 583c 723e de7b 903e 496c 0abe 3c6a 4cbd
00000020: 73ea 27be 5285 ff3d f75f d83d 5e15 803e
00000030: ed5a 42be 0cd7 a33e 2f33 4fbd aa57 9d3e
00000040: c5dc ef3e 1e74 6b3e 4cb9 b83e dde4 003f

F.linears.1.weight f4 [3, 20]
-0.09237722 0.16082226 -0.20511292 0.057920188 0.46734345 0.37716514 0.16954534 0.19954616
-0.039702866 -0.08804069 0.31269717 0.31314752 0.10413935 0.22915559 -0.20667785 0.13599399
0.1155791 0.34864387 0.72570634 0.11217106 0.06430689 -0.04068396 -0.20083301 -0.22713701
-0.083216846 0.38210058 -0.20142607 -0.3938817 -0.24893415 0.16798064 -0.12102848 0.07127848
-0.20193686 -0.042892084 0.3113898 0.1716499 0.22166423 0.07333183 0.22808924 0.115311205
-0.20477906 0.5374082 -0.48541716 0.37781382 0.14908649 -0.25746936 -0.19082862 -0.052961126
-0.55643225 0.15685293 0.101690575 0.44189432 -0.50235724 0.3820443 -0.07570114 -0.015241975
0.2663337 0.1265874 0.76489323 0.36627007
00000000: 4530 bdbd 97ae 243e 1f09 52be b83d 6d3d
00000010: a447 ef3e ca1b c13e 4b9d 2d3e d455 4c3e
00000020: 799f 22bd ad4e b4bd d819 a03e df54 a03e
00000030: 0347 d53d c3a7 6a3e 5ca3 53be 0242 0b3e
00000040: bcb4 ec3d 7381 b23e e4c7 393f f1b9 e53d
00000050: 55b3 833d 39a4 26bd 2ba7 4dbe 9b96 68be
00000060: 986d aabd b0a2 c33e a342 4ebe ddaa c9be
00000070: 98e8 7ebe 1e03 2c3e c8dd f7bd 74fa 913d
00000080: 89c8 4ebe 9caf 2fbd 7c6e 9f3e fec4 2f3e
00000090: f3fb 623e 002f 963d 3a90 693e 4828 ec3d
000000a0: 9ab1 51be 9593 093f 9988 f8be d070 c13e
000000b0: 21aa 183e 06d3 83be 9468 43be c4ed 58bd
000000c0: 5872 0ebf 0e9e 203e 2643 d03d f93f e23e
000000d0: 7c9a 00bf 4f9b c33e 3309 9bbd 7ab9 79bc
000000e0: e45c 883e 21a0 013e 0bd0 433f c087 bb3e

F.linears.1.bias f4 [3]
0.23480593 0.293475 0.05469702
00000000: f770 703e 5b42 963e fc09 603d

G.0.linears.0.weight f4 [20, 3]
-0.04554082 -0.041927505 0.30685842 0.07871316 0.07396221 0.013236769 0.15793562 -0.08455685
-0.06706254 0.108073875 -0.016681634 0.04219329 0.008755032 0.11850766 0.18823741 0.0037053847
-0.081313305 0.12954086 0.02040579 -0.1388611 -0.098801985 0.16617854 0.09090263 0.13392632
-0.10938131 0.0053011407 0.1170685 -0.045024596 0.101548575 -0.033559546 0.14334504 -0.019925838
0.4551303 -0.015072959 -0.082096204 -0.07866484 0.03844684 0.106921874 -0.16297996 -0.17571044
0.06679547 0.10441496 0.10547795 -0.05767855 0.19391876 0.14862996 0.0077338764 0.2822018
-0.032043535 0.09475331 -0.16917111 -0.032607894 -0.04049296 0.0671782 0.09123079 0.03447178
0.04434486 -0.014362098 -0.13321277 -0.08215503
00000000: 0389 3abd 2dbc 2bbd 8c1c 9d3e 5d34 a13d
00000010: 8079 973d 08df 583c e0b9 213e 242c adbd
00000020: 1658 89bd d655 dd3d eca7 88bc dfd2 2c3d
00000030: 4471 0f3c 25b4 f23d 4fc1 403e 0ad6 723b
00000040: 9787 a6bd 5ca6 043e 0b2a a73c 9b31 0ebe
00000050: b258 cabd b52a 2a3e 282b ba3d fb23 093e
00000060: 4f03 e0bd 31b5 ad3b 9cc1 ef3d b66b 38bd
00000070: b3f8 cf3d bc75 09bd 0bc9 123e 833b a3bc
00000080: d706 e93e 92f4 76bc 0e22 a8bd 081b a1bd
00000090: 6f7a 1d3d dbf9 da3d 38e4 26be 70ed 33be
000000a0: 10cc 883d 83d7 d53d d304 d83d 5840 6cbd
000000b0: a492 463e 7432 183e 756c fd3b c17c 903e
000000c0: 1540 03bd 060e c23d 313b 2dbe db8f 05bd
000000d0: f2db 25bd b994 893d 35d7 ba3d 4832 0d3d
000000e0: f5a2 353d 014f 6bbc ee68 08be e540 a8bd

G.0.linears.0.bias f4 [20]
-0.15058254 0.12756364 0.07050967 0.1352334 -0.1832121 -0.010050671 -0.079140894 0.11425224
-0.11899408 -0.056063253 0.05386012 -0.043298706 -0.20491686 -0.11025044 -0.064532876 -0.08899124
0.13337159 -0.029121723 0.012763875 0.10246093
00000000: 4f32 1abe 0ba0 023e 6067 903d a07a 0a3e
00000010: f49b 3bbe 92ab 24bc 9f14 a2bd 14fd e93d
00000020: 2bb3 f3bd 95a2 65bd 6e9c 5c3d fc59 31bd
00000030: bad5 51be fcca e1bd d029 84bd 0a41 b6bd
00000040: 9092 083e ae90 eebc 921f 513c 09d7 d13d

G.0.linears.1.weight f4 [2, 20]
0.0019034488 0.055378955 0.18584226 -0.10023371 0.1525059 -0.2429947 0.07499794 -0.08025902
0.20845528 0.2053418 -0.14650781 0.14302187 -0.048895903 0.14871234 -0.12620409 -0.027030079
0.031190842 -0.025078634 -0.12244671 -0.097278 -0.27275229 -0.023876369 -0.029267391 0.023725804
-0.20634024 0.12636952 0.04726253 -0.26504156 -0.078448005 0.11077046 -0.30959418 0.09501364
-0.005484214 -0.05772212 -0.09158713 -0.47189254 0.14207102 -0.008059774 -0.29527563 0.050165582
00000000: 257d f93a 0bd5 623d 6f4d 3e3e 5547 cdbd
00000010: 822a 1c3e 9ad3 78be 8598 993d d75e a4bd
00000020: 4d75 553e 1f45 523e 2506 16be 5374 123e
00000030: 1247 48bd 0c48 183e a53b 01be 2f6e ddbc
00000040: f083 ff3c b571 cdbc 57c5 fabd b039 c7bd
00000050: 30a6 8bbe 6098 c3bc 2bc2 efbc 9e5c c23c
00000060: db4a 53be 0367 013e 5b96 413d 87b3 87be
00000070: 59a9 a0bd 9fdb e23d 2183 9ebe 8396 c23d
00000080: ecb4 b3bb 086e 6cbd 0992 bbbd e69b f1be
00000090: 117b 113e 240d 04bc 5e2e 97be 6d7a 4d3d

G.0.linears.1.bias f4 [2]
-0.048949867 0.17365178
00000000: a87f 48bd c6d1 313e

L.0.linears.0.weight f4 [20, 5]
0.001176655 -0.10191204 -0.14289354 -0.26666844 -0.17418247 -0.33692116 -0.05153942 0.035693966
0.024057368 -0.13447586 0.07009619 0.07702996 0.19144857 -0.37551716 -0.083999865 -0.17486972
-0.102022074 -0.21674433 -0.17116277 -0.22258124 -0.09031747 -0.043448232 -0.24923253 -0.1847175
-0.2526541 0.014317581 0.0020229092 0.1537755 -0.29186288 -0.18822633 0.042693213 -0.05053166
0.15774325 -0.017878873 0.12429281 0.1418155 0.12403677 0.20785375 -0.10470243 -0.10321529
0.14079086 0.04486391 0.32873556 0.13537897 0.21036904 -0.2592257 -0.00759014 0.025895523
-0.31967866 0.23098497 -0.15181407 -0.06776796 -0.10462163 0.11090102 0.1368696 -0.024856033
0.09213395 -0.14096831 -0.07528255 -0.15381847 -0.023191957 -0.12418011 0.012362223 0.06847845
0.05766671 -0.1520165 0.08169281 0.08356855 0.18513656 -0.18364607 0.1475018 -0.09637309
0.1256281 0.005931268 0.015254715 0.089281924 -0.15372626 -0.12731098 -0.16770607 0.15390524
0.038684357 0.05083303 -0.10577594 0.15311377 0.07782235 0.06357174 0.06279916 0.07630067
0.10607505 0.14348726 -0.020683732 0.02878763 -0.2394411 -0.18187392 -0.20798443 -0.2296342
0.07789138 -0.20310351 -0.111173056 -0.1705297
00000000: fd39 9a3a 42b7 d0bd af52 12be c488 88be
00000010: e45c 32be ee80 acbe 001b 53bd d633 123d
00000020: f513 c53c 0ab4 09be 978e 8f3d e2c1 9d3d
00000030: 180b 443e c943 c0be 1f08 acbd 0c11 33be
00000040: f3f0 d0bd 3af2 5dbe 4b45 2fbe 56ec 63be
00000050: 5ef8 b8bd c6f6 31bd d036 7fbe 9626 3dbe
00000060: e15b 81be 4a94 6a3c c992 043b 5377 1d3e
00000070: 0d6f 95be 67be 40be 14df 2e3d 49fa 4ebd
00000080: 7287 213e b776 92bc 3b8d fe3d 1538 113e
00000090: fd06 fe3d 9dd7 543e 3a6e d6bd 8a62 d3bd
000000a0: 7b2b 103e 38c3 373d 0750 a83e c9a0 0a3e
000000b0: fb6a 573e 3bb9 84be b6b6 f8bb d922 d43c
000000c0: ecac a3be 5387 6c3e 2675 1bbe eec9 8abd
000000d0: dd43 d6bd 1320 e33d 8b27 0c3e e19e cbbc
000000e0: b9b0 bc3d ff59 10be bd2d 9abd 9782 1dbe
000000f0: 0ffd bdbc 2452 febd ec8a 4a3c 6e3e 8c3d
00000100: ee33 6c3d 37aa 1bbe 8f4e a73d fd25 ab3d
00000110: 7094 3d3e b70d 3cbe b60a 173e 415f c5bd
00000120: a7a4 003e 155b c23b eaee 793c 71d9 b63d
00000130: 6b6a 1dbe cf5d 02be 24bb 2bbe 5699 1d3e
00000140: 7d73 1e3d 4c36 503d 0ea1 d8bd dbc9 1c3e
00000150: 5361 9f3d e731 823d d99c 803d 8743 9c3d
00000160: e03d d93d 53ee 123e ee70 a9bc 09d4 eb3c
00000170: 0c30 75be 283d 3abe dff9 54be 3a25 6bbe
00000180: 8485 9f3d 5efa 4fbe b3ae e3bd 569f 2ebe

L.0.linears.0.bias f4 [20]
0.20927452 -0.24410324 0.6117058 0.078127116 0.06699039 0.40036878 -0.37864658 0.5243695
-0.13109688 0.37747744 -0.23886815 -0.12133607 0.22770908 -0.20280537 0.19780959 0.16709594
-0.3046276 0.14622645 -0.05621243 -0.092476435
00000000: 0f4c 563e 33f6 79be c098 1c3f 1c01 a03d
00000010: 4232 893d 23fd cc3e f7dd c1be 143d 063f
00000020: 433e 06be b944 c13e da99 74be 0c7f f8bd
00000030: 922c 693e 36ac 4fbe 998e 4a3e 331b 2b3e
00000040: 26f8 9bbe 63bc 153e 013f 66bd 4964 bdbd

L.0.linears.1.weight f4 [1, 20]
0.12364157 0.015169432 -0.12661351 0.21727154 0.1747886 -0.29664615 0.15457098 -0.1991445
0.067452535 -0.3960935 0.044939708 0.08672353 -0.1194678 0.28582907 -0.023427691 -0.0662999
0.13622211 0.052274585 0.33487374 0.06977691
00000000: cb37 fd3d 3689 783c f9a6 01be 6e7c 5e3e
00000010: c8fb 323e 01e2 97be db47 1e3e 89ec 4bbe
00000020: 8e24 8a3d c4cc cabe b312 383d 1b9c b13d
00000030: 89ab f4bd 3058 923e 6eeb bfbc 3ec8 87bd
00000040: cf7d 0b3e e01d 563d 9274 ab3e 32e7 8e3d

W.linears.0.weight f4 [20, 4]
0.15667637 0.14473423 -0.25826603 0.23992488 0.1367435 -0.016680434 -0.011396372 0.384538
0.4286541 -0.24741143 0.3067508 0.25224236 0.33169317 0.113695316 -0.012246907 0.46184888
-0.11078904 0.0015296588 -0.041811425 -0.25741732 0.32547763 -0.27141523 0.32031435 0.42211375
0.35904673 -0.0017593424 0.5298731 0.532155 0.1872009 -0.12568384 -0.07795264 0.32598338
-0.046824444 0.024074236 0.00879673 -0.23609123 0.062752105 -0.24638966 -0.27231202 0.117995866
0.43615276 -0.2976841 0.208812 0.36607307 -0.25471297 0.04070247 -0.20813678 -0.19579384
-0.23894392 -0.04244416 -0.048732482 -0.14991331 -0.44265795 0.022888875 -0.2524675 0.015181579
0.23433664 -0.18062317 -0.17805447 0.2576981 0.26742506 -0.18927142 -0.11475065 0.2745306
0.3713815 0.103484504 0.37138683 0.42842534 -0.23192523 0.23230782 -0.59866744 0.30185696
-0.05982487 0.087240234 0.20917185 0.23514487 0.41371733 -0.1294189 0.07476412 0.5072062
00000000: c56f 203e 3635 143e 723b 84be deae 753e
00000010: 7d06 0c3e 68a5 88bc d9b7 3abc 2ae2 c43e
00000020: 8d78 db3e 6c59 7dbe 710e 9d3e e925 813e
00000030: b0d3 a93e 17d9 e83d 40a7 48bc 7577 ec3e
00000040: 5de5 e2bd d57e c83a 7542 2bbd 34cc 83be
00000050: 01a5 a63e f0f6 8abe 3e00 a43e 4b1f d83e
00000060: f9d4 b73e bc99 e6ba c3a5 073f 4f3b 083f
00000070: 98b1 3f3e 44b3 00be a2a5 9fbd 4be7 a63e
00000080: fdca 3fbd 5537 c53c 2920 103c e6c1 71be
00000090: 2d84 803d 924d 7cbe 7b6c 8bbe d1a7 f13d
000000a0: 6a4f df3e 0d6a 98be d0d2 553e ee6d bb3e
000000b0: bd69 82be a2b7 263d cf21 55be 2e7e 48be
000000c0: b7ad 74be edd9 2dbd b69b 47bd e082 19be
000000d0: 10a4 e2be 7381 bb3c 6c43 81be 28bc 783c
000000e0: f2f5 6f3e 48f5 38be e953 36be 01f1 833e
000000f0: f0eb 883e 5ed0 41be 6402 ebbd 468f 8c3e
00000100: b725 be3e afef d33d 6a26 be3e 915a db3e
00000110: cf7d 6dbe 1ae2 6d3e 4542 19bf ff8c 9a3e
00000120: ec0a 75bd 02ab b23d 2531 563e d1c9 703e
00000130: c2d2 d33e 6386 04be ee1d 993d 44d8 013f

W.linears.0.bias f4 [20]
0.24034019 0.21214959 0.53832084 0.35914677 -0.38664556 0.38903138 0.5896814 0.27607858
-0.33154076 0.21196602 0.39755267 -0.17472339 -0.24844435 -0.014712133 0.213653 0.34868738
0.38449064 0.23251681 0.20553209 0.23357576
00000000: bd1b 763e be3d 593e 65cf 093f 16e2 b73e
00000010: 68f6 c5be 1f2f c73e 5cf5 163f 2c5a 8d3e
00000020: b6bf a9be 9f0d 593e 068c cb3e b0ea 32be
00000030: 3268 7ebe 290b 71bc dac7 5a3e 2787 b23e
00000040: f5db c43e e318 6e3e 0177 523e 7c2e 6f3e

W.linears.1.weight f4 [2, 20]
0.26548642 0.38067105 -0.10990212 0.10625514 -0.16153514 -0.12476089 0.08107284 0.2553423
-0.25926936 0.2736931 0.07343391 0.024378784 -0.2103001 0.06794027 0.3155843 0.19685557
0.07548011 0.48907447 0.28515184 0.16762173 0.11338094 0.7133627 0.8332433 0.46261933
-0.23331718 0.66784143 0.7398731 0.39562538 -0.22605257 0.1336942 0.60754544 -0.6579451
-0.44227645 -0.6210902 0.44169837 0.48948732 0.52628523 -0.4893897 0.15851074 0.6907503
00000000: d6ed 873e 51e7 c23e 5d14 e1bd 4b9c d93d
00000010: 7869 25be a382 ffbd 8409 a63d 3abc 823e
00000020: f4be 84be 8121 8c3e 8564 963d 04b6 c73c
00000030: e958 57be 4524 8b3d 4494 a13e 8294 493e
00000040: 5195 9a3d f867 fa3e 6cff 913e 08a5 2b3e
00000050: 4434 e83d f09e 363f 6f4f 553f 71dc ec3e
00000060: b3ea 6ebe a8f7 2a3f 5368 3d3f 698f ca3e
00000070: 537a 67be 22e7 083e 1988 1b3f 176f 28bf
00000080: 0f72 e2be c4ff 1ebf 4a26 e23e 159e fa3e
00000090: a1ba 063f 4991 fabe a450 223e 03d5 303f

W.linears.1.bias f4 [2]
0.15549245 0.33674553
00000000: 6a39 1f3e e969 ac3e

c0 f4 [3]
6.381271 -6.5525084 -2.9920938
00000000: 5f33 cc40 26ae d1c0 777e 3fc0

h0 f4 [2]
0.0 0.0
00000000: 0000 0000 0000 0000

exp_avg f4 [20, 5]
-11.171152 11.108807 1.3381463 -1.6581128 21.535786 -26.94067 2.4039018 -5.559684
1.2780616 -20.051956 5.1029263 -34.20922 -27.861048 -1.7288884 43.775524 -3.3453805
-2.843974 3.5847068 -0.76780903 -2.4909887 8.560401 0.38287553 7.82078 9.166738
-5.0226755 -63.642345 32.897545 9.670802 5.1823583 8.481658 -0.36163083 13.241228
-3.8167298 8.829184 -0.9415899 -4.5738564 4.7573633 2.5541244 -2.185234 -2.93166
62.70903 165.76561 18.203754 8.242366 2.389555 -18.756731 -116.120125 -10.867311
-0.45380402 -18.103264 -3.7350218 -1.6307791 1.5605897 6.5391593 -5.5020037 -53.349068
21.785608 5.103497 0.32089263 -48.015785 79.619835 29.405418 29.933681 2.6281536
-22.77769 -7.2790337 26.528683 11.70435 2.2943563 -20.57773 -36.381527 -130.70503
-19.600458 -10.59844 -7.4899354 -28.713657 153.50723 23.730177 2.83671 -37.10314
-65.039276 30.757336 8.012337 1.4547422 -57.89727 -11.365255 0.7570126 -1.4855996
5.533106 -8.477915 -122.562 294.05417 33.24856 0.33998966 -121.89728 -40.438766
-0.6655138 11.096159 1.4100171 -49.573036
00000000: 0abd 32c1 acbd 3141 6148 ab3f 0a3d d4bf
00000010: 4a49 ac41 7e86 d7c1 87d9 1940 eee8 b1c0
00000020: 8697 a33f 686a a0c1 2c4b a340 3ed6 08c2
00000030: 6de3 dec1 374c ddbf 231a 2f42 b71a 56c0
00000040: ac03 36c0 d66b 6540 228f 44bf 5c6c 1fc0
00000050: 67f7 0841 4308 c43e d443 fa40 f5aa 1241
00000060: c2b9 a0c0 c391 7ec2 1697 0342 9bbb 1a41
00000070: e1d5 a540 dfb4 0741 ad27 b9be 12dc 5341
00000080: 4d45 74c0 5644 0d41 090c 71bf 085d 92c0
00000090: 523c 9840 c676 2340 e0da 0bc0 51a0 3bc0
000000a0: 0cd6 7a42 ffc3 2543 4aa1 9141 bbe0 0341
000000b0: 78ee 1840 c90d 96c1 813d e8c2 81e0 2dc1
000000c0: 0059 e8be 7cd3 90c1 990a 6fc0 5fbd d0bf
000000d0: 67c1 c73f cb40 d140 6a10 b0c0 7265 55c2
000000e0: ed48 ae41 d94f a340 0a4c a43e 2a10 40c2
000000f0: 5b3d 9f42 4c3e eb41 2e78 ef41 ab33 2840
00000100: b638 b6c1 d8ed e8c0 be3a d441 0545 3b41
00000110: bcd6 1240 319f a4c1 af86 11c2 7db4 02c3
00000120: bdcd 9cc1 3693 29c1 8dad efc0 92b5 e5c1
00000130: da81 1943 67d7 bd41 a88c 3540 9e69 14c2
00000140: 1c14 82c2 060f f641 8832 0041 fe34 ba3f
00000150: ce96 67c2 16d8 35c1 94cb 413f 2128 bebf
00000160: 340f b140 8aa5 07c1 be1f f5c2 ef06 9343
00000170: 87fe 0442 2013 ae3e 68cb f3c2 4cc1 21c2
00000180: 1d5f 2abf de89 3141 717b b43f ca4a 46c2

exp_avg_sq f4 [20, 5]
399.74643 4680.3286 1964.8073 428.07358 3121.6865 391.57214 188.4131 237.2557
33.10133 331.6415 1592.2423 19942.99 11503.296 575.03973 3518.2239 233.05264
462.04202 469.01532 123.74326 216.50078 372.43295 683.8411 1241.5156 1705.0242
2691.4146 1521.3937 2565.8762 832.558 1216.7931 1344.5231 145.70895 1096.9742
2524.584 719.1951 7687.2417 2249.3894 2283.303 16799.787 1060.8622 16694.787
1517.707 11377.672 401.2705 340.31076 363.01434 2022.7325 9965.034 17572.31
1694.4426 16034.978 56.35192 198.51103 351.96143 855.9846 221.06493 1358.1399
1066.5453 3581.8987 167.4173 2480.7185 2035.7089 1176.1862 3059.9722 158.5537
4508.59 315.26874 1356.9126 2531.995 457.93033 1853.7897 5256.0146 19154.725
48731.8 2980.8691 29297.096 571.5664 15544.199 2449.6316 1101.8563 2694.4968
1856.2072 7228.0264 1669.0908 222.32124 3890.1409 191.36308 202.86404 383.98108
560.6674 620.254 7788.097 36924.85 31454.133 1829.1561 28291.672 998.32855
7520.7515 1270.6885 723.62616 4300.8535
00000000: 8bdf c743 a142 9245 d599 f544 6b09 d643
00000010: fc1a 4345 3cc9 c343 c169 3c43 7641 6d43
00000020: c367 0442 1dd2 a543 c107 c744 fbcd 9b46
00000030: 2fbd 3346 8bc2 0f44 95e3 5b45 7a0d 6943
00000040: 6105 e743 f681 ea43 8d7c f742 3380 5843
00000050: 6b37 ba43 d5f5 2a44 8030 9b44 c620 d544
00000060: a236 2845 992c be44 055e 2045 b623 5044
00000070: 6119 9844 bd10 a844 7eb5 1143 2d1f 8944
00000080: 58c9 1d45 7dcc 3344 ef39 f045 3b96 0c45
00000090: d9b4 0e45 933f 8346 979b 8444 936d 8246
000000a0: a0b6 bd44 b0c6 3146 a0a2 c843 c727 aa43
000000b0: d681 b543 71d7 fc44 23b4 1b46 9f48 8946
000000c0: 2ace d344 e98b 7a46 5e68 6142 d382 4643
000000d0: 10fb af43 04ff 5544 9f10 5d43 7ac4 a944
000000e0: 7351 8544 61de 5f45 d46a 2743 7f0b 1b45
000000f0: af76 fe44 f505 9344 8e3f 3f45 bf8d 1e43
00000100: b8e4 8c45 66a2 9d43 349d a944 ec3f 1e45
00000110: 15f7 e443 45b9 e744 1e40 a445 73a5 9546
00000120: cd5b 3e47 e84d 3a45 31e2 e446 40e4 0e44
00000130: cce0 7246 1b1a 1945 67bb 8944 f367 2845
00000140: a106 e844 36e0 e145 e8a2 d044 3d52 5e43
00000150: 4122 7345 f35c 3f43 32dd 4a43 94fd bf43
00000160: b72a 0c44 4210 1b44 c760 f345 da3c 1047
00000170: 44bc f546 ffa4 e444 5807 dd46 0795 7944
00000180: 0306 eb45 08d6 9e44 13e8 3444 d466 8645

exp_avg f4 [20]
0.024870466 0.14021605 -0.19739443 -0.08399103 -0.0698098 0.15001795 0.24325404 -0.19857484
0.4029184 -0.16587707 -0.0061309966 0.1569894 -0.21131769 -0.047315087 -0.68274724 0.5834815
0.28225997 -0.049656868 0.89745533 0.12831807
00000000: 26bd cb3c cc94 0f3e c421 4abe 7d03 acbd
00000010: 71f8 8ebd 4e9e 193e 9617 793e 3457 4bbe
00000020: 524b ce3e aedb 29be 87e6 c8bb d4c1 203e
00000030: aa63 58be 77cd 41bd 86c8 2ebf 0b5f 153f
00000040: 6184 903e 0065 4bbd a2bf 653f d065 033e

exp_avg_sq f4 [20]
3.179068 4.4699197 9.32581 3.5270689 20.265833 22.016556 14.958836 12.136863
14.232561 12.750633 11.498041 7.204926 7.615044 5.0167346 22.83063 3.2101755
6.504485 5.1417994 44.730156 6.3294964
00000000: da75 4b40 9509 8f40 8536 1541 7fbb 6140
00000010: 6d20 a241 e821 b041 6457 6f41 9730 4241
00000020: 92b8 6341 9802 4c41 faf7 3741 c18e e640
00000030: 71ae f340 1789 a040 21a5 b641 8473 4d40
00000040: be24 d040 9f89 a440 aeeb 3242 3c8b ca40

exp_avg f4 [3, 20]
71.349785 -0.6864905 21.802898 2.5736074 -9.640969 -39.447853 -2.0693023 -2.4281619
24.49711 112.97088 -3.9660447 -2.3492694 -13.153044 -1.645755 73.68815 171.81093
93.59891 -16.267157 18.043339 74.41013 19.592995 13.284643 12.633658 3.7445753
11.13496 93.821335 5.379311 2.1943724 67.14032 30.644167 3.7851262 28.732712
53.103973 1.4285032 30.214674 25.515467 48.3769 20.058582 37.45406 27.692343
-43.04883 6.265157 -12.041136 0.060960554 11.722321 63.81825 -2.513223 0.5274903
-45.950535 -18.714731 -2.8628159 16.596836 -3.1177552 -0.35759932 -6.8915997 -56.852142
-7.882972 24.408905 11.380056 -13.176949
00000000: 17b3 8e42 d7bd 2fbf 566c ae41 fcb5 2440
00000010: 6941 1ac1 9aca 1dc2 736f 04c0 0167 1bc0
00000020: 15fa c341 17f1 e142 add3 7dc0 6e5a 16c0
00000030: de72 52c1 1aa8 d2bf 5560 9342 99cf 2b43
00000040: a432 bb42 2323 82c1 c258 9041 fdd1 9442
00000050: 74be 9c41 e68d 5441 7723 4a41 1fa7 6f40
00000060: cc28 3241 86a4 bb42 5123 ac40 9970 0c40
00000070: d847 8642 4127 f541 823f 7240 98dc e541
00000080: 786a 5442 31d9 b63f a7b7 f141 ad1f cc41
00000090: f281 4142 fa77 a041 f5d0 1542 eb89 dd41
000000a0: 0032 2cc2 2b7c c840 7ea8 40c1 c6b1 793d
000000b0: a08e 3b41 e345 7f42 a5d8 20c0 9b09 073f
000000c0: 59cd 37c2 c5b7 95c1 6038 37c0 52c6 8441
000000d0: 4d89 47c0 4217 b7be fc87 dcc0 9868 63c2
000000e0: 4e41 fcc0 7045 c341 b614 3641 c8d4 52c1

exp_avg_sq f4 [3, 20]
16243.1455 32576.932 105350.28 25153.758 395.52567 1023.16455 5273.9756 172.9552
66428.78 75991.57 588.7154 5165.0884 25276.955 2569.616 37559.67 40873.44
33879.69 538.9739 3064.1318 22906.91 710.95593 6060.3003 7013.211 4478.2646
202.87718 2892.7947 670.86615 105.473915 4288.46 10859.202 542.3825 1549.2158
1992.9896 571.8559 5107.1753 4082.5452 4819.5103 422.71518 1166.5281 3389.4653
1248.7904 3063.9468 1889.1644 1998.6577 190.37321 1344.4498 478.97803 56.62607
1527.049 7187.1875 429.90906 1056.3663 520.3862 414.07584 3650.9958 4678.984
5777.116 438.58173 845.98206 3429.381
00000000: 95cc 7d46 dd81 fe46 24c3 cd47 8483 c446
00000010: 49c3 c543 88ca 7f44 cecf a445 88f4 2c43
00000020: 64be 8147 c96b 9447 c92d 1344 b568 a145
00000030: e979 c546 db99 2045 acb7 1247 71a9 1f47
00000040: b157 0447 54be 0644 1c82 3f45 d2f5 b246
00000050: 2ebd 3144 6762 bd45 b029 db45 1ef2 8b45
00000060: 8fe0 4a43 b7cc 3445 6fb7 2744 a5f2 d242
00000070: ae03 8645 cfac 2946 7b98 0744 e8a6 c144
00000080: ab1f f944 c7f6 0e44 6799 9f45 b928 7f45
00000090: 159c 9645 8b5b d343 e6d0 9144 72d7 5345
000000a0: 4b19 9c44 267f 3f45 4325 ec44 0cd5 f944
000000b0: 8b5f 3e43 650e a844 307d ef43 1881 6242
000000c0: 91e1 be44 8099 e045 5cf4 d643 b90b 8444
000000d0: b818 0244 b509 cf43 ef2f 6445 df37 9245
000000e0: ee88 b445 764a db43 da7e 5344 1956 5645

exp_avg f4 [3]
3.0346444 0.98917013 -0.7425087
00000000: 9d37 4240 413a 7d3f 0d15 3ebf

exp_avg_sq f4 [3]
308.8633 92.725136 62.78696
00000000: 816e 9a43 4573 b942 d925 7b42

exp_avg f4 [20, 3]
49.460247 10.692237 4.9540234 5.131733 -9.252995 -2.2219524 16.751688 -15.834823
-9.881539 -9.832117 10.361328 5.775864 -53.450703 -0.63914526 -4.4038 -50.409184
20.669577 10.397874 -20.511992 -28.048008 12.841287 24.587385 -21.96374 -14.132706
-133.68399 80.29992 -53.21094 117.91351 -98.2564 53.52332 -1.4475654 -1.0580316
-1.2939868 99.51602 -73.35016 56.50882 -60.367077 13.521854 -18.393354 -103.75188
55.90673 -40.314423 8.970394 -10.694703 -8.377906 18.901266 -19.34316 -11.048896
156.01645 -100.58062 81.155266 9.583515 -5.9356446 3.623677 46.184315 -42.888496
-34.21917 40.991814 -29.06464 38.487297
00000000: 4bd7 4542 6713 2b41 5c87 9e40 2837 a440
00000010: 440c 14c1 7834 0ec0 7503 8641 6f5b 7dc1
00000020: c91a 1ec1 5a50 1dc1 00c8 2541 e1d3 b840
00000030: 85cd 55c2 069f 23bf eeeb 8cc0 01a3 49c2
00000040: 4b5b a541 b15d 2641 8f18 a4c1 5262 e0c1
00000050: e975 4d41 f7b2 c441 bdb5 afc1 901f 62c1
00000060: 1aaf 05c3 8f99 a042 01d8 54c2 b8d3 eb42
00000070: 4783 c4c2 e117 5642 d349 b9bf 946d 87bf
00000080: 5ca1 a5bf 3408 c742 48b3 92c2 0809 6242
00000090: e377 71c2 8459 5841 9725 93c1 f680 cfc2
000000a0: 7ea0 5f42 f841 21c2 bc86 0f41 811d 2bc1
000000b0: e70b 06c1 cb35 9741 cbbe 9ac1 47c8 30c1
000000c0: 3604 1c43 4729 c9c2 7f4f a242 1456 1941
000000d0: cdf0 bdc0 53ea 6740 bdbc 3842 d28d 2bc2
000000e0: 6ee0 08c2 9ef7 2342 6284 e8c1 fef2 1942

exp_avg_sq f4 [20, 3]
762.21 686.86426 64.93125 32.45506 4740.218 273.9162 8514.229 14457.161
4104.675 4261.632 72212.58 5273.785 1129.8208 76137.24 4434.922 18358.15
31142.252 5941.472 1330.1996 2271.3123 672.58685 1878.211 55966.16 3199.157
5868.471 137785.58 13454.526 4330.4688 160696.83 9594.056 514.33136 113525.54
7376.922 8039.5005 10347.753 3525.7402 1521.8003 26442.303 1678.0878 3321.874
83692.2 4305.0527 6074.79 10006.912 2685.0784 911.86206 12784.0205 750.29553
9357.309 7627.078 3685.3643 767.52167 7842.7666 905.5481 3081.517 109383.64
6444.5303 4062.9226 6262.3555 1668.5621
00000000: 718d 3e44 50b7 2b44 cddc 8142 fbd1 0142
00000010: be21 9445 46f5 8843 ea08 0546 a5e4 6146
00000020: 6645 8045 0e2d 8545 4a0a 8d47 48ce a445
00000030: 443a 8d44 9fb4 9447 6097 8a45 4d6c 8f46
00000040: 814c f346 c7ab b945 6346 a644 fff4 0d45
00000050: 8f25 2844 c1c6 ea44 299e 5a47 83f2 4745
00000060: c563 b745 658e 0648 1b3a 5246 c053 8745
00000070: 35ee 1c48 39e8 1546 3595 0044 c5ba dd47
00000080: 6087 e645 013c fb45 03af 2146 d85b 5c45
00000090: 9c39 be44 9b94 ce46 cfc2 d144 fc9d 4f45
000000a0: 1a76 a347 6c88 8645 52d6 bd45 a65b 1c46
000000b0: 41d1 2745 2cf7 6344 15c0 4746 ea92 3b44
000000c0: 3c35 1246 a058 ee45 d455 6645 63e1 3f44
000000d0: 2216 f545 1463 6244 4698 4045 d2a3 d547
000000e0: 3e64 c945 c3ee 7d45 d8b2 c345 fd91 d044

exp_avg f4 [20]
-0.111062065 -0.008504784 -0.08376635 -0.009386017 0.15154357 0.035892855 -0.18248692 0.3596236
0.39533982 -0.5708088 0.04962399 -0.82289755 0.31198967 0.3345558 0.38534045 0.26787016
-0.95634 0.0023676404 0.93142617 -0.26189327
00000000: 8274 e3bd a657 0bbc b18d abbd cfc7 19bc
00000010: 3d2e 1b3e 6304 133d dadd 3abe 9620 b83e
00000020: fb69 ca3e 8720 12bf 8642 4b3d 6aa9 52bf
00000030: 1cbd 9f3e e64a ab3e 584b c53e 4726 893e
00000040: b3d2 74bf 6a2a 1b3b f271 6e3f e016 86be

exp_avg_sq f4 [20]
0.5169176 1.3399738 20.993565 12.46937 6.4353065 20.97989 3.7329056 6.845507
12.766025 21.488785 9.509063 13.943753 3.5342371 6.8108373 6.0704126 2.729601
2.6130803 1.7031407 17.902288 6.7051854
00000000: b654 043f 4384 ab3f d2f2 a741 8a82 4741
00000010: 08ee cd40 d1d6 a741 ede7 6e40 650e db40
00000020: a341 4c41 08e9 ab41 1f25 1841 9d19 5f41
00000030: f130 6240 61f2 d940 d240 c240 c8b1 2e40
00000040: b53c 2740 8400 da3f e337 8f41 e190 d640

exp_avg f4 [2, 20]
2.3199031 -5.081581 16.340294 5.9126315 -4.014454 1.0349928 13.529896 -4.720906
4.917958 -4.3099976 3.476503 8.278529 -6.5141478 5.878368 4.4767365 3.1395519
-4.429299 0.16923997 -0.3614988 11.193174 9.322588 5.9648685 -49.515457 -13.399201
6.4597974 4.82729 33.2289 5.810272 -104.87253 -144.65585 8.122685 7.0667706
-135.14151 -256.7755 -1.4947165 7.014741 -191.06752 36.796066 -0.42847547 32.908978
00000000: 4b79 1440 509c a2c0 ecb8 8241 4734 bd40
00000010: 6876 80c0 a57a 843f 747a 5841 a911 97c0
00000020: e95f 9d40 80eb 89c0 067f 5e40 db74 0441
00000030: e673 d0c0 971b bc40 6d41 8f40 6bee 4840
00000040: d1bc 8dc0 3e4d 2d3e 5f16 b9be 3e17 3341
00000050: 5229 1541 34e0 be40 d40f 46c2 2163 56c1
00000060: a9b6 ce40 2979 9a40 65ea 0442 c0ed b940
00000070: bcbe d1c2 e6a7 10c3 85f6 0141 fc22 e240
00000080: 3a24 07c3 4463 80c3 df52 bfbf c278 e040
00000090: 4911 3fc3 2c2f 1342 2361 dbbe cba2 0342

exp_avg_sq f4 [2, 20]
16812.447 14992.563 21972.078 5671.9155 82515.88 2330.6245 15599.35 83029.516
1554.5433 23007.191 58352.81 4208.144 50092.26 23239.266 7471.075 42371.45
17620.688 234.22319 22414.838 14626.09 74.60528 108.980675 23959.58 1509.1044
216.65204 143.4386 15657.773 106.40073 3369.618 6412.197 142.50406 4572.2793
5482.912 19606.441 2069.5886 78.297775 10743.991 381.72327 54.162987 8022.994
00000000: e558 8346 4142 6a46 28a8 ab46 533f b145
00000010: f129 a147 fea9 1145 66bd 7346 c22a a247
00000020: 6351 c244 62be b346 cff0 6347 2781 8345
00000030: 43ac 4347 888e b546 9a78 e945 7383 2547
00000040: 60a9 8946 2339 6a43 ad1d af46 5c88 6446
00000050: e735 9542 1bf6 d942 292f bb46 57a3 bc44
00000060: eca6 5843 4870 0f43 18a7 7446 2ccd d442
00000070: e399 5245 9361 c845 0a81 0e43 3ce2 8e45
00000080: 4c57 ab45 e22c 9946 6b59 0145 7698 9c42
00000090: f7df 2746 94dc be43 e6a6 5842 f4b7 fa45

exp_avg f4 [2]
-1.0625376 -7.781093
00000000: 3b01 88bf b7fe f8c0

exp_avg_sq f4 [2]
923.60675 63.61914
00000000: d5e6 6644 007a 7e42

exp_avg f4 [20, 5]
31.814945 -33.405743 -5.998339 3.6203775 12.588986 -1.1190423 0.42000213 -0.6863578
0.2567707 -0.24452166 -9.454577 -31.930326 5.39347 0.3423467 -4.345385 -1.5273324
-2.5342185 -10.10832 1.477689 -0.2897381 -2.384761 2.2764661 -7.655123 -0.684275
-1.4227664 15.777993 -8.666479 4.9655976 2.3285463 11.845801 45.84991 -43.402813
-4.838454 -8.231175 -4.6310587 -52.840687 -31.318394 9.923462 1.768341 -22.351307
20.089685 4.9953055 -7.4281144 -0.13651286 4.909534 32.897686 -67.86807 8.6427355
3.3694675 56.586735 -0.58743674 -2.763291 -3.8455358 -0.24512388 -5.0624475 -0.87586164
33.057007 -7.9512453 -0.17948821 4.708908 -29.04476 33.854156 7.1450214 2.1867614
-0.32226294 -10.726713 78.95599 -18.760918 4.5754104 5.5351605 -6.5317616 5.926407
1.4484602 0.560911 0.08369531 -19.929955 15.320326 7.3156834 0.6238731 -1.5916841
46.089134 13.49531 -17.373962 -0.9249676 8.821079 18.592556 4.6305256 -6.4868064
-0.46922088 4.2136016 2.4684088 128.63852 -31.959688 2.8216147 19.799738 -1.3240689
23.528639 -4.46846 -0.3767903 1.9174117
00000000: 0285 fe41 7b9f 05c2 65f2 bfc0 44b4 6740
00000010: 7d6c 4941 c73c 8fbf 850a d73e 25b5 2fbf
00000020: 7377 833e e363 7abe f345 17c1 4f71 ffc1
00000030: 4e97 ac40 1148 af3e 650d 8bc0 a17f c3bf
00000040: a330 22c0 aebb 21c1 ea24 bd3f 8d58 94be
00000050: ed9f 18c0 9fb1 1140 c5f6 f4c0 a52c 2fbf
00000060: 361d b6bf a972 7c41 e6a9 0ac1 2de6 9e40
00000070: e706 1540 6788 3d41 4f66 3742 7b9c 2dc2
00000080: 9dd4 9ac0 e5b2 03c1 a231 94c0 dd5c 53c2
00000090: 128c fac1 80c6 1e41 ff58 e23f 7acf b2c1
000000a0: adb7 a041 8bd9 9f40 1db3 edc0 07ca 0bbe
000000b0: e71a 9d40 3b97 0342 74bc 87c2 a548 0a41
000000c0: 5ba5 5740 d158 6242 4162 16bf c2d9 30c0
000000d0: 421d 76c0 c101 7bbe 92ff a1c0 7838 60bf
000000e0: 603a 0442 9a70 fec0 c2cb 37be 60af 9640
000000f0: ab5b e8c1 a86a 0742 04a4 e440 e6f3 0b40
00000100: a6ff a4be 9ea0 2bc1 78e9 9d42 5c16 96c1
00000110: c369 9240 0920 b140 3104 d1c0 20a5 bd40
00000120: 2567 b93f dd97 0f3f 7268 ab3d 8c70 9fc1
00000130: 0e20 7541 141a ea40 26b6 1f3f 4ebc cbbf
00000140: 465b 3842 caec 5741 e0fd 8ac1 adca 6cbf
00000150: 2423 0d41 8ebd 9441 442d 9440 eb93 cfc0
00000160: b83d f0be d3d5 8640 69fa 1d40 76a3 0043
00000170: 71ad ffc1 5695 3440 dd65 9e41 177b a9bf
00000180: a73a bc41 a0fd 8ec0 a8ea c0be bf6d f53f

exp_avg_sq f4 [20, 5]
27829.357 32534.34 1554.3136 944.42267 2011.5571 34.470432 528.18896 74.39454
55.281986 124.87573 1149.526 3796.7556 224.07573 23.396814 440.95956 702.639
2282.0173 1585.684 1154.7039 1428.6356 2898.152 5557.025 1510.0189 708.19745
1003.8554 5030.064 16870.262 1021.5833 168.39807 2160.1902 58699.375 70332.65
3888.9941 3728.0994 9863.07 12705.816 22628.629 986.5892 668.83093 1989.9052
2601.2947 2825.0166 122.20863 117.92423 404.23648 3661.456 17971.133 1996.1938
1041.8181 19473.068 6752.6997 10325.301 1722.9219 1988.346 3141.656 114.658325
2182.1223 361.77017 234.14006 349.92404 33042.746 39856.02 2732.0234 2560.4292
5962.944 3098.436 24694.51 3659.6582 4783.115 3707.8833 2857.2014 3629.1367
311.2335 335.3177 663.3906 8639.022 10189.687 632.6983 544.12854 1504.8617
48499.715 60473.645 4117.094 4095.9338 8291.679 1566.6095 2380.0117 233.4894
596.83777 250.90878 5830.056 32724.324 6511.561 2959.1738 4722.7954 64.958046
1550.6417 212.69395 136.07921 247.14388
00000000: b76a d946 ae2c fe46 094a c244 0d1b 6c44
00000010: d471 fb44 b9e1 0942 180c 0444 01ca 9442
00000020: c120 5d42 60c0 f942 d5b0 8f44 174c 6d45
00000030: 6313 6043 ad2c bb41 d37a dc43 e5a8 2f44
00000040: 47a0 0e45 e335 c644 8656 9044 5794 b244
00000050: 6f22 3545 33a8 ad45 9bc0 bc44 a30c 3144
00000060: bff6 7a44 8330 9d45 86cc 8346 5565 7f44
00000070: e865 2843 0b03 0745 604b 6547 535e 8947
00000080: e80f 7345 9701 6945 481c 1a46 4487 4646
00000090: 42c9 b046 b5a5 7644 2e35 2744 f7bc f844
000000a0: b794 2245 4490 3045 d26a f442 35d9 eb42
000000b0: 451e ca43 4cd7 6445 4466 8c46 3486 f944
000000c0: 2e3a 8244 2322 9846 9905 d345 3455 2146
000000d0: 805d d744 128b f844 7f5a 4445 1051 e542
000000e0: f561 0845 95e2 b443 db23 6a43 47f6 ae43
000000f0: bf12 0147 05b0 1b47 60c0 2a45 de06 2045
00000100: 8d57 ba45 faa6 4145 05ed c046 88ba 6445
00000110: ec78 9545 22be 6745 3993 3245 30d2 6245
00000120: e39d 9b43 aaa8 a743 00d9 2544 17fc 0646
00000130: bf36 1f46 b12c 1e44 3a08 0844 931b bc44
00000140: b773 3d47 a539 6c47 c1a8 8045 f1fe 7f45
00000150: b78e 0146 81d3 c344 30c0 1445 497d 6943
00000160: 9e35 1544 a6e8 7a43 7330 b645 a6a8 ff46
00000170: 7d7c cb45 c8f2 3845 5d96 9345 85ea 8142
00000180: 89d4 c144 a7b1 5443 4714 0843 d524 7743

exp_avg f4 [20]
-0.13253227 0.0054592 -0.1644956 -0.37669995 -0.47674567 0.040305626 0.08366526 -0.04652881
0.2975536 -0.10344786 0.07898055 -0.07111891 -0.18786897 0.33761573 -0.054222472 -0.29613364
0.3375298 0.13350154 -0.48136067 0.019431684
00000000: 8ab6 07be 17e3 b23b 8971 28be d1de c0be
00000010: 0218 f4be 8317 253d b158 ab3d fe94 3ebd
00000020: f258 983e 79dc d3bd 8ec0 a13d cba6 91bd
00000030: b960 40be f8db ac3e 6218 5ebd d49e 97be
00000040: b5d0 ac3e a1b4 083e e874 f6be 322f 9f3c

exp_avg_sq f4 [20]
8.514498 1.1874238 6.196182 28.943207 15.996867 35.43074 22.074047 23.515202
1.710366 34.663567 13.141037 4.0313487 21.945618 47.15605 3.1725624 5.683805
28.812698 4.6233916 74.99561 2.2381682
00000000: 623b 0841 81fd 973f 1f47 c640 b08b e741
00000010: 2bf3 7f41 14b9 0d42 a697 b041 221f bc41
00000020: 46ed da3f 7ea7 0a42 b041 5241 cf00 8140
00000030: a090 af41 cc9f 3c42 430b 4b40 bbe1 b540
00000040: 6880 e641 d3f2 9340 c1fd 9542 263e 0f40

exp_avg f4 [1, 20]
14.184078 19.64715 10.129967 14.53044 15.275358 1.0127764 17.69991 31.286444
26.955256 -13.797941 -3.3167014 39.62851 26.028687 23.557838 59.79084 82.89377
35.157 28.907084 23.674202 40.395065
00000000: fcf1 6241 5d2d 9d41 5814 2241 af7c 6841
00000010: de67 7441 a8a2 813f 6a99 8d41 a34a fa41
00000020: 5da4 d741 5ec4 5cc1 d644 54c0 9883 1e42
00000030: c03a d041 7476 bc41 d229 6f42 9cc9 a542
00000040: c5a0 0c42 b541 e741 c464 bd41 8c94 2142

exp_avg_sq f4 [1, 20]
15716.511 2245.0813 3514.4673 1500.4719 2369.2576 2020.9662 28624.688 7473.2427
51531.926 2051.017 14129.127 4307.118 46104.875 6985.956 153212.58 218906.78
22366.188 9942.776 2146.0862 5423.0728
00000000: 0b92 7546 4d51 0c45 7aa7 5b45 1a8f bb44
00000010: 1f14 1445 eb9e fc44 60a1 df46 f189 e945
00000020: ed4b 4947 4630 0045 82c4 5c46 f298 8645
00000030: e018 3447 a64f da45 259f 1548 b2c6 5548
00000040: 60bc ae46 1b5b 1b46 6121 0645 9578 a945

exp_avg f4 [20, 4]
2.1542141 10.884592 2.133597 0.033437278 6.28159 36.443653 -3.4635768 0.22230415
0.36546817 -1.8268236 -0.13730575 -0.23537366 -0.12529713 65.59849 30.994587 0.32792562
-30.866428 -0.13177748 -13.416592 0.10127452 0.18612689 -1.5917734 -0.08512461 -0.22445029
-10.899888 133.76424 49.728573 0.53791666 0.61072546 -0.42458656 0.19183281 0.050276652
-27.979366 -31.73374 -25.905779 0.002151029 12.76819 1.5413414 6.1973658 -0.04680962
0.6355456 -1.1328264 -0.733684 -0.00055577204 -80.37042 -37.88736 -30.459078 -0.043654397
-55.42034 6.350623 -19.893227 0.15880641 -72.4174 -21.70712 -30.728266 -0.04975764
0.7167598 -0.39485386 0.4132375 0.053194102 0.6174208 -0.8382617 -0.56268793 0.07498955
-3.7012708 85.13158 34.598053 0.34208968 -51.19916 -25.876663 -17.025597 -0.30624002
10.799215 24.3739 12.881867 0.10617544 0.7589259 -1.2921404 -1.4862738 0.117019914
00000000: a5de 0940 4a27 2e41 da8c 0840 87f5 083d
00000010: c902 c940 4dc6 1142 3eab 5dc0 b3a3 633e
00000020: a51e bb3e 5bd5 e9bf e199 0cbe cb05 71be
00000030: e44d 00be 6d32 8342 eaf4 f741 dee5 a73e
00000040: 72ee f6c1 adf0 06be 5caa 56c1 0469 cf3d
00000050: 0c98 3e3e 3bbf cbbf d055 aebd 4cd6 65be
00000060: f165 2ec1 a5c3 0543 0fea 4642 e8b4 093f
00000070: 8158 1c3f 6963 d9be d26f 443e e4ee 4d3d
00000080: bed5 dfc1 b3de fdc1 093f cfc1 47f8 0c3b
00000090: 824a 4c41 ad4a c53f d250 c640 72bb 3fbd
000000a0: 1eb3 223f 7500 91bf b7d2 3bbf 3bb1 11ba
000000b0: a8bd a0c2 a88c 17c2 31ac f3c1 f4ce 32bd
000000c0: 6eae 5dc2 4e38 cb40 5425 9fc1 269e 223e
000000d0: b5d5 90c2 2fa8 adc1 7dd3 f5c1 abce 4bbd
000000e0: 927d 373f 492a cabe de93 d33e 0fe2 593d
000000f0: 4a0f 1e3f 5298 56bf 510c 10bf 1f94 993d
00000100: 9fe1 6cc0 5e43 aa42 6864 0a42 6126 af3e
00000110: f1cb 4cc2 6803 cfc1 6c34 88c1 7ecb 9cbe
00000120: 96c9 2c41 bffd c241 211c 4e41 8272 d93d
00000130: f848 423f db64 a5bf 383e bebf 23a8 ef3d

exp_avg_sq f4 [20, 4]
65.80429 771.0926 117.622665 4.044815 1789.9506 902.7352 3248.7578 27.954575
890.22906 825.879 5820.9287 3.5250635 129.98663 4252.3726 600.112 2.2699456
289.31473 464.0222 139.93608 1.6178131 734.87537 583.473 4418.787 2.1957123
138.00548 18861.26 2271.8694 5.3755937 957.9926 248.83597 3056.9475 8.886216
254.39427 523.77856 285.94656 3.3794258 108.38567 80.5028 98.35194 4.7776537
56.431755 78.814514 58.048496 2.616965 1901.5005 12767.59 1139.7975 3.2904572
916.1701 837.6231 359.91693 3.1635566 1533.1552 7968.468 786.3662 2.118596
162.24683 142.28172 238.16791 10.431713 130.03015 49.22077 287.27637 3.596616
67.06907 8501.93 815.1791 2.845538 893.958 25367.506 1731.7551 16.777662
1440.5791 1017.8061 5455.2183 8.136123 231.02324 129.2545 122.93014 7.3256817
00000000: cc9b 8342 edc5 4044 ce3e eb42 206f 8140
00000010: 6bbe df44 0eaf 6144 200c 4b45 f8a2 df41
00000020: a98e 5e44 4278 4e44 6ee7 b545 a49a 6140
00000030: 94fc 0143 fbe2 8445 2b07 1644 ca46 1140
00000040: 49a8 9043 d702 e843 a3ef 0b43 8014 cf3f
00000050: 06b8 3744 46de 1144 4c16 8a45 8d86 0c40
00000060: 6701 0a43 855a 9346 e9fd 0d45 dd04 ac40
00000070: 877f 6f44 02d6 7843 290f 3f45 f12d 0e41
00000080: ef64 7e43 d4f1 0244 29f9 8e43 8348 5840
00000090: 77c5 d842 6f01 a142 31b4 c442 8ae2 9840
000000a0: 1eba 6142 08a1 9d42 a931 6842 5b7c 2740
000000b0: 04b0 ed44 5c7e 4746 8579 8e44 da96 5240
000000c0: e30a 6544 e167 5144 5ef5 b343 b677 4a40
000000d0: f7a4 bf44 be03 f945 7097 4444 1497 0740
000000e0: 303f 2243 1f48 0e43 fc2a 6e43 4ce8 2641
000000f0: b807 0243 12e2 4442 60a3 8f43 f52e 6640
00000100: 5d23 8642 b8d7 0446 76cb 4b44 4b1d 3640
00000110: 507d 5f44 032f c646 2a78 d844 a738 8641
00000120: 8812 b444 9773 7e44 bf79 aa45 8f2d 0241
00000130: f305 6743 2741 0143 3bdc f542 fc6b ea40

exp_avg f4 [20]
0.033437278 0.22230248 -0.23537078 0.32792455 0.10127324 -0.22445065 0.53791726 0.05027615
0.0021500657 -0.046808675 -0.0005554606 -0.043654192 0.15880542 -0.04975794 0.05319359 0.07499028
0.34208915 -0.3062407 0.10617514 0.11701719
00000000: 87f5 083d 43a3 633e 0a05 71be bae5 a73e
00000010: 5868 cf3d 64d6 65be f2b4 093f 5dee 4d3d
00000020: 1ee8 0c3b 74ba 3fbd 549c 11ba bdce 32bd
00000030: e39d 223e fbce 4bbd 86e1 593d 8194 993d
00000040: 4f26 af3e 95cb 9cbe 5a72 d93d b5a6 ef3d

exp_avg_sq f4 [20]
4.044815 27.954575 3.525062 2.269947 1.6178122 2.1957123 5.3755937 8.886217
3.3794262 4.777652 2.6169643 3.2904572 3.163556 2.118596 10.431714 3.5966163
2.845538 16.777662 8.136123 7.325681
00000000: 206f 8140 f8a2 df41 9e9a 6140 d046 1140
00000010: 7814 cf3f 8d86 0c40 dd04 ac40 f22d 0e41
00000020: 8548 5840 86e2 9840 587c 2740 da96 5240
00000030: b477 4a40 1497 0740 4de8 2641 f62e 6640
00000040: 4b1d 3640 a738 8641 8f2d 0241 fb6b ea40

exp_avg f4 [2, 20]
1.1162727 0.13615645 1.6749814 1.9018853 -2.4926887 1.4861552 0.22670196 -0.6500305
-1.0357414 -3.211798 1.0082481 -6.456796 -4.7573943 -10.278851 -1.3865021 -0.9720118
1.6788346 -9.049284 -0.56122065 0.6374637 9.867142 1.0929044 0.24490416 17.276688
-17.176355 0.22525404 32.968864 0.7489567 -4.8395877 -2.484889 0.4180194 -40.330444
-31.069828 -65.30583 1.2947067 1.1347072 40.436764 -42.42321 28.346657 0.3658529
00000000: 06e2 8e3f 996c 0b3e ca65 d63f fa70 f33f
00000010: 3688 1fc0 553a be3f 8f24 683e 6668 26bf
00000020: 2d93 84bf 198e 4dc0 460e 813f 139e cec0
00000030: 933c 98c0 2c76 24c1 e778 b1bf c4d5 78bf
00000040: 0de4 d63f dec9 10c1 28ac 0fbf d230 233f
00000050: d0df 1d41 4be4 8b3f 28c8 7a3e a836 8a41
00000060: 2d69 89c1 ffa8 663e 1ee0 0342 a0bb 3f3f
00000070: e7dd 9ac0 6c08 1fc0 a406 d63e 6052 21c2
00000080: 028f f8c1 969c 82c2 f3b8 a53f 163e 913f
00000090: 3fbf 2142 5eb1 29c2 f4c5 e241 1251 bb3e

exp_avg_sq f4 [2, 20]
577.3654 651.5095 10791.103 1654.7572 67.863884 8516.461 24771.371 464.05832
387.23578 347.223 3461.27 97.63964 68.88067 113.57942 403.58472 428.85944
17544.316 1273.7118 4437.572 3596.6892 502.79868 31.595734 593.22437 285.72488
138.02478 483.19666 2570.6455 19.615353 443.1722 23.546757 128.73128 550.1039
289.85126 1311.7239 22.909761 24.851377 2568.3923 1394.0829 1089.2566 145.1417
00000000: 6357 1044 9ce0 2244 699c 2846 3bd8 ce44
00000010: 4fba 8742 d811 0546 be86 c146 7707 e843
00000020: 2e9e c143 8b9c ad43 5254 5845 7f47 c342
00000030: e7c2 8942 aa28 e342 d8ca c943 026e d643
00000040: a210 8946 c736 9f44 93ac 8a45 07cb 6045
00000050: 3b66 fb43 10c4 fc41 5c4e 1444 c9dc 8e43
00000060: 5806 0a43 2c99 f143 54aa 2045 3eec 9c41
00000070: 0b96 dd43 c25f bc41 35bb 0043 a686 0944
00000080: f6ec 9043 2af7 a344 3147 b741 9fcf c641
00000090: 4786 2045 a742 ae44 3628 8844 4624 1143

exp_avg f4 [2]
-0.14795755 0.35262987
00000000: 2f82 17be e78b b43e

exp_avg_sq f4 [2]
204.11223 13.615005
00000000: bb1c 4c43 0fd7 5941

exp_avg f4 [3]
-0.873993 0.7666149 -0.027034875
00000000: 01be 5fbf e040 443f 3e78 ddbc

exp_avg_sq f4 [3]
32.24355 14.878683 3.961207
00000000: 65f9 0042 160f 6e41 6a84 7d40
