workspace/point_processes/dataset:powerlaw_hawkes-pid:18034/params.pth (torch_old, 14850 bytes, 49 tensors)

F.linears.0.weight f4 [20, 5]
00000000: caf3 86bd d128 b23d 9c3f 02bd c9ef 6f3e
00000010: b91e 433e dd0f 243e 3f22 60be 5a15 27be
00000020: 2e24 0dbf 76ca f0be a0b7 8c3d 8bbd cebb
00000030: 1d43 b93e 934d cb3e ebc8 2e3e 017e f03e
00000040: 6909 973d f6ff 8dbd 5b9e 8abe c0b1 bfbe
00000050: 4398 1c3e 94b7 a73c 01a8 98be 28e7 69be
00000060: 0966 8bbe 9633 57be 3c3b 41bd f634 f6be
00000070: 7fc3 fbbc c081 3fbd fb37 dd3e ef67 9abd
00000080: 983c 7d3d 9b06 e3bd a2bb 543e 1ddd a43e
00000090: 354d a6bb 0037 943b 0dde 72bd d087 f13a
000000a0: 3366 d43c 0e66 f9bc cd63 a63e 7899 b93e
000000b0: 1a11 113f fdab bc3d c730 ba3d 6e90 153c
000000c0: 49f7 77be de29 8ebe 0c1a 533f 839e b8bd
000000d0: 3655 7dbe 407c 9fbd d2f9 25be b54c b73d
000000e0: 2e88 b8bd 13fe b2be 07e5 9ebe d3b8 e3be
000000f0: 0588 353b 050e 84be 24de 6b3e c7d0 85be
00000100: ff4b dc3e 36e3 af3e 7fc1 c439 2b69 24be
00000110: 25db 3abe 1903 48be 91e7 80bd 5212 3c3d
00000120: 9b1a e83d 3598 923d d95b e6bd 719a e83b
00000130: c976 183e b121 b53d 1f6a 18be 9579 b8bd
00000140: 9769 963c 724b ac3d ea68 91be 648a 6ebe
00000150: aff1 9fbe 8609 1f3e 1dad 84be 4082 fabe
00000160: fe01 54be 4462 40be 221b 9f3d f702 e13c
00000170: 46d1 ccbe 8f28 b0be d4cf c9be 88d4 023e
00000180: 7897 ac3d 751d 90be 3317 7bbe c9b1 97be
-0.06589468 0.08699191 -0.031798944 0.23431315 0.19054689 0.16021676 -0.21888064 -0.16316739
-0.5513333 -0.47029465 0.06870961 -0.0063092164 0.36184016 0.39707622 0.17068832 0.46971133
0.07374842 -0.06933586 -0.2707394 -0.374403 0.15292458 0.020473279 -0.29815677 -0.22842085
-0.27226284 -0.21015772 -0.04717563 -0.4808728 -0.030732868 -0.0467546 0.43206772 -0.07539355
0.061825365 -0.11085244 0.20774701 0.32199946 -0.0050751218 0.004523158 -0.059293795 0.0018427316
0.025927639 -0.030444171 0.32498017 0.362499 0.5666672 0.09212492 0.09091335 0.009128673
-0.24215426 -0.27766317 0.8246162 -0.09014609 -0.24739537 -0.07787371 -0.1620858 0.089501776
-0.09010349 -0.34959468 -0.3103411 -0.44476947 0.0027699482 -0.25791946 0.23033959 -0.26135847
0.4302673 0.34353036 0.000375282 -0.16055743 -0.1824766 -0.19532432 -0.06294168 0.04591591
0.113331996 0.071579374 -0.11247987 0.007098489 0.14889063 0.08844317 -0.14884232 -0.09007565
0.018360896 0.084128276 -0.28400356 -0.2329498 -0.31239077 0.15530977 -0.25913325 -0.48927498
-0.20703885 -0.18787485 0.07768847 0.027467234 -0.40003413 -0.34405944 -0.39416373 0.12776387
0.08427328 -0.28147474 -0.24520569 -0.29627827

F.linears.0.bias f4 [20]
00000000: 2735 55bd 66c7 8d3e ed4f 01be d0dc 07be
00000010: a730 7f3e 9518 d23e 1afc 3bbe ba7f aabc
00000020: 7b72 1dbe 6eae 543d 30c0 1f3e 0676 ab3e
00000030: acc5 36be 0761 9e3e 0210 4ebd c6ec c03e
00000040: 334b 0b3f f916 b23e f992 ea3e df08 ff3e
-0.052052643 0.2769119 -0.12628146 -0.13267827 0.24920903 0.4103438 -0.18357888 -0.020812858
-0.15375702 0.05192416 0.15600657 0.33488482 -0.17848843 0.309334 -0.050308235 0.37680644
0.5441162 0.34783152 0.45815256 0.49811456

F.linears.1.weight f4 [3, 20]
00000000: 099e f7bd 0fb9 293e 37e6 61be 0ea9 a13d
00000010: 1e6b 213f 3f78 c63e d042 2e3e e43d 503e
00000020: 337c 98bd 3a0c a7bd 3dee e83e 9fb8 bb3e
00000030: 6120 bf3d b707 983e d4d0 4dbe d45e 0d3e
00000040: abeb 113e c470 e63e 15ae 513f 163d 163e
00000050: 6a00 193e 52fc 6fbd 51d7 4bbe 13ec 8abe
00000060: f35e 9c3c 4023 eb3e c82a 77be eab3 04bf
00000070: 842e 43be 4af2 193e 3c4e 31be a503 913d
00000080: 8d3f 49be 13e5 6dbd 9d0d 943e f139 1e3e
00000090: 4780 583e fe82 483e 7818 723e 619a e93d
000000a0: 3ba2 55be 82ee 0a3f 1126 febe 2175 c33e
000000b0: b620 0b3e f6d0 85be 9f07 40be 235f c4bd
000000c0: d9c5 0fbf f46e 1b3e b181 1e3e 7597 e93e
000000d0: 8c33 1bbf 12af bf3e a439 bcbd 8ec8 82bc
000000e0: ff48 863e a70b 1b3e 9576 463f 8c1e b73e
-0.1209069 0.165745 -0.22060476 0.07893573 0.6305407 0.38763615 0.17017674 0.2033611
-0.07445564 -0.08156629 0.4549426 0.36664292 0.09332348 0.29693386 -0.20099193 0.13805705
0.14250056 0.45007908 0.81906253 0.1467174 0.14941564 -0.05859024 -0.19906355 -0.27133235
0.019088244 0.4592533 -0.24137414 -0.5183703 -0.19060713 0.15033832 -0.17315 0.07080773
-0.19653149 -0.05807979 0.28916636 0.1545179 0.21142684 0.1958122 0.23642147 0.114063986
-0.20862667 0.54270184 -0.49638417 0.381753 0.13586697 -0.26135987 -0.18752907 -0.095884584
-0.56161267 0.15179044 0.15479161 0.45623365 -0.6062553 0.37438256 -0.091906816 -0.015964773
0.26227567 0.15141164 0.7752469 0.35765493

F.linears.1.bias f4 [3]
00000000: d483 8b3e 2b10 cb3e 4dc7 033c
0.27249014 0.39660773 0.0080431225

G.0.linears.0.weight f4 [20, 3]
00000000: 1fbb 41bd eb39 5abd 5d77 b33e c34e 45bd
00000010: 24b3 b43d 603e dc3b ad7e d53d 2c48 8ebd
00000020: 1287 ffbd 762d 1d3e 4271 aebc 84f1 e23c
00000030: 1941 4e3d e684 f03d ad2d 473e ce35 963a
00000040: e35d a7bd 08b0 073e 1f4c 66bd 036f efbd
00000050: 7705 59be e2ae 433e 4a1c b33d 94d5 e93d
00000060: 724b e2bd 99ab a83b 57a3 be3d 77d5 83be
00000070: 6769 f03d c79d bebd 244c 893d 964a a7bc
00000080: 62f8 ea3e 5075 bdbd 3301 78bd 752d 3ebe
00000090: af4c a53d ea62 d53d 750a 0ebe 59b3 4cbe
000000a0: 6ec9 913d 26e3 6a3b eebf a03d 89fd 45bd
000000b0: 34ce 4e3e 819f 0b3e 965b 5b3b 7025 993e
000000c0: ab13 c7bd f236 033e cafa 7fbe 7c28 37bb
000000d0: 3e6f 44bd 6cc4 c03d 1f99 fe3d ef73 0f3d
000000e0: 7e65 833d 6b9d 283c bfa5 0cbe b2d9 8bbd
-0.047297593 -0.05327789 0.35052004 -0.048170816 0.08823231 0.006721303 0.10424552 -0.069473594
-0.124769345 0.15349373 -0.02129424 0.027703054 0.05035505 0.11744098 0.19451018 0.0011460127
-0.08172204 0.13250744 -0.05622494 -0.11691096 -0.21193491 0.19109681 0.0874563 0.1141769
-0.11049546 0.005147409 0.09308498 -0.25748798 0.11738854 -0.093074374 0.06703976 -0.020421308
0.45892626 -0.09250891 -0.06054802 -0.18572028 0.08071267 0.10419257 -0.13871177 -0.1999029
0.07118498 0.0035840957 0.07849108 -0.048337493 0.20195848 0.13635065 0.0033471338 0.29911375
-0.09720548 0.12813929 -0.24998012 -0.0027947715 -0.04795765 0.094124645 0.12431549 0.035022672
0.064158425 0.010291438 -0.13735102 -0.068286315

G.0.linears.0.bias f4 [20]
00000000: 317f b3bd a791 4f3e 31af 403e 7a20 033e
00000010: 63f9 e0bd 484e c1bd 88a1 9b3d c1b5 0a3e
00000020: 84f7 73b8 e753 2d3d 027a 973b 7ef4 e43d
00000030: df10 8ebe 98ad 0c3e b73d 06be d6d5 74bd
00000040: c434 a63e e799 01be 752e 85bc 18ee d63c
-0.08764494 0.20270406 0.1881683 0.12805358 -0.10985067 -0.09438759 0.07599169 0.13545896
-5.816623e-05 0.042316344 0.0046226988 0.11179446 -0.27747247 0.13738096 -0.1310948 -0.059774242
0.32462132 -0.12656365 -0.016257504 0.026236579

G.0.linears.1.weight f4 [2, 20]
00000000: 3ee1 a3bc a78f 803d c78a 343e 03b1 15be
00000010: 79ca 143e b09f 8ebe e5e4 c93d d6f7 b2bd
00000020: 6f2b 373e ffd1 893e 3359 1abe a7c7 503e
00000030: dcdd 1fbd f04a 263e efc4 11be f5ac fcbc
00000040: 6817 ca3d 835a c6bd f1c9 0cbe 60d7 aebd
00000050: b2f1 debe 8069 fcbb acd6 76bc 1e51 0bbc
00000060: f145 9cbe afc0 48bb c954 9e3d b0f8 d4be
00000070: d288 a3bd a1d8 303e 4eae f1be 2ecf 193e
00000080: 06bb 1c3d 3ab4 2abd 28fd 08be 8ab1 28bf
00000090: aaff 593e c083 aabd b718 e2be e798 8c3d
-0.020004865 0.062773995 0.17631064 -0.14618306 0.14530362 -0.27856207 0.09858111 -0.08738677
0.17887662 0.26918027 -0.1507309 0.20388661 -0.03902994 0.16239524 -0.1423528 -0.030844191
0.09867746 -0.096852325 -0.1374891 -0.08537173 -0.43543774 -0.0077030063 -0.01506583 -0.008503227
-0.3052211 -0.0030632426 0.07731015 -0.41595984 -0.07985081 0.17270137 -0.47203296 0.15020439
0.038264297 -0.041675784 -0.13377821 -0.65895903 0.21288934 -0.083259106 -0.4415948 0.06865101

G.0.linears.1.bias f4 [2]
00000000: 1d31 713d c5ab a23e
0.05888473 0.31771675

L.0.linears.0.weight f4 [20, 5]
00000000: 7231 2b3d a678 afbd fe22 47be 53f1 03bf
00000010: 469c 8ebe 8e82 1cbf cfb6 94be 26b2 253e
00000020: e723 4c3e 6e90 3dbd fea7 163e e0b5 5c3c
00000030: 2996 6b3e 1797 f3be 4c22 85bd 2962 b2bd
00000040: 1607 f3bc 9d54 90be 8e42 c1be 91c1 f0be
00000050: 1bd7 1ebd 4154 423c f0e5 9abe 0215 d5be
00000060: ed7b f4be b604 18bc ab6e 7bbc 907d 283e
00000070: bca3 9cbe 660f 66be fc1b 8e3d 888b 98bc
00000080: 22c0 f13d d95e 073d a51c 333e 5b45 123e
00000090: b981 cc3d 73f3 6e3e b99b 29be e9b4 b2bd
000000a0: 12e0 4e3e 4398 053e 0d1e 963e 47fc 493e
000000b0: ca60 ac3e 2a97 89be f42e 6dbc f155 b13d
000000c0: fc68 2fbe e112 8d3e 0a45 1bbe a674 92bd
000000d0: 59cc a2bd dd8b ea3d 2562 fd3d d0ca 003e
000000e0: ade6 2a3e 3063 a9bd c459 24be 8211 62be
000000f0: 07eb 40bd a35d 40be cf10 293c 98f5 f13d
00000100: 2d42 f23c 6a11 89bd 8e52 483e e04d 163e
00000110: aaca 3b3e 46bb 95be 3d5b 163e 8857 e5bd
00000120: 3d8e 773d c841 15bd d9d5 ebbc 3296 ba3d
00000130: b940 58be a5dc 80be 9f87 25be f87d 093e
00000140: 5576 3a3d 1682 dd3d dc5f ebbd bec1 dc3d
00000150: ddfa c53d 4d10 fd3d 72ce 3e3e 6d09 a33d
00000160: 048e 753d 99d5 2c3e 0f1a 103d 4c53 923d
00000170: 9c3c 85be a6f7 b8be 2fa4 cdbe 522a c4be
00000180: e89d 4e3e d49f 7ebe 667a 34be fd16 a8be
0.0417952 -0.08567934 -0.19446942 -0.51540107 -0.27853602 -0.6113671 -0.29045722 0.1618124
0.1993557 -0.046280317 0.14712521 0.013471097 0.230065 -0.4757621 -0.06500682 -0.08710129
-0.029666465 -0.28189555 -0.3774609 -0.4702268 -0.03877936 0.011860908 -0.30253553 -0.4161759
-0.47750798 -0.009278467 -0.0153462095 0.16454148 -0.3059367 -0.22466812 0.06938931 -0.018621221
0.118042246 0.03304944 0.17491396 0.1428427 0.0998568 0.23335056 -0.1656331 -0.08725912
0.20202664 0.13046364 0.29319802 0.19725142 0.33667594 -0.26873142 -0.0144765265 0.0865897
-0.17129892 0.27553466 -0.15163055 -0.07151155 -0.079491325 0.11452458 0.12372235 0.12577367
0.16689558 -0.08270872 -0.16049868 -0.22076991 -0.04709914 -0.1878572 0.010318949 0.118144214
0.02957257 -0.066927746 0.19562742 0.14678144 0.18339029 -0.2924444 0.14683242 -0.11198336
0.060438383 -0.036439687 -0.028788494 0.09110679 -0.2111844 -0.25168338 -0.16165017 0.1342696
0.045523006 0.108158275 -0.11492893 0.10779141 0.09666989 0.12356625 0.1863344 0.07960782
0.05994989 0.16878356 0.0351811 0.07144794 -0.26022804 -0.3612644 -0.40164325 -0.38313538
0.20177424 -0.24865657 -0.17624816 -0.3283004

L.0.linears.0.bias f4 [20]
00000000: 9c2e cd3e 0b3e cfbe d7e8 3a3f 6365 3d3e
00000010: 6b33 5c3e 3198 003f cd2a 8fbe 5c3d 0e3f
00000020: 9a86 9fbd d4c3 ca3e 7c18 89be 067b 3bbd
00000030: f003 243e 2832 49be 9ad6 6d3e bc41 6a3e
00000040: 36e8 7fbe 1992 503e e7d7 af3d c4b7 5dbd
0.40074623 -0.40477023 0.73011535 0.18495707 0.2150399 0.50232226 -0.27962342 0.55562377
-0.07789345 0.3960253 -0.26776493 -0.04577162 0.16017127 -0.1964804 0.23226395 0.22876638
-0.24990925 0.20368232 0.08586102 -0.05413033

L.0.linears.1.weight f4 [1, 20]
00000000: 0f84 4c3e 9847 a9be fec8 32be aa5e 963e
00000010: 9ed0 973e 2669 b5be 6397 233e 3534 51be
00000020: fceb 0e3e fe55 debe ba05 eabc 208a cd3d
00000030: 6341 37be c7ca a53e 53d7 e8bc 0b67 d9bd
00000040: 5d3d 243e c0b4 0c3e 8f7a de3e 8e2e 083e
0.19972251 -0.33062434 -0.17459485 0.29369098 0.2965135 -0.35431784 0.15975718 -0.20430072
0.13957208 -0.43424982 -0.028567184 0.10036111 -0.17896037 0.3238127 -0.028422987 -0.10615357
0.16039033 0.13740826 0.4345288 0.13299009

W.linears.0.weight f4 [20, 4]
00000000: 635b 2b3e d147 b63d 36de f8be 8ae0 b53e
00000010: 0979 473e 9af1 eabd 4054 0e3c 71f9 d73e
00000020: 0bb2 133f a456 a3be eac9 aa3e a684 d73e
00000030: 8967 f73e cac2 af3d b50e c03d dfb6 db3e
00000040: 00ae 1abe b89b 4f3d 306c e6bd d184 66be
00000050: 1f1f f33e 5bed adbe 5a4e ac3e 8d45 233f
00000060: 1b8b 153f 2fd4 1cbc d8b6 ff3e 4ebb 373f
00000070: 9f17 6e3e 841b 7ebe 03c7 acbd 31f2 c03e
00000080: 9782 83bd 0b73 713d 7ef0 e83c 2a30 87be
00000090: 66ec 2f3d 6dd3 c8be 1ce4 19bf c7a1 753e
000000a0: b307 4b3f 5b89 05bf 2f05 b83e 8846 053f
000000b0: 4456 7bbe 143e 4e3d c628 bebe fca2 5e3d
000000c0: fe06 8dbe 86da df3c a720 13be 486f cebd
000000d0: d5ac d3be 4cff 093d 1796 e6be 5508 b53e
000000e0: dd39 a63e 7c70 b8be 245e 7ebe 0059 a53e
000000f0: 7321 d73e 488b d0be 3fb3 83bd 9da9 a93e
00000100: 4c87 1a3f cd92 b53d 11ce b33e 01fe 153f
00000110: dba0 51be 0c22 603e 81d5 53bf 4639 fb3e
00000120: 5f9c 90bd ac72 933d 7157 553e ae54 713e
00000130: 4237 1e3f 9e26 94be ee76 813e 1996 103f
0.1673408 0.08900417 -0.48607033 0.35522872 0.19479765 -0.11471863 0.008687079 0.42182496
0.57693547 -0.3190204 0.33357173 0.4209339 0.4832118 0.08582075 0.09377805 0.42912957
-0.15105438 0.050685614 -0.11251104 -0.22511603 0.4748468 -0.3397015 0.33653527 0.63778
0.58415383 -0.009572073 0.49944186 0.7177018 0.23251198 -0.24815184 -0.08436396 0.37684777
-0.064213924 0.058947604 0.028434988 -0.26403934 0.042950056 -0.39223805 -0.6011369 0.23987494
0.79308623 -0.5216271 0.35941455 0.5206075 -0.24544626 0.05035217 -0.37140483 0.054354653
-0.27544397 0.02732588 -0.14367925 -0.10079819 -0.41342798 0.033690736 -0.45036384 0.3535792
0.3246602 -0.3602332 -0.248406 0.32294464 0.42017707 -0.40731263 -0.06430673 0.33137217
0.60362697 0.08865891 0.35118154 0.58590704 -0.20471518 0.21887988 -0.82747656 0.49067134
-0.070610754 0.07199606 0.20834137 0.23567459 0.61803067 -0.28935713 0.2528605 0.5647903

W.linears.0.bias f4 [20]
00000000: fa16 b63e b26c 7f3e 80fe 343f c321 a73e
00000010: 406c b5be 89cd 1a3f 4c75 463f 1b65 a73e
00000020: b10e b8be a5ed aa3e 9455 0d3f 4a78 9a3d
00000030: 911c 4cbe 31ba a53e eecb 8e3e 60a1 cf3e
00000040: bebe 0a3f d0b8 d73e f201 533e 5913 953e
0.35564405 0.24943808 0.70700836 0.32642946 -0.3543415 0.6046987 0.7752273 0.32694325
-0.3594871 0.33384433 0.55208707 0.075424746 -0.19932772 0.32368615 0.2788996 0.40552807
0.541973 0.42133188 0.20606211 0.29116324

W.linears.1.weight f4 [2, 20]
00000000: 3ec2 d33e 2ad1 d03e b057 0fbe 62d4 cf3d
00000010: 205e 4fbe fccd 20be 69f4 333d a2ed ad3e
00000020: cd98 95be c586 073f 9e11 1d3d 8b50 2d3e
00000030: 1361 89be 72dd 383e 0129 e93e ffde 933e
00000040: ac6f 243d 5462 2d3f 5cd3 8a3e bf1c 1c3e
00000050: f12a fb39 9ce3 503f 49fc 7f3f 3c6e 093f
00000060: 8285 89be 0d7a 553f 091b 4c3f a7a7 ee3e
00000070: e04f 62be 27c1 6dbe cd7b 793f 9f2b 40bf
00000080: 1c9b f7be c7b0 32bf e1db d73e f1fa 263f
00000090: cacb 143f 9479 23bf e4bc 293e cd14 743f
0.41359133 0.4078458 -0.13998294 0.10147931 -0.2025075 -0.15703577 0.04393426 0.33970362
-0.2921814 0.52940017 0.03834688 0.16925256 -0.26831874 0.18053225 0.45539096 0.2888107
0.04014556 0.6772816 0.2711438 0.15245341 0.00047906445 0.81597304 0.9999433 0.5368383
-0.2685967 0.8338936 0.7972875 0.46612284 -0.22100782 -0.23218213 0.9745453 -0.7506656
-0.48360527 -0.6980099 0.42159942 0.65226656 0.5812346 -0.6385739 0.16575962 0.9534424

W.linears.1.bias f4 [2]
00000000: 75bc 603e 48d8 8d3e
0.2194689 0.27704072

c0 f4 [3]
00000000: 5f33 cc40 26ae d1c0 777e 3fc0
6.381271 -6.5525084 -2.9920938

h0 f4 [2]
00000000: 0000 0000 0000 0000
0.0 0.0

exp_avg f4 [20, 5]
00000000: a7ae 073f 79d8 d2be 3b85 4b40 5174 edc0
00000010: f34f 1fc0 e49c abbf f06a bebe c84b b93f
00000020: 363c 20bf 89b2 ec3d d918 84bf d7fd 733f
00000030: 8496 c53f 418b d2bf 0cee ddc0 43fc 7bbf
00000040: 78c8 03bf d33d 313d 6754 883f 63f9 97be
00000050: cb8e 27bf c79a 943f b44d b1c0 1a29 3f41
00000060: 62e9 e9bf e3d8 3040 28d0 ecbf f65a 91bf
00000070: 66df fc3f c1df 6940 116a 12bf c909 5d3e
00000080: 2e44 a0bf 2d6c ca3f df93 e23f 6c6c 89bf
00000090: 5c66 8b3f d6b1 40c0 a7b1 9e40 d25b a13f
000000a0: 51b1 45bf 8a3e 853f ac13 44bf 8098 ae3f
000000b0: a995 96c0 8eb0 9e3e 3a7f c5bd 9e89 373e
000000c0: 2bd9 b9be a21e 6d3e 8f78 9dbe 4f65 933f
000000d0: f8a1 e2c0 09d2 7241 e63f 683e c2af 85bf
000000e0: 5d11 a73d 971c 64bf 364c 3d40 854a f93c
000000f0: 9273 4abf e630 0b3f 5f50 d3bd f0fa 44bf
00000100: 676a 29c0 79ea 31bf 8c4e b43d d846 f6bf
00000110: 55a4 6d40 bd87 e13e 12f9 893d f2f0 80bf
00000120: e880 8c40 4473 47c1 0eb6 f03f e73f 34be
00000130: 84ea 4d3e b619 53bb 9301 3a3d 4758 3bbc
00000140: 93a6 65be 16c4 80be 34ac 953f 8760 02c0
00000150: e9f0 ad3f b8fd d13d 1404 253e f1db 57c0
00000160: 145a c240 cc5e b03f 7a57 e5bf 1d7d ee3d
00000170: 418b 06c0 8b95 a140 ab06 9a3f 12d9 c8be
00000180: 50dc afbe ce79 de3e 2b6b 33bf 2ed7 953f
0.53000873 -0.4118078 3.1800067 -7.420449 -2.4892547 -1.3407254 -0.37190962 1.4476252
-0.62591875 0.115574904 -1.0320083 0.95309204 1.5436559 -1.6448747 -6.9353085 -0.98431796
-0.51477766 0.04327185 1.0650758 -0.29682454 -0.6545226 1.1609734 -5.5407352 11.947535
-1.8274348 2.7632377 -1.8501024 -1.1355884 1.9755676 3.6542819 -0.57193094 0.21585764
-1.2520807 1.5814263 1.7701377 -1.0736213 1.0890613 -3.0108542 4.959186 1.2606146
-0.7722369 1.040971 -0.76592517 1.3640289 -4.705769 0.30994076 -0.09643407 0.1792359
-0.362985 0.23156217 -0.3075604 1.1515292 -7.0822716 15.176278 0.22680625 -1.0444262
0.08157609 -0.89106125 2.9577765 0.030431041 -0.79082596 0.5437149 -0.10318064 -0.769454
-2.6471193 -0.694984 0.08804044 -1.924037 3.713155 0.44048873 0.067369595 -1.0073531
4.3907356 -12.465641 1.8805559 -0.17602502 0.20108992 -0.003221137 0.045411658 -0.011434621
-0.22426824 -0.25149602 1.1693177 -2.0371416 1.3589145 0.10253471 0.16114837 -3.3727992
6.073496 1.377893 -1.7917321 0.11644957 -2.1022494 5.0495048 1.2033285 -0.39228112
-0.34347773 0.43452305 -0.700854 1.1706293

exp_avg_sq f4 [20, 5]
00000000: 1ffb cf42 d293 4544 16b1 e743 767e 0744
00000010: f4b8 1b44 9a75 6a43 ed06 ed42 84b7 b642
00000020: 292e 2241 0094 5b42 dc1e 9343 59ab 4345
00000030: 2e07 d244 677f c843 861d 3d44 8f28 4d43
00000040: 3616 1743 189c 1543 7d25 c142 f7bf 5042
00000050: ab34 f142 bb97 6843 8f63 5544 8b5d 4845
00000060: 2a5c 5844 ebb8 bf43 35bb 0144 65d5 ca43
00000070: 1aad 5b44 cf27 f043 0947 3a42 d7d3 2143
00000080: 852d d143 21a0 5e43 6756 8944 181c 0544
00000090: 9967 d143 e19b 2245 d966 2e44 e704 2245
000000a0: 6e82 8443 84e5 c544 cd10 2843 4df0 f743
000000b0: d6d4 6543 3648 8d43 904c bb44 3d7b 1645
000000c0: b7ce b843 bf48 0a45 3f4d ae42 fdd7 0643
000000d0: 24db 5744 90e4 4c45 0429 0244 8f77 8b43
000000e0: 3fe2 3543 6e44 1244 320d e442 2163 b243
000000f0: 45e2 f843 e8fc 9543 885f f143 ce28 ec41
00000100: 3e8d 3744 a7c7 de42 45cd 5e43 f76a 0b44
00000110: 0c9e e443 94a7 9e43 25f0 3744 1b30 2845
00000120: 473f db45 9c87 2a45 4634 8645 e86a b142
00000130: 1147 1045 470d ac43 1784 1543 88ed bb43
00000140: 0613 8843 3a59 8644 360e 8543 aa5b 5843
00000150: 369f 1144 8e40 b042 4d4e 8d42 8845 6e43
00000160: 3d6b 3944 48f4 6d43 ff3d a744 d815 b945
00000170: f63a 9245 fd42 2544 3a02 7f45 c634 3343
00000180: c624 a644 167e 6643 27be 5543 d286 2244
103.99047 790.3097 463.38348 541.97595 622.8899 234.45938 118.51353 91.35843
10.13627 54.89453 294.2411 3130.7092 1680.2244 400.99533 756.4613 205.15843
151.08676 149.60974 96.57322 52.187466 120.60287 232.5927 853.5556 3205.8464
865.44006 383.44467 518.9251 405.66714 878.7047 480.311 46.56937 161.8275
418.35562 222.6255 1098.7001 532.43896 418.80936 2601.7424 697.607 2592.3064
265.01898 1583.1724 168.06563 495.87735 229.83139 282.56415 1498.3926 2407.7024
369.61496 2212.5466 87.15087 134.8437 863.4241 3278.2852 520.64087 278.93405
181.88377 585.0692 114.02577 356.77444 497.76773 299.97583 482.74634 29.519924
734.2069 111.389946 222.80183 557.6713 457.23474 317.3092 735.75226 2691.0066
7015.9097 2728.4756 4294.534 88.7088 2308.4417 344.10373 149.51598 375.8557
272.14862 1074.7883 266.11102 216.35806 582.4877 88.12608 70.65293 238.2716
741.6756 237.95422 1337.9374 5922.7305 4679.37 661.0467 4080.1392 179.20615
1329.1492 230.49252 213.74278 650.10657

exp_avg f4 [20]
00000000: 111f 92be 6eda 1ebe 0908 52be 30b0 c739
00000010: 3498 d43e d0b8 863e 57e2 353d bfbe 633e
00000020: 1932 90bb 05e4 e93c 8b41 243f 638e c13c
00000030: dac9 02be d2f6 1a3e ead9 e7be 8b15 23bd
00000040: bd72 15be c357 7f3e a825 2b3d b2b4 5cbd
-0.28539327 -0.15513012 -0.20510878 0.00038087508 0.41522372 0.26312876 0.044405308 0.22240733
-0.0044005034 0.028551111 0.6416251 0.023627466 -0.12772313 0.15133217 -0.45283443 -0.039815467
-0.1459455 0.24935822 0.04178396 -0.053883262

exp_avg_sq f4 [20]
00000000: 4f25 4740 4965 e93f a5d3 3940 16ef 2440
00000010: fc56 4c41 946f fa40 1c8c 4c40 63ec de40
00000020: 601d 8440 1f39 1240 9fcd 4d41 71da 1940
00000030: 7adf 0140 6267 6f40 552a 0e41 45f4 023f
00000040: 84fe bd3f a91e 5140 79e2 3741 4955 d93f
3.1116521 1.8234035 2.9035428 2.5770926 12.771236 7.8261204 3.1960516 6.966356
4.128586 2.2847364 12.8627 2.4039576 2.029265 3.740685 8.885335 0.51153976
1.4843297 3.2674963 11.492791 1.6979152

exp_avg f4 [3, 20]
00000000: 6770 2141 4935 27c0 a52a 1141 a367 3cc0
00000010: 94ad 9dbf 09b2 c240 7504 d13e af54 90bf
00000020: 061b 4a41 2fbf ebbf ed66 8d3f 2dbb dcbf
00000030: 54b1 e63f 544f fabf d0ba 2e3f d9db d2bf
00000040: 11f4 64bf f5ad 323f 6817 e8bf 9872 abbf
00000050: 7dd9 c5c0 5d20 693f 9362 bcc0 469c d03f
00000060: ad64 03bd 1300 acc0 0b9a bb3f 39e3 b73f
00000070: 7661 8fc0 7390 8f3f 96cc 913e bfa7 62be
00000080: d79c de3d 1550 703f ae48 aebf 714c 863f
00000090: 3c80 11bf 1d7a 0dbf f278 62bb 6e5d 74bd
000000a0: 5059 833f 11d9 013c d43d 933f 81b4 40bf
000000b0: e3ff 3fbf 009b 36bf 9b18 9f3f bc6e 8bbd
000000c0: 37cc 8b40 3aa0 bbbc 40c1 d8bf 91ba 43bf
000000d0: fce4 3340 fe2b 1cbf 968f a8be 4026 823d
000000e0: ca5e 40bf 5d46 62bf 543c 40bf 9054 4bbf
10.089942 -2.6126273 9.072911 -2.9438255 -1.2318597 6.084233 0.40823713 -1.1275843
12.6315975 -1.841772 1.1047035 -1.7244622 1.8022866 -1.9555459 0.68253803 -1.6473342
-0.89434916 0.6979669 -1.8132143 -1.3394346 -6.182799 0.9106501 -5.887033 1.6297691
-0.032078434 -5.375009 1.4656385 1.4366218 -4.480647 1.1215957 0.284764 -0.22134303
0.108697586 0.93872195 -1.361593 1.0492078 -0.56836295 -0.55264455 -0.0034556952 -0.059659414
1.0261631 0.007925288 1.1503243 -0.7527543 -0.7499983 -0.7133026 1.2429384 -0.0680823
4.3686786 -0.02290355 -1.6933975 -0.7645655 2.810851 -0.61004627 -0.32922047 0.06354952
-0.75144637 -0.88388616 -0.75092053 -0.7942591

exp_avg_sq f4 [3, 20]
00000000: 234f 2845 f910 8b45 2867 6546 bbf8 5645
00000010: 5ae5 a942 4604 0344 f02e 5244 ddb3 7942
00000020: b9bf 1546 3791 2246 4ee1 a843 9a2e 3544
00000030: 3b57 5f45 35d2 ba43 7a84 a245 4d9f b245
00000040: 4a09 9145 8893 1e43 1240 d543 6d8b 4445
00000050: 042a 2f44 5fba 5e44 b039 b844 5e9d 2f44
00000060: 010c 9342 624b 4d44 aab5 1544 c793 ef42
00000070: bb50 c144 5159 be44 d860 7744 0e51 6f43
00000080: 6ca0 2744 6feb 3643 c53d 3a44 f477 1c44
00000090: ae61 2744 6442 a443 485a 2a43 0eab f043
000000a0: dafe 7643 de44 db43 c60c a143 5fa4 9d43
000000b0: bc72 2e42 42fe 8d43 3cd0 8543 887a 4e42
000000c0: cf36 0144 8220 8a44 7e4c bf43 9874 2543
000000d0: 5bac 7243 c7b0 d742 da8a 1244 2455 4e44
000000e0: 02c3 5144 6152 4143 293d fa42 ddf6 f643
2692.946 4450.1216 14681.789 3439.5457 84.94795 524.0668 840.7334 62.425648
9583.931 10404.304 337.7602 724.72815 3573.452 373.64224 5200.5596 5715.9126
4641.161 158.5763 426.50055 3144.714 700.6565 890.91205 1473.8027 702.45886
73.523445 821.17786 598.8385 119.78863 1546.5228 1522.7911 989.5132 239.31662
670.5066 182.91966 744.96515 625.87427 669.52625 328.51868 170.35266 481.33636
246.99551 438.53802 322.0998 315.28415 43.612045 283.9864 267.62683 51.61966
516.8564 1105.0159 382.5976 165.45544 242.67326 107.84527 586.16956 825.3303
839.047 193.3218 125.11945 493.92862

exp_avg f4 [3]
00000000: bc3e b23f 66ed 89bf 71d1 a6bd
1.3925395 -1.0775573 -0.081454165

exp_avg_sq f4 [3]
00000000: fec1 ab42 2585 7242 6e50 ac41
85.87889 60.630024 21.539272

exp_avg f4 [20, 3]
00000000: 8492 e4bd 0d3e 90bb c9fb 4fbe eddd 8bbe
00000010: 831e 1ebd 549f d63f 7aea dfbf 5860 fb3e
00000020: 3ccb be40 671b b93f fe1c 22bf 876d 8cc0
00000030: 8841 79bf 8b8f 15be 60bc 6b3f a932 0340
00000040: 75d9 78bf e205 63c0 c493 62bf cd36 2a3f
00000050: 624d 8a40 1a33 013f 6454 d9bf 073f 3fc0
00000060: 3af7 f9be 1447 2cbe 411b 1440 9569 603f
00000070: db3f 413c f445 ed40 e258 943e eed8 a9bd
00000080: 5825 a6be 1d23 e7bf 7c8c ad3f 1607 0d41
00000090: 2fd4 dc3e 6c37 1f3d ea86 6cbf b0c4 473c
000000a0: c2c1 56bf d4a7 9140 1732 7c3f 1fa1 e9be
000000b0: 45a9 babf 2cba 27bf 67b3 5fbe 7b86 5abe
000000c0: 23dc 3fbf cae8 a13f 3fe2 bb40 61ad 253f
000000d0: 522f d3be 9ac7 efbf 3282 8f3f 793f 04c0
000000e0: 4794 b7c0 f13f 6c3f e259 1f3d 514c 0cc0
-0.11160758 -0.0044019283 -0.20310892 -0.27317753 -0.038603317 1.6767373 -1.7493432 0.49096942
5.962309 1.4461488 -0.6332549 -4.38837 -0.9736562 -0.14605539 0.9208431 2.049967
-0.97206813 -3.547234 -0.8850672 0.6648987 4.321946 0.504686 -1.6978879 -2.988222
-0.4882143 -0.16823989 2.3141634 0.87661105 0.0117950095 7.414789 0.28974062 -0.08293329
-0.32450366 -1.8057591 1.3558497 8.81423 0.43130633 0.038871214 -0.9239336 0.01219289
-0.838894 4.551737 0.9851393 -0.45630738 -1.4582907 -0.6551845 -0.2184578 -0.21340363
-0.74945277 1.2649167 5.871368 0.6471768 -0.4124704 -1.8732789 1.1211607 -2.066374
-5.7368503 0.92285067 0.03890408 -2.192158

exp_avg_sq f4 [20, 3]
00000000: a3a8 4043 1627 1c43 f281 4241 5ab3 0142
00000010: 8296 2444 e501 fd42 7b1d b644 9348 0545
00000020: d256 bc44 860a 3944 d11f 1a46 8789 9144
00000030: dec6 3a43 de1b 2146 bffd 1d44 92d1 2845
00000040: fb70 8645 8616 7f44 1b6b 8c43 2fc1 be43
00000050: 77d4 b943 9871 f443 da33 f345 e404 3044
00000060: 913c 4c44 4fa5 9146 57bf ee44 62c6 3c44
00000070: 9b8f aa46 3883 2c45 7155 c342 bf0c 7046
00000080: 8343 7a44 51bb b944 69c0 d444 57e0 ca44
00000090: 6a90 5c43 dfea 5f45 c373 8a43 4799 e843
000000a0: bc0b 3146 978f 4144 e6de 7444 3902 b944
000000b0: b084 dd43 b70d 3743 5ce9 de44 0de9 0343
000000c0: f5aa ae44 2c99 8a44 0e13 5144 5b74 ea42
000000d0: 584e 8544 366a 1f43 3463 8344 ad95 7246
000000e0: 5fd6 c844 4203 2044 2b4e 5e44 ac94 dc43
192.65874 156.15268 12.156725 32.425148 658.3517 126.5037 1456.9213 2132.536
1506.7131 740.1644 9863.954 1164.2977 186.77682 10310.967 631.9648 2701.0981
4302.1226 1020.3519 280.83676 381.50925 371.65988 488.88745 7782.4814 704.0764
816.94635 18642.654 1909.9794 755.09973 21831.803 2760.2012 97.66688 15363.187
1001.0549 1485.8536 1702.0128 1623.0106 220.56412 3582.6794 276.9044 465.19748
11330.934 774.2436 979.4828 1480.0695 443.03662 183.05357 1783.2925 131.91035
1397.3424 1108.7866 836.2977 117.22726 1066.4482 159.41489 1051.1001 15525.419
1606.6991 640.0509 889.2214 441.1615

exp_avg f4 [20]
00000000: 1966 b63b f5ad 60be 66cb 4cbf cffc 193f
00000010: 09c3 34be 7c68 053f 8119 09bf 63ed a93e
00000020: 2868 98be da64 56bf 2404 4b3d e35a 8cbf
00000030: de46 123e 5500 07bf 5c0c 5f3e 508b cdbc
00000040: 76cf 2dbf 11b5 783e f67e 2a3f f953 a63e
0.00556637 -0.2194136 -0.7999786 0.6015138 -0.17652525 0.52112556 -0.5355454 0.33188924
-0.29766965 -0.8374764 0.049564496 -1.0965236 0.14284846 -0.5273488 0.21782058 -0.025090843
-0.67894685 0.24287821 0.66599977 0.3248594

exp_avg_sq f4 [20]
00000000: 9b08 473e 3696 bd3f 4199 8441 94be 0341
00000010: c6fa da3f faec eb40 169a 8f40 949d 9a40
00000020: bd6c 4640 0054 b241 b1d2 da3f a239 8e41
00000030: 8144 993f 6421 5940 2ac6 e43f ce13 ba3f
00000040: 5f69 a140 1b3c 673f 8afd 3e41 b8f1 7f40
0.19436876 1.4811466 16.574831 8.234028 1.710778 7.372678 4.4875593 4.8317356
3.1003869 22.291016 1.7095548 17.778141 1.1974031 3.392663 1.7872975 1.4537294
5.0441127 0.9032609 11.936899 3.9991283

exp_avg f4 [2, 20]
00000000: fe87 8b40 c0a3 f7bd 4930 cec0 194e a6bf
00000010: 75a6 5d40 5f55 3440 c0ca f0c0 0512 5b3f
00000020: b636 3340 ad63 07c0 2f72 8940 26b6 c7c0
00000030: 2421 81c0 3d6c 803e de83 4840 889c 5b40
00000040: 80bb 0cc1 6bec 1e40 9505 393f 2bfc 44c0
00000050: ff7b 8b3f 0301 693e 6f41 f1bf b6fb 4e3e
00000060: d36b 8d3f 2f34 4d3f fb25 48c0 6ea6 953f
00000070: 2f4e 283f 3bad 20bf cb6e 933f c38e 28c0
00000080: e810 4dbf fa85 0b3e 23c1 863f 567e 993f
00000090: c64f 31c0 273b 2f3f 755c 463f 1959 b8bf
4.3603506 -0.1209178 -6.443394 -1.2992584 3.4632847 2.8177106 -7.5247498 0.8557437
2.8002143 -2.1154587 4.2951884 -6.240985 -4.0352955 0.2508258 3.1330485 3.431429
-8.795776 2.4831798 0.7227414 -3.077891 1.0897216 0.22754292 -1.8848094 0.20213208
1.104853 0.8015775 -3.1273181 1.1691415 0.657443 -0.6276433 1.1518186 -2.6337135
-0.8010392 0.13625327 1.0527691 1.199168 -2.770494 0.68449634 0.7748483 -1.440219

exp_avg_sq f4 [2, 20]
00000000: 516d 2445 1031 0045 822c 8345 ff83 6644
00000010: 9d24 3246 515c f443 1ce7 4e45 6f93 3046
00000020: 72eb cb43 9dce 4845 3d91 0046 c856 9e44
00000030: 17a0 e245 cac1 4d45 817b 9944 045f bb45
00000040: f402 7445 fe3e 2443 b2de 3f45 792c 1245
00000050: 3892 5542 d69c 8d41 3d55 6545 ff4b 7d43
00000060: e426 7d42 fcff 0f42 a814 1845 bd85 d141
00000070: bc8a f243 cb54 5d44 aad8 6d42 d077 3844
00000080: 9bd6 4244 a73c 2845 29c4 9743 edc4 2942
00000090: 91e9 c444 a969 8442 2371 5c41 1757 9844
2630.8323 2051.0664 4197.5635 922.06244 11401.153 488.72122 3310.4443 11300.858
407.83942 3212.9133 8228.31 1266.7119 7252.011 3292.1118 1227.8595 5995.877
3904.1846 164.24606 3069.9185 2338.7795 53.39279 17.70158 3669.3274 253.29686
63.28798 35.999985 2433.291 26.190302 485.08386 885.3249 59.461586 737.8721
779.3532 2691.7908 303.5325 42.44231 1575.299 66.20637 13.777621 1218.7216

exp_avg f4 [2]
00000000: b997 94c0 9489 89bf
-4.643521 -1.074511

exp_avg_sq f4 [2]
00000000: 9aab 0844 978a 6842
546.6813 58.13534

exp_avg f4 [20, 5]
00000000: a8aa 48c0 7f49 d63e d640 8f40 2886 4e3a
00000010: 7cca dc3e 10fd cc3e 4d1f 1640 9588 82c0
00000020: 1739 13c1 5761 0dc1 018e b1c0 7bea f33f
00000030: ae0a be3f 1c9a a7bf a24d 32be 5bf1 4fc0
00000040: c6c4 08c0 9e13 1d41 3aa4 91c0 c97b d73f
00000050: dd1c 76c0 fff6 06c0 557e 2b41 a0c4 62c0
00000060: 3db6 393f 57e0 80c0 4eab 0d40 9e45 1d40
00000070: 8ebc 96bf e011 7dbc 44fc 3940 f173 25c0
00000080: fe66 8cbf 7e7b dc40 b067 f640 2150 adc0
00000090: 2244 1540 ccfb 6f3f 5bc8 47bf 3922 50be
000000a0: 17be 4340 6ef4 55c0 f072 213f ee01 5540
000000b0: a749 df40 8010 ccc0 9860 ac3f a6e9 1c41
000000c0: d8f7 a9c1 1ff7 cac1 9b1e f13d a440 143f
000000d0: 8c41 1abf 0566 eabe 1a18 c3bf c3d5 a73e
000000e0: 57e4 edbf 1078 4d40 f6ca dabf aeb1 393e
000000f0: 3929 2cc0 4929 9340 250d e5bf 9afc 81c0
00000100: 92dc 20c1 d70c 9f3f 5f8e dfc0 c560 c340
00000110: 3337 15c1 3a15 4840 1798 05bf c10e 193f
00000120: 5298 b93e 6941 a03e 62b8 ecbe b0d3 1ec0
00000130: 15e4 2140 38c6 1b3f 4e1c 08c0 2204 a3c0
00000140: 9299 3540 f609 97c0 4481 1640 d84e 6240
00000150: 4f1b 1341 2714 e53f 254b 5ec0 40a5 be3f
00000160: 8f6f 4640 e341 f840 22fc 99c0 3dcd 9bc0
00000170: 5c62 6a41 108a a8c0 aea8 0040 964f 07bf
00000180: f612 1ec0 657d 8140 51ec a3c0 8a58 a73f
-3.135416 0.41852948 4.4766645 0.0007878267 0.43123233 0.4003682 2.3456604 -4.0791726
-9.201438 -8.836265 -5.5485845 1.9055933 1.4847009 -1.3093905 -0.17412427 -3.2491062
-2.13701 9.817289 -4.551297 1.6834651 -3.8455117 -2.1088254 10.718343 -3.543251
0.725437 -4.027385 2.2135806 2.457374 -1.1776292 -0.015446156 2.906022 -2.5852015
-1.0968931 6.8900747 7.700157 -5.4160314 2.3322835 0.93743587 -0.78040093 -0.20325555
3.0584772 -3.3430438 0.63066006 3.3282428 6.977741 -6.377014 1.3466978 9.807043
-21.246017 -25.370665 0.11773416 0.57911134 -0.60256267 -0.4578096 -1.524173 0.32780275
-1.8585309 3.210453 -1.7093189 0.18134186 -2.690016 4.5987897 -1.7894636 -4.062085
-10.05385 1.2425793 -6.9861293 6.1055627 -9.325976 3.1262956 -0.52185196 0.5978814
0.36249024 0.31299904 -0.46234423 -2.4816704 2.529546 0.6084933 -2.1267276 -5.0942545
2.8374982 -4.719966 2.3516397 3.5360622 9.194167 1.7896775 -3.4733365 1.489418
3.100559 7.758043 -4.812028 -4.8688035 14.6490135 -5.2668533 2.0102954 -0.52855814
-2.4699073 4.046557 -5.122597 1.3073895

exp_avg_sq f4 [20, 5]
00000000: 10ca c045 fda9 ab45 9c70 7244 17cf 3c43
00000010: fdcc d843 4a88 5642 b3a2 2e43 8672 1044
00000020: 9036 1845 b5da 2944 a80f 8e44 47dc 9944
00000030: 0678 3543 69a6 db41 5dbb 1243 9269 0a44
00000040: 85ec 6a44 98b3 5644 e222 1344 815c b943
00000050: 1474 9f44 5c88 c844 ef8f 7844 ffb2 0044
00000060: 7c01 9543 93d7 cd45 a723 c545 3c2f ed43
00000070: 9eb2 a042 b422 0e44 a81a 3146 66d9 2e46
00000080: 6124 da44 28f0 d644 5b60 0946 5964 4945
00000090: 0d5a 8145 2131 af43 aecf 2743 1cfa c443
000000a0: 332d 0f45 117a b144 813e 4f44 a617 9844
000000b0: 3a7c 9e45 2d04 2945 dee2 a745 1b29 0645
000000c0: fc19 7045 7390 3a47 4b02 6944 84d0 af44
000000d0: b80e 8143 cbba a043 3c3a 1344 fee8 7c43
000000e0: 3359 ea43 0b92 6943 cc0d 8e43 4b2e b442
000000f0: 32b5 fc45 ee96 e045 c230 0445 bef2 2745
00000100: d6b0 0b46 eab1 8944 dedf 8545 5657 fd44
00000110: e62d 9a45 ef50 5e44 73b3 e143 ff69 0244
00000120: b44b 8342 5455 7f42 5c72 5343 9b5d 0e45
00000130: 2ae3 ef44 90fa 1044 a10a 1144 816b 2745
00000140: 6cd2 3846 960e 2a46 4bfa fa44 0c7c 2445
00000150: 9877 0846 782e e144 ef32 8f44 1e44 5044
00000160: 0462 a744 c05d 8a45 f418 a145 c22d 0046
00000170: 2c0f 5d45 79ff d144 e368 9344 dd3f cf41
00000180: 0f7e 9343 12e8 e842 9012 6543 7ae5 9442
6169.258 5493.2485 969.7595 188.80894 433.60147 53.633095 174.63554 577.7894
2435.4102 679.4173 1136.4893 1230.8837 181.46884 27.456255 146.73189 553.64954
939.6956 858.80615 588.54504 370.7227 1275.6274 1604.2612 994.24896 514.7968
298.0116 6586.947 6308.4565 474.36902 80.34886 568.54224 11334.664 11190.35
1745.1368 1719.5049 8792.089 3222.2717 4139.2563 350.38382 167.81125 393.95398
2290.825 1419.8146 828.9766 1216.739 5071.5283 2704.261 5372.3584 2146.569
3841.624 47760.45 932.0358 1406.5161 258.115 321.45932 588.9099 252.91013
468.69687 233.57048 284.1078 90.090416 8086.6494 7186.866 2115.0474 2687.1714
8940.209 1101.5598 4283.9834 2026.7292 4933.7373 889.2646 451.40195 521.6562
65.64786 63.83333 211.44672 2277.8503 1919.0989 579.91504 580.1661 2678.719
11828.605 10883.646 2007.8217 2631.753 8733.898 1801.4521 1145.5917 833.06433
1339.063 4427.7188 5155.119 8203.439 3536.9482 1679.9835 1179.2777 25.906183
294.98483 116.45326 229.07251 74.4482

exp_avg f4 [20]
00000000: 8fcf 0fbf 2b73 f83e 94b4 12bf 6c5a 66bf
00000010: a0e5 7cbf ebcf d3be 181b d13e 7db9 04bf
00000020: 545a 373e 80fa b7bf 30e3 4e3d 0eef 57be
00000030: 92cc c1bd f99b 30bf 6393 b6bd 23b2 84be
00000040: 822d 0a3e bad0 5d3c 4fc4 a9bf bc03 ecbe
-0.56176084 0.48525366 -0.5730679 -0.8998172 -0.9878788 -0.41369566 0.40840983 -0.5184553
0.17905551 -1.4373322 0.05050963 -0.21087286 -0.09462847 -0.68987995 -0.089148305 -0.25917158
0.13493922 0.013538534 -1.3263034 -0.460966

exp_avg_sq f4 [20]
00000000: 6608 5841 3130 eb40 7270 2041 22d4 6941
00000010: e74b 6f41 237c 0d42 a479 c141 7ed1 9941
00000020: 2d6b 8141 8df4 2242 a9d7 0d40 3195 a840
00000030: c2dd ff41 cd3e f941 10bb 623f bdb9 1841
00000040: 9b0d d841 ddb1 8341 9992 5442 89ed b13f
13.50205 7.3496327 10.027452 14.61429 14.956031 35.371227 24.184395 19.227291
16.177332 40.73882 2.2162879 5.268212 31.98328 31.155664 0.88566685 9.545346
27.006643 16.461847 53.14316 1.3900615

exp_avg f4 [1, 20]
00000000: 8098 70c0 0c17 f940 23ee e53f 67f4 77c0
00000010: a736 a3c0 a74e 17bf bac7 3741 d16c 1240
00000020: 1413 c741 141d a140 2713 0e41 d8e9 39c0
00000030: a2f4 0741 a858 2cc1 892b 9340 5c1a 4741
00000040: 9edc 8140 9814 0e41 12df 9fc0 4de9 ecc0
-3.7593079 7.7840633 1.7963299 -3.8742921 -5.1004214 -0.5910439 11.486261 2.2878916
24.884315 5.0347996 8.879676 -2.9048977 8.497225 -10.771645 4.5990644 12.443935
4.058181 8.880028 -4.9959803 -7.403479

exp_avg_sq f4 [1, 20]
00000000: e74b 5445 c73f b344 c7c1 ea44 6c84 6144
00000010: 0aa0 6f44 ecfa 9f44 8501 5246 bf79 1a45
00000020: 80a6 2047 5a9e c745 20e1 0246 014d 8444
00000030: ae1a 1f46 8062 5145 459f ba46 b0b8 6447
00000040: 00cc 3446 0121 2146 8cf3 5144 f12e f044
3396.744 1433.993 1878.0555 902.0691 958.5006 1279.8413 13440.38 2471.6091
41126.5 6387.794 8376.281 1058.4064 10182.67 3350.1562 23887.635 58552.688
11571.0 10312.251 839.8054 1921.4669

exp_avg f4 [20, 4]
00000000: 26c5 bf3f a494 31be d9e2 ac3f 7d16 573d
00000010: d59c 0e3e 187e 393e 7bb6 003f 175a d93b
00000020: 64b8 1ec0 f45f 413f b16d cf3c 4797 62be
00000030: 5c87 12bf 2971 213e 020f 01bf 2203 703c
00000040: cd99 9e3d 5a2f 9cbe cebb 08bc 12f8 343c
00000050: 4a7e 12c0 7b35 283f 2629 e03d 1c0b 5bbe
00000060: 9191 c9bf 5252 c1bd 6a82 8b3f b315 60be
00000070: 213a ef3e 6049 703d 8bca 213f 85b1 923c
00000080: f01b 24be 0556 2bbb 51d4 36be acf5 8bbb
00000090: 1825 1340 228e a5be 90b1 fb3f 8bb3 a33d
000000a0: 5bad dbbf e96b 2a3f a2f7 b83e 75ea 28be
000000b0: a3ec 4a3f 1973 4ebe d3d3 b43f 128a 73bd
000000c0: 16f7 303e a483 21bf 454a 0d3d 35d4 aa3c
000000d0: b993 4c3e ed39 48be 368e d33f 3a65 01be
000000e0: b793 753f 15a3 14bc bf1c 873f 775b 0f3d
000000f0: a56f 19bd 5133 903d aaf7 c23e 622c 51bc
00000100: 93cc 87bf 693d 013e fbc8 ab3e 59c5 ddbd
00000110: f645 fd3f 163e a03e 0404 2440 a792 93bd
00000120: 8417 213f f172 9ebe bbae 533e 8fd7 853d
00000130: 7c36 9bbf c716 c73e b951 f53d 8768 babd
1.498204 -0.17341858 1.3506728 0.05251168 0.13927014 0.18114507 0.50278443 0.006633054
-2.4800043 0.7553704 0.02532086 -0.2212802 -0.5723779 0.15765823 -0.50413525 0.014649184
0.07744179 -0.30504876 -0.008345557 0.011045473 -2.288958 0.65706605 0.109453484 -0.21390957
-1.5747548 -0.094395295 1.0899174 -0.21883278 0.46724036 0.058663726 0.6319968 0.017906914
-0.16026282 -0.00261438 -0.1785443 -0.0042712297 2.299139 -0.32335 1.9663563 0.079932295
-1.7162279 0.6657091 0.3612643 -0.16495688 0.7926733 -0.20161094 1.4127144 -0.059457846
0.17281756 -0.6309149 0.034494657 0.020853141 0.19978227 -0.19553347 1.6527774 -0.12636271
0.9592852 -0.009072085 1.0555648 0.034999337 -0.03745999 0.07041038 0.38079578 -0.012766929
-1.0609306 0.12621082 0.33551773 -0.10828657 1.9786975 0.31297368 2.562745 -0.07205706
0.62926507 -0.30947068 0.20672123 0.06535255 -1.2126002 0.38884565 0.11978478 -0.09101968

exp_avg_sq f4 [20, 4]
00000000: 6b09 8342 302f f842 fe4d 8642 45a7 e73f
00000010: 29a2 9243 cea4 1b43 6bc6 0444 fb63 aa40
00000020: 3a44 2043 d5c4 f342 4f76 4844 08b7 863f
00000030: 8484 b841 2138 1244 c085 c442 8780 043f
00000040: eafe 2942 ab26 8842 de95 0142 fc84 c23e
00000050: e2b3 0543 08bd ae42 fffe 1744 ce71 483f
00000060: c4bd ec41 a81c 2045 8ce6 9b43 2495 6b3f
00000070: 5c8f 2143 b103 3e42 e6cb e443 5f6a 0340
00000080: 6273 2142 8665 a242 7dbc 3942 eca0 193f
00000090: 9f6d d742 4cf6 1542 2362 ae42 e68a 2840
000000a0: 6f8b 9b41 82eb 7241 5eb8 8b41 c09d 0c3f
000000b0: eb0f 8543 a1fc d844 bf57 3743 e961 593f
000000c0: 6d4d 0343 21e1 f642 199f a342 db12 4f3f
000000d0: f52f 5643 69a5 8744 3365 0543 ff61 283f
000000e0: b55e a342 6485 2742 0a36 cb42 8f61 3940
000000f0: a642 1a42 3baa 8d41 faa4 9f42 0ccd 913f
00000100: c80d 6f41 67c1 9044 e323 e542 b573 033f
00000110: a08a 5343 7fdd 5745 d5be cf43 edd5 b440
00000120: 93cf 4b43 9d06 1543 5060 3944 dd9e a23f
00000130: 3349 2f42 5e62 ca41 7d0c 1642 86e2 a43f
65.518394 124.09216 67.15233 1.8097922 293.26688 155.64377 531.1003 5.3247046
160.26651 121.88444 801.8486 1.0524607 23.064705 584.877 98.26123 0.5175862
42.49894 68.07552 32.396355 0.37992084 133.70267 87.3692 607.9843 0.7829865
29.592659 2561.791 311.80115 0.92024446 161.56 47.503605 457.59296 2.0533674
40.36268 81.19829 46.43407 0.6001117 107.7141 37.490524 87.19167 2.6334777
19.443083 15.182497 17.465023 0.5492821 266.12436 1735.8947 183.34276 0.84915024
131.30244 123.439705 81.81074 0.80888146 214.18733 1085.1691 133.39531 0.6577453
81.684975 41.880264 101.605545 2.8965795 38.565086 17.70812 79.82222 1.13907
14.940865 1158.0438 114.57009 0.5134843 211.5415 3453.8435 415.49088 5.651114
203.81084 149.02583 741.5049 1.2704731 43.821484 25.29803 37.512196 1.288163

exp_avg f4 [20]
00000000: 7d16 573d c04b d93b 8796 62be cdfe 6f3c
00000010: acf2 343c 320b 5bbe 8c15 60be 6fb0 923c
00000020: a9fd 8bbb 0bb4 a33d 60ea 28be d689 73bd
00000030: 2ad2 aa3c 4e65 01be f65a 0f3d 5529 51bc
00000040: 93c5 ddbd fd92 93bd 68d7 853d f569 babd
0.05251168 0.0066313446 -0.22127734 0.014648152 0.011044186 -0.2139099 -0.2188322 0.017906396
-0.004272182 0.07993325 -0.16495657 -0.059457622 0.020852167 -0.12636301 0.034998856 -0.012766202
-0.108287 -0.0720577 0.06535226 -0.09102241

exp_avg_sq f4 [20]
00000000: 45a7 e73f fb63 aa40 00b7 863f 8c80 043f
00000010: f784 c23e d171 483f 2295 6b3f 626a 0340
00000020: eda0 193f e08a 2840 bf9d 0c3f e961 593f
00000030: d712 4f3f 0062 283f 8a61 3940 0bcd 913f
00000040: b673 033f eed5 b440 dd9e a23f 89e2 a43f
1.8097922 5.3247046 1.0524597 0.51758647 0.3799207 0.7829867 0.92024434 2.053368
0.6001118 2.6334763 0.549282 0.84915024 0.8088812 0.65774536 2.8965783 1.1390699
0.51348436 5.6511145 1.2704731 1.2881633

exp_avg f4 [2, 20]
00000000: 178c 6cbf 41b5 5e3f b243 6040 605b 0440
00000010: b07f c2be c604 4e40 e65c 6e40 a512 433f
00000020: 869b e8bd 7e5e c8bf 354a 8f40 65fd c5bf
00000030: 6be1 05bf 6103 fbbf 57e8 183f 4b38 cb3f
00000040: 3425 4f40 783d 35c0 5dd0 243e c4e6 5140
00000050: 5e48 643e 9753 d4be 730d bcbf 2511 6cbf
00000060: 2c93 803e f061 a5bf 86f3 a0bf e9cb e1be
00000070: b0c8 6c3d b318 b03e cf82 00c0 1b98 3a3f
00000080: cb9b af3e acbc 793f 9b35 efbe 44f3 54bf
00000090: a8b6 acbf 1df5 963f 4b02 a0bc 8deb bebf
-0.9240126 0.8699532 3.5041318 2.068077 -0.37988043 3.2190413 3.72442 0.76200324
-0.11357789 -1.5653837 4.4778085 -1.5467955 -0.52297086 -1.9610406 0.5972952 1.5876554
3.2366457 -2.8318768 0.1609511 3.2797098 0.22293231 -0.41470024 -1.4691604 -0.9221366
0.25112283 -1.2920513 -1.2574317 -0.44100884 0.057808578 0.34393844 -2.007984 0.72888345
0.34298548 0.97553515 -0.46720585 -0.83183694 -1.3493242 1.1793553 -0.019532343 -1.4915634

exp_avg_sq f4 [2, 20]
00000000: 8f02 5843 7272 f942 5e47 cd44 39cf a043
00000010: 38ec 4541 08a6 a144 d37e 5745 b332 1443
00000020: 5469 6342 7e9a 5d43 34bb 4344 4772 f341
00000030: 0ed3 5841 b353 3042 e892 6943 bbab 7243
00000040: d0d9 1945 9098 c243 9193 1844 e166 2844
00000050: a29c a142 01b5 b940 fbc4 b842 235e 2e42
00000060: 12fe 9741 b72e 9642 32ae b143 3a79 c440
00000070: 42b5 7042 af4a 8a41 40c3 0e42 b4ec 9f42
00000080: 8ff3 2042 b633 3c43 1370 2b41 4140 2b41
00000090: f818 b143 bd29 6243 942e 1443 8326 f141
216.01 124.723526 1642.2302 321.61893 12.370171 1293.1885 3447.9265 148.19804
56.85286 221.60349 782.92505 30.4308 13.551527 44.081738 233.57385 242.67082
2461.6133 389.1919 610.3057 673.6075 80.80592 5.803345 92.38473 43.59193
18.999058 75.09124 355.3609 6.139798 60.17701 17.286467 35.690674 79.96231
40.23785 188.202 10.714862 10.703187 354.19507 226.16304 148.18195 30.143805

exp_avg f4 [2]
00000000: 345e 003e 2e86 5ebd
0.12535936 -0.054327182

exp_avg_sq f4 [2]
00000000: 61de 1842 c841 2540
38.217167 2.58214

exp_avg f4 [3]
00000000: 01be 5fbf e040 443f 3e78 ddbc
-0.873993 0.7666149 -0.027034875

exp_avg_sq f4 [3]
00000000: 65f9 0042 160f 6e41 6a84 7d40
32.24355 14.878683 3.961207
