results/MultiLayerSelfInhabiting/params/params.pth (torch_old, 5636 bytes, 13 tensors)

Fc.0.weight f4 [5, 6]
000000 6e 5e 75 bd 14 7d 0e be 16 a4 91 3e 30 57 3d 3d
       -0.05990451 -0.13914901 0.284455 0.046225727
000010 2e ed fe bd fd 89 3f 3c 5b 83 6e 3c 27 ea f3 3d
       -0.12447582 0.011690614 0.014557685 0.119098954
000020 8c bc 6a 3b 45 54 fd bc fd b7 54 3e b7 71 b9 bd
       0.003581795 -0.030923972 0.20773311 -0.090548925
000030 40 e9 14 3d f2 b2 c0 3c 55 5d d0 3d 98 82 10 3e
       0.036355257 0.023522828 0.10174052 0.14112318
000040 cb 94 17 3e f2 98 ae 3e ab 7e d0 bd f9 69 9c 3d
       0.14802854 0.34101063 -0.1018041 0.076374
000050 f8 4a 09 3e 42 37 cb bd 67 5c 4c 3d 5f eb 48 bc
       0.13407505 -0.09922649 0.04989281 -0.012263148
000060 0d e2 95 bd 3c d4 03 3e 74 65 2d 3d 4c 29 40 bd
       -0.073185064 0.1287393 0.04233308 -0.046914384
000070 7d db 51 3d 8e c8 11 3e
       0.05123471 0.14236662

Fc.0.bias f4 [5]
000000 07 4b 8e 3b d0 18 ec ba 4e ad 40 3d 12 aa 1b 3c
       0.00434244 -0.0018012766 0.047040276 0.009500997
000010 0d 4b 0e bd
       -0.034739543

Fh.0.weight f4 [1, 6]
000000 12 78 1c 3e a5 cd 03 3d 88 87 b9 be b3 10 2f be
       0.15280178 0.03217854 -0.36236215 -0.17096214
000010 21 0b cb be 67 a0 42 3e
       -0.39656928 0.19006501

Gc.0.weight f4 [20, 6]
000000 b8 f1 1d be 68 af 9e bd 4e 57 41 3d 9a 3d 03 bd
       -0.1542424 -0.077483 0.0472024 -0.03204117
000010 7f 20 ac bc 97 a8 85 3d c1 ed e9 3d 7b 92 70 3d
       -0.02101159 0.065262966 0.11422301 0.058733445
000020 5c 2a 41 bd 95 12 cf bd 48 c8 12 bd b5 0c d0 bd
       -0.047159538 -0.10110966 -0.035835534 -0.10158674
000030 61 9a 9d 3d 51 43 7d 3b e5 ba 06 3e a2 a5 a9 3d
       0.07695461 0.003864486 0.13157232 0.08283545
000040 cf a0 b9 3d 2a 4d 52 3d 22 28 18 be a2 84 93 bd
       0.09063875 0.05134312 -0.1485906 -0.07203032
000050 c7 4e 80 bc 58 ed 8d bd f8 fa bc bd 0d 45 06 3e
       -0.015662564 -0.06930035 -0.09227556 0.13112278
000060 1f fd 88 bc 0d 50 f3 3d 26 64 88 bd 0b 6b aa bc
       -0.01672226 0.11880503 -0.06659727 -0.020802995
000070 44 1f 5b 3e b0 d2 f5 3d 8d 8e f7 bd 79 0e 45 3e
       0.21398646 0.12003076 -0.12087736 0.19243802
000080 2d 7e f1 bc f2 c2 89 bd 1b 44 33 bd a5 c4 03 be
       -0.02947911 -0.06726636 -0.043766122 -0.12867983
000090 a9 2c f8 bc 18 03 57 bd b3 50 82 be d9 81 02 be
       -0.030294733 -0.052493185 -0.25452194 -0.12744845
0000a0 b0 c6 5f be ea c2 00 3e 5f b5 07 3d 08 ec 28 3e
       -0.21853137 0.12574354 0.033131953 0.16496289
0000b0 36 9b fe 3c 39 fb 18 3e cd ef 58 be 89 18 00 bd
       0.03107987 0.14939584 -0.21185227 -0.0312734
0000c0 89 8b fa bd 12 04 6c bd 60 48 05 be 9e 14 6f 3d
       -0.122336455 -0.05762107 -0.1301589 0.05836927
0000d0 bd 29 ac bc 08 0f 1a bc de d3 fc bc d2 30 5a bd
       -0.021015996 -0.009402998 -0.030862745 -0.053269215
0000e0 35 c2 10 3e 4a e9 25 bd 45 bf c5 3d 58 e9 7e bd
       0.14136584 -0.040505685 0.096556224 -0.062234253
0000f0 ce 7a 1d 3c 4e fd 1d be 40 d3 ed bd 31 88 4f 3d
       0.009611798 -0.1542866 -0.11612558 0.05066699
000100 ff ef f2 bc 69 37 0b 3e 5d 29 cb bd 93 23 2c 3c
       -0.029655455 0.13595356 -0.09919999 0.010506528
000110 c4 20 96 3d 60 6f 32 3e f6 f3 c7 3b 3b d7 92 3d
       0.07330468 0.17425299 0.0061020805 0.07169958
000120 07 4e 14 be 26 30 c6 3d 35 ab d7 3c 96 7e 81 3d
       -0.1448289 0.09677152 0.026326755 0.063229725
000130 2a 7b 1b be 57 32 26 3d 66 50 6e bd 45 e1 aa bc
       -0.15183702 0.04057535 -0.058182143 -0.02085937
000140 a6 68 07 be d6 f7 84 bd 16 af b0 3e 16 d8 e7 bd
       -0.13223514 -0.064925835 0.3450858 -0.11320512
000150 c8 78 16 be 6e 44 fd bc 25 98 2e 3e 7f 53 1e 3e
       -0.14694512 -0.030916419 0.17050226 0.15461539
000160 dc 6b 04 bd b0 17 e6 3d 88 af 88 3c d9 b0 0b bd
       -0.032329425 0.11234987 0.016685262 -0.034104202
000170 fa 5f 2c bc 2c 4b a6 bd 07 fe 01 be 5e 67 27 bc
       -0.0105209295 -0.08119807 -0.1269456 -0.010217516
000180 b8 52 65 3c 53 15 e8 3d 49 d2 8f bd c5 33 03 3c
       0.0139967725 0.11332192 -0.070225306 0.008007948
000190 84 5d b9 bc ab d7 8f 3e 01 f1 ac bd 34 16 c2 3d
       -0.0226276 0.2809423 -0.08444405 0.09476891
0001a0 3b 1b 9e bc 6f 5d ff bd 69 91 6f be f5 07 95 bd
       -0.019300094 -0.12468993 -0.23395313 -0.07276908
0001b0 c1 a6 6f 3d a1 17 3d bd 35 82 ad 3d 69 08 8f 3c
       0.05850864 -0.046165112 0.08472101 0.017460065
0001c0 3d 12 8f be 11 24 3d be 21 b2 a7 bd 40 36 c9 bd
       -0.27943602 -0.1847079 -0.08188272 -0.098248005
0001d0 c8 64 17 bd 10 43 68 bd a3 85 9c 3d 08 44 3e 3c
       -0.036961347 -0.05670458 0.07642677 0.0116129

Gc.0.bias f4 [20]
000000 a0 9b f2 3c c8 12 02 bc 28 80 5b 3c 67 29 b8 bc
       0.029615223 -0.007939048 0.013397254 -0.02248068
000010 41 67 ed 3c 2e 9a ba 3c 64 2d fd bc c5 c7 ca 3b
       0.0289799 0.022778597 -0.030905433 0.006188365
000020 b1 82 e1 3b 7a 81 e2 3c 8b 45 29 bc a8 d1 55 bc
       0.0068820347 0.02764963 -0.010331522 -0.013050474
000030 60 ed d3 bc 77 91 25 3c 34 e0 1d 3d cb c6 11 bd
       -0.025870025 0.010105482 0.038543895 -0.035589974
000040 64 f3 27 bc 41 9e 17 bd 8b 4b ef bc 26 20 b0 3b
       -0.0102509 -0.037016157 -0.029210826 0.005374926

Gc.2.weight f4 [20, 20]
000000 a5 c1 8f bd 8b 0d 9f 3d ae 67 0a 3e 9f d9 4e 3d
       -0.07019357 0.07766255 0.13516113 0.05050051
000010 55 55 04 3d ac 1b 29 3e 31 4b 2b 3e bf d3 7e 3d
       0.03230794 0.16514462 0.16727902 0.062213656
000020 47 f2 17 be f4 e3 57 3d c3 ae c3 bd 2b 15 9c 3c
       -0.14838515 0.052707627 -0.095548175 0.019053062
000030 e3 f5 0c 3d 10 cd 3a bd 9a 72 42 3d 9a e0 3b bd
       0.034414183 -0.04560572 0.047472574 -0.045868494
000040 f9 97 f0 bb 47 33 1c be e7 5c af bd 9c d1 9e bd
       -0.0073423353 -0.15253936 -0.085626416 -0.077548236
000050 ea 56 30 3e 73 92 81 3c 47 ee 3c bd 0e da 4c 3d
       0.17220655 0.015816903 -0.046125676 0.05001264
000060 58 c0 6d 3e 9d 21 e0 bd b3 22 35 3e a9 14 54 3d
       0.23217905 -0.10943911 0.17689018 0.051777516
000070 24 49 63 3c 82 dc c4 bc c9 80 eb bd 7f 8b 8f 3d
       0.013872419 -0.024030928 -0.11499173 0.07009029
000080 12 05 40 bc 23 09 3a be 5b 1c 20 3d e4 fb 28 bd
       -0.011719959 -0.18167548 0.039089542 -0.041255847
000090 c0 de 67 3e 47 e1 33 3e 97 c4 de 3d 2c 96 aa bd
       0.22643566 0.17566405 0.1087734 -0.08329424
0000a0 31 51 96 bd 29 ff a5 3c 9d d4 85 3a 71 1e 08 bd
       -0.07339705 0.020263271 0.0010210458 -0.033232156
0000b0 b0 96 c1 bd 9e 5e 9e 3c 9c 65 21 3d 3e e4 00 bd
       -0.094525695 0.019332226 0.039403543 -0.03146767
0000c0 e9 7b 4c ba 8a 66 7e bd f1 dc 14 bc 05 85 17 3e
       -0.00078004465 -0.062109508 -0.00908588 0.14796837
0000d0 fa fe e8 3d 98 2f d6 bc 57 dc 84 be fd be 70 3e
       0.11376758 -0.026145741 -0.25949356 0.23510356
0000e0 fd af 4d 3e 02 32 8e 3c ed 69 a4 bd 61 f2 aa bd
       0.20086665 0.01735783 -0.08028016 -0.08347011
0000f0 57 99 13 3d c0 a5 26 be 1b 32 99 3e d9 21 cd 3d
       0.03603491 -0.16274166 0.2992104 0.100162216
000100 5b 57 f5 bd 4a c7 54 3d 30 7a 0a be 15 ed 6b bc
       -0.11979552 0.05194787 -0.13523173 -0.0143997865
000110 42 94 37 3d ee 05 f0 bd a0 2b 84 bd 1e 96 8b bd
       0.044819124 -0.11719881 -0.06453633 -0.06815742
000120 5f 2f d3 3b 83 5d a1 bd 43 0b 27 bd 6b a2 f0 3c
       0.006444856 -0.07879164 -0.040782224 0.029374322
000130 84 a9 45 3c 03 23 17 bc 7d 75 d7 bd 9c 12 3c 3e
       0.012064341 -0.009224656 -0.10520456 0.18366474
000140 23 1b 62 3d 67 04 c7 3c d1 5c 35 bd c6 87 05 bd
       0.05520166 0.024294091 -0.04427797 -0.032600187
000150 b0 8d a4 bd 2a 6c 82 bd bd 20 0f bd 35 9c 03 3e
       -0.08034837 -0.06368287 -0.03494333 0.12852557
000160 43 a9 fb 3d 55 c0 78 3d 47 64 d4 3d c3 e7 83 3d
       0.122881435 0.060730297 0.10370689 0.064406894
000170 84 39 0f bd d1 08 ac bc 91 a2 92 bd 95 da e8 3d
       -0.03496696 -0.021000298 -0.07159913 0.11369816
000180 2b 3f 3a 3d ad 40 98 bd 4d 0d 82 be de d9 a0 3d
       0.045470398 -0.07434211 -0.25400773 0.07854055
000190 60 65 a1 3c aa 0f 1e bc fc 0a fb bd 7d c8 13 3d
       0.01970166 -0.009647289 -0.122579545 0.036079872
0001a0 74 0e ac 3d e4 a9 14 be 9f 27 b9 3d 9c 39 fe 3a
       0.08401194 -0.14517933 0.0904076 0.0019395831
0001b0 c0 4a ea 3c 0a c1 f0 bd c4 45 02 3e 4c fa ad bd
       0.028600097 -0.11755569 0.12721926 -0.08495006
0001c0 f7 17 22 3e cd 5d ab 3c 50 e6 77 3c 62 f3 01 3e
       0.15829454 0.020918751 0.015130594 0.126905
0001d0 ec 87 b5 bd 94 eb a2 3d c5 03 f9 3c 25 9a a0 bd
       -0.08863816 0.07955089 0.030397305 -0.07841901
0001e0 32 85 0d 3e 0a e9 1a be fd de e0 3d d7 6e a1 3d
       0.13820341 -0.1512796 0.10980032 0.07882469
0001f0 73 ce c2 3d c0 f9 fa 3d aa 5e 8c bd aa 4b b9 bc
       0.09512033 0.12254667 -0.06853993 -0.022619087
000200 02 c8 45 3e 44 7a 27 be 31 f0 f6 3c 80 2d 11 bd
       0.19314578 -0.16355234 0.030143829 -0.035443783
000210 36 89 09 3e 44 16 a6 bd e6 7e 82 3d 3f 38 21 3e
       0.13431248 -0.081097156 0.0637186 0.15744112
000220 02 4b 0b 3e 8f 50 49 3d d4 68 7d bd 03 c6 09 be
       0.13602832 0.049149092 -0.06186755 -0.13454442
000230 cb 88 5f bd fa 5e 77 3d 6b fb 3d 3e a3 fa 3d bd
       -0.054573815 0.06039331 0.1855294 -0.046381604
000240 67 36 05 be 8d bc 8e be 56 24 92 bc 70 2a 2a 3d
       -0.13009034 -0.27878228 -0.017839592 0.041544378
000250 51 be e5 3d f8 4c 08 3c 40 60 2b 3e 6f d0 0f be
       0.112179406 0.008319132 0.16735935 -0.14044355
000260 07 6e bc bd 29 ba 40 3d e3 37 93 bd b8 de 56 3d
       -0.092006736 0.047052536 -0.07188394 0.052458495
000270 51 bc a7 3c 40 d9 4d 3c 8a 5a 45 3c 23 82 00 3e
       0.020475538 0.0125640035 0.012045512 0.12549643
000280 39 e5 2e bd 36 47 cd bd 91 72 1f be 29 b7 ad ba
       -0.042699073 -0.10023348 -0.15571047 -0.0013253439
000290 41 71 bc bd b6 76 eb 3d b0 d6 68 bd 90 6c da 3d
       -0.09201289 0.11497252 -0.056845367 0.10665238
0002a0 f9 9e 99 be 47 6c a1 3d c6 97 17 bd a4 7b d9 3c
       -0.300041 0.078819804 -0.037009977 0.026548214
0002b0 02 10 10 3e e5 58 1a be 87 ac 08 3e ff e3 1d be
       0.14068606 -0.15072973 0.13347064 -0.15419005
0002c0 5c 27 76 3d d9 b2 1e 3e 1c 31 ca 3d 39 d1 56 bd
       0.06009613 0.15497912 0.09872648 -0.052445624
0002d0 3d e8 f0 3d 08 e5 ff 3d 8d ee d3 bd 72 e5 9c bd
       0.11763046 0.12494856 -0.10348234 -0.07660951
0002e0 25 77 92 bd 6f df 42 bd 8a de 14 3e 31 77 84 bd
       -0.07151631 -0.047576364 0.14538017 -0.064680465
0002f0 50 4f 78 3d 73 40 94 3d 0e 5f e6 bd 95 48 fe bc
       0.060622513 0.07238855 -0.11248599 -0.03104047
000300 10 e2 49 3d 0f ee 97 ba 44 d7 d0 bd 18 b8 33 3e
       0.049287856 -0.0011591333 -0.10197309 0.17550695
000310 b8 d4 b3 3a 2a f7 b3 3c 76 c8 1a 3e cd d8 bc 3c
       0.0013720011 0.021968443 0.15115532 0.023052597
000320 db 68 07 3d db 6c 1c 3d 61 88 d7 3c 39 24 87 3c
       0.033058982 0.03818975 0.026310148 0.016496764
000330 a4 33 6e 3c b7 37 03 3d 52 85 2b 3d 92 66 67 3c
       0.014538679 0.032035556 0.04187519 0.014123576
000340 fe e1 b3 bd ca 8f f6 3c cf a4 3c be 50 d8 8a bd
       -0.08783339 0.03009786 -0.18422244 -0.067795396
000350 37 65 94 3c 6c 62 3b 3e c8 30 1b be 10 06 b6 bc
       0.01811467 0.18299264 -0.15155327 -0.022219688
000360 82 6c 28 3d 96 dd cc 3d cf 2e 84 3d 61 20 9b b9
       0.041119106 0.10003202 0.064542405 -0.00029588028
000370 56 62 00 bd 26 2b f8 3c ac 10 39 bb e4 5a 80 be
       -0.03134378 0.030294012 -0.0028238697 -0.25069344
000380 74 4a 9e 3b 75 57 c8 3d 41 f7 3b 3e 6a ee 2a bd
       0.004830653 0.09782306 0.18356039 -0.041731276
000390 75 b9 a7 3d f1 e1 82 3d 28 10 53 bd 29 0a 12 3c
       0.0818967 0.06390751 -0.05152908 0.008913555
0003a0 fd ca be bd 1e 19 91 3c 5c 36 4c 3d 75 81 07 3d
       -0.09316061 0.017712172 0.04985653 0.033082444
0003b0 61 ff ca bd 46 f1 6e 3d ce d6 46 3e 79 2d 00 3c
       -0.09911991 0.058335565 0.19417879 0.0078233415
0003c0 16 ca 8f bd 11 0b 07 be ac b3 25 bd 64 3b f3 3c
       -0.07020967 -0.13187815 -0.04045455 0.029691406
0003d0 8f 77 52 bd 64 70 4f 3e 9c 3a 06 3e 2e eb d0 3b
       -0.05138355 0.20257717 0.13108295 0.006375692
0003e0 fa da 87 bd b7 bd ec 3c f5 e8 8c bb 36 52 83 3d
       -0.06633563 0.028899057 -0.0043002316 0.06412165
0003f0 1e 7f 2c 3d 63 15 06 be 95 f6 c4 3d 14 52 95 3d
       0.042113416 -0.13094096 0.09617344 0.07291046

Gc.2.bias f4 [20]
000000 10 ab d4 3c 3f f4 3f 3c c1 9d 0a bd 04 54 02 3d
       0.025960475 0.011715948 -0.033841852 0.031818405
000010 35 34 ec 3c 79 c3 fc bc 4b 86 0c 3d 96 c5 5b 3c
       0.028833488 -0.030854927 0.03430776 0.013413807
000020 7e b2 c7 bb 0a c6 ed bc bd e8 9e bc fa a4 f4 bc
       -0.006094276 -0.029025096 -0.019398088 -0.029863823
000030 e0 20 df bc 6d c4 fe bc 2a 3b f6 3c 1f fb e6 3c
       -0.027237356 -0.031099522 0.030057508 0.028195916
000040 54 e0 e7 3c 6a ec 49 bc c1 06 cd 3b f9 6f 9e 3c
       0.02830521 -0.012324432 0.0062569086 0.019340502

Gc.4.weight f4 [5, 20]
000000 c1 e9 31 be 60 ad a9 bd 6d 14 fd bd da bf 20 3c
       -0.17374326 -0.08285022 -0.123574115 0.009811366
000010 99 8e b4 bd 66 17 31 3c b7 87 86 bb 67 6c c6 bd
       -0.08816261 0.010808801 -0.004105534 -0.09688645
000020 2c ac 43 3d 1f 75 12 3e 54 73 cf 3d 48 62 1c 3e
       0.047771618 0.1430249 0.10129419 0.15271866
000030 fd 29 97 3d 1b dc ab 3c 9d 66 be bc 3b 6c 10 be
       0.073810555 0.020978978 -0.02324229 -0.14103787
000040 11 85 9b bd ec 90 f1 3d 0a ee 9c bd b9 52 89 bd
       -0.0759374 0.1179522 -0.0766259 -0.06705231
000050 7c e8 ed 3d 41 9b 20 3e ff ee 1e bd 2e 1e 27 3e
       0.116166085 0.15684225 -0.038802143 0.16320106
000060 59 28 1a 3d 69 16 77 bc d6 fb 3f 3e 13 3d 4a 3d
       0.037636135 -0.015081027 0.18748412 0.04937465
000070 c2 c9 be bc fa 1c 3f 3d 93 fd 33 bd 2e f7 75 bd
       -0.023289565 0.046658494 -0.043943 -0.060050182
000080 f1 32 af 3c da d8 70 be c7 a1 53 3d b0 00 81 3e
       0.021386595 -0.23520222 0.051667955 0.25195837
000090 66 e4 72 3d c1 0f f1 bc c8 79 35 bc db 2e 84 3c
       0.05929985 -0.029426457 -0.011076398 0.016135624
0000a0 88 90 87 bd a9 60 46 be f3 a6 6e be f0 4f bc 3b
       -0.06619364 -0.1937281 -0.23305874 0.005746834
0000b0 1c 86 2e 3e d1 ce 71 be 00 ac 6c bc 92 9e a9 bd
       0.17043346 -0.2361405 -0.014445305 -0.08282198
0000c0 e2 a2 28 be cc 14 06 be d6 e4 b1 bd 3a 37 24 be
       -0.16468385 -0.13093871 -0.08686225 -0.16036692
0000d0 55 21 b6 bd c4 74 5a be ef b7 f4 3c 03 6d 5b 3d
       -0.08893076 -0.21333605 0.029872863 0.05357076
0000e0 54 5a 5b 3d 54 a9 9e bd 5f a2 83 3d e5 4e ef bd
       0.05355294 -0.077471405 0.06427454 -0.1168497
0000f0 dd fa 32 bc 3a e3 2b be 1c 37 f5 bb ee 83 9c 3d
       -0.010924068 -0.16785899 -0.007483376 0.07642351
000100 ce 60 cd bd 9d 07 bb 3d db d6 25 3d 71 bd 70 3e
       -0.1002823 0.091323115 0.040488105 0.23509766
000110 41 b3 91 3d 12 18 4c 3d 22 c2 0c bd 1c 9c 38 bd
       0.07114268 0.049827643 -0.034364827 -0.045070753
000120 c7 84 89 3c 6d 11 7f 39 49 88 8a be 64 50 b0 bd
       0.016786946 0.00024325187 -0.27057102 -0.08609083
000130 22 71 c0 bd ab 04 9f 3d e7 03 6b bd 63 53 35 3e
       -0.09396578 0.07764562 -0.05737677 0.17707591
000140 7d 93 cb 3d f9 0c be bc d4 ce 1c bd 02 e9 78 3d
       0.099402405 -0.023199545 -0.038283184 0.06076909
000150 d6 fa 01 3d 4c fd 10 bd 19 9f fc 3c df b4 16 3d
       0.031733356 -0.035397813 0.030837582 0.036793586
000160 e6 be ce 3d 90 e9 e4 bd c6 7c 81 bc 03 ac 82 bd
       0.10095005 -0.11177361 -0.015806567 -0.06380465
000170 ff 0b 09 bd 5e 3c 15 be d5 2a fa 3d 9f 55 ca 3b
       -0.033458706 -0.1457381 0.12215201 0.0061747576
000180 4b bf 83 3d 78 f5 21 3c bb 66 15 3d 50 c4 20 3e
       0.064329706 0.0098851845 0.036474925 0.15699887

Gc.4.bias f4 [5]
000000 e7 7c 81 bc d0 6e 01 3d 46 7a 2a 3d 36 b0 d7 bb
       -0.015806628 0.03159982 0.041620515 -0.0065822853
000010 e5 ae fe 3c
       0.031089256

Gh.0.weight f4 [1, 6]
000000 00 e8 ad 80 40 e0 88 81 00 cf ca 00 80 43 24 01
       -1.5970767e-38 -5.0280293e-38 1.8625028e-38 3.0170472e-38
000010 00 24 11 00 00 56 4b 00
       1.574118e-39 6.918513e-39

L.0.weight f4 [1, 6]
000000 b9 25 e1 be 1c 87 cd 3e 4a 46 bc 3e c1 b2 d6 bd
       -0.43974093 0.40142143 0.36772376 -0.10483313
000010 12 e7 2f 3e ff c3 86 be
       0.1717799 -0.26321408

A.0.weight f4 [1, 2]
000000 82 2d fb bd 80 d6 32 01
       -0.12264539 3.2847333e-38

u0p f4 [1, 5]
000000 fa 2d 9c bf fa 63 0b c0 31 db 00 c0 63 2a 4b 40
       -1.2201531 -2.177977 -2.0133784 3.174462
000010 40 35 6d 40
       3.7063751
