three_body/params_005000.pth (torch_old, 35075 bytes, 54 tensors)

F.cur.0.linears.0.weight f4 [20, 5]
0.050882526 0.011351422 0.027151905 0.20051634 -0.036879197 -0.049859755 -0.10173813 -0.16388555
0.13029969 -0.08437214 0.006034537 0.0011490752 -0.09764748 -0.19697703 0.13127734 0.0025925578
-0.28167924 0.38523403 -0.009276922 -0.17772992 0.024517175 -0.012837608 0.008601259 0.16771713
-0.034917355 0.03390652 -0.02282044 0.12559354 0.21971685 -0.13855909 -0.02047261 -0.1958111
-0.09760676 0.2614571 -0.18011115 0.013531003 -0.1953467 0.12441623 -0.08317052 -0.009823352
-0.044529907 -0.1295986 -0.077998325 -0.19320118 -0.14840607 -0.11971003 -0.10164987 -0.08061795
-0.28095937 0.053017247 -0.0012816904 0.18610573 -0.23209783 -0.02532578 0.05716685 -0.06778791
0.11528124 -0.33937654 -0.12056195 0.06751724 0.04514517 0.13594775 0.16982509 -0.14764674
0.1525736 -0.030107673 0.122913234 -0.101770245 0.27145097 0.03460098 0.09398098 0.17158706
-0.08086002 -0.0129312975 0.041069932 0.0028182196 -0.26624826 0.13580142 -0.09527406 -0.085962765
-0.08717595 -0.18759702 0.16753472 0.025463104 0.14231111 0.05602838 0.20813072 0.19748966
-0.18678641 0.21103099 0.12357921 0.017827112 0.26381886 0.26152042 -0.093766816 -0.010816884
0.07092256 -0.14902923 0.31159562 0.003888355
00000000: 326a 503d 51fb 393c ac6d de3c 2854 4d3e
00000010: a40e 17bd be39 4cbd 155c d0bd 9dd1 27be
00000020: 486d 053e 4dcb acbd 5ebd c53b 919c 963a
00000030: 67fb c7bd 59b4 49be 916d 063e e7e7 293b
00000040: 4338 90be 653d c53e 3bfe 17bc d5fe 35be
00000050: 3ed8 c83c d554 52bc 4cec 0c3c 0abe 2b3e
00000060: 8005 0fbd 90e1 0a3d eef1 babc 989b 003e
00000070: 74fd 603e 6fe2 0dbe 2db6 a7bc b482 48be
00000080: 0ee6 c7bd b4dd 853e 0f6f 38be 24b1 5d3c
00000090: f708 48be f0cd fe3d 4e55 aabd 20f2 20bc
000000a0: fe64 36bd 7fb5 04be 96bd 9fbd 88d6 45be
000000b0: c3f7 17be 882a f5bd cf2d d0bd 061b a5bd
000000c0: e8d9 8fbe 9d28 593d 65fe a7ba 8092 3e3e
000000d0: 0eab 6dbe 0378 cfbc c927 6a3d 63d4 8abd
000000e0: 9218 ec3d c3c2 adbe 2fe9 f6bd 7b46 8a3d
000000f0: 24ea 383d e335 0b3e a1e6 2d3e b530 17be
00000100: 413c 1c3e 5ea4 f6bc efb9 fb3d eb6c d0bd
00000110: 9ffb 8a3e c2b9 0d3d 1a79 c03d 85b4 2f3e
00000120: f099 a5bd cbdd 53bc f238 283d e1b1 383b
00000130: b151 88be 870f 0b3e 0c1f c3bd 3f0d b0bd
00000140: 4e89 b2bd 6f19 40be 398e 2b3e 0098 d03c
00000150: 01ba 113e 047e 653d 3820 553e bb3a 4a3e
00000160: f044 3fbe 8218 583e 1917 fd3d 2a0a 923c
00000170: 4413 873e 01e6 853e d108 c0bd 4d39 31bc
00000180: d93f 913d 1e9b 18be 7689 9f3e c6d3 7e3b

F.cur.0.linears.0.bias f4 [20]
-0.14046384 -0.12974845 -0.12570134 0.0882955 0.11904738 0.10653855 -0.20156364 -0.10116579
-0.20426661 0.07287535 0.13841425 -0.104194775 -0.20873173 -0.16086686 -0.022254255 0.16178948
-0.098178506 0.15934078 0.08584014 0.21041027
00000000: c1d5 0fbe c7dc 04be dab7 00be 45d4 b43d
00000010: 1dcf f33d e230 da3d b366 4ebe 0230 cfbd
00000020: 442b 51be ac3f 953d 77bc 0d3e 1264 d5bd
00000030: c5bd 55be 48ba 24be 8e4e b6bc 24ac 253e
00000040: d011 c9bd 3b2a 233e f5cc af3d ca75 573e

F.cur.0.linears.1.weight f4 [20, 20]
0.19239676 0.12758446 -0.012343199 -0.058927372 0.029119916 0.1848056 0.20053168 0.085279144
0.1690232 -0.2297018 0.20250417 0.10595782 0.12820071 0.019841265 0.074765705 -0.15748115
-0.13287939 -0.054714408 0.11707949 0.017627751 0.085550345 -0.20868202 -0.1837293 -0.021275321
-0.06970031 0.2896155 0.09641026 0.09283527 0.0026095142 -0.29207003 -0.011408149 -0.1683992
-0.016149556 0.12905115 0.10779724 0.030645432 0.078354135 -0.073129795 0.29805395 -0.14020157
0.031084504 0.07397616 -0.05864361 -0.34783262 0.062727354 -0.027085908 0.027600193 -0.22133303
0.104244016 -0.40663534 -0.030761775 0.11770042 0.104943804 0.2592574 0.16608101 -0.4826584
-0.054777876 0.0041028634 0.12448957 0.20894174 0.11405972 -0.0023282703 -0.058220897 -0.002168467
0.09491298 0.11218052 0.103463165 -0.010000173 -0.0586303 -0.0025526516 -0.12652782 -0.27503127
0.08632399 0.15806578 0.09045781 0.021904016 0.0052903243 0.008463225 0.13390584 0.19272843
0.030792687 -0.09095181 0.1685356 0.20338362 -0.14440377 -0.20019929 -0.12800923 0.26990348
0.30350614 0.22487575 -0.21194535 0.18344238 0.3611524 -0.1020053 0.07901428 0.10063324
0.032746457 0.14760916 -0.15804382 -0.2564897 0.097304285 0.13115667 -0.0026442225 -0.047234938
0.058472153 0.029173458 -0.13830623 -0.21885212 -0.093657784 -0.084526524 -0.04777874 0.013434584
0.18565467 0.022069888 0.15312552 -0.1295331 0.07921312 0.16924049 0.031786285 0.118641905
-0.088493556 -0.07901697 0.14766824 -0.027535027 -0.066009946 -0.034214985 0.03090902 0.083365634
0.11889107 0.2126854 0.003652775 0.09635292 -0.013346554 -0.14934117 -0.1434913 -0.024310358
0.04515517 -0.11450838 0.020490443 -0.14223792 0.041428618 -0.46160063 0.05517323 0.08583766
-0.09575275 -0.013285182 -0.12780622 0.18009159 0.042133093 0.2644884 -0.013650721 -0.19676134
0.17104058 -0.3039924 0.1808447 0.20796798 0.053978443 0.33277315 0.16091776 -0.23294596
-0.07023532 -0.03682163 -0.0140201105 0.005011349 0.02358566 -0.048996262 0.14226146 0.2435988
0.2341886 0.21374115 -0.036107663 0.02742922 0.21258788 -0.35126287 0.0062962784 0.14587162
0.07190752 0.010859192 -0.061594397 -0.06383732 -0.21671417 0.33756745 -0.15232614 0.2593066
0.030015958 0.045783173 0.16530544 0.10293661 -0.045124296 0.16781867 -0.13498321 -0.19006458
-0.24096398 -0.008426919 -0.32456252 0.4079949 0.1151083 -0.25656012 0.023587001 -0.0846077
0.080806814 0.0011918219 0.07739105 -0.38893744 0.040383864 0.05906701 -0.19471242 0.033261232
-0.116788685 0.037450943 0.15522082 0.15767983 -0.034270775 0.2015371 0.018873705 -0.04695081
-0.31975317 -0.11474979 -0.0001069164 0.24112163 0.21927704 0.2716612 -0.04346458 -0.13448955
0.010517737 0.1360727 0.4684734 0.042228583 0.28978464 -0.31468382 -0.14385162 0.07945984
-0.12751569 0.26914516 -0.121582046 -0.009490617 0.09847134 -0.28792888 0.18636917 0.4397022
-0.08067428 -0.046380255 0.10303182 -0.109873 -0.13132036 -0.0061124717 -0.12651093 0.18416248
0.17976 0.38723475 -0.025267364 -0.03392541 0.1135785 -0.1191901 0.041928593 0.14175989
00000000: a803 453e 80a5 023e 213b 4abc d45d 71bd
00000010: e48c ee3c ae3d 3d3e 2d58 4d3e d5a6 ae3d
00000020: 6b14 2d3e f336 6bbe 415d 4f3e 6a00 d93d
00000030: 0c47 033e 268a a23c c31e 993d bd42 21be
00000040: 8911 08be 371c 60bd 5fc7 ef3d 1368 903c
00000050: 0535 af3d bdb0 55be 8923 3cbe 9549 aebc
00000060: 09bf 8ebd 7c48 943e be72 c53d 6b20 be3d
00000070: 6204 2b3b 348a 95be 3fe9 3abc d770 2cbe
00000080: 134c 84bc fc25 043e cdc4 dc3d 210c fb3c
00000090: 2278 a03d 13c5 95bd 879a 983e 0091 0fbe
000000a0: eea4 fe3c d080 973d 4834 70bd 1e17 b2be
000000b0: 3377 803d 44e3 ddbc cd19 e23c 20a5 62be
000000c0: e37d d53d 8232 d0be 1e00 fcbc eb0c f13d
000000d0: c7ec d63d 63bd 843e 2411 2a3e 001f f7be
000000e0: c45e 60bd 5071 863b 63f4 fe3d d3f4 553e
000000f0: 2498 e93d e595 18bb 0979 6ebd d71c 0ebb
00000100: bd61 c23d e7be e53d 7fe4 d33d c4d7 23bc
00000110: 5326 70bd 634a 27bb 8290 01be e6d0 8cbe
00000120: a2ca b03d ffdb 213e f241 b93d 0d70 b33c
00000130: 755a ad3b 57a9 0a3c 9d1e 093e 9a5a 453e
00000140: f240 fc3c f144 babd 9994 2c3e cc43 503e
00000150: 95de 13be 0b01 4dbe da14 03be ca30 8a3e
00000160: 2865 9b3e d445 663e 3408 59be 52d8 3b3e
00000170: f8e8 b83e 28e8 d0bd 3dd2 a13d cd18 ce3d
00000180: 2621 063d db26 173e 3dd6 21be 9e52 83be
00000190: 7847 c73d ef4d 063e b14a 2dbb 6c79 41bd
000001a0: 7f80 6f3d 2dfd ee3c 26a0 0dbe c51a 60be
000001b0: a7cf bfbd 3e1c adbd a4b3 43bd bb1c 5c3c
000001c0: 421c 3e3e e9cb b43c f0cc 1c3e 53a4 04be
000001d0: 7d3a a23d 614d 2d3e 5632 023d 87fa f23d
000001e0: 1c3c b5bd a6d3 a1bd 5836 173e 2391 e1bc
000001f0: 3930 87bd 0325 0cbd ea34 fd3c 9abb aa3d
00000200: 297d f33d 34ca 593e 6563 6f3b ae54 c53d
00000210: 81ab 5abc e4ec 18be 62ef 12be 8426 c7bc
00000220: a1f4 383d 5f83 eabd 93db a73c d1a6 11be
00000230: 0eb1 293d eb56 ecbe 53fd 613d a8cb af3d
00000240: 051a c4bd 18aa 59bc a2df 02be ee69 383e
00000250: c093 2c3d 066b 873e 46a7 5fbc ce7b 49be
00000260: 4325 2f3e e4a4 9bbe 5a2f 393e 8ff5 543e
00000270: 8018 5d3d 3e61 aa3e a0c7 243e 6389 6ebe
00000280: 89d7 8fbd 47d2 16bd 9bb4 65bc 3e36 a43b
00000290: b736 c13c 4eb0 48bd fdac 113e f771 793e
000002a0: 23cf 6f3e f6de 5a3e a1e5 13bd 3eb3 e03c
000002b0: a3b0 593e bad8 b3be 0351 ce3b 5f5f 153e
000002c0: 4044 933d c1ea 313c 684a 7cbd 24bd 82bd
000002d0: 52ea 5dbe a4d5 ac3e 62fb 1bbe d6c3 843e
000002e0: 07e4 f53c 2387 3b3d d445 293e 6ed0 d23d
000002f0: 41d4 38bd a8d8 2b3e 0a39 0abe 4aa0 42be
00000300: 43bf 76be 0f11 0abc 0f2d a6be b5e4 d03e
00000310: e6bd eb3d d95b 83be 8739 c13c cd46 adbd
00000320: 0b7e a53d e836 9c3a 337f 9e3d cf22 c7be
00000330: 8d69 253d 40f0 713d b162 47be ee3c 083d
00000340: e82e efbd 2966 193d 35f2 1e3e d276 213e
00000350: 835f 0cbd be5f 4e3e 079d 9a3c 7e4f 40bd
00000360: b0b6 a3be f001 ebbd 4e38 e0b8 97e8 763e
00000370: 298a 603e 2d17 8b3e ea07 32bd a1b7 09be
00000380: 9652 2c3c a456 0b3e bfdb ef3e e1f7 2c3d
00000390: a75e 943e 3d1e a1be d74d 13be d7bb a23d
000003a0: 7993 02be 65cd 893e 0200 f9bd 887e 1bbc
000003b0: 58ab c93d 6a6b 93be 8fd7 3e3e a620 e13e
000003c0: 8f38 a5bd 39f9 3dbd 5902 d33d 1805 e1bd
000003d0: d878 06be 214b c8bb 158c 01be 1795 3c3e
000003e0: 0113 383e a243 c63e 81fd cebc 5ff5 0abd
000003f0: d89b e83d f019 f4bd 51bd 2b3d 8129 113e

F.cur.0.linears.1.bias f4 [20]
0.02760825 -0.09288651 -0.11366577 0.038717676 -0.2087869 0.0575567 0.0107279355 0.0831888
-0.0693174 0.12371012 0.027302343 -0.16191547 -0.14213872 -0.05483722 0.10461915 0.005138752
0.11143954 -0.05338449 -0.026589883 -0.03221502
00000000: b22a e23c 483b bebd 99c9 e8bd 6d96 1e3d
00000010: 3ccc 55be 93c0 6b3d 39c4 2f3c e45e aa3d
00000020: 48f6 8dbd bb5b fd3d 2aa9 df3c 2bcd 25be
00000030: d08c 11be fe9c 60bd 9142 d63d fa62 a83b
00000040: 6a3a e43d b2a9 5abd 07d3 d9bc e6f3 03bd

F.nbr.0.linears.0.weight f4 [20, 10]
-0.014371628 0.07425038 0.010058929 -0.2408705 -0.08507552 -0.109466806 -0.11331647 -0.2032636
0.14348237 0.08928552 0.08081144 0.067210555 -0.14685345 -0.22672318 -0.1533368 -0.19736986
-0.056326713 -0.03627741 0.027915414 0.19947574 -0.12477581 -0.012903821 0.031045081 -0.053825177
-0.20559563 -0.039470844 -0.05856489 -0.1865622 0.15204784 0.006490122 -0.071694925 -0.004103754
-0.31154406 -0.111615814 -0.04491888 -0.008858558 -0.08476685 0.13830636 0.19172692 0.019665558
0.07404906 -0.28685373 0.006137274 -0.040568985 -0.20292084 -0.06048292 0.051001236 0.066315405
-0.059611455 0.024434755 -0.12531908 -0.17357276 0.018995512 0.012897409 0.09046295 0.01799009
-0.059860874 0.03267203 -0.12922563 -0.20996106 0.08147192 0.05807959 -0.15904847 -0.069032654
0.13239284 0.045620855 0.03560659 0.20650917 -0.15141538 0.021199126 0.17887776 0.082685575
0.0680821 -0.09467299 -0.13593729 0.020005718 0.08921171 0.04168984 0.050817 0.29906982
-0.12335304 -0.010635499 0.03868313 -0.024961557 0.12492405 0.131101 -0.06339795 0.025275752
0.12902679 -0.24313904 0.1103945 -0.19765519 0.033982195 0.056113705 0.11035643 -0.14160179
0.074196786 -0.28040117 -0.040577196 -0.08613744 -0.2122241 -0.009439052 -0.106419094 -0.027385298
0.117575645 0.102312304 -0.05502351 0.09962114 -0.12315294 -0.032261945 -0.0016780328 -0.25585487
-0.031833924 0.09031645 0.043199558 -0.09806992 0.10806668 0.17085242 -0.049967438 -0.23486197
-0.07186821 0.045945756 0.19910346 -0.025271066 0.20227693 0.2387007 0.16717544 -0.050845113
0.21488182 -0.15791984 -0.042156074 -0.035430543 0.1381366 -0.023859063 -0.2160437 0.047595106
-0.04676769 -0.036577586 0.15411387 0.15936552 -0.022801463 0.13755175 0.032944422 0.02777379
-0.040371586 0.04041972 -0.13749011 -0.22437993 0.16926321 -0.004960487 -0.09113691 0.068163104
0.2063488 -0.049644127 -0.007183411 0.12675671 -0.124627784 -0.10840496 -0.07365523 0.032292422
-0.0790857 0.25733405 0.019016435 0.0067199846 0.18264413 0.015601651 -0.059856426 -0.105497755
0.013545691 -0.16689104 0.022431633 -0.24399267 -0.035978712 0.041169472 0.18400437 -0.024134776
0.060692385 -0.12616648 -0.11141364 -0.16360788 0.11968119 -0.12010117 0.052002005 -0.02366519
0.13392854 -0.1675865 0.027576005 -0.0026433882 -0.16551566 -0.05790859 0.20245624 -0.04187059
0.06800869 0.06994898 -0.108683534 -0.14607741 0.0023600627 -0.0835071 0.032948907 0.022792282
00000000: fa76 6bbc 9510 983d 35ce 243c c2a6 76be
00000010: 133c aebd 2230 e0bd 7712 e8bd 5524 50be
00000020: 0bed 123e 54db b63d 7880 a53d b0a5 893d
00000030: c060 16be 1f2a 68be 5204 1dbe 531b 4abe
00000040: d7b6 66bd 9f97 14bd deae e43c 5e43 4c3e
00000050: 768a ffbd 8c6a 53bc 4152 fe3c ca77 5cbd
00000060: a987 52be 2eac 21bd bde1 6fbd 290a 3fbe
00000070: 6eb2 1b3e 17ab d43b cad4 92bd c978 86bb
00000080: b482 9fbe d596 e4bd dcfc 37bd 7c23 11bc
00000090: 3e9a adbd 2fa0 0d3e 1054 443e aa19 a13c
000000a0: 09a7 973d 7ede 92be 301b c93b aa2b 26bd
000000b0: 7bca 4fbe f0bc 77bd ace6 503d 5fd0 873d
000000c0: 242b 74bd 652b c83c a553 00be 0fbd 31be
000000d0: 7a9c 9b3c a74f 533c a444 b93d f45f 933c
000000e0: ad30 75bd 1bd3 053d b953 04be 0800 57be
000000f0: c0da a63d dde4 6d3d 9add 22be fe60 8dbd
00000100: fd91 073e efdc 3a3d 37d8 113d 2477 533e
00000110: a20c 1bbe caa9 ad3c bb2b 373e 0e57 a93d
00000120: a16e 8b3d eae3 c1bd 2533 0bbe 08e3 a33c
00000130: a1b4 b63d f7c2 2a3d 7d25 503d ae1f 993e
00000140: 85a0 fcbd 8440 2ebc 3472 1e3d 2e7c ccbc
00000150: 2ed8 ff3d 573f 063e c9d6 81bd 180f cf3c
00000160: 991f 043e 71f9 78be 8316 e23d 1f66 4abe
00000170: ea30 0b3d 7cd7 653d 8d02 e23d 0f00 11be
00000180: 7cf4 973d be90 8fbe 4634 26bd d368 b0bd
00000190: 4651 59be 41a6 1abc 41f2 d9bd 2257 e0bc
000001a0: 80cb f03d 1d89 d13d 5560 61bd 2b06 cc3d
000001b0: 9c37 fcbd 1a25 04bd 70f1 dbba 69ff 82be
000001c0: 4a64 02bd d5f7 b83d 05f2 303d e2d8 c8bd
000001d0: 1052 dd3d f0f3 2e3e a8aa 4cbd a87f 70be
000001e0: a42f 93bd 9e31 3c3d c7e1 4b3e 4405 cfbc
000001f0: af21 4f3e f56d 743e 0a30 2b3e f742 50bd
00000200: fb09 5c3e bdb5 21be d9ab 2cbd 9e1f 11bd
00000210: ae73 0d3e 1574 c3bc 8f3a 5dbe 16f3 423d
00000220: 7a8f 3fbd 61d2 15bd 07d0 1d3e b730 233e
00000230: 22ca babc 5eda 0c3e bbf0 063d dc85 e33c
00000240: ad5c 25bd 268f 253d 35ca 0cbe dac3 65be
00000250: 5653 2d3e 958b a2bb fda5 babd 1999 8b3d
00000260: 1a4d 533e a457 4bbd d262 ebbb 83cc 013e
00000270: da3c ffbd 6b03 debd 8ed8 96bd 0f45 043d
00000280: aff7 a1bd 4ac1 833e 5bc8 9b3c 5133 dc3b
00000290: 1007 3b3e 119e 7f3c 032c 75bd 350f d8bd
000002a0: bfee 5d3c 7ce5 2abe 8bc2 b73c 37d9 79be
000002b0: 6a5e 13bd 52a1 283d a46b 3c3e 4bb6 c5bc
000002c0: 9498 783d c931 01be d62c e4bd d388 27be
000002d0: 691b f53d 9af7 f5bd 0e00 553d 80dd c1bc
000002e0: 9024 093e cc9b 2bbe 13e7 e13c b23c 2dbb
000002f0: f07c 29be 8f31 6dbd b050 4f3e 7f80 2bbd
00000300: 2448 8b3d 6941 8f3d 7995 debd 5195 15be
00000310: 48ab 1a3b c505 abbd 6ff5 063d e1b6 ba3c

F.nbr.0.linears.0.bias f4 [20]
0.023115324 0.08268854 -0.06966548 -0.021889918 0.015729712 -0.033009004 -0.020917594 -0.10210335
0.014223532 -0.0061475574 -0.01015374 -0.0370353 -0.027546216 -0.0341268 -0.08256517 0.08669863
-0.096099995 -0.021444354 -0.08721713 -0.03758879
00000000: 595c bd3c 9c58 a93d c6ac 8ebd 7c52 b3bc
00000010: 99db 803c 7334 07bd 605b abbc 901b d1bd
00000020: d109 693c 7371 c9bb df5b 26bc 54b2 17bd
00000030: 9aa8 e1bc 8bc8 0bbd ee17 a9bd 0d8f b13d
00000040: 13d0 c4bd 12ac afbc e59e b2bd b4f6 19bd

F.nbr.0.linears.1.weight f4 [20, 20]
-0.0023370944 0.16952647 -0.0993692 -0.03019656 0.06137149 -0.29388213 0.025234973 -0.020106269
0.22441186 0.09959833 -0.16672695 0.023787864 -0.16267753 0.011655578 0.027535163 0.030559832
0.13164617 -0.09805069 -0.036084536 0.12483776 -0.1606099 0.080028616 -0.12029313 0.15336613
0.08012799 0.18211973 0.012101933 0.01622749 0.11988911 0.08747694 -0.0037407472 0.11381032
-0.14832656 0.13857976 -0.042631872 -0.0025484376 0.009718497 0.058308166 -0.023986487 0.02225985
-0.095749594 -0.19432284 0.00197804 -0.005298779 0.03584235 0.17841333 0.1310627 -0.0501955
0.116796695 0.03716556 -0.06220032 -0.065634236 0.17550692 -0.08499853 -0.27388185 0.02445722
0.0780266 0.2843795 0.059036233 0.046748426 -0.14080358 -0.23559394 -0.26885077 -0.18116607
0.054868393 0.13441518 0.064471275 -0.04521077 0.13194604 0.07141725 -0.15076937 0.22432373
0.055241518 -0.06449954 0.029606182 -0.020001039 -0.15662546 -0.007334226 0.030836763 0.048616957
-0.0046779206 0.27832296 0.13042484 0.024206236 0.21720167 -0.11236542 0.032897998 -0.045466825
0.029822621 0.059387036 0.06924684 0.17569466 -0.2250925 0.09423431 -0.3067822 -0.120383665
-0.03703482 0.04098383 0.25774518 0.020256735 0.17905709 -0.1272564 -0.22599757 -0.0515342
-0.016360817 0.1037791 -0.02749698 -0.023750553 -0.107037745 0.16954958 0.04540579 0.10875942
-0.04084202 0.08450284 -0.19387849 -0.16220146 -0.17519583 0.12762083 -0.11187964 -0.03411104
-0.081942454 0.12091778 -0.06411098 0.097402744 0.106294364 0.22866806 -0.028087921 -0.03167637
-0.07025393 0.17098229 -0.15071468 0.18609968 -0.09259641 -0.042593937 -0.047045726 0.027008286
-0.10952966 0.060475722 0.30218604 -0.05979589 0.18753515 0.072131224 0.09683783 0.0011258872
-0.07835814 -0.10320034 0.08427418 0.048093546 -0.05144081 -0.09839113 -0.11355192 -0.10459742
0.23801152 0.104531325 0.20237006 0.10236738 0.076157674 -0.19233193 -0.26530525 0.080299675
0.2084218 -0.300117 -0.093998894 -0.015450824 -0.29247293 0.036095385 0.050073445 -0.18823351
0.20927513 0.13752957 -0.088773854 -0.06212061 0.42775336 -0.14299384 0.13882804 0.19395286
0.14628424 -0.15368056 -0.076411426 -0.08451197 -0.040230528 -0.12827763 -0.11442428 -0.08849302
0.15308471 -0.0046289014 -0.07254917 0.006156975 0.030859375 0.112357594 0.04636189 0.29320097
-0.07404748 0.034421824 -0.12793653 0.03856462 -0.13857292 0.18228199 0.02008368 -0.2405335
-0.114620924 -0.0080371685 -0.117459565 -0.18216653 0.13734102 0.07117225 -0.05056101 -0.14066662
-0.104331814 -0.0013253797 -0.14983384 0.017727258 -0.26662573 0.18224737 0.041013487 -0.008071667
-0.06254973 -0.19271788 0.11891869 0.10166493 0.04405499 0.34272954 0.11628084 0.0657791
0.25835696 -0.050411195 0.1881139 0.025213473 -0.2591299 -0.002847734 -0.05753942 -0.2574411
-0.33419752 0.09725934 -0.05317598 0.078507796 -0.17190191 -0.19860426 -0.041902494 -0.040243514
-0.071235515 -0.19358222 0.06876632 -0.08419691 -0.07884298 0.1981454 -0.12646346 0.12768157
-0.04429418 0.1521482 -0.040405102 -0.031469256 -0.1453542 0.004263088 -0.09760037 0.04180597
00000000: f029 19bb 5998 2d3e 1482 cbbd c75e f7bc
00000010: ac60 7b3d b877 96be 93b9 ce3c e7b5 a4bc
00000020: 39cc 653e 36fa cb3d 78ba 2abe c4de c23c
00000030: f094 26be 0af7 3e3c 6c91 e13c 9d58 fa3c
00000040: 41ce 063e cdce c8bd 61cd 13bd f1aa ff3d
00000050: ec76 24be 0be6 a33d 3f5c f6bd 030c 1d3e
00000060: 251a a43d 987d 3a3e 3047 463c 83ef 843c
00000070: 6c88 f53d 1c27 b33d 5327 75bb 6315 e93d
00000080: ebe2 17be dae7 0d3e c29e 2ebd b003 27bb
00000090: 553a 1f3c 8bd4 6e3d 4f7f c4bc 4a5a b63c
000000a0: 5d18 c4bd 91fc 46be 01a2 013b 61a1 adbb
000000b0: 6ecf 123d fcb1 363e 4d35 063e cc99 4dbd
000000c0: 1b33 ef3d ea3a 183d c3c5 7ebd 3e6b 86bd
000000d0: 16b8 333e b613 aebd 3e3a 8cbe 825a c83c
000000e0: 69cc 9f3d 319a 913e facf 713d 477b 3f3d
000000f0: d02e 10be 8a3f 71be cfa6 89be 9983 39be
00000100: aebd 603d 22a4 093e 8409 843d ee2e 39bd
00000110: dd1c 073e 3543 923d 4963 1abe 1fb5 653e
00000120: ee44 623d 5618 84bd aa88 f23c 38d9 a3bc
00000130: 6d62 20be f253 f0bb 619d fc3c 9322 473d
00000140: 3e49 99bb 5980 8e3e 178e 053e 284c c63c
00000150: 1d6a 5e3e d71f e6bd 0dc0 063d 6c3b 3abd
00000160: 924e f43c d23f 733d 4ad1 8d3d 4de9 333e
00000170: a67e 66be ebfd c03d 8e12 9dbe b68b f6bd
00000180: d3b1 17bd a9de 273d 2df7 833e 74f1 a53c
00000190: be5a 373e 804f 02be e86b 67be 8615 53bd
000001a0: 1f07 86bc 238a d43d 5941 e1bc 8590 c2bc
000001b0: 9b36 dbbd 689e 2d3e 6cfb 393d 42bd de3d
000001c0: f649 27bd d30f ad3d 1588 46be 2418 26be
000001d0: 8966 33be 09af 023e 2721 e5bd 05b8 0bbd
000001e0: 72d1 a7bd bea3 f73d 9e4c 83bd 177b c73d
000001f0: dcb0 d93d f627 6a3e a418 e6bc 15bf 01bd
00000200: 4be1 8fbd fb15 2f3e f354 1abe ea90 3e3e
00000210: 30a3 bdbd fb76 2ebd 05b3 40bd 7b40 dd3c
00000220: 1651 e0bd 64b5 773d 21b8 9a3e 89ec 74bd
00000230: 3709 403e 89b9 933d ea52 c63d 8192 933a
00000240: 3c7a a0bd b35a d3bd f197 ac3d bdfd 443d
00000250: 99b3 52bd 4a81 c9bd e98d e8bd 2c37 d6bd
00000260: 4bb9 733e 8514 d63d 193a 4f3e fda5 d13d
00000270: 8ef8 9b3d a9f2 44be 17d6 87be 2874 a43d
00000280: 866c 553e efa8 99be 7e82 c0bd 7425 7dbc
00000290: 03bf 95be c1d8 133d d019 4d3d 49c0 40be
000002a0: 384c 563e 8dd4 0c3e 11cf b5bd 2e72 7ebd
000002b0: 7d02 db3e fa6c 12be f028 0e3e 949b 463e
000002c0: 89cb 153e 705e 1dbe 987d 9cbd 9d14 adbd
000002d0: c4c8 24bd 365b 03be 4757 eabd d43b b5bd
000002e0: 3dc2 1c3e 0aae 97bb a994 94bd 73c0 c93b
000002f0: cdcc fc3c bd1b e63d f7e5 3d3d 701e 963e
00000300: 35a6 97bd e6fd 0c3d cb01 03be eff5 1d3d
00000310: 0fe6 0dbe 21a8 3a3e 8886 a43c 6a4e 76be
00000320: 60be eabd 54ae 03bc a48e f0bd dd89 3abe
00000330: 20a3 0c3e c2c2 913d 1019 4fbd e90a 10be
00000340: ebab d5bd 5db8 adba 0b6e 19be c138 913c
00000350: 2b83 88be 0e9f 3a3e c2fd 273d 063f 04bc
00000360: 131a 80bd d657 45be a48b f33d b435 d03d
00000370: 0173 343d 3f7a af3e a624 ee3d 31b7 863d
00000380: 5d47 843e f87b 4ebd eea0 403e 7c8c ce3c
00000390: adac 84be 0ca1 3abb 74ae 6bbd 52cf 83be
000003a0: f01b abbe e82f c73d 0ecf 59bd b2c8 a03d
000003b0: 0e07 30be ea5e 4bbe f3a1 2bbd 62d6 24bd
000003c0: ede3 91bd 6b3a 46be 5bd5 8c3d 6e6f acbd
000003d0: 6e78 a1bd a1e6 4a3e a37f 01be f5be 023e
000003e0: d06d 35bd bdcc 1b3e d27f 25bd e8e5 00bd
000003f0: bbd7 14be 60b1 8b3b b4e2 c7bd bd3c 2b3d

F.nbr.0.linears.1.bias f4 [20]
-0.019799598 -0.0068201884 -0.03239129 0.09386169 -0.0126787005 -0.071779296 -0.09457645 0.0086608855
0.0013753837 0.09415285 0.008102306 -0.03234071 0.04539058 -0.043066937 -0.015291005 -0.038662646
-0.0072085434 0.0015189203 -0.027571931 -0.006618051
00000000: c432 a2bc e37b dfbb bbac 04bd 8f3a c03d
00000010: 53ba 4fbc 0601 93bd 4cb1 c1bd 63e6 0d3c
00000020: 3846 b43a 36d3 c03d 89bf 043c b177 04bd
00000030: 79eb 393d f566 30bd 2087 7abc b95c 1ebd
00000040: a535 ecbb 8216 c73a 88de e1bc 3cdc d8bb

F.out.weight f4 [5, 40]
-0.17237572 0.0077445707 -0.1154539 -0.12507007 -0.018017503 -0.1464952 0.094026886 0.0042639994
0.06651545 0.005202563 -0.027421424 -0.018807495 -0.0055169635 -0.045693234 -0.0143706575 -0.01861448
-0.07674762 -0.09488805 0.14762703 0.0045969607 -0.018352516 0.106537476 -0.018211968 -0.10235123
-0.10736777 -0.05947587 0.03583282 0.12958322 0.01401864 0.076369405 -0.13046546 -0.0033211857
-0.057288762 0.029393082 0.06117787 0.019506883 -0.1803605 0.051895354 0.031725556 0.024252255
0.17333737 0.18966655 0.14276923 0.18440457 -0.32601133 -0.047749896 -0.19569284 -0.4290054
-0.181899 0.14123285 0.08748811 0.41629916 -0.3802047 0.07347505 0.31570083 -0.10346869
0.30126074 0.26388708 -0.039567314 0.14298111 -0.0992414 0.034889832 0.059284344 0.1146515
-0.055728927 0.16790271 -0.008573945 -0.19037011 0.033489745 0.111731455 0.095916726 -0.12877293
0.10042647 -0.008479517 -0.12646055 0.026944019 -0.3434113 -0.02609123 0.026838511 0.17018382
0.096261814 -0.14441444 0.20245565 -0.032086864 -0.26647583 0.008507325 -0.032286223 -0.4318123
-0.18123706 -0.056842197 0.2830018 0.12030449 -0.09210927 -0.24919108 -0.057538774 -0.39919618
-0.037200604 -0.07111668 -0.11391148 -0.25425088 0.17163226 0.03684219 -0.2145352 -0.16691163
0.011398316 -0.08744384 -0.12280613 0.31828195 -0.2548644 -0.05079865 0.06956012 0.7076123
-0.17461064 -0.16996498 0.0073691546 -0.15906766 0.46006727 0.62094307 0.43220767 -0.070838265
-0.10720129 -0.13967195 -0.38792685 -0.042890064 0.093942255 -0.21235466 0.15907806 -0.12274746
0.12697613 0.3665193 -0.17702322 0.07326633 0.20602882 0.11059544 -0.010008105 -0.10121602
-0.045017675 0.07737405 0.503955 0.083886944 -0.06066182 0.19541822 0.11071216 0.082844056
0.27365336 0.16522531 0.30145937 -0.49855256 -0.46513477 0.19096301 0.18412808 0.14044218
0.005975264 -0.20382278 -0.21204455 0.062864825 0.19571619 -0.07492954 -0.010005596 0.30376047
0.051269602 0.07160966 -0.062143996 0.09884444 -0.019639399 0.04614098 0.029189017 0.053669237
0.005749566 0.025323493 0.044345167 0.024917373 -0.11064871 0.10262134 0.19031012 -0.008222129
-0.052593194 0.083966814 0.018606255 0.09477368 -0.013248579 -0.13534215 -0.05799011 -0.037757155
-0.024058664 0.014992285 -0.0746928 0.20550509 0.04310279 -0.060360394 0.083245814 0.018013174
0.059975814 0.061403405 -0.06549293 -0.197418 -0.061876293 -0.06596799 -0.0065363036 -0.24939871
00000000: 4383 30be 2bc6 fd3b 1873 ecbd 5e12 00be
00000010: 7199 93bc d602 16be 2b91 c03d 05b9 8b3b
00000020: 4139 883d 437a aa3b e5a2 e0bc 2d12 9abc
00000030: a5c7 b4bb d428 3bbd e872 6bbc 657d 98bc
00000040: db2d 9dbd aa54 c2bd 8a2b 173e 1aa2 963b
00000050: 0458 96bc 5230 da3d 4431 95bc 869d d1bd
00000060: a2e3 dbbd f89c 73bd 6fc5 123d 77b1 043e
00000070: 70ae 653c 9067 9c3d bd98 05be 40a8 59bb
00000080: 9fa7 6abd c3c9 f03c a595 7a3d e6cc 9f3c
00000090: 6cb0 38be 3990 543d a8f2 013d aaac c63c
000000a0: 5a7f 313e f337 423e 1932 123e 8dd4 3c3e
000000b0: f5ea a6be 6595 43bd b463 48be 99a6 dbbe
000000c0: bb43 3abe 589f 103e f72c b33d 2a25 d53e
000000d0: 31aa c2be 167a 963d 8aa3 a13e 64e7 d3bd
000000e0: d93e 9a3e 351c 873e 5611 22bd a469 123e
000000f0: 133f cbbd a4e8 0e3d 24d4 723d 68ce ea3d
00000100: 0444 64bd b0ee 2b3e bb79 0cbc 62f0 42be
00000110: 8b2c 093d 76d3 e43d fd6f c43d 0ddd 03be
00000120: 65ac cd3d aced 0abc e07e 01be b4b9 dc3c
00000130: 9bd3 afbe 46bd d5bc 70dc db3c ab44 2e3e
00000140: ea24 c53d 61e1 13be 8950 4f3e 846d 03bd
00000150: 856f 88be 4f62 0b3c 8f3e 04bd 8016 ddbe
00000160: 3596 39be 5dd3 68bd 9de5 903e 3362 f63d
00000170: c9a3 bcbd f22b 7fbe c7ad 6bbd 7163 ccbe
00000180: a95f 18bd 9fa5 91bd 6c4a e9bd 2c2d 82be
00000190: 5ec0 2f3e d6e7 163d 1eaf 5bbe e2ea 2abe
000001a0: 01c0 3a3c c215 b3bd c881 fbbd daf5 a23e
000001b0: 967d 82be 3f12 50bd 8975 8e3d 1426 353f
000001c0: 22cd 32be 4d0b 2ebe f378 f13b a2e2 22be
000001d0: f08d eb3e 20f6 1e3f 534a dd3e a713 91bd
000001e0: 5a8c dbbd 2a06 0fbe 599e c6be 7ead 2fbd
000001f0: cc64 c03d 8073 59be 5ce5 223e 0563 fbbd
00000200: 0806 023e 6ba8 bb3e 9345 35be a80c 963d
00000210: 38f9 523e dd7f e23d 09f9 23bc 584a cfbd
00000220: 7464 38bd 4976 9e3d 3203 013f ebcc ab3d
00000230: 8778 78bd b71b 483e 0fbd e23d 25aa a93d
00000240: 4b1c 8c3e d330 293e e258 9a3e 4842 ffbe
00000250: 2526 eebe cf8b 433e 128c 3c3e 13d0 0f3e
00000260: 26cc c33b ebb6 50be 3522 59be 46bf 803d
00000270: d369 483e a974 99bd 83ee 23bc 7e86 9b3e
00000280: 1300 523d 16a8 923d b48a 7ebd f46e ca3d
00000290: cee2 a0bc 53fe 3c3d ce1d ef3c 46d4 5b3d
000002a0: db66 bc3b 3773 cf3c 47a3 353d 851f cc3c
000002b0: ca9b e2bd 232b d23d a8e0 423e 1cb6 06bc
000002c0: f66b 57bd cbf6 ab3d 256c 983c b418 c23d
000002d0: 9110 59bc 2297 0abe 0a87 6dbd 3fa7 1abd
000002e0: ad16 c5bc 33a2 753c 8af8 98bd ed6f 523e
000002f0: 8d8c 303d 763c 77bd c87c aa3d 5d90 933c
00000300: 33a9 753d 2382 7b3d 2821 86bd f227 4abe
00000310: ff71 7dbd 3a1a 87bd 7d2e d6bb 6062 7fbe

F.out.bias f4 [5]
0.004499903 -0.09691148 0.040448874 0.066291444 -0.0565828
00000000: ec73 933b 8779 c6bd b8ad 253d cfc3 873d
00000010: 5ec3 67bd

i2h.linears.0.weight f4 [20, 22]
-0.00045568662 0.3396902 0.2756182 0.06984389 -0.07605879 0.25361335 0.31032142 -0.10417465
-0.12319661 -0.19843052 -0.04382799 0.20055616 -0.055093545 -0.21861337 0.08323258 -0.035590705
0.005379097 -0.07293197 -0.13336164 -0.19527206 -0.10503011 0.06595141 0.28424826 0.047411654
0.19175461 0.083828285 -0.19148394 0.1512703 0.11753206 -0.20094642 -0.04060947 -0.22385879
0.23899299 0.082875095 -0.071108006 0.0061357175 0.093816556 0.011586432 0.14643016 0.11390734
0.07773968 0.06951972 -0.12730694 0.081920005 -0.14133611 0.10529469 -0.17491746 -0.06460823
0.14677738 -0.1506804 -0.271937 0.11298811 0.16258971 0.10379623 -0.14779003 -0.21211496
-0.039497025 0.2270077 0.07620667 -0.03965514 -0.24324752 -0.2083045 0.14897119 0.06981599
0.111059956 -0.002448177 0.2649166 0.25674063 0.20084976 0.19170405 -0.30193853 0.16340698
0.32746655 -0.09355894 -0.14920509 -0.11511947 -0.24397612 0.13276018 -0.15138707 -0.048968576
0.031998135 0.016232938 0.35437155 0.09286832 0.09003072 0.010679842 -0.109391026 0.039695643
-0.1431993 0.16065954 0.23296857 0.08095096 -0.018244097 0.03654408 0.15873006 -0.32757565
0.026649771 -0.066044755 -0.25120664 0.28046176 -0.060485497 0.0046912134 0.20867953 -0.09564412
0.04117906 0.07175859 -0.17216548 -0.01879617 -0.22809683 -0.008600326 0.21180338 -0.038406797
-0.27638927 -0.076491944 0.1319966 -0.03372507 -0.23672268 0.17192101 -0.11265374 0.057775952
-0.06701831 0.04064602 -0.008472064 -0.05543494 -0.2924884 -0.010748762 0.10596753 0.1644276
0.1156466 0.13727205 0.22753225 -0.14182416 0.3111636 -0.2211416 -0.11171802 0.05191365
-0.10150371 -0.08677821 -0.1021054 -0.0543487 -0.05607369 0.044398945 0.016720785 -0.036506575
-0.007734953 -0.03775593 -0.20541288 0.1639578 -0.0039670262 -0.056955386 -0.044005103 -0.004238891
0.13002445 0.19162206 -0.1475855 0.17749137 -0.21164788 -0.23809521 0.10354592 0.05453502
-0.007128696 0.00114012 0.046660617 0.27444315 0.019547341 0.07001202 0.16592145 0.33375594
-0.03427823 -0.10286957 -0.119341455 -0.40650946 -0.0070717963 0.13145076 0.019734591 -0.010715627
-0.032797094 0.100040264 0.21519375 0.022029819 0.040636823 -0.045625344 0.026409805 0.046207767
0.020889102 0.018455017 0.19904524 0.02135792 0.03934105 0.02227867 -0.16288704 0.09579283
-0.07947876 -0.33820602 0.09157734 0.13110426 0.019357637 -0.023231573 -0.38233042 0.049085267
-0.027128926 -0.12708445 0.003399515 0.025764091 -0.089865506 -0.11356704 0.1707191 0.04556644
-0.30381837 0.0101561 0.01880893 0.25737786 0.05772073 0.025683928 0.11339567 -0.0018583066
0.15811679 -0.041340258 -0.063020706 0.011706978 0.22099349 0.0010199026 0.22585107 -0.0033247697
0.03195463 -0.062119145 -0.12631808 0.095056646 -0.29269242 0.17988794 0.25783584 -0.042166915
0.36549675 0.05861298 -0.3880588 0.08672217 0.05618531 0.111700825 0.030862259 0.09371145
0.25658375 -0.039253216 -0.27541938 0.30793738 0.023491029 -0.03567997 -0.14031821 0.098133676
-0.15136494 -0.17526852 0.26374286 -0.0023525876 0.06104242 -0.17315657 -0.12558816 -0.028123697
00000000: 39e9 eeb9 e0eb ad3e d41d 8d3e 500a 8f3d
00000010: b6c4 9bbd 9cd9 813e 73e2 9e3e 8559 d5bd
00000020: 814e fcbd 5f31 4bbe fa84 33bd 985e 4d3e
00000030: c5a9 61bd 2fdc 5fbe d875 aa3d 8fc7 11bd
00000040: 2343 b03b 5b5d 95bd f48f 08be 66f5 47be
00000050: 071a d7bd 8811 873d fd88 913e b932 423d
00000060: 525b 443e 2aae ab3d 5e14 44be 9ae6 1a3e
00000070: a6b4 f03d e6c4 4dbe 1e56 26bd 3d3b 65be
00000080: 94ba 743e 6bba a93d 13a1 91bd 210e c93b
00000090: e522 c03d 05d5 3d3c caf1 153e 4048 e93d
000000a0: fb35 9f3d 5b60 8e3d c05c 02be adc5 a73d
000000b0: 6aba 10be bea4 d73d 901d 33be 5251 84bd
000000c0: cf4c 163e f64b 1abe 543b 8bbe 4f66 e73d
000000d0: eb7d 263e 1e93 d43d 4556 17be aa34 59be
000000e0: a2c7 21bd b574 683e 3e12 9c3d 6e6d 22bd
000000f0: e115 79be c64d 55be e78b 183e b0fb 8e3d
00000100: 6773 e33d 9871 20bb 26a3 873e 8273 833e
00000110: 8fab 4d3e 114e 443e b097 9abe 2954 273e
00000120: b2a9 a73e d49b bfbd 38c9 18be c2c3 ebbd
00000130: e0d4 79be 49f2 073e 3605 1bbe 4693 48bd
00000140: 7a10 033d f0fa 843c 3070 b53e bf31 be3d
00000150: 0762 b83d 81fa 2e3c 6708 e0bd e697 223d
00000160: d6a2 12be ef83 243e 508f 6e3e 9ec9 a53d
00000170: a574 95bc 3faf 153d 228a 223e ffb7 a7be
00000180: 9f50 da3c 7942 87bd 289e 80be af98 8f3e
00000190: a4bf 77bd c0b8 993b 16b0 553e 10e1 c3bd
000001a0: 60ab 283d 2bf6 923d 264c 30be 6dfa 99bc
000001b0: 3792 69be 62e8 0cbc fce2 583e 7250 1dbd
000001c0: e582 8dbe cfa7 9cbd 1e2a 073e 4d23 0abd
000001d0: 6e67 72be 100c 303e 01b7 e6bd 7aa6 6c3d
000001e0: e540 89bd 717c 263d 69ce 0abc bf0f 63bd
000001f0: 0ac1 95be 931b 30bc 8105 d93d b55f 283e
00000200: 20d8 ec3d 0b91 0c3e 37fe 683e 5a3a 11be
00000210: d650 9f3e f272 62be 6bcc e4bd 68a3 543d
00000220: 2de1 cfbd c6b8 b1bd a31c d1bd be9c 5ebd
00000230: 87ad 65bd abdb 353d 07fa 883c eb87 15bd
00000240: 7d75 fdbb f6a5 1abd c157 52be 8ee4 273e
00000250: d4fd 81bb 0d4a 69bd b23e 34bd 65e6 8abb
00000260: 2125 053e 9338 443e a720 17be 4cc0 353e
00000270: 39ba 58be 3bcf 73be e20f d43d 1d60 5f3d
00000280: d697 e9bb 1470 953a 341f 3f3d d083 8c3e
00000290: bf21 a03c 7662 8f3d 50e7 293e 0fe2 aa3e
000002a0: 5467 0cbd 48ad d2bd 4b69 f4bd 0222 d0be
000002b0: 87ba e7bb 079b 063e 70aa a13c 9990 2fbc
000002c0: 3f56 06bd e9e1 cc3d c05b 5c3e e177 b43c
000002d0: cc72 263d a4e1 3abd 6059 d83c 5b44 3d3d
000002e0: 9f1f ab3c fa2e 973c 84d2 4b3e cef6 ae3c
000002f0: 1524 213d c281 b63c dccb 26be 082f c43d
00000300: c3c5 a2bd 5729 adbe e78c bb3d 3240 063e
00000310: e893 9e3c 2450 bebc d0c0 c3be a20d 493d
00000320: 7b3d debc 6d22 02be 66ca 5e3b 370f d33c
00000330: 680b b8bd d695 e8bd fdd0 2e3e e0a3 3a3d
00000340: 158e 9bbe c565 263c 2f15 9a3c 08c7 833e
00000350: 926c 6c3d 1a67 d23c fd3b e83d 6c92 f3ba
00000360: 5ee9 213e 6754 29bd 0011 81bd a0ce 3f3c
00000370: 1e4c 623e 41ae 853a 8145 673e 61e4 59bb
00000380: dce2 023d a570 7ebd 8759 01be 0fad c23d
00000390: c8db 95be 8b34 383e 0f03 843e 37b7 2cbd
000003a0: 6422 bb3e 2a14 703d a5af c6be 659b b13d
000003b0: 9122 663d 67c3 e43d d9d2 fc3c caeb bf3d
000003c0: f25e 833e fbc7 20bd c503 8dbe f8a9 9d3e
000003d0: 4270 c03c 2925 12bd 94af 0fbe 4ffa c83d
000003e0: 69ff 1abe 9779 33be 4e09 873e df2d 1abb
000003f0: 9e07 7a3d f54f 31be 2f9a 00be ab63 e6bc

i2h.linears.0.bias f4 [20]
0.13614906 0.24198456 -0.26185384 0.07528337 0.29614532 -0.23454003 -0.10179307 -0.155869
0.13522328 0.18406866 -0.19335246 -0.20350845 0.13097852 0.10968494 0.080817185 0.049855642
-0.13120213 -0.066415966 -0.26529038 0.11457859
00000000: a96a 0b3e cdca 773e b511 86be 2b2e 9a3d
00000010: 5ca0 973e 432b 70be e378 d0bd 209c 1fbe
00000020: f977 0a3e 7f7c 3c3e 30fe 45be 8564 50be
00000030: 3c1f 063e 7fa2 e03d 7b83 a53d 6e35 4c3d
00000040: da59 06be 1805 88bd 24d4 87be 2ea8 ea3d

h2o.linears.0.weight f4 [10, 20]
-0.479302 -0.336665 -0.10245952 -0.42361596 0.15900664 -0.13331963 0.05655992 -0.051868957
-0.42352793 0.4176341 -0.3082503 -0.51352155 0.44418257 -0.04331351 -0.4131151 0.6259262
-0.6289213 0.031687576 -0.49322188 -0.51185775 0.26456454 -0.010618722 0.34158096 -0.018014599
0.20089342 -0.20185475 -0.09157377 0.15736075 0.2719067 -0.029085247 -0.15165438 0.13357076
0.058634087 0.29875794 -0.16656485 -0.17292367 0.060346823 0.33592469 0.39197814 -0.17117286
0.13416138 0.26543772 -0.2026336 0.1377121 -0.25192383 0.2233917 0.33288997 -0.19269772
0.077606715 -0.5396733 0.22201382 -0.2976233 0.14231004 -0.113028266 0.018860325 -0.31306255
0.09459533 -0.09915672 0.21559934 0.1257323 0.1719322 0.04048584 -0.29860055 0.42514676
-0.030333046 0.1536388 -0.39401096 -0.3553356 -0.103341 0.05234807 0.16035642 0.6656551
-0.46556813 -0.5448126 0.6316871 0.10121812 0.44703338 -0.49929643 0.2734863 0.2786198
-0.43173745 0.3657539 -0.49461654 0.28961134 -0.52235866 0.47830912 0.6435735 -0.39402276
-0.41180724 -0.5928105 0.282711 -0.51694953 0.04576753 -0.53720707 -0.33674195 -0.46583712
-0.067078434 -0.5902362 -0.22593747 0.52668804 -0.46858007 -0.63315165 0.6505617 -0.40890738
-0.5839963 0.6389984 0.15475836 0.52306044 -0.32741654 -0.120173715 0.4223865 0.2484984
-0.03476671 -0.24506319 -0.25197652 0.12413999 0.23879719 0.2402247 0.28197718 -0.5085961
-0.48431 -0.7150787 0.6973704 -0.5967626 -0.5445582 0.6375146 0.20389487 0.40330535
-0.30102664 0.014183223 0.39711943 0.35664234 -0.25827047 -0.4458687 -0.38916764 0.3478715
0.5069983 0.38339525 0.78186744 -0.47934836 -0.21575767 -0.47090915 0.4934479 -0.36115068
-0.33403733 0.33297136 0.1060777 0.3027595 -0.30410412 0.09171475 0.27018687 0.22078808
-0.12886307 -0.16251595 -0.17272583 0.15389019 0.29264286 0.020061946 0.27853003 -0.23505665
-0.3865938 -0.81438 0.57368606 -0.37631783 -0.5978758 0.6131906 0.16551252 0.63348955
-0.54407054 -0.22292899 0.45326105 0.37400723 -0.21475925 -0.34373477 -0.36021534 0.21946082
0.3424555 0.28643766 0.43133342 -0.64865404 -0.57485765 -0.66104704 0.58071464 -0.26119164
-0.42500582 0.5099832 0.20005 0.3622399 -0.24243829 -0.05102174 0.2668233 0.36914563
0.04957096 -0.070335925 -0.28341323 0.15589552 0.33595157 0.12084943 0.59989756 -0.43381935
00000000: 1267 f5be 5b5f acbe 4cd6 d1bd 31e4 d8be
00000010: a3d2 223e f184 08be 60ab 673d 8b74 54bd
00000020: a7d8 d8be 23d4 d53e fcd2 9dbe 2676 03bf
00000030: e66b e33e 8269 31bd d383 d3be b33c 203f
00000040: fc00 21bf d5ca 013d 9487 fcbe 1c09 03bf
00000050: 0175 873e 26fa 2dbc b3e3 ae3e 5a93 93bc
00000060: 01b7 4d3e 03b3 4ebe 078b bbbd 2d23 213e
00000070: 5b37 8b3e 2f44 eebc 494b 1bbe c6c6 083e
00000080: 4c2a 703d cdf6 983e fa8f 2abe e712 31be
00000090: 3b2e 773d 52fe ab3e 5cb1 c83e f047 2fbe
000000a0: 9a61 093e 74e7 873e 2f7f 4fbe 6704 0d3e
000000b0: 29fc 80be cbc0 643e 8e70 aa3e 8d52 45be
000000c0: 45f0 9e3d 0828 0abf 9757 633e 1562 98be
000000d0: b9b9 113e 5d7b e7bd f880 9a3c bc49 a0be
000000e0: 32bb c13d ae12 cbbd 13c6 5c3e f8bf 003e
000000f0: ff0e 303e 7bd4 253d 2ce2 98be d6ac d93e
00000100: 027d f8bc 7d53 1d3e cebb c9be 8cee b5be
00000110: 72a4 d3bd ee6a 563d 7934 243e 5f68 2a3f
00000120: f25e eebe d778 0bbf 3fb6 213f 724b cf3d
00000130: 8fe1 e43e c8a3 ffbe 6506 8c3e 41a7 8e3e
00000140: b10c ddbe 1844 bb3e 613e fdbe f047 943e
00000150: 4cb9 05bf efe4 f43e 3cc1 243f 5abd c9be
00000160: 66d8 d2be 6ec2 17bf 7fbf 903e ce56 04bf
00000170: bc76 3b3d 6786 09bf 7169 acbe 3482 eebe
00000180: 6b60 89bd b819 17bf 275c 67be 07d5 063f
00000190: bae9 efbe 3a16 22bf 368b 263f 4f5c d1be
000001a0: c880 15bf 6695 233f fa78 1e3e 4ae7 053f
000001b0: 24a3 a7be a31d f6bd 0b43 d83e 5d76 7e3e
000001c0: 8a67 0ebd d8f1 7abe 1103 81be 1b3d fe3d
000001d0: 4087 743e 77fd 753e 505f 903e 5b33 02bf
000001e0: 7bf7 f7be 660f 37bf de86 323f 6fc5 18bf
000001f0: 2b68 0bbf 2834 233f d1c9 503e 0a7e ce3e
00000200: 2a20 9abe c060 683c 3d53 cb3e d399 b63e
00000210: 073c 84be e748 e4be fb40 c7be 371c b23e
00000220: a4ca 013f 624c c43e 7728 483f 266d f5be
00000230: 94ef 5cbe 011b f1be 34a5 fc3e bee8 b8be
00000240: f106 abbe 397b aa3e 443f d93d 4b03 9b3e
00000250: 89b3 9bbe f1d4 bb3d ef55 8a3e 4516 623e
00000260: aef4 03be 956a 26be 0adf 30be 6495 1d3e
00000270: 49d5 953e f358 a43c 7d9b 8e3e b1b2 70be
00000280: 9fef c5be 357b 50bf 17dd 123f bbac c0be
00000290: 630e 19bf 0ffa 1c3f 1d7c 293e 5f2c 223f
000002a0: 3548 0bbf 7f47 64be d511 e83e e07d bf3e
000002b0: d9e9 5bbe 01fe afbe 256e b8be 56ba 603e
000002c0: 5456 af3e f5a7 923e bcd7 dc3e 310e 26bf
000002d0: df29 13bf 613a 29bf b7a9 143f e9ba 85be
000002e0: 5d9a d9be 428e 023f e8d9 4c3e 8277 b93e
000002f0: be41 78be 2cfc 50bd 109d 883e a800 bd3e
00000300: eb0a 4b3d 480c 90bd 8a1b 91be 13a3 1f3e
00000310: d801 ac3e e87f f73d e392 193f 921d debe

h2o.linears.0.bias f4 [10]
0.035324067 -0.0025784394 0.06344269 -0.08082258 0.035241712 -0.7021185 -0.76970243 -0.52564025
-0.80316323 -0.68461823
00000000: f8af 103d 09fb 28bb 3eee 813d 4f86 a5bd
00000010: 9d59 103d 0abe 33bf 380b 45bf 5c90 06bf
00000020: 1b9c 4dbf 2443 2fbf

linears.0.weight f4 [20, 5]
-0.2609084 0.24201883 -0.095270105 0.39086866 0.081516184 0.08958592 -0.142281 -0.2815281
-0.39098567 -0.024323788 -0.14947905 -0.37777233 0.21049374 0.23433262 0.09032166 -0.022021577
-0.11835495 0.2541063 -0.17269371 0.32805258 0.09080876 -0.029983321 -0.20677635 -0.2607195
-0.22157435 0.12767747 -0.39619157 -0.15444036 -0.23856086 0.07211823 -0.19392669 0.21321522
0.3251384 0.4745492 0.08418854 -0.06552181 -0.3397172 0.07328353 -0.290639 0.22448967
-0.13639365 0.28527263 0.08264742 0.15009722 -0.0041948613 0.07755535 0.22289522 -0.1447237
-0.026893638 -0.3800683 -0.109300435 -0.041408937 0.019461872 0.39030257 0.05841823 -0.097690016
0.45428368 -0.13363174 0.19691446 -0.07530132 -0.03143408 -0.29169628 -0.21631524 -0.24338192
0.020110179 0.06839893 -0.42025876 -0.03495522 -0.24388905 -0.00926082 0.15100694 -0.29016894
-0.155887 -0.28681484 -0.11176935 0.16573994 -0.321678 0.2791383 -0.016133796 0.17816323
-0.08595694 0.37204263 -0.1995164 0.36516726 -0.11366646 0.2676753 0.067444846 -0.068692565
-0.18094502 -0.13018644 -0.05223521 0.45928615 0.025957279 0.4179139 -0.1525418 -0.20361996
-0.2686819 0.24630901 -0.04924774 0.15332074
00000000: c995 85be c9d3 773e f91c c3bd f01f c83e
00000010: f5f1 a63d d378 b73d 1cb2 11be 7324 90be
00000020: 462f c8be ae42 c7bc 0911 19be 606b c1be
00000030: ac8b 573e e4f4 6f3e 90fa b83d 9866 b4bc
00000040: 1464 f2bd 391a 823e 9fd6 30be 82f6 a73e
00000050: f1f9 b93d 959f f5bc 2ebd 53be 077d 85be
00000060: 63e4 62be e2bd 023e 9fd9 cabe 9d25 1ebe
00000070: 4c49 74be b9b2 933d b894 46be 1755 5a3e
00000080: 8a78 a63e 1df8 f23e 0b6b ac3d 4c30 86bd
00000090: 6aef adbe ad15 963d a3ce 94be 9fe0 653e
000000a0: c7aa 0bbe 410f 923e 0d43 a93d 16b3 193e
000000b0: 0c75 89bb 57d5 9e3d a53e 643e 7332 14be
000000c0: 0c50 dcbc 5098 c2be e8d8 dfbd 6b9c 29bd
000000d0: 816e 9f3c bdd5 c73e f447 6f3d b411 c8bd
000000e0: df97 e83e c2d6 08be f2a3 493e 9437 9abd
000000f0: 06c1 00bd 3759 95be be81 5dbe 1c39 79be
00000100: 1abe a43c bd14 8c3d 282c d7be 342d 0fbd
00000110: 0dbe 79be b2ba 17bc 90a1 1a3e 0691 94be
00000120: d7a0 1fbe 65d9 92be 54e7 e4bd bbb7 293e
00000130: fbb2 a4be 37eb 8e3e 062b 84bc 6c70 363e
00000140: 310a b0bd 5f7c be3e 074e 4cbe 34f7 ba3e
00000150: f6c9 e8bd bd0c 893e 8620 8a3d b0ae 8cbd
00000160: a749 39be 984f 05be 96f4 55bd 8e27 eb3e
00000170: 5ca4 d43c d0f8 d53e eb33 1cbe c081 50be
00000180: ad90 89be 6e38 7c3e 00b8 49bd 1d00 1d3e

linears.0.bias f4 [20]
0.031260964 0.1084584 0.0821083 -0.02909113 0.102802224 -0.014609707 0.091003895 0.08730815
-0.0027611053 0.13053584 -0.030488417 0.10016555 0.10062395 0.113972224 0.058943845 0.12390838
0.101264514 0.1039407 0.18266474 0.09799083
00000000: 7f0b 003d 701f de3d 6528 a83d 8550 eebc
00000010: f989 d23d 8d5d 6fbc 4060 ba3d 9ece b23d
00000020: a9f3 34bb 30ab 053e d8c2 f9bc 9923 cd3d
00000030: ee13 ce3d 456a e93d 1a6f 713d adc3 fd3d
00000040: c563 cf3d ddde d43d 770c 3b3e 6baf c83d

linears.1.weight f4 [2, 20]
0.11509308 -0.2686985 0.24491815 0.32838455 -0.5881929 -0.05376996 0.31606242 0.12479269
0.13791017 -0.24407373 0.23570502 -0.076615974 -0.09154935 -0.0357837 -0.25784492 0.4316603
-0.07637477 -0.32801673 0.009949352 0.31507862 0.24026056 -0.2844781 -0.09796624 -0.23320709
-0.19759998 -0.37919143 0.3103721 -0.2576463 0.33231127 0.11092809 0.10128559 0.4313555
-0.21969506 -0.49215838 -0.33896172 -0.42184433 0.53671676 -0.07191708 0.36687276 -0.16917887
00000000: ecb5 eb3d da92 89be d3cb 7a3e 0522 a83e
00000010: cf93 16bf e43d 5cbd efd2 a13e 4f93 ff3d
00000020: 5338 0d3e 77ee 79be a85c 713e d6e8 9cbd
00000030: 3a7e bbbd ee91 12bd 4004 84be 9402 dd3e
00000040: 606a 9cbd cff1 a7be 9b02 233c fc51 a13e
00000050: dd06 763e 1da7 91be 86a2 c8bd d7cd 6ebe
00000060: a657 4abe 6125 c2be 18e9 9e3e 37ea 83be
00000070: b424 aa3e 442e e33d d26e cf3d a1da dc3e
00000080: bef7 60be 2ffc fbbe 648c adbe fbfb d7be
00000090: 4566 093f 4349 93bd bfd6 bb3e 3a3d 2dbe

linears.1.bias f4 [2]
-0.042272873 0.005538352
00000000: 5226 2dbd 107b b53b

exp_avg f4 [20, 5]
0.55040663 -0.4153965 -0.17256577 -0.16383618 0.34593478 -0.12788038 -0.032632716 -0.5537421
-0.809515 0.20153166 -0.13047703 -0.07963775 0.038882002 0.4025709 -0.12135098 -0.40735042
0.016346887 -0.12124536 0.14104967 -0.3980913 0.17671558 -0.041109435 -0.14703709 -0.2567628
0.2215613 0.26730582 -0.19461343 -0.24116357 -0.28329134 0.23140545 -0.19249526 -0.28612137
-0.35235658 -0.69995534 0.17135575 -0.54267997 -0.16918257 -0.11157148 0.24127492 -0.28704208
-0.28814065 -0.094751224 -0.21735476 0.29489172 -0.027860498 -0.94739395 -0.022668479 -0.027299153
-0.3202659 -0.7210302 0.23888965 0.22646897 0.38104135 0.1339697 -0.020739539 -0.14123213
0.16165495 0.20902048 0.09137108 -0.13275284 0.43570235 -0.4854345 -0.12315423 0.7139184
0.06257846 0.2757051 -0.17675737 -0.37779525 -0.33107296 0.7829369 0.68330157 -0.41961113
-0.0144634815 0.40310457 0.35027698 -1.1538242 0.18057093 -0.1970674 -0.081898905 -0.4938828
-0.37560427 -0.07153498 -0.1438318 -0.0047243377 -0.2909836 0.49849066 -0.1719383 0.289917
0.70682716 0.04537617 0.8932958 -0.5800969 -0.21767631 -0.033284314 0.54933506 0.44183826
-0.09418743 -0.6214646 -0.014152537 0.7415122
00000000: 73e7 0c3f daae d4be 15b5 30be acc4 27be
00000010: 5d1e b13e 13f3 02be e2a9 05bd 0bc2 0dbf
00000020: 603c 4fbf 515e 4e3e c59b 05be 1e19 a3bd
00000030: bc42 1f3d c61d ce3e dd86 f8bd 3c90 d0be
00000040: e8e9 853c 7d4f f8bd 536f 103e 9fd2 cbbe
00000050: eef4 343e 5e62 28bd e490 16be 6a76 83be
00000060: f7e0 623e 4fdc 883e be48 47be 95f3 76be
00000070: 900b 91be 8df5 6c3e 7a1d 45be 807e 92be
00000080: 1568 b4be 4630 33bf e277 2f3e 13ed 0abf
00000090: 323e 2dbe 977f e4bd c610 773e 2ef7 92be
000000a0: 2c87 93be ee0c c2bd 3f92 5ebe 0cfc 963e
000000b0: b33b e4bc 6988 72bf 3fb3 b9bc 79a2 dfbc
000000c0: e4f9 a3be 6f95 38bf 7d9f 743e 7be7 673e
000000d0: da17 c33e 5a2f 093e f7e5 a9bc 289f 10be
000000e0: e088 253e 7709 563e c320 bb3d 5cf0 07be
000000f0: 6114 df3e df8a f8be 4938 fcbd 5bc3 363f
00000100: 2329 803d 3829 8d3e e2ff 34be 616e c1be
00000110: 6582 a9be 8d6e 483f daec 2e3f 45d7 d6be
00000120: 3df8 6cbc b963 ce3e 8157 b33e 83b0 93bf
00000130: 96e7 383e 09cc 49be 9dba a7bd 35de fcbe
00000140: 344f c0be ee80 92bd a548 13be 9ece 9abb
00000150: cdfb 94be 2b3a ff3e 9810 30be 0070 943e
00000160: a0f2 343f 5ddc 393d 09af 643f 3b81 14bf
00000170: 8ae6 5ebe 2255 08bd 39a1 0c3f a038 e23e
00000180: 57e5 c0bd 4e18 1fbf 0be0 67bc bed3 3d3f

exp_avg_sq f4 [20, 5]
9.595153 77.73245 64.36947 870.7412 39.805332 115.64294 1548.6667 535.8242
2051.0884 78.73848 17.29651 275.42047 293.2187 1367.7189 40.817627 23.650103
338.0382 132.47519 2271.3586 84.2402 13.634399 190.33473 191.28954 1127.755
39.1459 31.599861 445.90042 323.8543 1835.1671 60.085476 72.06611 951.0889
256.67795 1161.2161 46.254536 36.01686 338.26456 505.68152 4116.2163 126.01804
18.075365 92.51761 117.95445 874.46674 21.400236 116.457794 1466.8812 1964.2549
14442.956 453.07172 38.325005 422.55273 36.059216 675.21875 24.614937 4.7936683
62.02067 22.928541 24.236794 2.9317198 27.531866 580.67224 372.13422 839.9392
27.21932 79.05319 940.72156 781.1283 6149.6675 252.92038 35.873432 637.5364
70.71339 421.26553 27.75809 76.62506 1051.5239 393.38388 6188.9736 230.42715
16.743866 200.38387 56.72737 891.9975 29.787157 91.03901 1573.9121 445.39365
1294.9869 45.14678 35.003323 356.96817 445.595 3997.3784 153.0664 77.14886
944.0348 964.5946 7470.4224 307.41003
00000000: bf85 1941 0477 9b42 2bbd 8042 70af 5944
00000010: a938 1f42 2f49 e742 5695 c144 c0f4 0544
00000020: 6a31 0045 1a7a 9d42 415f 8a41 d2b5 8943
00000030: fe9b 9243 01f7 aa44 4045 2342 6933 bd41
00000040: e404 a943 a679 0443 bdf5 0d45 fb7a a842
00000050: 8026 5a41 b155 3e43 1f4a 3f43 29f8 8c44
00000060: 6795 1c42 84cc fc41 41f3 de43 5aed a143
00000070: 5965 e544 8757 7042 d921 9042 b1c5 6d44
00000080: c756 8043 ea26 9144 a504 3942 4411 1042
00000090: dd21 a943 3cd7 fc43 bba1 8045 3d09 fc42
000000a0: 599a 9041 0409 b942 aee8 eb42 df9d 5a44
000000b0: af33 ab41 64ea e842 335c b744 2888 f544
000000c0: d3ab 6146 2e89 e243 ce4c 1942 c046 d343
000000d0: a33c 1042 00ce 2844 64eb c441 bb65 9940
000000e0: 2b15 7842 a76d b741 f4e4 c141 4ca1 3b40
000000f0: 4341 dc41 062b 1144 2e11 ba43 1cfc 5144
00000100: 2bc1 d941 3c1b 9e42 2e2e 6b44 3648 4344
00000110: 572d c045 9eeb 7c43 657e 0f42 5462 1f44
00000120: 416d 8d42 fda1 d243 9110 de41 0840 9942
00000130: c470 8344 23b1 c443 ca67 c145 5a6d 6643
00000140: 70f3 8541 4562 4843 d4e8 6242 d7ff 5e44
00000150: 194c ee41 f913 b642 30bd c444 63b2 de43
00000160: 95df a144 4d96 3442 6703 0c42 ed7b b243
00000170: 29cc de43 0ed6 7945 0011 1943 374c 9a42
00000180: 3a02 6c44 0e26 7144 6173 e945 7cb4 9943

exp_avg f4 [20]
1.3861517 -1.32933 -0.43222764 -1.2262617 0.32391673 0.8538746 -0.003633066 -1.1594106
-0.7466181 -4.45043 1.4081638 0.3464426 0.72509205 1.1901594 1.4462729 -3.5936337
-0.6498341 0.8440452 2.6227016 0.32862866
00000000: 6b6d b13f 7c27 aabf f14c ddbe 25f6 9cbf
00000010: 6ad8 a53e 8797 5a3f bc18 6ebb 9167 94bf
00000020: 5d22 3fbf ec69 8ec0 b63e b43f ed60 b13e
00000030: a29f 393f 2557 983f 781f b93f 18fe 65c0
00000040: 875b 26bf 5913 583f 58da 2740 0442 a83e

exp_avg_sq f4 [20]
253.9327 103.08702 274.46307 131.44757 86.969696 96.95919 122.55728 808.6488
609.66223 1390.006 223.8528 84.31144 767.44946 280.2773 254.80916 906.4581
135.52103 120.854965 506.19608 296.84882
00000000: c5ee 7d43 8e2c ce42 463b 8943 9472 0343
00000010: 7cf0 ad42 1beb c142 541d f542 8629 4a44
00000020: 626a 1844 31c0 ad44 51da 5f43 759f a842
00000030: c4dc 3f44 7f23 8c43 25cf 7e43 529d 6244
00000040: 6285 0743 beb5 f142 1919 fd43 a66c 9443
