three_body/params.pth (torch_old, 23269 bytes, 42 tensors)

F.cur.0.linears.0.weight f4 [20, 5]
-0.027915478 -0.1504538 -0.12791772 -0.028207129 -0.04980657 -0.095646225 0.08740527 -0.017841138
-0.07766034 0.023847349 -0.034085166 0.006403972 0.1277709 -0.12281173 0.040857647 0.16549918
-0.013932608 -0.033046544 0.19542833 0.10422978 0.064207755 -0.14925519 -0.18470943 -0.047693484
-0.11344515 0.06749209 -0.0165537 -0.0056026033 0.07076967 0.13849916 0.050825186 -0.060426667
0.089915045 -0.01620372 -0.09299751 -0.1320023 -0.14642176 -0.008081024 0.17580917 0.019327825
0.087392 0.022222416 -0.026864724 -0.0759808 -0.09238673 -0.071271196 0.0155329425 0.0042773397
0.048508093 0.009328727 0.03726998 0.10979826 0.172661 -0.056253467 0.038855862 -0.1082622
-0.07124278 -0.026113588 -0.14741553 -0.056587536 0.30135956 0.20617346 0.13707733 -0.040893916
0.006729397 0.14869368 -0.0053673997 -0.0033437675 -0.20949364 0.06962839 0.018285118 0.17105716
-0.048567917 0.037508518 0.03409065 -0.03303103 0.11669914 -0.07425176 0.05278967 -0.09963729
0.044784468 0.07659253 -0.1010353 0.0061677997 -0.05374193 -0.12014587 -0.04024634 0.030959906
0.085784756 0.15777561 0.11772038 0.16562757 -0.009429291 -0.12673865 0.06001352 0.018411318
0.012452851 -0.0617865 0.14002514 0.0431853
00000000: 00af e4bc 9010 1abe ddfc 02be a312 e7bc
00000010: f901 4cbd 2be2 c3bd 8901 b33d 9427 92bc
00000020: 620c 9fbd 845b c33c e39c 0bbd 69d8 d13b
00000030: 60d6 023e b784 fbbd 595a 273d 9e78 293e
00000040: 9845 64bc d05b 07bd 5d1e 483e 6c76 d53d
00000050: 5b7f 833d 5ad6 18be 7824 3dbe 3e5a 43bd
00000060: ee55 e8bd 4b39 8a3d a09b 87bc 0b96 b7bb
00000070: b0ef 903d b9d2 0d3e 122e 503d f481 77bd
00000080: 6125 b83d aabd 84bc 7b75 bebd 9c2b 07be
00000090: 96ef 15be 4566 04bc 5207 343e 6355 9e3c
000000a0: 94fa b23d c90b b63c 6913 dcbc d29b 9bbd
000000b0: 4135 bdbd a2f6 91bd e27d 7e3c ed28 8c3b
000000c0: 6cb0 463d 84d7 183c 68a8 183d e9dd e03d
000000d0: 0cce 303e 096a 66bd 5327 1f3d 93b8 ddbd
000000e0: bce7 91bd 2aec d5bc 19f4 16be 55c8 67bd
000000f0: cd4b 9a3e 231f 533e 005e 0c3e 6180 27bd
00000100: 4682 dc3b 2843 183e 03e1 afbb 1c23 5bbb
00000110: 8085 56be 5499 8e3d acca 953c 9c29 2f3e
00000120: 27ef 46bd 88a2 193d a3a2 0b3d 8c4b 07bd
00000130: f5ff ee3d 4f11 98bd fb39 583d a30e ccbd
00000140: eb6f 373d 8bdc 9c3d 98eb cebd 411b ca3b
00000150: 7f20 5cbd 0a0f f6bd 59d9 24bd a19f fd3c
00000160: ebaf af3d ee8f 213e 6217 f13d 469a 293e
00000170: 507d 1abc c7c7 01be bdd0 753d 55d3 963c
00000180: 0b07 4c3c d713 7dbd c062 0f3e 12e3 303d

F.cur.0.linears.0.bias f4 [20]
0.005338875 0.0111658415 0.039921742 -0.055938184 -0.09787162 -0.030582616 0.048098095 0.08307094
-0.07274812 -0.083624884 0.06044252 -0.06402131 0.031613234 -0.034160394 -0.041423135 0.0060566165
-0.07958425 -0.0024613414 0.020535342 0.04658347
00000000: bbf1 ae3b eff0 363c fb84 233d 701f 65bd
00000010: ea70 c8bd 6588 fabc 8202 453d 1921 aa3d
00000020: f7fc 94bd 8643 abbd 9392 773d 9b1d 83bd
00000030: e17c 013d c5eb 0bbd 4eab 29bd 9576 c63b
00000040: 11fd a2bd 754e 21bb bc39 a83c 4fce 3e3d

F.nbr.0.linears.0.weight f4 [20, 10]
-0.025845008 -0.007512302 0.018435666 0.026217321 0.007735331 0.03204481 0.027258314 0.016621578
0.0458775 0.032503206 0.11134918 -0.07637551 -0.012873789 -0.034221336 0.11260408 -0.12830456
-0.07104382 -0.0091367075 0.1067139 0.026512336 -0.015256286 0.048065007 -0.0133374855 0.0582634
0.035630733 0.2394761 0.037626658 -0.0013635323 -0.16432963 0.10012567 0.032724194 0.036722556
-0.017446084 -0.12157429 -0.0771624 -0.1026168 -0.09557647 -0.11371374 -0.13514698 0.16668138
-0.0894426 -0.24909313 -0.008377178 0.19487704 -0.03562493 -0.043455515 -0.29128978 -0.10782409
0.02447736 -0.10190618 0.01042646 -0.07643366 -0.10601882 -0.041697796 -0.014663904 0.12796856
0.041664556 -0.025904186 -0.032909658 0.104651906 -0.013184744 0.052352145 0.010058229 -0.06364856
-0.047037546 -0.025657635 0.027912179 -0.04254277 -0.008589183 0.06935221 0.12598945 0.14683342
0.3479663 0.29484472 -0.10065509 -0.033967305 0.12329762 0.12198994 -0.039829217 -0.0125776855
-0.09963354 0.13129929 -0.034351837 -0.065549575 -0.020279834 0.012856702 -0.07624973 0.036432702
0.052460585 0.11170512 -0.010780066 0.06754064 0.02759633 0.026869312 -0.0679107 0.23455805
-0.02716705 0.07551027 -0.026596814 -0.08850271 0.035744574 0.13436155 0.0021373904 0.13027857
-0.07342119 -0.09163312 0.053086042 -0.12050237 0.049480177 0.027335003 -0.15123938 0.16748038
-0.033460494 0.039907202 0.21088193 0.1438525 -0.03825437 0.045510866 0.045391675 -0.009533892
0.11680435 -0.14725992 0.14348738 -0.04321104 -0.047224324 0.11150243 0.0046829986 -0.06277685
-0.05757349 -0.095564775 0.023978114 0.0013531158 0.044633374 0.07113552 -0.011862073 0.051699832
0.068568185 0.1441902 -0.07418618 0.13956285 -0.04946816 -0.033329003 -0.07470893 0.09535009
-0.16019197 0.099658035 0.22976407 -0.1564094 -0.13417616 0.009840035 -0.055830047 -0.01320742
-0.13695411 -0.0077646314 -0.18756199 0.09466052 -0.12684833 -0.10732085 0.17490418 0.2639903
-0.03602612 -0.04927053 -0.0910043 0.057161164 -0.17535165 0.13117242 -0.19077832 -0.030376079
-0.1608665 0.041001998 0.05255417 0.046408184 0.10435268 0.1477776 -0.038627155 -0.085513905
0.10503834 0.09226358 -0.078354076 -0.039287552 -0.14409742 -0.109994486 -0.10777749 -0.049374435
-0.105369255 0.0053696116 0.048780695 -0.19040965 -0.18749477 -0.061006743 -0.04787487 0.07348623
0.08905016 -0.05658554 0.20657663 0.18633065 -0.012470388 -0.15256125 0.06146059 0.03284713
00000000: e9b8 d3bc c229 f6bb 6506 973c b5c5 d63c
00000010: a978 fd3b 6b41 033d d44c df3c fa29 883c
00000020: 0cea 3b3d 1522 053d 0a0b e43d c36a 9cbd
00000030: 96ec 52bc ac2b 0cbd f89c e63d 4562 03be
00000040: 6c7f 91bd 21b2 15bc d18c da3d 6630 d93c
00000050: 80f5 79bc d0df 443d 7885 5abc 9aa5 6e3d
00000060: 88f1 113d 3939 753e 691e 1a3d 8db8 b2ba
00000070: 0746 28be b00e cd3d ce09 063d 646a 163d
00000080: 17eb 8ebc f1fb f8bd 5207 9ebd c228 d2bd
00000090: 99bd c3bd c0e2 e8bd f863 0abe 86ae 2a3e
000000a0: af2d b7bd 4512 7fbe 6e40 09bc d98d 473e
000000b0: 72eb 11bd 69fe 31bd ef23 95be e0d2 dcbd
000000c0: bf84 c83c 30b4 d0bd bed3 2a3c 4089 9cbd
000000d0: 6520 d9bd 4fcb 2abd df40 70bc 310a 033e
000000e0: 74a8 2a3d 0435 d4bc 47cc 06bd bd53 d63d
000000f0: d304 58bc 346f 563d 45cb 243c 2d5a 82bd
00000100: 71aa 40bd f62f d2bc 15a8 e43c 5441 2ebd
00000110: a5b9 0cbc 8808 8e3d 6103 013e 805b 163e
00000120: a428 b23e e3f5 963e 4124 cebd 4d21 0bbd
00000130: 7683 fc3d ddd5 f93d f623 23bd a312 4ebc
00000140: ab0c ccbd 5273 063e 83b4 0cbd db3e 86bd
00000150: e521 a6bc eba4 523c d228 9cbd 753a 153d
00000160: e9e0 563d a7c5 e43d e09e 30bc bf52 8a3d
00000170: b311 e23c 081d dc3c c414 8bbd fc2f 703e
00000180: 6f8d debc 21a5 9a3d 90e1 d9bc e940 b5bd
00000190: e768 123d 1396 093e 7613 0c3b bf67 053e
000001a0: d95d 96bd 25aa bbbd c070 593d f2c9 f6bd
000001b0: baab 4a3d a8ed df3c 7fde 1abe fa7f 2b3e
000001c0: df0d 09bd bc75 233d 6ff1 573e 124e 133e
000001d0: 9db0 1cbd 9a69 3a3d 9fec 393d 0b34 1cbc
000001e0: 1e37 ef3d 4ecb 16be 5bee 123e 0ffe 30bd
000001f0: 4b6e 41bd 635b e43d d773 993b 2691 80bd
00000200: 2ed2 6bbd 77b7 c3bd c06d c43c 085b b13a
00000210: 7cd1 363d 80af 913d 2459 42bc 34c3 533d
00000220: 7a6d 8c3d 99a6 133e edee 97bd 90e9 0e3e
00000230: 209f 4abd fe83 08bd ff00 99bd e846 c33d
00000240: 5d09 24be 8319 cc3d 4647 6b3e c929 20be
00000250: 7a65 09be 1938 213c 0cae 64bd ef63 58bc
00000260: b33d 0cbe 736e febb 4010 40be 60dd c13d
00000270: 87e4 01be 09cb dbbd 151a 333e bd29 873e
00000280: 2090 13bd e5cf 49bd 7660 babd d321 6a3d
00000290: 628f 33be 1052 063e 645b 43be 41d7 f8bc
000002a0: 30ba 24be b6f1 273d 0b43 573d 8216 3e3d
000002b0: dcb6 d53d 0353 173e 8237 1ebd ea21 afbd
000002c0: 571e d73d b0f4 bc3d 1a78 a0bd fceb 20bd
000002d0: 468e 13be ca44 e1bd 72ba dcbd d93c 4abd
000002e0: d6cb d7bd 91f3 af3b 44ce 473d bffa 42be
000002f0: a1fe 3fbe 35e2 79bd 7118 44bd f37f 963d
00000300: ee5f b63d 3dc6 67bd d388 533e 76cd 3e3e
00000310: 9950 4cbc 0439 1cbe 1abe 7b3d b68a 063d

F.nbr.0.linears.0.bias f4 [20]
0.074177586 -0.009574209 -0.07494895 -0.04065171 0.004040778 0.0146670705 0.023388699 -0.09593837
0.03674657 0.027039988 0.016575744 -0.03916417 -0.082223386 0.08377039 0.06368507 0.085707836
-0.028983988 0.027557831 -0.032652248 -0.036648802
00000000: 6bea 973d 25dd 1cbc d67e 99bd 6882 26bd
00000010: 8168 843b 274e 703c a899 bf3c 567b c4bd
00000020: 9283 163d f782 dd3c dbc9 873c 9c6a 20bd
00000030: bc64 a8bd cf8f ab3d 516d 823d 9787 af3d
00000040: d46f edbc f6c0 e13c 5dbe 05bd 0e1d 16bd

F.out.weight f4 [5, 40]
0.033720706 -0.04749177 -0.12297557 0.027225431 -0.15899162 0.10189794 -0.14376336 0.04209988
-0.15597089 -0.08708758 0.057229713 -0.10316529 -0.07501557 -0.18446024 -0.18110217 -0.02578927
-0.09969812 0.09353022 -0.018027456 -0.010499873 0.07328548 0.0015276809 0.05101074 0.011447469
0.17890593 0.110318795 0.22066537 0.08788418 -0.009792919 -0.03476444 0.074075885 0.06582208
-0.12844376 0.040921662 0.08691018 0.11729435 0.022777554 -0.08571385 0.20997797 -0.047688298
0.06749634 0.066760816 0.18119939 -0.059872236 -0.045373242 0.038464278 0.052575596 -0.058708385
0.00997905 -0.15268734 -0.07541188 0.043335628 -0.0136665655 0.027061606 0.06906209 0.038453072
-0.05091462 0.011377534 0.023751533 0.08931721 -0.18700537 0.025412308 -0.030539842 -0.13252081
0.044960074 0.23949042 -0.047875423 0.06173559 -0.07276721 0.0102041755 0.1945009 0.09053366
0.025091734 -0.22446461 0.014759616 -0.0541839 0.16017415 0.048062474 0.0348262 -0.12766181
0.03100578 -0.00390993 -0.124681145 0.14892237 -0.1168412 0.083367065 0.07027362 -0.04754568
-0.061822865 0.04417193 0.020104911 0.1820569 0.17198499 -0.07962207 0.22069329 0.08935133
-0.049639005 -0.07878372 0.2538457 0.21077624 0.007911711 -0.0081280405 -0.025315367 0.0018488423
0.099793434 -0.0065915873 -0.012392329 -0.059046347 -0.0055189324 0.29660028 0.020070907 -0.04808343
0.024152081 0.008024626 0.17828259 0.21488996 0.03426327 0.0979156 -0.21901745 -0.06148881
-0.2182728 0.037506834 0.018855063 -0.064651184 0.027226048 -0.013582474 0.16894096 0.027801389
0.19750656 -0.19655553 0.14274888 -0.037583105 0.08501804 0.12446164 -0.103833556 0.20117737
-0.025247568 -0.17034583 -0.08154955 0.13412973 -0.15396053 0.042604197 -0.111187235 0.037239723
0.043247145 -0.0062463563 -0.06529608 -0.09061182 -0.032651972 0.10598923 -0.1418877 0.21542385
0.12893993 0.08633852 0.076422244 0.063986585 -0.0037275043 0.032544363 0.08876577 -0.057055052
-0.048490968 0.12527293 -0.11515311 0.029222209 -0.029114177 0.0146817 -0.05903956 -0.06689744
0.16976875 0.08892979 -0.1270625 -0.09959624 0.014478608 -0.057845283 0.0626738 0.057147164
-0.12151023 0.060635738 0.17641707 -0.10176364 0.05326473 0.06249941 -0.05327904 -0.021687504
-0.037087142 0.10412556 0.13606305 -0.06697158 0.05629181 -0.09732279 -0.18074724 -0.0853703
-0.008224204 0.18895207 0.021344861 0.15234691 0.047532827 0.112985276 0.1594877 -0.04340469
00000000: b91e 0a3d bb86 42bd 9eda fbbd de07 df3c
00000010: b3ce 22be deaf d03d b436 13be ec70 2c3d
00000020: d5b6 1fbe f95a b2bd b469 6a3d 5348 d3bd
00000030: c3a1 99bd 25e3 3cbe d972 39be 0544 d3bc
00000040: 872e ccbd c68c bf3d 51ae 93bc a907 2cbc
00000050: b316 963d 773c c83a a3f0 503d 2a8e 3b3c
00000060: 1e33 373e d2ee e13d 1af6 613e 9ffc b33d
00000070: 7b72 20bc 2865 0ebd 19b5 973d bacd 863d
00000080: c386 03be 799d 273d f7fd b13d 0538 f03d
00000090: fe97 ba3c be8a afbd 7704 573e ce54 43bd
000000a0: 853b 8a3d e5b9 883d 558c 393e 973c 75bd
000000b0: 4bd9 39bd b88c 1d3d 8259 573d 3478 70bd
000000c0: 2b7f 233c 125a 1cbe 8b71 9abd b380 313d
000000d0: bbe9 5fbc 4db0 dd3c 6d70 8d3d f880 1d3d
000000e0: d98b 50bd d668 3a3c 9392 c23c f1eb b63d
000000f0: 567e 3fbe 792d d03c b12e fabc 89b3 07be
00000100: 0e28 383d fa3c 753e 0519 44bd 75de 7c3d
00000110: fa06 95bd 6a2f 273c 3e2b 473e b669 b93d
00000120: 2e8d cd3c 0dda 65be 51d2 713c f0ef 5dbd
00000130: b104 243e 28dd 443d eba5 0e3d c7b9 02be
00000140: d5ff fd3c df1e 80bb d458 ffbd 1b7f 183e
00000150: 704a efbd 5abc aa3d 9eeb 8f3d 42bf 42bd
00000160: f939 7dbd a0ed 343d 0eb3 a43c 206d 3a3e
00000170: d51c 303e e510 a3bd 6cfd 613e d5fd b63d
00000180: 4552 4bbd 5c59 a1bd 10f8 813e bad5 573e
00000190: 1fa0 013c 792b 05bc 2c62 cfbc da54 f23a
000001a0: 8060 cc3d 3efe d7bb 3209 4bbc 95da 71bd
000001b0: 29d8 b4bb fedb 973e be6b a43c 21f3 44bd
000001c0: 96da c53c b979 033c b68f 363e 1d0c 5c3e
000001d0: a557 0c3d f987 c83d 1c46 60be b1db 7bbd
000001e0: e882 5fbe c4a0 193d ef75 9a3c d767 84bd
000001f0: 2909 df3c 0689 5ebc dcfe 2c3e bdbf e33c
00000200: 293f 4a3e da45 49be c32c 123e bef0 19bd
00000210: f01d ae3d bfe5 fe3d b0a6 d4bd 7101 4e3e
00000220: fdd3 cebc 236f 2ebe 7303 a7bd 4e59 093e
00000230: d4a7 1dbe bd81 2e3d 22b6 e3bd ae88 183d
00000240: eb23 313d 3cae ccbb f4b9 85bd b192 b9bd
00000250: 13be 05bd e210 d93d 024b 11be 1298 5c3e
00000260: d408 043e 40d2 b03d 4483 9c3d 660b 833d
00000270: 2549 74bb 3d4d 053d d4ca b53d 8fb2 69bd
00000280: 779e 46bd 8c47 003e 65d5 ebbd 6a63 ef3c
00000290: db80 eebc 838b 703c 77d3 71bd 8601 89bd
000002a0: dcd7 2d3e d220 b63d ac1c 02be 1df9 cbbd
000002b0: af37 6d3c 2def 6cbd 1f5b 803d 2513 6a3d
000002c0: 5bda f8bd 2e5d 783d ada6 343e 7569 d0bd
000002d0: 1e2c 5a3d 62ff 7f3d 1f3b 5abd fea9 b1bc
000002e0: b0e8 17bd c83f d53d 1d54 0b3e 6528 89bd
000002f0: 3e92 663d 2c51 c7bd ce15 39be a0d6 aebd
00000300: d0be 06bc a77c 413e 6bdb ae3c d400 1c3e
00000310: c8b1 423d d364 e73d be50 233e 1ec9 31bd

F.out.bias f4 [5]
-0.08296612 0.01602871 -0.043627407 0.024830747 -0.054378975
00000000: 24ea a9bd a44e 833c a7b2 32bd da69 cb3c
00000010: 7dbc 5ebd

i2h.linears.0.weight f4 [20, 22]
-0.12757002 0.13840751 0.27504152 0.046240732 0.04890275 -0.08317125 0.073089525 -0.009935486
0.21508834 0.008215739 -0.11593438 -0.018410295 0.05092596 -0.058025833 0.054133262 -0.05766371
0.089300685 0.086333156 -0.19747935 -0.11791629 0.045326166 -0.051854696 -0.03283643 -0.07917728
-0.022203863 0.26232275 0.14964463 0.09534402 -0.032549705 0.015333733 -0.055724446 0.070938826
0.039034348 0.057766646 0.116886154 -0.091560155 -0.12482168 0.06515825 0.027699351 0.028314974
-0.02449872 0.038549773 -0.061643224 -0.023529336 -0.016772585 0.07671621 -0.0449673 -0.18090227
0.016244018 -0.06200191 -0.1975267 -0.08961489 0.07244618 0.03141601 0.07967696 0.012558997
0.03213838 -0.1829212 0.12300215 0.033486478 -0.12738894 0.049928356 -0.021695156 -0.20048931
0.0683508 0.097873375 0.08034564 0.06921746 -0.038438816 -0.0060017803 0.16231906 -0.050240155
0.092099816 0.06989093 0.0037774278 -0.19951756 -0.019314835 -0.24194162 -0.12116482 -0.22814146
-0.05630223 -0.12943393 -0.19535032 -0.057405498 0.0025376608 -0.108535975 0.0143730715 -0.004266458
-0.12984951 0.0037265387 0.028393138 0.11043314 -0.17021352 0.012334032 -0.18558587 -0.08301767
0.1346764 -0.00906374 -0.0018860697 0.006366227 0.17832421 0.0045879213 -0.01047143 -0.05726249
0.09695533 -0.07715593 0.10858451 -0.036821686 0.05628403 -0.013909442 -0.12222384 -0.01816737
0.081026204 -0.06544877 0.09615201 0.043530855 0.090373605 0.035256244 -0.029973699 0.011945913
0.027547969 0.05262146 -0.12929575 -0.10251827 0.14842139 -0.05560071 -0.0475045 -0.16390404
-0.06027384 -0.14243202 -0.082504466 -0.056127805 -0.07559642 0.064049326 -0.0273615 0.058387347
0.09629991 0.070742644 0.17993456 -0.030844621 -0.08213974 0.025374163 0.03871403 0.022075532
0.05843802 0.054237206 -0.050044715 0.058863305 0.05240951 -0.051519923 -0.14875396 -0.029488264
-0.10566572 0.036021072 0.25966495 -0.03664806 -0.11671185 0.077460796 -0.0989375 0.2185161
0.04373626 0.1139499 0.18316653 0.024022194 -0.029284216 -0.053887047 -0.03828789 -0.15314597
0.025892116 0.032644566 0.09997098 -0.08275724 -0.049603134 -0.045052588 0.0898466 0.12581734
0.00055070437 -0.16809125 -0.030824304 0.004907484 0.046488527 -0.06206496 0.12452246 -0.042018812
0.02712689 -0.12546091 -0.034714382 0.054675132 -0.166616 -0.049468987 0.13245001 0.008274247
-0.041318636 0.051478583 -0.09444967 -0.06382224 -0.11945316 -0.11427473 -0.094380826 -0.06110066
-0.18744417 0.15230691 0.051358134 0.09067248 0.006710602 0.025452647 0.0970945 -0.07124981
0.04442507 -0.05715007 -0.11950712 -0.06193911 0.032066535 -0.114803284 -0.016521858 0.100244835
0.11037614 0.10602078 0.08632245 -0.112787716 -0.15194641 -0.13242613 0.09044819 -0.11854044
-0.026681174 0.14435975 0.023923883 0.012846558 0.046262927 -0.16523717 -0.27976444 -0.03367638
0.03241742 -0.20483124 0.049850296 0.008136874 -0.10518052 0.12977672 0.027538726 0.043915834
0.0430896 -0.037297327 0.073133275 -0.074648604 0.13337062 -0.16144127 -0.1402348 0.17092323
0.03127576 -0.07345411 -0.15311916 -0.051279217 0.10681269 0.118194655 0.051395506 0.16713485
00000000: b7a1 02be b3ba 0d3e 3ed2 8c3e ec66 3d3d
00000010: 404e 483d b055 aabd f6af 953d 73c8 22bc
00000020: 1e40 5c3e 4f9b 063c 016f edbd 30d1 96bc
00000030: bd97 503d 7fac 6dbd d7ba 5d3d c830 6cbd
00000040: 47e3 b63d 70cf b03d 0738 4abe 197e f1bd
00000050: eea7 393d 9765 54bd 7e7f 06bd b327 a2bd
00000060: e0e4 b5bc 2b4f 863e 713c 193e ba43 c33d
00000070: d752 05bd 563a 7b3c 513f 64bd 6048 913d
00000080: 7be2 1f3d b89c 6c3d 0262 ef3d e483 bbbd
00000090: 82a2 ffbd b071 853d c0e9 e23c cef4 e73c
000000a0: 8ab1 c8bc 5ee6 1d3d 9b7d 7cbd 98c0 c0bc
000000b0: a966 89bc 631d 9d3d a22f 38bd 723e 39be
000000c0: 2d12 853c b7f5 7dbd 7044 4abe 0388 b7bd
000000d0: aa5e 943d 13ae 003d ad2d a33d 40c4 4d3c
000000e0: 89a3 033d b24f 3bbe 8de8 fb3d 1e29 093d
000000f0: 3f72 02be ad81 4c3d 0aba b1bc 124d 4dbe
00000100: 81fb 8b3d d671 c83d 418c a43d e2c1 8d3d
00000110: 0572 1dbd 95aa c4bb f836 263e 9fc8 4dbd
00000120: d49e bc3d fa22 8f3d b98e 773b 554e 4cbe
00000130: 253a 9ebc 8bbf 77be 4325 f8bd ea9d 69be
00000140: 2b9d 66bd 548a 04be ea09 48be 0722 6bbd
00000150: e24e 263b 1c48 debd 087d 6b3c a5cd 8bbb
00000160: 45f7 04be f238 743b ba98 e83c c52a e23d
00000170: 744c 2ebe ae14 4a3c 390a 3ebe 2b05 aabd
00000180: 9ce8 093e 1580 14bc ff35 f7ba c89b d03b
00000190: 9f9a 363e 4656 963b 5c90 2bbc 138c 6abd
000001a0: 8490 c63d ee03 9ebd 8e61 de3d 56d2 16bd
000001b0: 158a 663d 6ee4 63bc 7e50 fabd bdd3 94bc
000001c0: 11f1 a53d 010a 86bd 58eb c43d 694d 323d
000001d0: cc15 b93d da68 103d 678b f5bc cab8 433c
000001e0: 47ac e13c 9a89 573d 1b66 04be 19f5 d1bd
000001f0: c7fb 173e 92bd 63bd 1494 42bd 76d6 27be
00000200: b4e1 76bd b3d9 11be 1af8 a8bd 45e6 65bd
00000210: 4cd2 9abd 4b2c 833d 3925 e0bc 9227 6f3d
00000220: e338 c53d 85e1 903d c440 383e dcad fcbc
00000230: e138 a8bd 7add cf3c 9a92 1e3d bfd7 b43c
00000240: b55c 6f3d d527 5e3d b0fb 4cbd a61a 713d
00000250: 5bab 563d 8e06 53bd f552 18be 5f91 f1bc
00000260: 4567 d8bd d58a 133d cef2 843e 471c 16bd
00000270: 9f06 efbd c4a3 9e3d be9f cabd afc2 5f3e
00000280: cb24 333d 915e e93d 0290 3b3e 31ca c43c
00000290: 74e5 efbc aab8 5cbd c3d3 1cbd 4cd2 1cbe
000002a0: b41b d43c 4fb6 053d 96bd cc3d a17c a9bd
000002b0: a82c 4bbd 1089 38bd 7f01 b83d 43d6 003e
000002c0: 255d 103a 1d20 2cbe 4083 fcbc f6ce a03b
000002d0: c16a 3e3d d437 7ebd a205 ff3d eb1b 2cbd
000002e0: 3639 de3c d378 00be ab30 0ebd 08f3 5f3d
000002f0: 629d 2abe fe9f 4abd faa0 073e b590 073c
00000300: bb3d 29bd 35db 523d d46e c1bd 3cb5 82bd
00000310: dca3 f4bd df08 eabd bc4a c1bd b044 7abd
00000320: 5df1 3fbe 58f6 1b3e e85c 523d 7eb2 b93d
00000330: 9ce4 db3b 1282 d03c 7bd9 c63d 6ceb 91bd
00000340: 10f7 353d 3116 6abd 26c0 f4bd ddb3 7dbd
00000350: 3358 033d fc1d ebbd d958 87bc 2a4d cd3d
00000360: e30c e23d 6c21 d93d d3c9 b03d 3ffd e6bd
00000370: d797 1bbe b79a 07be e73c b93d 55c5 f2bd
00000380: 7a92 dabc 0bd3 133e 05fc c33c 5f7a 523c
00000390: 327e 3d3d ef33 29be 493d 8fbe 3ef0 09bd
000003a0: 21c8 043d 48bf 51be d32f 4c3d 8650 053c
000003b0: e268 d7bd 30e4 043e e598 e13c 17e1 333d
000003c0: b87e 303d 15c5 18bd e6c6 953d 5ee1 98bd
000003d0: 4f92 083e dc50 25be b699 0fbe 8006 2f3e
000003e0: 031b 003d 1c6f 96bd 45cb 1cbe 280a 52bd
000003f0: 9dc0 da3d 0a10 f23d 1884 523d 6625 2b3e

i2h.linears.0.bias f4 [20]
0.04297372 -0.09017928 -0.08381175 0.09749822 -0.052109066 0.054936513 0.08927992 -0.02629566
-0.027061451 0.019522533 0.09102298 0.057775393 -0.000364904 -0.08185902 0.0065489295 0.08162972
0.015106571 -0.10650007 -0.061528273 -0.040234562
00000000: 3605 303d eaaf b8bd 7fa5 abbd 26ad c73d
00000010: 5170 55bd 1c05 613d 64d8 b63d ff69 d7bc
00000020: faaf ddbc b8ed 9f3c 426a ba3d e4a5 6c3d
00000030: 9650 bfb9 b4a5 a7bd 6798 d63b 7c2d a73d
00000040: 8d81 773c b51c dabd 1205 7cbd ffcc 24bd

h2o.linears.0.weight f4 [10, 20]
-0.065086745 -0.01572438 0.0070507308 -0.026401127 -0.05075947 -0.06363988 0.1653477 0.19052766
-0.0065681655 0.13959292 -0.034738768 0.09991714 0.0061404468 0.0050782 0.0503398 0.14800684
-0.033325166 -0.12356292 -0.058116373 -0.008610837 -0.09565892 -0.11190226 -0.05588861 0.004933579
-0.14541607 0.03764772 -0.0531539 -0.13278195 0.044888508 0.037281014 0.012086118 0.14416508
0.12491761 -0.035602625 -0.12546481 0.00752055 -0.09422984 0.061700106 -0.07939436 -0.017605472
0.15030846 -0.013281281 -0.05615043 -0.07783087 0.09260881 0.10202004 -0.047317162 0.080585875
-0.010845536 0.12191633 -0.059200667 -0.06258658 -0.10524082 0.05617141 -0.14580762 -0.039902475
-0.021194987 0.025190102 0.10009867 0.070644 -0.087045215 -0.096168235 0.062249653 0.15358004
-0.047840036 -0.047802977 -0.04990155 -0.13100438 -0.0677255 0.17743233 -0.1315163 0.112184204
0.027190933 -0.04448664 0.09479124 -0.028834037 -0.13827069 -0.101615965 -0.20744862 -0.004659346
-0.079402775 0.02934291 -0.0759946 -0.09584674 0.06268658 -0.041083496 0.08567613 0.15804578
0.06822607 -0.052027375 0.025089711 -0.1629741 0.1628318 0.0421421 -0.018786142 -0.07123047
0.055234462 -0.061303858 0.12993343 -0.04588639 0.031814743 0.070654474 0.12806492 0.047196962
0.078586936 -0.025442194 0.04479225 0.07665598 -0.15648845 -0.018529996 -0.06476873 -0.060458798
0.06049712 0.07033745 0.10335435 -0.07347663 0.0076253223 0.15079649 -0.21246764 -0.107047826
-0.0078066145 -0.11906059 0.08058976 -0.031228932 0.031646643 0.2997022 -0.026920782 -0.074130796
-0.15808903 0.07029597 -0.047969513 -0.13315904 0.10776039 0.0734715 0.07396829 0.087584086
0.04324648 0.005573999 -0.0069503016 -0.06209049 0.1395982 0.11615797 -0.06534251 0.09642046
0.0650702 0.12072284 -0.04898965 0.045345593 -0.0071474994 -0.09159467 0.14991508 -0.16536579
0.062643975 -0.057197165 0.0452887 -0.044635307 0.15257077 -0.07543278 -0.19099164 0.046668388
-0.21220589 -0.023428299 0.07180122 0.027401846 0.017789187 0.16851602 -0.0074981563 -0.0047545647
0.18793434 -0.068739265 -0.08900191 -0.036886387 -0.064194694 -0.02202395 0.069620036 0.077771366
0.09704878 0.18085933 -0.13076593 0.34166083 0.10004092 0.054292444 0.025487108 0.091818124
0.16701718 -0.08929411 0.118436106 0.057919428 -0.06992631 -0.0702751 -0.05676155 0.1252134
-0.16406885 0.024721434 -0.021681756 0.11875048 0.08312838 -0.15230428 -0.10485512 -0.21310237
00000000: 334c 85bd 6ad0 80bc d109 e73b 2d47 d8bc
00000010: 29e9 4fbd a055 82bd e850 293e af19 433e
00000020: c439 d7bb 72f1 0e3e 3d4a 0ebd 5ca1 cc3d
00000030: cd35 c93b 0767 a63b 1b31 4e3d 1b8f 173e
00000040: f87f 08bd 8e0e fdbd 6f0b 6ebd 7814 0dbc
00000050: d3e8 c3bd 032d e5bd 75eb 64bd dca9 a13b
00000060: f3e7 14be 7f34 1a3d e7b7 59bd fef7 07be
00000070: 03dd 373d fab3 183d da04 463c 03a0 133e
00000080: ced4 ff3d 0fd4 11bd d979 00be f26e f63b
00000090: 93fb c0bd 40b9 7c3d 8399 a2bd 5a39 90bc
000000a0: 76ea 193e bb99 59bc fefd 65bd cb65 9fbd
000000b0: b0a9 bd3d e2ef d03d a4cf 41bd 350a a53d
000000c0: 7ab1 31bc 45af f93d 667c 72bd 652d 80bd
000000d0: 8088 d7bd fe13 663d 984e 15be c770 23bd
000000e0: 1ca1 adbc 795b ce3c 8800 cd3d cdad 903d
000000f0: c344 b2bd daf3 c4bd 7ef9 7e3d 1644 1d3e
00000100: eaf3 43bd 0ecd 43bd 9165 4cbd 0326 06be
00000110: abb3 8abd d2b0 353e 35ac 06be d5c0 e53d
00000120: 85bf de3c 9f37 36bd e921 c23d 5c35 ecbc
00000130: d596 0dbe 081c d0bd 696d 54be 6dad 98bb
00000140: ec9d a2bd 8b60 f03c 0fa3 9bbd 4c4b c4bd
00000150: d261 803d 2b47 28bd f876 af3d c1d6 213e
00000160: 1cba 8b3d a81a 55bd f088 cd3c afe2 26be
00000170: 61bd 263e 329d 2c3d 65e5 99bc 48e1 91bd
00000180: 883d 623d c119 7bbd 450d 053e 5ef3 3bbd
00000190: 2d50 023d 4bb3 903d 7323 033e 9a51 413d
000001a0: 30f2 a03d 266c d0bc 1478 373d cffd 9c3d
000001b0: 823e 20be 38cc 97bc 78a5 84bd a5a3 77bd
000001c0: d4cb 773d 150d 903d 72ab d33d ea7a 96bd
000001d0: d7dd f93b 656a 1a3e 1e91 59be e43b dbbd
000001e0: a1ce ffbb 0ad6 f3bd 3e0c a53d d1d3 ffbc
000001f0: e99f 013d 9172 993e f988 dcbc e3d1 97bd
00000200: 17e2 21be 55f7 8f3d ae7b 44bd d85a 08be
00000210: 7bb1 dc3d 3a78 963d b07c 973d 495f b33d
00000220: 3923 313d 18a6 b63b 5bbf e3bb 9952 7ebd
00000230: d5f2 0e3e 3be4 ed3d 4bd2 85bd 1778 c53d
00000240: 8643 853d 893d f73d 5fa9 48bd 4dbc 393d
00000250: 9235 eabb fd95 bbbd 5783 193e a655 29be
00000260: 7c4b 803d 9347 6abd a580 393d 83d3 36bd
00000270: 833b 1c3e 807c 9abd 5093 43be 5a27 3f3d
00000280: 804c 59be b4ec bfbc 850c 933d d679 e03c
00000290: a1ba 913c 778f 2c3e 18b3 f5bb 2ecc 9bbb
000002a0: dc71 403e 2cc7 8cbd a246 b6bd 2e16 17bd
000002b0: 8278 83bd 926b b4bc f394 8e3d 9846 9f3d
000002c0: 83c1 c63d 3033 393e 81e7 05be 2bee ae3e
000002d0: 41e2 cc3d c161 5e3d 57ca d03c 240b bc3d
000002e0: 8d06 2b3e d5df b6bd a18e f23d ec3c 6d3d
000002f0: 8635 8fbd 64ec 8fbd cd7e 68bd f137 003e
00000300: aa01 28be 9b84 ca3c f09d b1bc 7433 f33d
00000310: 363f aa3d a7f5 1bbe 48be d6bd 8237 5abe

h2o.linears.0.bias f4 [10]
-0.08742634 -0.09604112 0.042604316 0.015781008 0.08992976 -0.047033492 -0.015580205 0.03245233
0.06329493 -0.043037694
00000000: 950c b3bd 35b1 c4bd dd81 2e3d 2c47 813c
00000010: 182d b83d 31a6 40bd 1e44 7fbc bcec 043d
00000020: c6a0 813d 4b48 30bd

linears.0.weight f4 [20, 5]
-0.0746402 -0.09823204 0.0849043 0.03386816 0.19805396 0.043579496 0.046448994 0.040699907
-0.040934835 0.0072149555 0.11687266 -0.10147962 0.0874495 0.048785716 -0.104668 0.083701424
-0.012674177 -0.0071093366 0.03500748 0.031782806 0.28852698 0.26353866 0.04767953 0.0027953105
-0.01291519 -0.1869867 -0.11420307 -0.06533914 -0.12035458 0.2416097 -0.044562444 -0.092794076
0.16816412 -0.0008936023 -0.14935513 0.1339175 -0.026551917 -0.0056185564 -0.1134809 -0.033743747
0.15212347 0.075560935 -0.104431555 -0.17756326 0.05378242 -0.056580782 -0.1396979 0.0033452082
0.060504794 -0.013279703 0.11682565 0.08418347 0.1670642 -0.14411917 0.034325834 -0.04172888
-0.023026863 0.110249035 -0.09993082 -0.08150054 -0.16591313 0.006202473 -0.033616696 -0.19972092
-0.06371803 0.15561673 0.06620848 -0.028760543 -0.01180295 0.22361255 0.055521958 -0.19403186
0.1765687 0.19877003 0.15308896 -0.0889828 -0.13156255 -0.042513475 -0.05579018 0.100185074
-0.0001639839 -0.21702439 0.11984331 -0.0490798 0.1193538 -0.06837762 -0.021949768 0.09435829
-0.04618443 0.015883738 -0.09812463 0.05946179 0.254044 -0.05741626 -0.07045388 0.10983897
-0.006321885 0.0055947863 0.24861673 0.12170375
00000000: f6dc 98bd e12d c9bd 4ee2 ad3d 57b9 0a3d
00000010: a8ce 4a3e 6a80 323d 4d41 3e3d f2b4 263d
00000020: 49ab 27bd 6f6b ec3b ef5a ef3d 8cd4 cfbd
00000030: b918 b33d 88d3 473d 2d5c d6bd a76b ab3d
00000040: 5aa7 4fbc 70f5 e8bb 0164 0f3d b02e 023d
00000050: cfb9 933e 8aee 863e 9c4b 433d 8731 373b
00000060: 3c9a 53bc 7179 3fbe 4de3 e9bd 87d0 85bd
00000070: 767c f6bd 8868 773e 1c87 36bd d20a bebd
00000080: 3733 2c3e a340 6aba 8df0 18be ab21 093e
00000090: 6883 d9bc de1b b8bb ad68 e8bd e236 0abd
000000a0: 41c6 1b3e b1bf 9a3d 36e0 d5bd 25d3 35be
000000b0: f44a 5c3d 40c1 67bd f70c 0fbe 483b 5b3b
000000c0: e0d3 773d 1d93 59bc 4942 ef3d 6268 ac3d
000000d0: e112 2b3e fa93 13be 3f99 0c3d e7eb 2abd
000000e0: d5a2 bcbc 3fca e13d 88a8 ccbd c1e9 a6bd
000000f0: 22e5 29be 1d3e cb3b a9b1 09bd a483 4cbe
00000100: 997e 82bd fe59 1f3e 5098 873d 3b9b ebbc
00000110: 2961 41bc b0fa 643e fe6a 633d 4ab0 46be
00000120: 6dce 343e 5f8a 4b3e 5ac3 1c3e 9d3c b6bd
00000130: 55b8 06be 9c22 2ebd 3e84 64bd d52d cd3d
00000140: 18f3 2bb9 a43b 5ebe 6970 f53d e607 49bd
00000150: c46f f43d 9109 8cbd 00d0 b3bc eb3e c13d
00000160: e32b 3dbd 9d1e 823c 91f5 c8bd 358e 733d
00000170: 0e12 823e 502d 6bbd 204a 90bd 41f3 e03d
00000180: d127 cfbb 7854 b73b 6295 7e3e d13f f93d

linears.0.bias f4 [20]
-0.04281668 -0.028423136 0.06896319 0.029510282 -0.06618541 0.062218674 -0.032936722 0.023940176
-0.05218377 0.051474087 -0.03664286 -0.03184744 -0.07777105 -0.0125955595 -0.1045383 -0.021059528
-0.09963419 -0.040810138 -0.119574904 -0.0023624399
00000000: 8b60 2fbd a3d7 e8bc 933c 8d3d 8cbf f13c
00000010: 378c 87bd 02d9 7e3d a8e8 06bd 301e c43c
00000020: a6be 55bd 7ed6 523d d316 16bd 7672 02bd
00000030: 6e46 9fbd 9b5d 4ebc 2d18 d6bd 0885 acbc
00000040: 030d ccbd 8828 27bd b0e3 f4bd 2ad3 1abb

linears.1.weight f4 [2, 20]
0.10151318 0.010079399 -0.19753078 0.048136633 -0.029626347 -0.00012672476 0.08319375 -0.12793003
-0.12908024 -0.03479665 0.12822123 0.054306403 -0.17048751 0.021636056 0.08493273 0.020069348
-0.10250591 -0.006917041 -0.078199804 0.028036736 -0.20618042 -0.024098128 -0.11514598 -0.059610635
-0.050400287 -0.04341305 -0.09142774 -0.28322104 -0.04344505 0.0143911205 0.28198338 -0.020090612
-0.11957063 -0.091212004 -0.067654565 0.04470102 -0.012633313 0.20645154 -0.021576138 0.035010267
00000000: 24e6 cf3d 1024 253c 8245 4abe eb2a 453d
00000010: f4b2 f2bc 6be1 04b9 7c61 aa3d 1700 03be
00000020: 9c2d 04be ef86 0ebd 6d4c 033e 6470 5e3d
00000030: 4794 2ebe 193e b13c 36f1 ad3d 7968 a43c
00000040: 9eee d1bd 58a8 e2bb 3827 a0bd 4cad e53c
00000050: f620 53be 7069 c5bc a8d1 ebbd 482a 74bd
00000060: 8870 4ebd e2d1 31bd 783e bbbd 5902 91be
00000070: 70f3 31bd bcc8 6b3c 2060 903e 1195 a4bc
00000080: 72e1 f4bd 5ccd babd 7a8e 8abd 6b18 373d
00000090: f5fb 4ebc 0868 533e 71c0 b0bc ed66 0f3d

linears.1.bias f4 [2]
-0.08469495 0.05574271
00000000: 8c74 adbd 7852 643d

exp_avg f4 [20, 5]
-24.366928 30.906248 -47.928185 -35.32601 6.8558283 31.65789 -47.753334 -10.895659
-2.660815 80.11394 -148.04164 155.40033 -210.69926 -121.56784 -84.89388 32.516132
-31.542648 52.73323 26.05813 17.938421 3.3929772 -8.072692 2.1522043 -0.39325666
8.539643 1.080441 5.4580593 16.64336 7.456977 -14.577077 -55.98996 74.50012
-20.312475 -17.747303 -92.099525 -24.378521 38.7514 18.205053 4.875707 -68.63247
66.261894 -90.307304 37.88413 29.745384 93.295135 82.79953 -108.48712 -1.6981341
18.21101 154.04411 -51.71478 84.40144 54.832447 20.949293 -162.79158 -33.84601
57.41254 -7.0297785 -10.741406 -61.97178 15.807475 -7.253686 52.91479 26.348206
-21.110579 -28.120974 39.867725 -6.3034377 -9.647333 -50.189014 20.586206 -24.167452
-29.152994 -15.295325 74.08628 -2.724826 5.5264635 18.547665 9.784667 -26.214664
-25.846392 35.73683 2.3938599 -4.866447 -51.87518 31.830082 -55.818726 -31.704256
-12.01899 102.30876 59.766655 -83.02884 -16.648432 1.57284 135.13704 -89.74093
133.10304 -26.62098 -25.393436 -165.1363
00000000: 78ef c2c1 ff3f f741 76b6 3fc2 d64d 0dc2
00000010: f262 db40 5c43 fd41 6a03 3fc2 9f54 2ec1
00000020: cb4a 2ac0 563a a042 a90a 14c3 7c66 1b43
00000030: 03b3 52c3 bc22 f3c2 abc9 a9c2 8510 0242
00000040: 5857 fcc1 d4ee 5242 0d77 d041 e381 8f41
00000050: 8a26 5940 bf29 01c1 b7bd 0940 f058 c9be
00000060: 61a2 0841 e44b 8a3f 6ca8 ae40 9a25 8541
00000070: 8e9f ee40 b53b 69c1 b8f5 5fc2 1000 9542
00000080: f37f a2c1 7afa 8dc1 f532 b8c2 3607 c3c1
00000090: 6f01 1b42 f3a3 9141 cb05 9c40 d343 89c2
000000a0: 1786 8442 579d b4c2 5989 1742 8cf6 ed41
000000b0: 1c97 ba42 5c99 a542 68f9 d8c2 755c d9bf
000000c0: 26b0 9141 4b0b 1a43 efdb 4ec2 8acd a842
000000d0: 6d54 5b42 2798 a741 a5ca 22c3 5062 07c2
000000e0: 71a6 6542 f2f3 e0c0 cddc 2bc1 1ae3 77c2
000000f0: 6beb 7c41 321e e8c0 bfa8 5342 20c9 d241
00000100: 77e2 a8c1 c1f7 e0c1 8d78 1f42 c3b5 c9c0
00000110: 7a5b 1ac1 8dc1 48c2 8db0 a441 f156 c1c1
00000120: 5539 e9c1 a7b9 74c1 2d2c 9442 8d63 2ec0
00000130: cad8 b040 9e61 9441 ff8d 1c41 a2b7 d1c1
00000140: 69c5 cec1 84f2 0e42 0035 1940 efb9 9bc0
00000150: 2f80 4fc2 02a4 fe41 6046 5fc2 51a2 fdc1
00000160: c84d 40c1 169e cc42 0e11 6f42 c40e a6c2
00000170: fd2f 85c1 d252 c93f 1523 0743 5b7b b3c2
00000180: 611a 0543 c4f7 d4c1 c225 cbc1 e522 25c3

exp_avg_sq f4 [20, 5]
5.9079544e+07 1.0639735e+08 8.913114e+06 1.1126199e+07 1.3604678e+08 9.426263e+06 4.3106516e+07 540442.3
92715.484 7.221556e+07 1.3042149e+09 1.5876237e+09 9.010625e+08 4.0546666e+08 1.5867429e+09 4.3423364e+07
5.350786e+07 3.740238e+07 1.665427e+07 5.1746856e+07 267912.44 1.0110512e+06 349108.53 4731.5244
3.1145988e+06 1.8855706e+06 1.2592379e+06 3.0274412e+06 1.2513906e+06 636607.8 1.7282e+07 6.760104e+07
4.2588665e+06 1.195796e+06 1.0867988e+08 91754.6 6.6701455e+06 3.5271068e+06 1.0849325e+06 2.0352408e+07
6.430223e+07 1.7315062e+08 1.2998688e+07 5.94075e+06 2.2010312e+08 2.9422054e+07 1.2198006e+08 6.8627075e+06
3.5843108e+06 2.0774683e+08 3.6230038e+06 1.5393463e+07 3.087727e+07 1.686799e+07 8.31036e+07 1.5986874e+07
8.921199e+07 816399.7 207817.39 1.29953416e+08 6.821323e+07 5.0672824e+07 7.140658e+07 3.1332994e+07
2.8621906e+07 3.721338e+07 7.070827e+07 1.1987217e+07 6.4152855e+06 1.0191486e+08 259248.47 215726.77
164896.25 188393.81 1.1313021e+06 88751.35 189740.94 59682.863 88308.84 465683.7
9.425936e+06 3.483559e+07 57207.266 248265.2 6.720665e+07 299058.28 1.9511656e+07 1.4853166e+07
4.8640275e+06 7.113221e+07 6.5964004e+07 1.6061267e+08 3.1684448e+06 2.9953702e+06 3.177638e+08 2.5147882e+08
5.2305805e+08 5.114721e+07 3.8644812e+07 8.097963e+08
00000000: de5e 614c d5ef ca4c da00 084b b7c5 294b
00000010: 8cbe 014d 57d5 0f4b 3570 244c a5f1 0349
00000020: be15 b547 81bd 894c 7b79 9b4e 6e42 bd4e
00000030: 7ed4 564e 7157 c14d 8d27 bd4e a1a5 254c
00000040: c51d 4c4c c3ad 0e4c be1f 7e4b 0a66 454c
00000050: 0ed1 8248 b3d6 7649 9176 aa48 32dc 9345
00000060: 9b19 3e4a 152c e649 2fb7 9949 c5c7 384a
00000070: f5c1 9849 fd6b 1b49 e8d9 834b 52f0 804c
00000080: 65f8 814a a0f8 9149 594a cf4c 4d35 b347
00000090: 838e cb4a 0b47 574a 2470 8449 cc46 9b4b
000000a0: 264b 754c 1a21 254d 2058 464b 1c4c b54a
000000b0: 1de8 514d f378 e04b 94a8 e84c e76e d14a
000000c0: dbc4 5a4a 711f 464d 6f21 5d4a b7e2 6a4b
000000d0: 2b93 eb4b 4bb1 804b ee81 9e4c baf0 734b
000000e0: 8b28 aa4c fb50 4749 59f2 4a48 d1dd f74c
000000f0: 3e1b 824c 2e4d 414c 7e32 884c 410d ef4b
00000100: 295e da4b 31f5 0d4c 86dd 864c 11e9 364b
00000110: 6bc7 c34a 1e63 c24c 1e2c 7d48 b1ab 5248
00000120: 1008 2148 74fa 3748 3119 8a49 ad57 ad47
00000130: 3c4b 3948 dd22 6947 6c7a ac47 7662 e348
00000140: 10d4 0f4b 22e3 044c 4477 5f47 4d72 7248
00000150: bf2f 804c 4906 9248 b4dc 944b 2ea4 624b
00000160: 3770 944a 86ac 874c f9a1 7b4c 142c 194d
00000170: f362 414a a9d2 364a 8785 974d 32d4 6f4d
00000180: dc69 f94d 721c 434c 136b 134c 0b12 414e

exp_avg f4 [20]
14.981336 32.525135 -20.74788 7.819092 7.5511527 -7.4513993 -36.43616 -26.52243
31.573978 54.25796 -66.91768 -22.548481 -13.129182 -18.314135 33.413887 -16.802835
-16.546238 45.76998 50.253456 -70.3911
00000000: 8db3 6f41 bd19 0242 a9fb a5c1 0036 fa40
00000010: 0ba3 f140 dd71 eec0 a1be 11c2 f02d d4c1
00000020: 8297 fc41 2708 5942 dad5 85c2 4a63 b4c1
00000030: 2111 52c1 5983 92c1 d2a7 0542 356c 86c1
00000040: b25e 84c1 7614 3742 8a03 4942 3ec8 8cc2

exp_avg_sq f4 [20]
287433.22 3.228811e+07 7.526721e+07 6.513956e+06 76233.81 239687.17 5.8637716e+07 1.30198e+07
3.9841864e+07 1.1557053e+08 1.03133624e+08 4.454763e+07 2.9846618e+06 2.1468732e+07 1.1148367e+07 7.26365e+06
2.313481e+07 6.390197e+07 9.064724e+07 1.6585296e+08
00000000: 2759 8c48 b756 f64b 918f 8f4c 48ca c64a
00000010: e8e4 9447 cb11 6a48 65af 5f4c 98aa 464b
00000020: 12fc 174c ec6e dc4c 37b6 c44c 8cef 294c
00000030: 572b 364a 1ecb a34b 4f1c 2a4b 44ab dd4a
00000040: 2d81 b04b 44c4 734c 59e5 ac4c 722b 1e4d

exp_avg f4 [20, 10]
440.97314 -505.00146 434.65616 280.7103 442.1606 431.60013 -524.87354 429.6408
272.24332 452.60623 171.31183 -224.69382 182.38115 109.23832 188.1081 168.65366
-223.51343 184.55243 107.56726 186.40157 -126.4751 156.387 -167.96596 -105.075806
-85.10118 -125.684204 152.33229 -167.32425 -107.550766 -84.271286 -14.135346 36.104923
42.50943 44.42682 -119.55141 -12.681938 37.271496 48.278595 49.145226 -124.13068
-128.1348 249.89458 129.04422 38.674442 -413.80124 -118.50688 258.14337 156.63748
58.850266 -430.491 70.17726 -150.67728 -46.08559 -41.93994 264.32648 73.48383
-142.69185 -49.159943 -42.989895 266.0817 197.13405 -295.90533 -0.42017457 48.763214
382.4414 196.24068 -301.20154 -20.767765 45.16981 396.62308 -303.67368 320.9231
-473.12946 -263.6053 -150.61147 -298.06393 324.66708 -456.90277 -261.0672 -160.6905
169.5555 -243.71596 20.931862 56.546528 300.36914 165.78448 -253.92336 21.36778
51.252308 304.44492 -280.19113 450.4771 44.83496 -39.964756 -633.53296 -286.09265
469.1145 22.919262 -23.57053 -624.6438 -228.95123 309.35736 -30.356556 -94.97768
-340.83347 -214.68575 318.9898 29.68578 -83.436165 -378.737 -287.87845 435.7137
7.1664724 -26.125784 -647.10925 -286.1217 466.7151 32.9143 -18.829655 -669.1157
-51.47681 70.966484 16.599749 1.6806973 -121.940575 -50.83557 72.98486 19.953674
6.6605816 -123.13315 1012.16315 -1137.198 1403.239 818.0589 683.6292 997.1705
-1155.6436 1407.5398 813.9033 687.34656 -34.457146 73.13024 22.809444 21.077265
-134.63918 -29.834723 68.95564 51.742386 36.511524 -152.5707 318.88406 -429.91574
292.4285 231.51118 331.84784 323.72302 -425.8224 314.53622 233.00517 317.17136
-16.225143 2.393011 -118.43351 -73.7679 105.60179 -12.05596 4.5668726 -120.64002
-78.898834 107.49137 238.15533 -274.28033 177.75288 116.28247 304.59567 226.29431
-275.50034 171.02908 97.702866 309.04364 70.18169 -148.29604 4.1478887 4.1207895
178.18117 70.37037 -138.81795 -18.964933 0.5772163 188.36699 6.3678274 -8.431281
2.2977126 6.050693 7.9416237 2.3299546 -14.512072 -0.18372348 0.7486653 11.269703
00000000: 907c dc43 3080 fcc3 fd53 d943 eb5a 8c43
00000010: 8f14 dd43 d1cc d743 e837 03c4 06d2 d643
00000020: 251f 8843 994d e243 d44f 2b43 9eb1 60c3
00000030: 9361 3643 057a da42 ac1b 3c43 56a7 2843
00000040: 7083 5fc3 6c8d 3843 7022 d742 cd66 3a43
00000050: 40f3 fcc2 1263 1c43 49f7 27c3 d026 d2c2
00000060: ce33 aac2 505e fbc2 1155 1843 0253 27c3
00000070: fe19 d7c2 e68a a8c2 612a 62c1 716b 1042
00000080: a809 2a42 10b5 3142 521a efc2 38e9 4ac1
00000090: 0316 1542 481d 4142 b694 4442 e842 f8c2
000000a0: 8222 00c3 03e5 7943 520b 0143 a1b2 1a42
000000b0: 8fe6 cec3 8603 edc2 5a12 8143 32a3 1c43
000000c0: ac66 6b42 d93e d7c3 c25a 8c42 62ad 16c3
000000d0: a557 38c2 80c2 27c2 ca29 8443 b9f7 9242
000000e0: 1db1 0ec3 c8a3 44c2 a7f5 2bc2 750a 8543
000000f0: 5122 4543 e2f3 93c3 1f21 d7be 880d 4342
00000100: 8038 bf43 9d3d 4443 cc99 96c3 6224 a6c1
00000110: e3ad 3442 c14f c643 3bd6 97c3 2876 a043
00000120: 9290 ecc3 7acd 83c3 899c 16c3 2f08 95c3
00000130: 6355 a243 8e73 e4c3 9a88 82c3 c5b0 20c3
00000140: 358e 2943 49b7 73c3 7474 a741 a52f 6242
00000150: 402f 9643 d4c8 2543 61ec 7dc3 37f1 aa41
00000160: 5d02 4d42 f338 9843 7718 8cc3 123d e143
00000170: 0057 3342 e9db 1fc2 1c62 1ec4 dc0b 8fc3
00000180: a88e ea43 a65a b741 7290 bcc1 3429 1cc4
00000190: 84f3 64c3 bead 9a43 3ada f2c1 92f4 bdc2
000001a0: af6a aac3 8daf 56c3 b27e 9f43 7a7c ed41
000001b0: 51df a6c2 565e bdc3 71f0 8fc3 5bdb d943
000001c0: be53 e540 9b01 d1c1 fec6 21c4 940f 8fc3
000001d0: 885b e943 3ea8 0342 22a3 96c1 6847 27c4
000001e0: 41e8 4dc2 d7ee 8d42 49cc 8441 1721 d73f
000001f0: 93e1 f3c2 a057 4bc2 40f8 9142 20a1 9f41
00000200: 7c23 d540 2c44 f6c2 710a 7d44 5626 8ec4
00000210: a667 af44 c583 4c44 45e8 2a44 e94a 7944
00000220: 9874 90c4 46f1 af44 d079 4b44 2ed6 2b44
00000230: 1ed4 09c2 af42 9242 be79 b641 3d9e a841
00000240: a1a3 06c3 83ad eec1 4ae9 8942 34f8 4e42
00000250: cd0b 1242 1992 18c3 2971 9f43 37f5 d6c3
00000260: d936 9243 dd82 6743 86ec a543 8cdc a143
00000270: 44e9 d4c3 a344 9d43 5301 6943 ef95 9e43
00000280: 18cd 81c1 1827 1940 f5dd ecc2 2a89 93c2
00000290: 1e34 d342 36e5 40c1 d223 9240 b147 f1c2
000002a0: 34cc 9dc2 95fb d642 c427 6e43 e223 89c3
000002b0: bdc0 3143 a090 e842 3f4c 9843 584b 6243
000002c0: 0bc0 89c3 7207 2b43 de67 c342 9685 9a43
000002d0: 065d 8c42 c94b 14c3 81bb 8440 82dd 8340
000002e0: 612e 3243 a1bd 8c42 65d1 0ac3 2fb8 97c1
000002f0: 73c4 133f f35d 3c43 3ec5 cb40 87e6 06c1
00000300: b90d 1340 479f c140 c821 fe40 fa1d 1540
00000310: 7231 68c1 0222 3cbe 87a8 3f3f b450 3441

exp_avg_sq f4 [20, 10]
8.3688945e+09 1.2617736e+10 4.762385e+09 2.267762e+09 1.4985688e+10 8.2370893e+09 1.3104196e+10 4.549377e+09
1.9202432e+09 1.5366255e+10 4.0545938e+09 5.490172e+09 1.7408104e+09 9.640316e+08 6.463139e+09 3.9567503e+09
5.379459e+09 1.6727722e+09 9.477776e+08 6.512748e+09 3.831732e+09 4.1516682e+09 2.0015775e+09 1.0701553e+09
4.270192e+09 3.80498e+09 3.9903636e+09 2.001287e+09 1.1211196e+09 4.2103647e+09 3.3425954e+07 6.1796132e+07
1.0996676e+06 7.0804275e+06 1.0615469e+08 3.8941028e+07 6.1865948e+07 4.186668e+06 7.519621e+06 9.031854e+07
1.1749715e+07 4.3394336e+08 1.5845886e+08 3.9559916e+07 1.1582364e+09 1.9364916e+06 4.6322115e+08 4.6265635e+08
1.1068414e+08 1.587654e+09 2.0290238e+07 1.31304136e+08 3.5008493e+08 1.2577375e+08 5.722659e+08 2.3716246e+07
1.0505828e+08 3.900559e+08 1.2035827e+08 6.234907e+08 9.22289e+08 3.5751043e+09 4.610302e+07 3.789184e+07
6.095223e+09 8.900686e+08 3.6958144e+09 2.0807652e+06 1.8065616e+07 6.7177615e+09 6.5655685e+09 6.7208806e+09
6.0538496e+09 2.5489416e+09 5.241902e+09 6.353632e+09 6.591635e+09 5.3435233e+09 2.3570173e+09 5.5656965e+09
1.0787862e+09 2.5731446e+09 1.7018837e+08 1.2510452e+08 4.1900895e+09 1.0469038e+09 2.8397038e+09 1.2638328e+08
9.858493e+07 4.490325e+09 1.3772074e+09 4.0216584e+09 1.415519e+08 9.707621e+07 7.583143e+09 1.4277268e+09
4.432178e+09 1.0955598e+08 5.4498468e+07 8.101925e+09 4.895502e+08 1.9625724e+09 1.0427103e+08 5.4542572e+07
3.0871757e+09 2.9153866e+08 2.116622e+09 3.2795642e+07 2.432361e+06 4.2056425e+09 6.0916356e+07 1.1230103e+09
1.0886566e+08 2.4572288e+07 3.4782031e+09 9.12599e+07 1.4866099e+09 1.1843049e+08 6.6931716e+07 3.544801e+09
3.1697898e+08 1.1031654e+08 2.3547718e+08 1.4593005e+08 5.108391e+07 3.250594e+08 1.0531057e+08 3.1295622e+08
1.8732874e+08 3.8415984e+07 1.0270756e+11 1.2629101e+11 5.852803e+10 2.9616607e+10 1.3497678e+11 1.0189719e+11
1.25744456e+11 5.8599465e+10 2.825531e+10 1.34862774e+11 8.0819285e+06 3.8041508e+07 8.530541e+06 209970.81
6.404838e+07 1.4855175e+06 3.0795828e+07 1.1975086e+07 1.0517892e+07 1.5344549e+08 3.3733306e+10 4.075175e+10
1.6949539e+10 9.331992e+09 4.493582e+10 3.4151375e+10 4.112135e+10 1.7461619e+10 9.499498e+09 4.4634235e+10
3.8675504e+08 2.4855422e+08 3.3415862e+08 1.9150875e+08 1.8512587e+08 4.0096102e+08 2.5142858e+08 3.913605e+08
1.9499813e+08 1.5235342e+08 1.3838016e+09 2.1862374e+09 1.3477083e+09 4.8847597e+08 1.848948e+09 1.2149165e+09
2.1042464e+09 1.1172972e+09 3.6210957e+08 2.005817e+09 2.2097213e+08 1.4580325e+09 4.520786e+06 785436.1
2.4014638e+09 2.0782206e+08 1.1844445e+09 7.4976264e+07 1.0444954e+07 2.6508396e+09 2.2966428e+06 3.603076e+06
2.1960602e+07 3.898076e+06 2.3163885e+06 1.6191868e+06 8.563378e+06 5.495459e+06 616077.8 8.810022e+06
00000000: 9969 f94f d804 3c50 1dee 8d4f 4d2b 074f
00000010: dd4d 5f50 017c f54f 8a44 4350 fe94 874f
00000020: 2ce9 e44e 9cf9 6450 31ac 714f b09e a34f
00000030: 5185 cf4e d2d7 654e d69d c04f 38d7 6b4f
00000040: 0452 a04f f568 c74e c1f7 614e 5318 c24f
00000050: 9763 644f 6e75 774f 4c9b ee4e 1925 7f4e
00000060: f685 7e4f 63cb 624f 1ed8 6d4f 6f92 ee4e
00000070: dba5 854e 11f5 7a4f 1105 ff4b c9bb 6b4c
00000080: 9d3c 8649 d713 d84a 5879 ca4c 598c 144c
00000090: f7ff 6b4c b088 7f4a 0a7b e54a da44 ac4c
000000a0: 5349 334b 9aeb ce4d 3f1e 174d bbe8 164c
000000b0: 9212 8a4e 5d63 ec49 8de1 dc4d 9b9c dc4d
000000c0: fe1c d34c 5b43 bd4e 5fcd 9a4b 5971 fa4c
000000d0: faee a64d f7e4 ef4c 5770 084e cbf0 b44b
000000e0: fd61 c84c 3ffe b94d b090 e54c daa6 144e
000000f0: 0ee4 5b4e c317 554f 7bde 2f4c c08b 104c
00000100: dca6 b54f 7a35 544e a749 5c4f eaff fd49
00000110: 68d4 894b 7434 c84f 50ab c34f 404c c84f
00000120: 356b b44f c3ed 174f 8a38 9c4f 5e5a bd4f
00000130: 2f72 c44f d93f 9f4f 3b7d 0c4f e5de a54f
00000140: f199 804e 125f 194f e54d 224d 319e ee4c
00000150: b1bf 794f f099 794e 7142 294f 960e f14c
00000160: 2c09 bc4c 76d2 854f 092d a44e a3b5 6f4f
00000170: 92fe 064d 7e28 b94c cafe e14f c432 aa4e
00000180: d616 844f 22f6 d04c 29e5 4f4c c874 f14f
00000190: 8c6f e94d f5f4 e94e 97e1 c64c 3b10 504c
000001a0: 9002 384f 3704 8b4d 2d52 fc4e fd35 fa4b
000001b0: a475 144a 03ad 7a4f a160 684c 8edf 854e
000001c0: 10a5 cf4c c078 bb4b 2b51 4f4f 8010 ae4c
000001d0: bc37 b14e 63e3 e14c 0153 7f4c 5f49 534f
000001e0: b925 974d 8069 d24c 8c91 604d 742b 0b4d
000001f0: a2de 424c 1a00 9b4d 2ddd c84c aa3a 954d
00000200: 8ea6 324d 9c8b 124c c84e bf51 3f3c eb51
00000210: ae08 5a51 32a9 dc50 f269 fb51 5ecc bd51
00000220: a137 ea51 ce4c 5a51 ba84 d250 9533 fb51
00000230: 11a4 f64a e91d 114c 6d2a 024b b40c 4d48
00000240: 3f53 744c 6c56 b549 1af4 ea4b aeb9 364b
00000250: 847d 204b 4756 124d 2d55 fb50 e6cf 1751
00000260: 5c91 7c50 b90e 0b50 2366 2751 9472 fe50
00000270: 6030 1951 6519 8250 b68d 0d50 8646 2651
00000280: 4f6b b84d 2f0a 6d4d d956 9f4d 11a3 364d
00000290: bf8c 304d 7031 bf4d eec7 6f4d 809d ba4d
000002a0: f7f6 394d a94b 114d 46f6 a44e 564f 024f
000002b0: cba8 a04e 6aec e84d 6a69 dc4e 4fd4 904e
000002c0: 81d8 fa4e 3431 854e d4aa ac4d ad1c ef4e
000002d0: 46bc 524d 9fcf ad4e a4f6 894a c2c1 3f49
000002e0: 6e23 0f4f cf31 464d 6132 8d4e 8101 8f4c
000002f0: 9a60 1f4b 9a00 1e4f 0b2d 0c4a 10ea 5b4a
00000300: cd8b a74b 70eb 6d4a 9261 0d4a 96a7 c549
00000310: b2aa 024b 46b5 a74a dd68 1649 266e 064b

exp_avg f4 [20]
164.49533 72.900986 -14.954414 -80.58633 -181.92877 141.37631 136.19284 -41.084427
107.213135 -266.54706 -97.51472 -299.69977 -56.26534 219.90045 -96.53056 76.729004
54.64615 112.07451 87.06897 10.457013
00000000: ce7e 2443 4ecd 9142 4845 6fc1 332c a1c2
00000010: c4ed 35c3 5660 0d43 5e31 0843 7456 24c2
00000020: 206d d642 0646 85c3 8907 c3c2 92d9 95c3
00000030: b50f 61c2 84e6 5b43 a60f c1c2 4075 9942
00000040: a895 5a42 2626 e042 5023 ae42 ed4f 2741

exp_avg_sq f4 [20]
2.2583398e+09 2.8408966e+08 1.2450291e+07 4.127086e+06 7.4631686e+08 2.902401e+08 2.0057016e+09 1.0895119e+08
8.50505e+08 2.4263516e+09 1.86875e+09 2.59903e+09 1.7593568e+08 5.4331034e+09 1.8010573e+08 1.2866964e+09
1.8411846e+07 4.184546e+08 9.6366304e+08 3.643424e+07
00000000: 889b 064f ea76 874d f3f9 3d4b b8e5 7b4a
00000010: 91ef 314e b365 8a4d 2819 ef4e d3ce cf4c
00000020: b5c6 4a4e 309f 104f b9c5 de4e 0dea 1a4f
00000030: 0cc9 274d 4aeb a14f 20c3 2b4d dc62 994e
00000040: a378 8c4b e288 c74d 53c1 654e 50fc 0a4c
