three_body/params.pth (torch_old, 8729 bytes, 14 tensors)

F.cur.0.linears.0.weight f4 [20, 5]
0	0xbd1109f7	-0.035409894
1	0x3cd07104	0.025444515
2	0xbe6778f7	-0.22604738
3	0xbe6dc1b5	-0.23218425
4	0xbce4084f	-0.027835993
5	0xbafcc9af	-0.0019286181
6	0x3d51aca1	0.051190022
7	0xbd94d71b	-0.072675906
8	0x3dc27e77	0.094967775
9	0x3d994486	0.07483773
10	0x3cf24db3	0.029578065
11	0xbdc9446c	-0.098275036
12	0x3dd54204	0.10412982
13	0x3ddb56f2	0.10709943
14	0xbe1b469a	-0.15163651
15	0xbdd3f26e	-0.10348974
16	0x3dc183b3	0.09448948
17	0x3ca8355e	0.02053326
18	0x3ca7ce5e	0.020484146
19	0x3d125b88	0.035731822
20	0xbddbbf7b	-0.107298814
21	0x3e16b7ac	0.14718503
22	0x3e953a29	0.29145935
23	0xbd7274b4	-0.059193328
24	0x3de72770	0.11286819
25	0x3d3ba5d8	0.045812458
26	0xbde499b7	-0.11162131
27	0xbd2422fc	-0.040072426
28	0x3e8da940	0.2766819
29	0x3da427a7	0.080153756
30	0x3d2e262b	0.04251687
31	0x3c9ea17a	0.019364107
32	0xbe976969	-0.2957261
33	0xbe6aa91a	-0.2291607
34	0x3e8d0c4e	0.2754845
35	0xbd97000b	-0.07373055
36	0xbdff3c73	-0.12462702
37	0xbe07ed60	-0.13274145
38	0x3ceaa661	0.028643789
39	0xbe7fd674	-0.24984151
40	0x3dca4e83	0.09878256
41	0x3db8055d	0.08985398
42	0x3d74303d	0.059616316
43	0xbdbf410f	-0.09338581
44	0x3eb9f383	0.36318597
45	0x3c61303d	0.013744411
46	0x3d8558b4	0.065110594
47	0xbe0ddbef	-0.1385343
48	0xbd78d1cb	-0.06074695
49	0x3db62d23	0.08895328
50	0x3e58555b	0.2112631
51	0x3da64028	0.081177056
52	0xbe389d9d	-0.18028875
53	0xbcc805d5	-0.024416843
54	0xbd2e325c	-0.042528495
55	0x3ce668b2	0.028126094
56	0xbdd02f70	-0.10165298
57	0x3e7aacf2	0.24480036
58	0xbe683085	-0.22674759
59	0x3ecf1cfe	0.40451807
60	0xbd9ef410	-0.07761395
61	0x3c91eecb	0.01781406
62	0xbdf3edb4	-0.11910573
63	0xbd256b9c	-0.040385827
64	0xbd66fbf4	-0.056392625
65	0xbde587dc	-0.11207554
66	0x3cc2fa4b	0.02380099
67	0xbd26bee4	-0.04070939
68	0xbd2c7b1a	-0.042109586
69	0xbe50c33f	-0.2038698
70	0x3cf12804	0.029438026
71	0xbe528dc3	-0.2056189
72	0x3e437643	0.19088082
73	0x3c76c219	0.015060925
74	0x3e6f4e1b	0.23369639
75	0x3dd14e03	0.10219958
76	0x3d91986a	0.07109149
77	0xbdeaac77	-0.11458676
78	0x3e01e28d	0.12684079
79	0xbd811efe	-0.063047394
80	0xbdcd4516	-0.10022943
81	0xbe223073	-0.15838794
82	0xbd15b0d2	-0.036545582
83	0xbcba67e8	-0.022754624
84	0xbd94de8f	-0.07269012
85	0xbea7089f	-0.32623765
86	0xbe385b4a	-0.18003574
87	0xbde805f2	-0.11329259
88	0x3ceb05d1	0.028689297
89	0xbd16af53	-0.036788296
90	0x3da6829a	0.08130379
91	0x3d076e9a	0.033064462
92	0x3ea0beca	0.3139556
93	0x3e194fc8	0.1497184
94	0xbe406c69	-0.18791355
95	0xbd9e777f	-0.07737636
96	0xbc8aa1b1	-0.016922804
97	0xbd086da8	-0.0333077
98	0xbe2c48e8	-0.16824687
99	0x3e1f64aa	0.15565744

F.cur.0.linears.0.bias f4 [20]
0	0x3e26379e	0.16232154
1	0xbd82e42b	-0.06391176
2	0xbb7dc215	-0.0038720418
3	0x3d43e3dd	0.04782473
4	0x3e0549be	0.13016412
5	0xbc2887a5	-0.010286246
6	0x3d0f9545	0.035054464
7	0x3cfd2034	0.030899145
8	0x3ddd7a42	0.108143345
9	0xbe048e05	-0.12944801
10	0x3e117fc8	0.14208901
11	0xbe8af11c	-0.27137077
12	0xbd5975fd	-0.053091038
13	0xbd825a88	-0.06364924
14	0xbd994501	-0.074838646
15	0x3d5ec6d9	0.054388855
16	0x3dd16ca0	0.10225797
17	0xbe4aa4bd	-0.19789405
18	0xbe2979da	-0.16550389
19	0xbca01fbb	-0.01954638

F.nbr.0.linears.0.weight f4 [20, 10]
0	0x3c60ebdb	0.013728107
1	0x3dbdaec0	0.092618465
2	0x3dabd7db	0.083907805
3	0x3d873f00	0.06603813
4	0x3c11cfd9	0.008899652
5	0x3d26ee1e	0.04075443
6	0xbd3e1d0e	-0.046414427
7	0xbe6e449e	-0.23268363
8	0xbe1793c4	-0.14802462
9	0xbcd75399	-0.02628498
10	0x3c5ee303	0.0136039285
11	0xbe35d031	-0.177552
12	0x3cb70332	0.02234039
13	0xbcd5e92d	-0.026112163
14	0xbee74a81	-0.4517403
15	0x3c3a77ae	0.011381073
16	0x3dec167b	0.11527725
17	0x3dfbbfb2	0.12292422
18	0xbc836146	-0.016037595
19	0x3f129534	0.57258916
20	0x3d5283bb	0.05139516
21	0x3cf7ae0e	0.030234363
22	0xbe5c2780	-0.21499443
23	0xbe073a68	-0.13205874
24	0x3e286c33	0.16447525
25	0xbdbc7923	-0.092027925
26	0xbe531a85	-0.20615585
27	0xbc8065d2	-0.015673552
28	0x3d05bc22	0.03265012
29	0x3c6c09c9	0.01440663
30	0xbe52f0bb	-0.20599644
31	0xbe8f1429	-0.27945068
32	0xbd501452	-0.05080063
33	0xbe391085	-0.18072708
34	0x3de6ddfe	0.112728104
35	0xbe0a9960	-0.1353507
36	0xbdb0ff4e	-0.086424455
37	0xbcc5e36b	-0.024156293
38	0x3d85ead4	0.065389305
39	0xbd37a9de	-0.044839732
40	0x3d8519f6	0.06499092
41	0xbd01d1e9	-0.031694327
42	0xbecf30ce	-0.40466923
43	0xbbcae178	-0.0061914288
44	0xbd2e363b	-0.042532187
45	0x3d01010a	0.03149513
46	0xbdc1f34e	-0.09470235
47	0x3ea75366	0.32680815
48	0xbcbda634	-0.02315054
49	0x3ca1dd92	0.019758973
50	0x3e3201b6	0.17383465
51	0xbd827e5a	-0.06371756
52	0xbb7ed1aa	-0.0038882294
53	0x3dba87e3	0.091079496
54	0xbe9bd74f	-0.30437705
55	0xbe8008b4	-0.2500664
56	0x3d9ba267	0.07599335
57	0x3d05203c	0.032501444
58	0x3b06617f	0.002050489
59	0x3dcc745a	0.0998313
60	0x3e0145d5	0.12624295
61	0xbcaf2d63	-0.021383947
62	0x3f1a45de	0.6026286
63	0xbde439d6	-0.11143844
64	0xbe40b61d	-0.1881947
65	0x3e82b221	0.25526527
66	0xbcde4283	-0.027131325
67	0xbd9c2406	-0.076240584
68	0x3e627b93	0.22117452
69	0xbcc899c5	-0.024487386
70	0xbd879903	-0.066209815
71	0xbd9b6a18	-0.07588595
72	0xbd391433	-0.04518528
73	0x3d93b41d	0.07212088
74	0xbdc4ab19	-0.09602947
75	0x3cf5cc86	0.030004751
76	0x3adec67c	0.0016996409
77	0x3e8f2380	0.27956772
78	0xbd0d6435	-0.034519393
79	0x3e68cc12	0.22734097
80	0x3d5e6006	0.054290794
81	0x3d8a9207	0.06766134
82	0xbe16661a	-0.14687386
83	0xbe2e997f	-0.17050742
84	0x3e259564	0.16170269
85	0xbd204c8f	-0.039135512
86	0x3d911bb7	0.07085364
87	0x3cdc6ece	0.026908305
88	0x3dd203a6	0.10254602
89	0xbe528c7f	-0.20561408
90	0x3e38c09c	0.18042225
91	0x3c3667a4	0.011133108
92	0x3ca1a89f	0.019733725
93	0xbe0e2754	-0.1388219
94	0xbd4f82f5	-0.050662
95	0xbe1df04a	-0.15423694
96	0xbda3640a	-0.07978065
97	0x3d9e4a53	0.0772902
98	0x3dd6f8e8	0.10496694
99	0x3d84e05e	0.06488107
100	0xbdea19c0	-0.11430693
101	0x3b8bd58c	0.0042674
102	0xbdc04869	-0.09388811
103	0xbe19b080	-0.15008736
104	0x3deffd50	0.117182374
105	0x3d42e373	0.047580194
106	0x3cb18a0d	0.021672273
107	0xbdd2fa3d	-0.103016354
108	0x3d3c1d4c	0.045926377
109	0x3d11e71a	0.035620786
110	0xbd1ba842	-0.03800226
111	0xbe96f579	-0.29484156
112	0x3e5205d1	0.20510031
113	0x3e21ba30	0.15793681
114	0x3e1a1651	0.15047576
115	0x3c9dc1fc	0.019257538
116	0x3c5ae267	0.013359643
117	0xbe274bf0	-0.16337562
118	0xbdb4fcfc	-0.088373154
119	0x3ddcd5db	0.10782977
120	0x3dad0ec0	0.08450079
121	0xbd8d9411	-0.06913007
122	0x3e154c8a	0.14579979
123	0xbd29e4d7	-0.041478004
124	0xbdb6405a	-0.08898993
125	0x3e92245c	0.28543365
126	0x3dc20215	0.09473053
127	0x3c980b76	0.018560153
128	0x3e34c7cb	0.1765434
129	0xbd1a3814	-0.037651137
130	0xbc35bc2b	-0.011092226
131	0x3cedea90	0.029042512
132	0xbdbd9acb	-0.0925804
133	0x3d0b26ac	0.033972427
134	0x3dfc3e0a	0.123165205
135	0xbd3b0453	-0.04565842
136	0xbd582d0d	-0.05277734
137	0x3db29db9	0.087214895
138	0xbe4670f9	-0.19379033
139	0x3c92ad54	0.017904915
140	0x3c393a89	0.01130546
141	0xbdcec3a1	-0.10095907
142	0xbdf6da4e	-0.12053357
143	0xbd7845c5	-0.060613412
144	0xbc196877	-0.009363285
145	0xbe894628	-0.26811337
146	0x3cd2cec3	0.025733357
147	0xbda48af0	-0.08034313
148	0x3c376136	0.0111926105
149	0x3e14b120	0.14520693
150	0xbdb2b655	-0.08726183
151	0xbd89cf67	-0.06729012
152	0x3db5c121	0.08874727
153	0x3e3467c5	0.1761771
154	0xbdceb453	-0.10092988
155	0x3ba17bc1	0.0049280827
156	0xbd984c62	-0.07436444
157	0xbda78542	-0.08179714
158	0xbe961579	-0.29313257
159	0x3cfec46d	0.031099522
160	0x3e2597e5	0.16171224
161	0xbd5546f7	-0.05206963
162	0x3d434d3c	0.04768108
163	0x3e077a40	0.13230228
164	0x3e82c164	0.2553817
165	0xbd818399	-0.063239284
166	0xbc3ca2c8	-0.011513419
167	0xbd3419a6	-0.043969773
168	0xbe607dd0	-0.21922994
169	0xbe607744	-0.21920496
170	0xbd2ddd15	-0.04244717
171	0xbd33bde7	-0.043882277
172	0xbdd27fe3	-0.10278299
173	0x3c8be894	0.017078675
174	0xbea7dd38	-0.32785964
175	0x3dd12c80	0.10213566
176	0xbe10ef23	-0.14153723
177	0x3e19c79c	0.15017551
178	0x3e06d633	0.13167648
179	0x3e59b585	0.2126065
180	0xbe6ed657	-0.23323952
181	0x3e639015	0.22222932
182	0xbd92bfb7	-0.07165473
183	0x3dac1271	0.08401955
184	0xbd974ca4	-0.07387665
185	0x3e3ff97a	0.18747512
186	0xbe0baa5d	-0.13639207
187	0x3dff94cc	0.124795526
188	0xbdae19c7	-0.085010104
189	0xbb9e60ab	-0.004833301
190	0xbd3fb26e	-0.046801023
191	0x3d23eaeb	0.040018957
192	0xbf2400ea	-0.64063895
193	0xbe083e84	-0.13305098
194	0x3de1bcb5	0.11022321
195	0x3cbb37a5	0.022853682
196	0xbe7f8e73	-0.24956684
197	0x3e8fc59b	0.28080449
198	0xbe0d103d	-0.13775726
199	0x3ec3fb5d	0.38277712

F.nbr.0.linears.0.bias f4 [20]
0	0x3e20e754	0.15713245
1	0x3eca3a0f	0.3949742
2	0x3c84cab6	0.016209941
3	0xbdaf55eb	-0.085613094
4	0x3e2fca3e	0.17166993
5	0x3b412068	0.0029468779
6	0x3da922e6	0.082586095
7	0x3e85d0f1	0.26135972
8	0xbbac87e5	-0.0052652233
9	0x3e11266b	0.14174812
10	0xbdb67301	-0.08908654
11	0xbc42002e	-0.011840863
12	0x3cf2026c	0.02954217
13	0x3d10acd5	0.035321075
14	0x3cca6346	0.02470554
15	0x3e1359f8	0.14389789
16	0x3c29a1b1	0.010353492
17	0x3ddf9ee1	0.109189756
18	0x3d6604f4	0.056157067
19	0xbdbac0da	-0.09118815

F.out.weight f4 [5, 40]
0	0x3e5f209c	0.21789783
1	0xbdd01cca	-0.10161741
2	0xbd3430b8	-0.043991774
3	0x3e81cb14	0.2535025
4	0x3df99752	0.12187065
5	0xbe172f1e	-0.14764068
6	0x3db2e41e	0.08734916
7	0x3e2a4cf0	0.16630912
8	0xbe70486e	-0.2346513
9	0xbe8abe6e	-0.2709841
10	0x3da4ac89	0.08040721
11	0xbf12955a	-0.5725914
12	0x3e5cdb74	0.2156809
13	0x3e5979b2	0.2123783
14	0xbe84facb	-0.2597259
15	0x3da0a73f	0.078444
16	0x3d1c69bf	0.038186785
17	0xbe1af35b	-0.15131895
18	0xbf089695	-0.5335477
19	0xbe695177	-0.22784983
20	0x3dca5732	0.098799124
21	0x3fa7cfb7	1.3110265
22	0xbd7bf700	-0.061514854
23	0xbec53b95	-0.3852202
24	0x3e257232	0.16156843
25	0x3e537222	0.20649007
26	0xbebef42f	-0.37295672
27	0x3f034976	0.5128397
28	0x3da5ef6c	0.08102307
29	0x3ecc1e0f	0.39866683
30	0xbe5168d8	-0.20450151
31	0xbe98ea3f	-0.29866216
32	0xbd59468a	-0.053045787
33	0x3d6802df	0.056643363
34	0xbc8c2d9e	-0.017111596
35	0xbdc51ac0	-0.09624243
36	0xbe9de04e	-0.30835193
37	0x3e82ba7d	0.25532904
38	0x3e41f6de	0.18941829
39	0x3da4572e	0.08024441
40	0xbe17334c	-0.14765662
41	0xbe4065ff	-0.18788908
42	0x3e38da36	0.18051991
43	0xbd008d35	-0.031384666
44	0xbe1f0dad	-0.1553256
45	0x3f159b2e	0.5843991
46	0xbe4bab30	-0.19889522
47	0x3e57b331	0.2106445
48	0xbfa7f864	-1.3122678
49	0xbe9f07b7	-0.31060573
50	0xbe7bc38a	-0.24586311
51	0x3e03e214	0.1287921
52	0x3e401aab	0.18760173
53	0x3e6a8dc1	0.22905637
54	0x3d9a6d08	0.07540327
55	0xbea2facc	-0.31831968
56	0xbcc9cccf	-0.024633793
57	0x3f0b39ee	0.5438527
58	0x3e9e8a2f	0.309648
59	0xbe81782d	-0.25287
60	0xbf09e5c2	-0.5386621
61	0xbe1e6666	-0.1546875
62	0xbe231a56	-0.15928015
63	0x3f2ba699	0.6705108
64	0xbd1e693a	-0.03867457
65	0x3e60771e	0.2192044
66	0x3c63a8d8	0.013895236
67	0x3d62d6f9	0.055380795
68	0xbe5e4427	-0.21705686
69	0x3df18507	0.11792951
70	0xbe6affb7	-0.2294911
71	0x3d277acf	0.040888604
72	0xbdb9e0b0	-0.09076059
73	0xbea69d84	-0.3254205
74	0x3e8b2b24	0.2718135
75	0xbe2b3f2c	-0.16723317
76	0xbdb75f4d	-0.08953724
77	0xbb762cf7	-0.0037563422
78	0xbed46410	-0.41482592
79	0xbdd3caac	-0.10341391
80	0xbe0c73cd	-0.1371605
81	0x3d98d2ca	0.0746208
82	0x3dc2fb18	0.095205486
83	0xbdbb8ca1	-0.09157682
84	0xbd69eb32	-0.057109065
85	0xbcc17e08	-0.023619667
86	0xbda5df08	-0.080991805
87	0xbade8d09	-0.0016979288
88	0x3cd36ae1	0.0258078
89	0x3e0581f4	0.13037854
90	0x3e04a5b7	0.1295384
91	0xbc61c38f	-0.013779535
92	0xbce73327	-0.028222634
93	0xbdf07338	-0.11740726
94	0xbc5276e1	-0.012845726
95	0x3d76e911	0.060280863
96	0x3bc73d06	0.0060802726
97	0xbdee9458	-0.11649388
98	0x3e17eb07	0.1483575
99	0xbec15a9d	-0.37764445
100	0x3e6ea63d	0.23305602
101	0x3cec465b	0.028842142
102	0xbd293bca	-0.041316785
103	0xbe6fcc4d	-0.23417778
104	0x3d429acd	0.04751091
105	0x3e50d942	0.20395377
106	0xbe831c61	-0.2560759
107	0x3d92be73	0.071652316
108	0xbd0f9321	-0.035052422
109	0x3db7dbea	0.08977492
110	0xbeb27bda	-0.34860116
111	0x3e1de5e4	0.15419728
112	0xbe3a7565	-0.18208845
113	0x3e9373c2	0.28799254
114	0x3d591b18	0.053004354
115	0x3e5dd83f	0.21664523
116	0x3e9b476b	0.30327925
117	0xbdc70e32	-0.097195044
118	0xbd8cef7a	-0.06881614
119	0xbd39934f	-0.0453065
120	0x3e38b005	0.18035896
121	0x3dee75ea	0.11643584
122	0xbe3c5714	-0.18392593
123	0x3deb27ea	0.114822224
124	0xbdc7774d	-0.09739552
125	0x3ceec93c	0.02914869
126	0x3eba0d14	0.36338103
127	0x3dbb0643	0.09132054
128	0xbe4c78ad	-0.19967909
129	0x3f3a05e2	0.72665226
130	0xbe4bcf25	-0.19903238
131	0x3ca1317c	0.019676916
132	0x3cda02eb	0.02661272
133	0xbc3d0327	-0.011536396
134	0xbc86d3e5	-0.016458461
135	0xbcf34fe7	-0.029701186
136	0xbbbb3791	-0.005713411
137	0x3e72d7aa	0.23715082
138	0xbf074a9f	-0.5284824
139	0x3e3eab93	0.18620138
140	0xbeb78856	-0.35846204
141	0xbec942be	-0.39308733
142	0x3d873ed7	0.066037826
143	0x3ebb3653	0.36564884
144	0x3e8caa59	0.27473715
145	0xbde9ff1a	-0.1142561
146	0xbf2bd2cd	-0.6711853
147	0x3e3ac194	0.18237907
148	0x3e14aeeb	0.14519851
149	0xbc23bef3	-0.009994256
150	0x3e8a6a95	0.2703444
151	0x3dfb4226	0.12268476
152	0xbeb181a7	-0.3466923
153	0x3ec4b147	0.38416502
154	0x3e5092f6	0.20368561
155	0xbe297ee8	-0.16552317
156	0x3ec3d96a	0.3825181
157	0xbde156f2	-0.110029116
158	0x3cb911c0	0.022591472
159	0x3dfdbc7f	0.123894684
160	0x3d876110	0.0661031
161	0xbde933ac	-0.11386809
162	0xbde231b8	-0.11044639
163	0xbdc33058	-0.09530705
164	0x3b686c8f	0.0035465097
165	0xbd6a46ae	-0.05719631
166	0x3d180ed6	0.037123524
167	0xbd711df0	-0.05886644
168	0xbc46614b	-0.012108157
169	0xbe38ada6	-0.18034992
170	0x3dadb429	0.084816284
171	0x3cde8190	0.02716139
172	0x3c0f35bd	0.00874084
173	0x3e024cef	0.1272466
174	0xbdbcf206	-0.0922585
175	0x3e2df378	0.16987407
176	0xbe224d93	-0.15849905
177	0xbe019ebb	-0.12658207
178	0x3dc16998	0.094439685
179	0xbc50728f	-0.012722625
180	0xbe4799b8	-0.19492233
181	0xbd77a54e	-0.06046038
182	0x3e053c7c	0.13011354
183	0xbd3e0952	-0.046395607
184	0xbcbd180e	-0.02308276
185	0x3e2db6a5	0.16964205
186	0x3d7af2d2	0.061266728
187	0xbd49d5b1	-0.049276058
188	0x3db769e7	0.08955746
189	0x3f0ed5d2	0.55795014
190	0xbe1e4b6e	-0.15458462
191	0xbd461fe7	-0.04837027
192	0xbbc0ecdb	-0.0058876104
193	0xbd0a176b	-0.03371374
194	0x3e497854	0.19674808
195	0xbe291c85	-0.16514786
196	0xbd349483	-0.044086944
197	0x3ced876f	0.028995244
198	0xbe863e46	-0.26219386
199	0xbced23ad	-0.028947676

F.out.bias f4 [5]
0	0x3e5ce8e4	0.21573216
1	0xbe677c7f	-0.22606085
2	0xbd19bb6e	-0.037532263
3	0xbd9589bd	-0.07301662
4	0xbc1d1a1f	-0.009588747

i2h.linears.0.weight f4 [20, 22]
0	0xbe3bd26c	-0.18341988
1	0xbd938c9a	-0.07204552
2	0x3d0b43c2	0.034000166
3	0xbe444b1b	-0.19169275
4	0xbdb57eda	-0.08862086
5	0xbd09cc05	-0.033641834
6	0x3d11a4ad	0.035557438
7	0x3e10853d	0.14113326
8	0xbdd65284	-0.10464957
9	0x3ef46688	0.47734475
10	0xbe8bbfca	-0.2729476
11	0x3dbf842d	0.093513824
12	0x3df4367a	0.11924453
13	0xbd90ef6d	-0.07076917
14	0x3e986eee	0.29772133
15	0xbe6e2345	-0.23255642
16	0x3d79aa12	0.060953207
17	0x3e0c4861	0.13699485
18	0x3e18f7f6	0.1493834
19	0xbd0b9ef7	-0.034087148
20	0x3c028098	0.007965229
21	0xbdc9ab82	-0.09847166
22	0xbda403f5	-0.08008567
23	0x3d8d2532	0.0689186
24	0x3dd3fbd4	0.10350767
25	0x3e93a34b	0.2883552
26	0xbe1dbea1	-0.1540475
27	0xbe56ae2f	-0.20964883
28	0xbce043fa	-0.027376164
29	0xbd9688dd	-0.07350323
30	0xbdf1cc79	-0.11806578
31	0x3ea26580	0.31718063
32	0xbeb53abd	-0.35396376
33	0xbe1932a2	-0.14960721
34	0xbcbe3d39	-0.023222553
35	0x3e6ca29c	0.23108906
36	0x3e6d0a3f	0.2314844
37	0x39bde8fb	0.00036222473
38	0x3e2c8ebf	0.16851328
39	0xbe4c928e	-0.19977781
40	0x3bbde6e7	0.005795348
41	0x3d9dc88f	0.07704269
42	0xbe354176	-0.17700753
43	0x3db0b30f	0.08627903
44	0x3d962780	0.07331753
45	0xbba03502	-0.0048891315
46	0xbdce235f	-0.1006534
47	0x3e4390e9	0.19098248
48	0x3e528710	0.20559335
49	0xbdbc3fe0	-0.09191871
50	0xbe43f6f8	-0.1913718
51	0x3dabf038	0.083954275
52	0xbe560e32	-0.20903853
53	0xbf06d9aa	-0.5267588
54	0xbeb1c3f1	-0.34719804
55	0xbe1e7c9a	-0.15477219
56	0xbe54293d	-0.20718856
57	0xbdc51fbf	-0.09625196
58	0xbe4232c1	-0.18964674
59	0x3d484d2e	0.04890173
60	0xbdac6837	-0.08418315
61	0xbb2c950f	-0.0026333963
62	0xbd915dd6	-0.07097976
63	0x3e60e8a7	0.2196375
64	0xbd380b66	-0.044932745
65	0x3dc0ce90	0.09414399
66	0x3e0db9cd	0.13840409
67	0xbae3d15e	-0.0017381122
68	0xbe69dd7f	-0.228384
69	0xbdaf680d	-0.08564768
70	0x3ebcf882	0.36908346
71	0x3e0fa25d	0.1402678
72	0xbeb4e399	-0.35329893
73	0x3d3f41a8	0.046693474
74	0xbd1e73ea	-0.038684763
75	0xbde94ef6	-0.11392014
76	0x3e0bcc1c	0.1365208
77	0x3ea93a2c	0.33052194
78	0x3e64734a	0.22309604
79	0x3d6da76c	0.058020994
80	0xbe4e07e3	-0.20120196
81	0xbe100de2	-0.14067796
82	0x3bf4074c	0.007447159
83	0xbe25e6ed	-0.16201372
84	0xbc8127ea	-0.015766103
85	0xbcb08059	-0.021545576
86	0xbe09d125	-0.13458689
87	0xbdfd7335	-0.123754896
88	0x3c7df71a	0.015500808
89	0xbe62601e	-0.22106978
90	0x3d816f1f	0.06320023
91	0xbebe9d3d	-0.37229338
92	0xbd451725	-0.048117775
93	0x3d74925d	0.059709895
94	0xbd437af6	-0.047724687
95	0x3e083602	0.13301852
96	0xbcc6d2e1	-0.024270477
97	0xbdea7397	-0.11447828
98	0x3e869585	0.2628595
99	0x3e5bf8a7	0.21481572
100	0x3d1f1057	0.038833942
101	0xbdd0bff9	-0.10192866
102	0xbe31c153	-0.17358904
103	0x3dbb7b98	0.09154433
104	0xbe44dc4a	-0.19224659
105	0x3e8d267e	0.2756843
106	0x3d6db9e2	0.0580386
107	0xbd4bb5e5	-0.049734015
108	0x3d4e6290	0.050386965
109	0x3e0f2dc2	0.13982299
110	0x3ebc60c3	0.36792573
111	0x3c874510	0.016512424
112	0x3e3423bb	0.17591755
113	0x3f29cb7a	0.66326106
114	0x3e947cef	0.29001567
115	0xbdaf36f3	-0.085554026
116	0xbeab2823	-0.3342906
117	0x3ef0fab9	0.47066286
118	0xbe34c046	-0.17651471
119	0x3ec7fe6f	0.39061305
120	0xbf990367	-1.1954163
121	0x3ddd339c	0.10800859
122	0xbdb61838	-0.08891338
123	0x3d826e2f	0.06368672
124	0x3c16bc8d	0.009200227
125	0xbe01469b	-0.1262459
126	0x3e37574c	0.17904395
127	0xbcc0c9c4	-0.02353371
128	0xbce8660e	-0.028368976
129	0xbd94220e	-0.07233058
130	0xbe1789cd	-0.1479866
131	0xbec5c10b	-0.38623843
132	0x3e8537a4	0.26019013
133	0xbe273caa	-0.16331735
134	0xbdbf53fb	-0.0934219
135	0x3dda61a4	0.10663155
136	0x3d3bdb8a	0.045863666
137	0x3e27e5aa	0.16396204
138	0xbd9d6391	-0.076850064
139	0xbdc40eed	-0.09573159
140	0x3dcbf573	0.09958925
141	0xbf6fcdf7	-0.9367365
142	0x3ea10142	0.31446272
143	0xbd7a2ec9	-0.061079774
144	0xbe15f32f	-0.14643548
145	0x3e1064cd	0.14100952
146	0xbe591463	-0.21199183
147	0x3de80933	0.113298796
148	0xbe6a344f	-0.22871517
149	0xbde5bb3a	-0.11217351
150	0x3d61f801	0.055168156
151	0xbcc80fbd	-0.024421567
152	0xbcecb071	-0.028892728
153	0xbcd1e3a4	-0.025621243
154	0xbde77aa8	-0.11302692
155	0x3e9ceff5	0.30651823
156	0x3e03ab3c	0.1285829
157	0x3e0608b7	0.13089262
158	0xbe0f6e9c	-0.14007038
159	0xbdd0935f	-0.10184359
160	0x3e8090da	0.25110513
161	0x3df0b65c	0.11753532
162	0x3c91a326	0.01777799
163	0x3f37bde7	0.71774143
164	0xbe57ebc7	-0.21086036
165	0x3c5ad0a5	0.013355409
166	0xbe0552cb	-0.13019864
167	0x3d2fb9cc	0.0429018
168	0x3e96dc3f	0.2946491
169	0xbea65ebf	-0.3249416
170	0xbd5d67fd	-0.05405425
171	0x3e4a42c5	0.19752033
172	0x3e8689d2	0.26277024
173	0x3e44560a	0.19173446
174	0x3e4569c5	0.19278629
175	0x3da2360f	0.07920467
176	0xbea33a95	-0.31880632
177	0xbdd3be2d	-0.103390075
178	0x3d0162d6	0.031588398
179	0xbec56d68	-0.38560033
180	0xbdfedaea	-0.12444098
181	0x3e883ef4	0.2661053
182	0x3ee637b9	0.44964388
183	0x3e014515	0.12624009
184	0xbd38a41f	-0.045078393
185	0x3e6cb1b7	0.23114668
186	0x3f023b33	0.5087158
187	0x3e014da5	0.12627275
188	0x3e891efc	0.26781452
189	0x3d595bc4	0.05306603
190	0x3cb3595a	0.021893192
191	0xbc96f4ab	-0.018427214
192	0xbda9ac82	-0.082848564
193	0xbe872237	-0.2639329
194	0xbe1418d6	-0.14462599
195	0xbe733fb3	-0.23754768
196	0x3e08a466	0.13343963
197	0x3e4c1409	0.19929518
198	0x3eb26e65	0.3484985
199	0xbcc444c5	-0.023958573
200	0xbe3b69c2	-0.18302062
201	0x3e80fb37	0.25191662
202	0xbdd1e28e	-0.1024829
203	0x3ccfe347	0.025376929
204	0x3c2b5743	0.0104578165
205	0xbe870b54	-0.2637583
206	0x3e69fa08	0.22849286
207	0xbc97d6bf	-0.018535016
208	0x3d1545db	0.036443572
209	0x3e0a7615	0.13521607
210	0xbd9854a5	-0.0743802
211	0xbe0ac79a	-0.13552704
212	0x3dae3831	0.085068114
213	0x3d920302	0.0712948
214	0xbe2b92e5	-0.16755255
215	0xbe833174	-0.25623667
216	0x3d229013	0.03968818
217	0xbb92bc97	-0.004478048
218	0xbdc731fc	-0.09726331
219	0xbe313a5d	-0.1730742
220	0xbcb6b456	-0.022302788
221	0x3e8b3f68	0.27196813
222	0x3df0191f	0.117235415
223	0xbe02163d	-0.12703796
224	0xbd03c6f3	-0.032172155
225	0x3d1b5fe6	0.037933253
226	0x3e8241f5	0.25440946
227	0xbdfa83cf	-0.12232172
228	0xbdcbf0fa	-0.09958072
229	0x3ea465b9	0.32108858
230	0xbdf1b835	-0.11802713
231	0x3e7fcbc6	0.24980077
232	0x3ddb22b1	0.10699976
233	0xbd09c290	-0.033632815
234	0x3cb4dbcc	0.022077464
235	0xbe93f3be	-0.28896898
236	0xbdce10b2	-0.10061778
237	0x3e2781bd	0.16358085
238	0x3b8a8676	0.004227455
239	0xbd7fd3f8	-0.06245801
240	0xbd511fc0	-0.05105567
241	0x3c0d15af	0.008611127
242	0xbe58dc78	-0.21177852
243	0xbe4456a0	-0.1917367
244	0xbcabafb5	-0.020957807
245	0xbe3f7be2	-0.18699601
246	0xbd3fc098	-0.04681453
247	0x3ac6a45a	0.0015155182
248	0x3deacffa	0.1146545
249	0x3d4fd505	0.05074026
250	0x3e116a00	0.14200592
251	0x3ecae10e	0.39624828
252	0x3e66b491	0.22529818
253	0x3e1be80e	0.1522524
254	0x3de42a1a	0.11140843
255	0x3e21bd63	0.15794902

i2h.linears.0.bias f4 [20]
0	0xbbe97ad6	-0.007125239
1	0x3c05da48	0.008169718
2	0x3d9dd19a	0.07705994
3	0x3df9945f	0.12186503
4	0xbdcc9d78	-0.09990972
5	0x3c63fb9d	0.01391497
6	0x3d516742	0.051123865
7	0x3d216f92	0.039413042
8	0xbc7ad91e	-0.015310554
9	0x3d6fbb9c	0.058528528
10	0xbb9790a9	-0.004625399
11	0x3e72fbfe	0.2372894
12	0xbdaa77d9	-0.083236404
13	0xbc498d41	-0.012301744
14	0xbeaf2e34	-0.34214938
15	0xbe2b1174	-0.16705877
16	0x3dade914	0.08491722
17	0x3e144901	0.14480974
18	0xbe3bbf83	-0.18334775
19	0x3d8f8150	0.07007086

h2o.linears.0.weight f4 [10, 20]
0	0x3f89f7bb	1.0778726
1	0x3fb349f1	1.400694
2	0xbf834128	-1.0254259
3	0xbdf33afb	-0.11876484
4	0xbf94b8c1	-1.1618882
5	0x401b44e7	2.4260805
6	0xbf0326f2	-0.512313
7	0x40666665	3.5999997
8	0xbf63aa44	-0.8893168
9	0x3dad735a	0.08469267
10	0x3f8a629f	1.0811347
11	0x3d6b88bb	0.057503443
12	0x3dadf0d4	0.084932
13	0x3df8ba5b	0.121449195
14	0xbe170474	-0.14747792
15	0xbd09d1f5	-0.033647496
16	0x3e937daf	0.28806826
17	0x3ddc0fcb	0.107452
18	0x3ea64d63	0.32480916
19	0xbf8ef81a	-1.1169465
20	0xbe9759bf	-0.29560658
21	0xbddc1cd2	-0.107476845
22	0x3d3548bb	0.044258814
23	0x3ea7b955	0.32758585
24	0x3d858e52	0.06521286
25	0x3ea8d5d3	0.32975635
26	0xbe060154	-0.13086444
27	0xbf049314	-0.51786923
28	0xbecc9c1e	-0.39962858
29	0x3c50ecf8	0.01275181
30	0xbef3e2f7	-0.47634098
31	0x3d7a130b	0.061053317
32	0x3d48fea8	0.049070984
33	0xbe5f18a9	-0.21786751
34	0x3debae92	0.11507906
35	0x3db3f9ae	0.08787857
36	0xbe4dd0f8	-0.20099247
37	0xbdebc1b9	-0.11511559
38	0xbee37922	-0.44428355
39	0xbe9fe746	-0.31231135
40	0x3e5c1999	0.2149414
41	0x3f351d05	0.70747405
42	0x3eab1e3d	0.33421507
43	0xbe562af4	-0.20914823
44	0xbee1124a	-0.43959266
45	0xbf7fec37	-0.9996981
46	0xbef22c51	-0.47299436
47	0x3f879c6e	1.0594614
48	0x3f525211	0.82156473
49	0xbeca2906	-0.39484423
50	0xbd670124	-0.056397572
51	0x3e87fb36	0.26558846
52	0x3d2e9ec7	0.04263189
53	0x3f902ea5	1.1264235
54	0xbdfbee5a	-0.12301321
55	0xbde865fd	-0.11347578
56	0x3daf8cd5	0.085717835
57	0x3df1492e	0.11781536
58	0x3dfb2327	0.12262564
59	0xbe3d5bdf	-0.18492077
60	0x3e5597a2	0.20858625
61	0xbdd3f0d1	-0.103486665
62	0xbfad72c5	-1.355065
63	0x3e1e1567	0.15437852
64	0x3e7e4d5e	0.248342
65	0xbfad7da5	-1.3553969
66	0xbd397415	-0.04527672
67	0x3f0426cd	0.51621705
68	0x3ffd54ae	1.9791467
69	0x3ef481ef	0.4775538
70	0x3f28149a	0.65656435
71	0xbd0ce104	-0.03439428
72	0xbea94e4f	-0.33067557
73	0x3e830854	0.2559229
74	0xbcc6b138	-0.024254426
75	0xbd98235f	-0.074286215
76	0xbe1f8687	-0.15578662
77	0xbdebf98b	-0.11522206
78	0x3e88046d	0.26565877
79	0xc006ac7a	-2.1042771
80	0xbeb2596d	-0.3483385
81	0x3e3d4fa9	0.18487419
82	0x3ea67c11	0.3251653
83	0x3e63de8c	0.22252864
84	0xbf3533fa	-0.70782435
85	0x3e82f39c	0.25576484
86	0xbed7830e	-0.42092174
87	0x3e3f36ad	0.18673201
88	0xbf6a366a	-0.9148928
89	0x3f08168d	0.5315941
90	0x3f1c0b47	0.6095471
91	0xbec99ee8	-0.39379048
92	0xbf181b11	-0.594163
93	0xbeffb1c0	-0.499403
94	0x3e48e282	0.19617656
95	0xbec3381d	-0.3812875
96	0xbf09ec7e	-0.53876483
97	0x3c8b7799	0.017024802
98	0xbeb4c086	-0.35303134
99	0xbf044c00	-0.51678467
100	0x3ee61d1a	0.44944078
101	0x3f02b203	0.51052874
102	0xbe6541d7	-0.22388397
103	0x3dafbe24	0.08581188
104	0xbd04244e	-0.032261185
105	0xbdb2da50	-0.08733046
106	0xbefdec99	-0.49594572
107	0xbee2447c	-0.44192874
108	0x3ed0a63f	0.40751836
109	0xbe4f5e45	-0.20250805
110	0xbe28c1d4	-0.1648019
111	0xbf07c460	-0.5303402
112	0xbd4f3367	-0.05058613
113	0xbe8dff8e	-0.27734035
114	0x3f6a8262	0.916052
115	0x3ecea480	0.4035988
116	0xbeb4a391	-0.3528104
117	0xbf0ef77d	-0.5584639
118	0x3eefc38f	0.46828887
119	0x3d9af85b	0.07566901
120	0x3d5cd363	0.05391253
121	0xbd978eaa	-0.07400258
122	0x3ef23e14	0.47312987
123	0x3e35b53a	0.17744914
124	0x3ca760d0	0.020431906
125	0x3dd48070	0.1037606
126	0x3dd112e8	0.10208684
127	0xbf03d852	-0.51501954
128	0x3e056177	0.13025461
129	0x3e065506	0.13118371
130	0xbd276494	-0.040867403
131	0xbd3c574d	-0.045981694
132	0x3d907626	0.07053785
133	0xbc8139b0	-0.015774578
134	0x3e6ea627	0.2330557
135	0x3bc64d76	0.0060517145
136	0xbd234d81	-0.039868835
137	0xbc3363de	-0.010949103
138	0x3c07c94d	0.00828774
139	0xbe72009e	-0.23633048
140	0x3e98e249	0.29860142
141	0x3ec5e6a7	0.38652536
142	0xbec7bec2	-0.39012724
143	0x3ec9051a	0.39261705
144	0xbe961f1e	-0.29320616
145	0x3e5d39c9	0.21604075
146	0xbf69378c	-0.9110038
147	0xbf733afb	-0.9501187
148	0x3eefdaf9	0.4684675
149	0xbd4bbf79	-0.04974315
150	0xbf250253	-0.6445667
151	0xbf479ad5	-0.7797063
152	0x3e054dac	0.1301791
153	0x3ce7b247	0.028283251
154	0x3fbda44a	1.4815762
155	0x3f2820f8	0.65675306
156	0xbf246489	-0.64215904
157	0xbf6d29f0	-0.92642117
158	0x3f4a5509	0.79036003
159	0x3dcf6cfb	0.10128208
160	0x3e8c4577	0.27396747
161	0x3e8b10e2	0.27161318
162	0xbd8c30d8	-0.06845254
163	0xbd389bb1	-0.045070354
164	0xbe528311	-0.2055781
165	0x3e5c1571	0.21492554
166	0xbeef1ba4	-0.46700776
167	0xbf5e7de6	-0.86910856
168	0x3e2d3c69	0.16917576
169	0xbd0437c0	-0.03227973
170	0xbe9a2e36	-0.3011338
171	0xbf1bf786	-0.60924566
172	0x3babc26c	0.0052416828
173	0xbe3fe0c7	-0.1873809
174	0x3f7ced42	0.98799527
175	0x3ed91ecc	0.4240631
176	0xbef7e9e1	-0.48420623
177	0xbf1bbf62	-0.608389
178	0x3f1ae5df	0.60507005
179	0x3de0ca80	0.10976124
180	0x3ec8ca14	0.39216673
181	0x3e37948e	0.17927763
182	0xbd1ab89f	-0.037773725
183	0x3e6aa152	0.22913101
184	0xbed8c379	-0.42336634
185	0x3eceb42d	0.40371838
186	0xbf0f2e26	-0.5592979
187	0xbfa441f5	-1.2832628
188	0x3e63829c	0.22217792
189	0x3df22fc0	0.11825514
190	0xbf15cba8	-0.5851388
191	0xbf72ec45	-0.9489177
192	0x3e638e1b	0.22222178
193	0xbd3314c6	-0.043720983
194	0x3fc98d10	1.5746174
195	0x3f381af2	0.71916115
196	0xbf4235b7	-0.7586321
197	0xbf5a9c4f	-0.8539476
198	0x3f2ef3ab	0.6834056
199	0xbd9b19e6	-0.07573299

h2o.linears.0.bias f4 [10]
0	0x3d1b2981	0.037881378
1	0xbe314796	-0.17312464
2	0xbd1d7e25	-0.03845038
3	0x3c87a299	0.016557025
4	0xbd487cea	-0.048947252
5	0xbf771225	-0.9651206
6	0xbe253ac4	-0.16135699
7	0xbfad4539	-1.353675
8	0xbf8777f4	-1.0583482
9	0xbfca22c1	-1.5791856

linears.0.weight f4 [20, 5]
0	0x3e52c9ef	0.20584844
1	0xbd059016	-0.032608114
2	0x3d1e539f	0.038653966
3	0x3e20bd39	0.15697183
4	0xbd9e97bd	-0.077437855
5	0x3d8edddf	0.06975912
6	0xbd156dfc	-0.036481842
7	0xbf2d4c47	-0.67694515
8	0xbe2e72cc	-0.17035979
9	0xbd4546be	-0.048163168
10	0x3d818691	0.06324495
11	0xbc4c1862	-0.012456985
12	0x3e11eed5	0.14251263
13	0xbddde6c1	-0.108350284
14	0xbe36f49a	-0.17866746
15	0x3e327523	0.17427497
16	0x3dccf78c	0.10008153
17	0x3e20305b	0.15643446
18	0xbde9d1a0	-0.11416936
19	0xbe91842b	-0.2842115
20	0x3c95b31a	0.018273879
21	0xbe0c9495	-0.13728555
22	0xbde92e58	-0.113857925
23	0x3d2e1523	0.042500626
24	0xbe97036e	-0.29494804
25	0x3d380b90	0.0449329
26	0xbeac78d8	-0.33685946
27	0xbed278fa	-0.41107923
28	0x3dc1e472	0.094674006
29	0x3ebbff4a	0.36718208
30	0xbc82103e	-0.015876886
31	0x3bd95907	0.0066329273
32	0x3ed11487	0.40835974
33	0xbe282d67	-0.1642357
34	0x3c9b7fd9	0.018981861
35	0x3e3bc169	0.18335499
36	0xbcbf6588	-0.023363844
37	0x3d876ef5	0.0661296
38	0x3cafece5	0.021475265
39	0x3dad0648	0.08448464
40	0x3ca09649	0.019602912
41	0xbdb84e53	-0.08999314
42	0x3d1701fb	0.036867123
43	0xba615d45	-0.0008596967
44	0x3dae3daa	0.08507855
45	0x3e162f2f	0.14666437
46	0xbd6f373d	-0.05840229
47	0xbec1b4b2	-0.37833172
48	0x3e6f5236	0.23371205
49	0x3e1b0e97	0.15142284
50	0x3c9c8cbc	0.019110076
51	0x3bf37882	0.007430137
52	0x3f74a6cd	0.9556702
53	0xbe6484a6	-0.22316226
54	0x3d3d46ea	0.046210207
55	0x3d984ebb	0.07436892
56	0x3c1fa170	0.00974308
57	0xbe38e1bb	-0.1805486
58	0xbd30849b	-0.043095212
59	0xbd65a109	-0.05606178
60	0x3d482e25	0.04887213
61	0xbda437af	-0.08018433
62	0xbd6c959a	-0.05775986
63	0x3cb0535a	0.02152412
64	0xbee2b6d8	-0.44280124
65	0xbd485a6c	-0.048914358
66	0xbe2de0b1	-0.16980244
67	0xbc2709d7	-0.010195217
68	0xbd5ba622	-0.053625233
69	0x3e12cad5	0.14335187
70	0xbca27baa	-0.019834358
71	0xbd9da480	-0.076973915
72	0xbe3b4967	-0.1828972
73	0xbbd1d429	-0.0064034653
74	0xbe581776	-0.211027
75	0x3e36207c	0.1778583
76	0xbd89aec8	-0.0672279
77	0x3df9a112	0.12188925
78	0xbe13f8cd	-0.14450379
79	0xbe4694c6	-0.1939269
80	0xbd6f7de9	-0.058469687
81	0xbd6bce1d	-0.05756961
82	0x3f0223b2	0.50835717
83	0xbd193cb5	-0.03741141
84	0x3f47c838	0.78039885
85	0x3e1744ac	0.1477229
86	0xbd243c6d	-0.04009669
87	0xbc322afd	-0.010874507
88	0xbe383ed7	-0.17992721
89	0xbe4e9a86	-0.20176134
90	0xbcdf5e44	-0.027266629
91	0xbd4bb80e	-0.049736075
92	0xbea1bea5	-0.31590763
93	0xbda399d4	-0.07988325
94	0x3eefcf04	0.46837628
95	0xbe85d52c	-0.261392
96	0xbe93fa90	-0.28902102
97	0x3ec48bcf	0.38387915
98	0x3df07383	0.11740782
99	0xbf262dd1	-0.6491366

linears.0.bias f4 [20]
0	0xbe00722c	-0.12543553
1	0x3f26cda9	0.6515756
2	0xbdabfcc8	-0.083978236
3	0x3dd2f212	0.103000775
4	0xbdaed0bf	-0.08535909
5	0x3ddcee5a	0.107876495
6	0x3e04b62f	0.12960123
7	0x3e603ad7	0.21897446
8	0xbe9c514f	-0.30530784
9	0x3e487921	0.19577457
10	0x3edf2a81	0.43587115
11	0x3da7a026	0.08184843
12	0x3d252e9f	0.040327664
13	0xbdd8cb06	-0.10585599
14	0x3e0006eb	0.12502639
15	0xbe33812c	-0.17529744
16	0x3effcf68	0.49962926
17	0x3d8407dd	0.06446812
18	0x3e5b013a	0.21387187
19	0x3f4d1338	0.8010745

linears.1.weight f4 [2, 20]
0	0x3cf8001f	0.030273495
1	0x3f2dd245	0.6789897
2	0xbde46111	-0.111513264
3	0xbe366502	-0.17811969
4	0x3d832905	0.06404308
5	0x3d855d00	0.06511879
6	0xbec9b2c8	-0.39394212
7	0xbd569bec	-0.052394792
8	0x3d3dd50b	0.04634575
9	0xbca34ada	-0.019933153
10	0xbeb6aa81	-0.3567696
11	0x3e7dbb03	0.2477837
12	0x3ea3bdad	0.3198065
13	0xbe2f49f4	-0.17118055
14	0x3f0ffe4c	0.562474
15	0xbd90a7db	-0.07063266
16	0xbba2fe55	-0.0049741664
17	0x3de76178	0.112978876
18	0x3d80211e	0.062563166
19	0xbe911e44	-0.28343403
20	0xbe5d74b2	-0.21626547
21	0x3d6d8e50	0.057997048
22	0xbd79ec4f	-0.061016377
23	0xbf2654e3	-0.64973277
24	0xbd717c80	-0.058956623
25	0x3d8f449e	0.069955096
26	0x3c22901b	0.009922053
27	0x3db7f4e2	0.089822546
28	0x3b079c0b	0.0020692374
29	0x3dcbbdde	0.09948324
30	0xbb895791	-0.004191347
31	0xbdc16e92	-0.09444918
32	0xbeef50ec	-0.46741426
33	0x3e305a93	0.17222051
34	0xbe7c5f38	-0.24645698
35	0xbd9dc7b5	-0.07704107
36	0x3f26e875	0.6519845
37	0xbdfb12ff	-0.122594826
38	0x3ebeecf7	0.37290165
39	0xbecd520b	-0.40101656

linears.1.bias f4 [2]
0	0x3e0dbc8b	0.13841455
1	0x3e0b73a7	0.13618337
