three_body/params_015000.pth (torch_old, 35075 bytes, 54 tensors)

F.cur.0.linears.0.weight f4 [20, 5]
00000000: 0418 2a3d 3c4b 693d 56cf 153e c3ac 6e3e
00000010: ca63 0cbd 31e9 eebb b64b fbbd 16aa 12be
00000020: d465 1e3e dfcd 42be 55bc 973c 75c1 413b
00000030: ca65 48be f93e 63be 5573 063e 680e 7b37
00000040: 0363 37be 17e1 ac3e 6a77 c63b f808 c2bd
00000050: dc80 073c d876 06bc bc55 533d 2fe3 343e
00000060: 3127 51bd 788c 4e3c 8d2a 7dbc c46a 1a3e
00000070: 3c2e 513e b84c b7bd 966a e13b f487 33be
00000080: 378f c93d e23b 953e 3384 32be 1700 2bbd
00000090: 610c 48be 3a4c 4b3e 3113 77bd f8f8 10bd
000000a0: da5e cdbd 6f33 69be adc4 d9bc c599 59be
000000b0: 88fb 11be 390a 8ebd 1db3 e1bd d535 19bd
000000c0: e6c9 8dbe 6cc9 843d f313 873c fe8b 043e
000000d0: 4d59 52be 8bc6 2ebd 62f6 313d 5278 48bd
000000e0: b3c4 dc3c 335d e7be e17c f5bd 62cb 62bd
000000f0: 69ca e33c 9379 2b3e 3c53 543e 97f8 1fbe
00000100: 4ebc 433e 4fb1 c93c 3116 e43d 64cc e5bd
00000110: dd4c 963e c2fa 91bd 4e55 093e f2cc 633e
00000120: 4a48 02be f0fd 7fbc 0468 a53d ecb2 b1bc
00000130: f976 82be 1016 313e adeb afbd b983 6cbd
00000140: da15 30bd ff96 03be 8e4d 573e c63c 213d
00000150: ab12 ca3d a6a7 483d dc8d 813e 0f8c 153e
00000160: e1e8 4bbe 69fe 773e a57d 663d 0407 753d
00000170: 9816 5b3e f332 4d3e 9faa 35bd 79be 9d3a
00000180: c58b 5d3d 41b5 15be 5c79 9f3e c552 a8bd
0.04152681 0.056956515 0.14629874 0.23308091 -0.034274854 -0.007290982 -0.122703 -0.14322695
0.15468532 -0.19023846 0.01852242 0.0029564772 -0.1957008 -0.22191991 0.13129933 1.496412e-05
-0.17908864 0.3376548 0.0060567157 -0.09474367 0.008270469 -0.0082070455 0.051595435 0.17664789
-0.051062766 0.012606733 -0.015452039 0.1507979 0.20427793 -0.0895018 0.006879161 -0.17532331
0.09841769 0.2914725 -0.17433242 -0.041748133 -0.19535972 0.19853297 -0.060321037 -0.035393685
-0.10027857 -0.22773527 -0.02658304 -0.21250065 -0.14256108 -0.069355436 -0.11020491 -0.037404854
-0.276931 0.06483731 0.016489005 0.12944028 -0.20541878 -0.042669814 0.04344786 -0.04894287
0.026949262 -0.45188293 -0.119867094 -0.055369742 0.027806478 0.16745596 0.20734876 -0.15622173
0.19114801 0.02462068 0.11137045 -0.11220625 0.29355517 -0.071279064 0.13411447 0.22246149
-0.12722889 -0.015624508 0.0807648 -0.021691762 -0.25481394 0.17293572 -0.085898735 -0.057742808
-0.04298959 -0.12850569 0.21025679 0.0393646 0.09866842 0.048988007 0.25303543 0.1460421
-0.19913055 0.24218144 0.056272168 0.059821144 0.21395338 0.20038967 -0.04435217 0.0012034915
0.054088373 -0.14619924 0.31147277 -0.08218912

F.cur.0.linears.0.bias f4 [20]
00000000: fa34 64be e967 38be 6825 65be 3b1c 353e
00000010: acde 2c3e 5183 1d3e 3235 7fbe 4f32 47be
00000020: e78c 65be 5945 373e 27cd 623e 28bf 79be
00000030: b7dc 8ebe 3da7 93be d11d 21bd 1602 523e
00000040: bcbe 22be 28b4 8d3e c817 1f3e 8425 913e
-0.22285834 -0.18008389 -0.2237755 0.1768655 0.16881818 0.15382124 -0.24922636 -0.19452785
-0.22417031 0.17897548 0.22148572 -0.24389327 -0.27902767 -0.2883853 -0.039335076 0.20508608
-0.15893072 0.2767651 0.15536416 0.28348935

F.cur.0.linears.1.weight f4 [20, 20]
00000000: 429f 6e3e d506 b93d 0664 a0bd 4c0c 073d
00000010: 2766 b53d 05ad 803e b92c 583e 904a b33d
00000020: ff1d d13d c71e 82be 3e31 123e 5bd1 96bb
00000030: eadd ee3d cd6a 023d 9c42 193d 9337 03be
00000040: 5811 b9bd c9a4 d8bc abcd 443e 71cc 7e3d
00000050: a9e6 3c3e 7f40 57be f047 33be b52e e3bc
00000060: dd37 9cbd be2a 973e 7bf1 163e acde 3c3e
00000070: ed90 853c 3eed 9fbe 7ce2 cabd e5a0 09be
00000080: 3983 a73d 135e 3a3e 0642 bc3d cb4e b1bb
00000090: 50f6 733e baa4 93bd 48ae a03e 171f 37be
000000a0: 4883 2c3d 5dd3 523e a01c 513b 901f ecbe
000000b0: 1a8a 553d 94d9 8bbd e466 6f3d 965c 8abe
000000c0: f915 063e 9634 d2be 6d93 a03d 630b ce3e
000000d0: a0d9 a83d 5344 c33e 3231 c73e 28aa 1fbf
000000e0: cdc2 ddbd 6402 89bd 80dd 7e3d 5a1a 833e
000000f0: a597 cd3d 720b 91bd 142a ccbd 1c69 5a3d
00000100: 6752 f53d ac9d 0b3e 2bd9 943d c692 213c
00000110: fb33 d6bd 5baa 183d 0bc8 14be 596e b4be
00000120: 0e16 b33d cfef f83d 7213 4f3d 2644 8c3d
00000130: f6b4 133c b6e1 703d e3a9 243e d381 473e
00000140: 619c 443d 610e e2bd 9602 863e a7d2 8c3e
00000150: 36fe 26be 51d6 47be 4352 04be 683f fb3e
00000160: d009 e93e bb8e 753e 003b 9ebe 42c8 853e
00000170: 515d 0f3f 9da8 e2bd 8f45 7d3d 143a 073e
00000180: e067 873e 51c4 3a3e 0eeb dbbd 4992 b3be
00000190: 2e17 173e f669 953d 34a1 a33c 737d 91bd
000001a0: de0e 393d c580 963c 74b2 2bbe dfbb 64be
000001b0: 456d fbbd beeb f5bd 1a3d 84bd f87f ffb9
000001c0: 4980 9d3e 693c 8c3d 4d57 713e adb3 4fbe
000001d0: 3cff d43d 002e 733e 7d4f 383d 934e ce3d
000001e0: f827 02be 7876 9fbd d797 423e aae1 22bb
000001f0: d9aa 93bd 96b7 30bd 54c2 1e3c b469 a13d
00000200: 877e 383e 434c 823e 2966 2d3d 4202 4a3e
00000210: 48e2 ffbc c4eb 44be 3ce0 1bbe d861 873c
00000220: 5f4b 143c 8535 d2bd 7bfb b73c 62b2 18be
00000230: 8d1b cc3c bba3 05bf ddce 453d 1afa 9a3d
00000240: 6b8d 8fbd a4d0 493b 6e96 3abe 6750 083e
00000250: 3dfe 88bd 4481 8b3e 3476 813d 8e16 4fbe
00000260: 168f 6e3e 3c14 a5be 3adc 7d3e b4b8 463e
00000270: 5a64 483c 3a98 cf3e c9dd 563e 0e08 6abe
00000280: a60f abbd 53f5 a6bd 11d2 b3bc cf2f 313d
00000290: dee8 113d 228e d3bc ebcb dd3d ab8a 963e
000002a0: bcc3 773e 66d3 733e 942a 4bbd 3cd7 843d
000002b0: 3f41 913e 8606 c5be ee79 843c 5e5a 303e
000002c0: 6739 fb3d 43df 823d 46a9 d8bb 2e63 c0bd
000002d0: 7d06 5bbe d8ac 9c3e 5879 54be c2a6 943e
000002e0: 79a3 6f3d d3e1 983d fa09 283e 4773 f63d
000002f0: 32b5 aabd 2d2c 223e 952a 17be c1eb 8ebe
00000300: 5caf 87be 880b 15bd cd37 a3be a279 df3e
00000310: 6490 d33d ecd6 76be 74ce 653d 5181 a7bd
00000320: 7e1e ff3d e0c7 023e b4e0 123e 22fe b8be
00000330: 7dd9 03bb b23b c63c edbc e4bd 1349 c13d
00000340: 8d77 a1bb 28e4 643c 6ed6 0c3e c3ed b03e
00000350: 66a1 02bd 0b82 8b3e 55bf 2e3c 9346 84bd
00000360: fbe0 88be b614 5ebe 9ae8 59bd 3dbb 643e
00000370: 44dd bd3e 1931 b13e f623 b5bd e75f 88bd
00000380: f366 5a3d c21b 4d3e 4bc5 133f 453d ab3d
00000390: a9f6 8c3e 6bd0 c1be 3793 57be 3de6 d73d
000003a0: e516 f6bd 9b95 c53e 4d1a dcbd a4b8 02bd
000003b0: 3e24 4f3e 057e 9fbe 2995 853e 787b f13e
000003c0: ef1f edbd 409b 083c c8ab c03e 9c81 6cbe
000003d0: 201f 6dbe dfe4 1bbe af02 07be b202 143e
000003e0: f88d ce3e 6202 de3e 9e3a cc3d 90e8 d93e
000003f0: e8a6 b03d ad1f eebd 81b7 283e f254 d33d
0.2330294 0.09034506 -0.07831578 0.03297071 0.08857375 0.25132003 0.2111081 0.08754456
0.102107994 -0.25414106 0.14276597 -0.004602594 0.116634205 0.031840134 0.03741704 -0.12814169
-0.09036511 -0.026445763 0.19219081 0.06220669 0.18447365 -0.21020697 -0.1750791 -0.027732233
-0.076278426 0.29524797 0.14740555 0.18444318 0.016304458 -0.3123569 -0.0990648 -0.13440283
0.081793256 0.18199949 0.091922805 -0.005411004 0.2382443 -0.072091535 0.31382966 -0.17882954
0.042117387 0.20588441 0.003190793 -0.4611783 0.052133657 -0.06828609 0.058447734 -0.27023762
0.1309432 -0.41055745 0.07840619 0.40243062 0.08244634 0.38138065 0.3890472 -0.6236901
-0.10828171 -0.06689909 0.062222958 0.25606042 0.100386895 -0.07082261 -0.09968963 0.053322896
0.119786076 0.13634366 0.07267984 0.009861654 -0.10459133 0.03727184 -0.14529435 -0.3524044
0.08744441 0.12155115 0.050555654 0.06848936 0.009015312 0.058809005 0.16080432 0.19483118
0.048000697 -0.11037899 0.26173848 0.27504465 -0.16307911 -0.19515349 -0.12922005 0.49071813
0.455153 0.23980229 -0.30904388 0.26129347 0.56001765 -0.11067317 0.061833914 0.13205749
0.26446438 0.18238951 -0.107381925 -0.35072544 0.14754936 0.07295601 0.019974329 -0.07104006
0.045180194 0.018371949 -0.16767293 -0.22337292 -0.12276701 -0.12007855 -0.06456967 -0.00048732734
0.30761936 0.0684746 0.23568459 -0.20283385 0.104002446 0.23748016 0.04499768 0.100735806
-0.1271056 -0.07786268 0.19003235 -0.0024853745 -0.07210321 -0.04314383 0.009689886 0.078814894
0.18017016 0.25448808 0.042333756 0.19727424 -0.031235829 -0.19230562 -0.15222257 0.016526148
0.009051173 -0.10264114 0.022458782 -0.14911798 0.024915481 -0.5220296 0.048292983 0.07567234
-0.07009395 0.0030794526 -0.18221447 0.13311921 -0.06689117 0.2724706 0.063213736 -0.20223448
0.2329677 -0.32242 0.24791041 0.19406396 0.012230957 0.40545827 0.20983042 -0.22854635
-0.08352594 -0.08152261 -0.021950753 0.043258484 0.03562247 -0.02582461 0.1082991 0.2940267
0.2419576 0.23811111 -0.049601153 0.06486365 0.2837009 -0.3848154 0.016171422 0.17221972
0.12266808 0.0639024 -0.006611976 -0.09393917 -0.21389194 0.3060062 -0.20749414 0.29033476
0.05850551 0.074649476 0.16410056 0.12033706 -0.083353415 0.15837164 -0.14762338 -0.2791424
-0.26500976 -0.03638795 -0.3187851 0.43647486 0.10330275 -0.24105424 0.056105092 -0.08178962
0.12456988 0.12771559 0.1434353 -0.36131388 -0.0020118647 0.024198387 -0.11168847 0.09437766
-0.0049275816 0.013970412 0.13753673 0.34556398 -0.031892203 0.27247652 0.010665734 -0.064587735
-0.26734146 -0.21687588 -0.05320034 0.2233705 0.37082875 0.3460777 -0.0884475 -0.06658917
0.053320836 0.2003012 0.5772292 0.083612956 0.27531937 -0.37854323 -0.21052252 0.10541961
-0.120160855 0.38590702 -0.10747204 -0.03191437 0.20228669 -0.31150833 0.26090363 0.47164512
-0.115783565 0.008337796 0.3763106 -0.23096317 -0.23156404 -0.15224026 -0.13184617 0.14454153
0.4034269 0.43361193 0.09972118 0.42560244 0.08625585 -0.116271354 0.16476251 0.103189364

F.cur.0.linears.1.bias f4 [20]
00000000: 149e 5a3d fdfa 27be 6e9c 09be be8a 883d
00000010: a344 6ebe 861f fd3c de61 473d 8783 0c3e
00000020: f6dd 84bd c3e5 153e f211 f1bb 5322 4ebe
00000030: b1c0 23be 61f7 b4bd b877 fe3d 4f1d 4fbd
00000040: ee77 033e b359 dcbd b55d 82bd 7848 b2bd
0.05337341 -0.16404338 -0.1343858 0.06667088 -0.2326837 0.03089882 0.048677318 0.13722049
-0.06487648 0.14638428 -0.0073568756 -0.20130281 -0.15991475 -0.08836246 0.12425178 -0.05056506
0.12838718 -0.10759296 -0.063655294 -0.087052286

F.nbr.0.linears.0.weight f4 [20, 10]
00000000: 19bd f4bb 6468 7e3d a64b 5cbc 6c30 3abe
00000010: b506 0dbe d0bc 0abd d7ca 07be c440 abbe
00000020: a440 fd3d fc02 ab3d b5a9 a23c 8fc3 babc
00000030: f136 e6bc c336 35be ca12 27be 9eb0 abbd
00000040: f97c 20bd d0d1 18be 03b4 ca3c 084f 233e
00000050: 4590 d1bd e5cb b6bc 90f7 c13c 2371 29bd
00000060: 3339 80be 1d88 9c3c d49d 9cbd c91c 82be
00000070: f447 333e 5a0e 323d 9df6 02be 8406 ccbc
00000080: a3a1 1fbe 65dc a7bd 7c36 8abc f9f9 833d
00000090: 56bd 23be ef7d 6c3e c839 833e 9201 33bd
000000a0: 2cc6 a13c 4153 94be 831d c03c 1a97 20bd
000000b0: 7d0d 1bbe defe 9abd 018d f1bc fe2b 31bc
000000c0: 5356 d5bc 6aa6 78ba f327 e6bd 5331 15be
000000d0: 5bf9 24bd f419 0e3d 99f6 e43d bacd ec3c
000000e0: c78e 23be 19f3 d23d b963 28be 57e9 79be
000000f0: fb7b 193e c238 d33d 01cf 03be dff7 15bd
00000100: ff9a 083e 54c0 17bd 42ed e93c 1ebf ad3e
00000110: 67bf a8bd 23c2 11bb 50ae e33d 1248 803d
00000120: 6b59 c83d 940f a8bd bd45 27be c127 093d
00000130: 4398 bd3d c348 67bd ac54 153d 200e 863e
00000140: 1dfe 99bd 8cf5 ab3c 6864 08bd 10f6 4f3c
00000150: 9e80 0c3e 75b3 ac3d 91f4 e8bd 9f09 3e3e
00000160: 604b 1b3e 2450 80be aa83 043e 6920 2ebe
00000170: 4963 60bd 0813 5a3d 5f9b 103d 956e 7dbe
00000180: 4762 21bc d042 4dbe eeaf 21bd 79cc 26be
00000190: 7f8b 48be 3809 8a3d 3a22 f9bd 930e 82bd
000001a0: 1502 fd3d 1270 263e e384 13be 8e22 a33e
000001b0: 329b a2bd aaf8 90bc 3565 353d 1904 7abe
000001c0: 789d 49bd 1afd 9d3d 5d76 5e3d b67d dcbd
000001d0: 820f 7d3d 99ff 5c3e 5ad4 d9ba a59f 5fbe
000001e0: 099c 9fbc 33ea 833d 5664 c13d 0d4d 4f3c
000001f0: e3b5 243e b21d 1c3e 69f9 1f3e c51b f93d
00000200: f567 5d3e 232b f0bd b71c eabd 74b4 18bd
00000210: 887f e63d ac36 35bd 827e 63be 2921 fd3d
00000220: 91fb 403c f67d afbd 49b1 c23d 3bfe 383e
00000230: 939c ae3b 73ab 253e 7e45 393c 60c5 d03c
00000240: 22f5 8cbd bf65 c43b 0a08 edbd ab7a 9bbe
00000250: a19c 403e 833c 823a 66e6 8dbd c751 bc3d
00000260: 726a bd3d 9951 32bd 9f95 12bc c84c 4c3d
00000270: 05fa 83bd 6cba 19bd 2e60 6fbd 6680 fc3c
00000280: db62 c7b8 2eee 843e fbe1 dfbc f63f cb3c
00000290: 3163 5c3e 9c02 5abc 8142 b3bd 4bd1 4cbd
000002a0: a09a 9b3d 7200 4cbe 0935 d43b bd68 75be
000002b0: 80c5 8ebd aa0e 2e3d 824b 313e 07c6 84bd
000002c0: 3f2c 91bc acbb 3bbc 3f54 c1bd 5092 56be
000002d0: bec2 e33d ffd6 0fbe 6f49 44ba 5068 b0bc
000002e0: dcd7 a93d 7c4b 2dbe 3c80 97bc ddb5 e23c
000002f0: 17dc 22be 5b27 bdbd 6f89 573e 0090 023d
00000300: 6cea 4d3d 0ccf c9bc d383 81bd 6afe 2abe
00000310: c237 ae3c a028 dcbd c7e8 5e3d 36bd 233d
-0.0074688313 0.062111273 -0.01344577 -0.18182534 -0.1377209 -0.033871472 -0.13260971 -0.3344785
0.12365845 0.083501786 0.019856313 -0.022798328 -0.02810237 -0.17696671 -0.16315761 -0.083832964
-0.039181683 -0.14923787 0.02474404 0.15948117 -0.10232595 -0.022314021 0.023677617 -0.04136766
-0.2504364 0.019107873 -0.07647291 -0.25412586 0.17507917 0.043470718 -0.12789388 -0.02490545
-0.15589003 -0.08196334 -0.016871683 0.06444163 -0.15990195 0.23094915 0.2563002 -0.04370267
0.019747816 -0.28969768 0.023451572 -0.0392066 -0.15141864 -0.07568143 -0.029486181 -0.010813711
-0.02604214 -0.0009485247 -0.112380885 -0.14569597 -0.040276866 0.03469272 0.11179847 0.028906692
-0.15972434 0.103002734 -0.16444291 -0.24405418 0.14988701 0.1031356 -0.12871934 -0.03661334
0.13340376 -0.037048653 0.028555516 0.33934873 -0.08239632 -0.0022240959 0.11117232 0.06263746
0.0978268 -0.08206096 -0.16335197 0.033485178 0.09257557 -0.056465875 0.036457703 0.26182652
-0.075191714 0.02099111 -0.03329888 0.012692943 0.13720939 0.08432666 -0.11374772 0.18558358
0.15165472 -0.25061142 0.12940851 -0.17004551 -0.054782186 0.053240806 0.035304423 -0.24749215
-0.009850091 -0.20045018 -0.03947442 -0.16288938 -0.19584464 0.067400396 -0.12164731 -0.06350436
0.12353913 0.16253689 -0.14406161 0.318623 -0.079397574 -0.017696697 0.04428597 -0.24415626
-0.04922244 0.07714291 0.0543121 -0.10766165 0.061782368 0.21581878 -0.0016619072 -0.21838243
-0.019483583 0.06441154 0.09442966 0.012652648 0.1608501 0.15245703 0.15622486 0.121635
0.21621688 -0.11726978 -0.11431258 -0.03728147 0.112547934 -0.044241592 -0.22216228 0.123598404
0.011778728 -0.08568947 0.09506471 0.18065731 0.0053287237 0.16178684 0.011308072 0.02548474
-0.06882693 0.0059935744 -0.11573799 -0.30367026 0.18809749 0.0009936247 -0.06928711 0.09195285
0.092488185 -0.04353485 -0.008946805 0.04987791 -0.06444172 -0.0375313 -0.058441333 0.030822944
-9.507473e-05 0.25962967 -0.027329436 0.024810772 0.21522214 -0.013306286 -0.08752919 -0.050004285
0.07597852 -0.19922045 0.006476049 -0.23965736 -0.06971264 0.042494453 0.1731396 -0.06483083
-0.017721293 -0.011458319 -0.09439897 -0.20954251 0.111211285 -0.14046858 -0.0007487749 -0.021534115
0.08293125 -0.16923326 -0.018493764 0.02767461 -0.1590427 -0.09236022 0.2104852 0.03187561
0.05027239 -0.02463486 -0.063239716 -0.16698614 0.021266822 -0.10749936 0.054421213 0.039975367

F.nbr.0.linears.0.bias f4 [20]
00000000: 15b0 47bc 9adf ed3d a96a 8abd b6e6 15bd
00000010: a483 d3bc 596f 6abd a715 16bd 55a2 b4bd
00000020: 266b ef3b 1124 0cbd 145e 193c 365b 67bd
00000030: 5cbe 12bd b2d6 f7bc 7714 08be cf46 793d
00000040: 0c63 29be 7a23 49bd 7ddb e4bd a911 b23c
-0.012187977 0.11614914 -0.06758625 -0.036596976 -0.025819607 -0.057235096 -0.036641743 -0.08820025
0.0073064743 -0.034214083 0.009360809 -0.05648347 -0.035826072 -0.030253742 -0.13289057 0.060858544
-0.1654169 -0.0491061 -0.111746766 0.021736937

F.nbr.0.linears.1.weight f4 [20, 20]
00000000: e0ee d13c 6e3d 3f3e a24a c1bd 0bf6 afbd
00000010: a261 623d f676 a0be c2a6 44bd 2d0e 343c
00000020: 1e3e 5e3e 94c2 0f3e ef09 a4be bfd1 683d
00000030: 44b4 14be 4025 d73c 6471 9c3d 7f8e ca3c
00000040: 2f65 f63d 4cd3 afbd 47e3 60bc 8460 5e3e
00000050: ec35 31be 05f2 c63c 8911 14be f979 2a3e
00000060: 81a3 963d a0a4 813e e9ff 8fb9 a9b8 333d
00000070: 718b 4c3e 23a8 803d 45c8 3c3d f483 213e
00000080: 0345 90bd 56d4 393e 0b7a 91bd 3a2d f23b
00000090: 7689 2e3b 19e6 663d 2885 12bb ec4b 093d
000000a0: 4201 7abd 4451 59be 66e4 c33b 17e3 323c
000000b0: dca2 203d d222 3d3e d12f 4e3e d9c8 84ba
000000c0: e701 183e 7c69 05bb 881c 57bd 6e93 4abd
000000d0: 71d7 3a3e eacc 9bbd 0010 8cbe 594b 9f3c
000000e0: fb31 c33d 90cb 893e 1cde 713d bebe c13d
000000f0: c3d9 e8bd 5b90 51be d6d5 8abe 3e18 0cbe
00000100: 39ad d93c ca71 e03d 002f 1d3e 39f7 29bd
00000110: 7813 f13d 6584 383d bac1 17be 118c 6d3e
00000120: c86f 9c3c fc8d 31be 0373 203d 358c 58bd
00000130: e6dc f4bd ddc8 633b 81a5 d63c 8543 2e3d
00000140: 44b9 a73c 4959 7d3e 5784 233e 9729 b83b
00000150: e95f 703e 5124 a0bd 1987 c03c 2f48 90bd
00000160: bb71 9f3d 5feb 493d 43d1 5f3d 6a15 403e
00000170: 92a0 26be 6933 c93d 681d 97be a5d1 a0bd
00000180: 171a 58bd 75b0 853d 17a1 833e 5bdb 543d
00000190: 7ffb 313e a88d 0fbe 0bcf 55be a5e5 7ebd
000001a0: 5f9f 06bd a5d5 993d 0495 9ebb b6c6 67bd
000001b0: 0e07 10be 94be 133e bf94 c33c 502d ba3d
000001c0: 7f3f 5abd da47 ed3c 711f 4abe 7805 21be
000001d0: 9524 2dbe 1129 053e f604 0fbe 63cd 6dbd
000001e0: 73ae 85bd 6926 cd3d 3539 80bd 6973 e93d
000001f0: f973 0e3e 2381 9b3e a0db e53c 48ae fabc
00000200: 75fb e5bc 25d5 0c3e a8cd b8bd 0515 643e
00000210: f710 72bd f287 f1bc 11da acbd 7340 373d
00000220: a071 13be 1a32 b53d 9cae a63e 22a5 78bd
00000230: aeec 543e 0ac6 d23d 7a12 0a3e 8d7f 2b3d
00000240: c2f7 99bd 8b06 96bd 5172 dc3d 21c1 1a3d
00000250: b233 2ebd 87dd 94bd e0b6 61bd 49e7 bbbd
00000260: 8dea 5c3e 2548 163e 6d81 773e 8e2f ca3d
00000270: 5d51 a83d 2a64 3fbe 0029 83be c0e6 4a3d
00000280: 2681 473e c70a 88be 25f3 d7bd fa9d cf3c
00000290: 4773 8dbe be90 3d3d 4af6 103e 616f 03be
000002a0: 15b9 283e 7d0f 3c3e cd24 36bd 8f02 9dbc
000002b0: 0fe7 b53e be58 0fbe 3596 233e 51c3 0c3e
000002c0: 3dc2 4f3e 0f49 11be 87cf 25bd 47d6 5ebd
000002d0: 96ec 96bc e952 1fbe 5220 ddbd 58af 95bd
000002e0: ea77 123e 01f3 063c dbd1 acbd 4ca7 bf3c
000002f0: 2f88 433d 0c9e ac3d 3564 a83d c601 913e
00000300: 525a 7cbd af06 193d 8763 0dbe d8e2 103d
00000310: 75e2 05be 0230 363e da6d 9c3c 5133 80be
00000320: 9741 c6bc af43 493d e35c 42bd acc8 b9bd
00000330: 3417 fd3d 8a2e 003d 1390 15bc 310e 47be
00000340: f608 b9bd 87b6 4abb dbf2 d7bd bd56 a2bc
00000350: f090 83be c185 f23d 6279 a23d fc48 93bc
00000360: 3202 5abd 4e45 3abe a7f3 aa3d e92b f73c
00000370: 7f7a 9a3d 16fa 5e3e 1ad7 413e 7592 83bd
00000380: 70d3 763e 0130 2f3d fce9 15be ee2a f2bc
00000390: 2fc7 43be fa94 dc3d b37e 87be 8ac1 92be
000003a0: eb87 5fbe 7c0f 4d3e 1c2a 103d a76b ea3d
000003b0: 21f4 ebbd 15a8 debd 7281 b13c 795d 9cbd
000003c0: 6622 9dbd 6529 19be 16b2 d63c 0019 3bbd
000003d0: e64f e8bd 8ddb 373e e032 b6bc babd c83d
000003e0: e77e 29bd 061a 063e 9330 413d 2e2d 36bd
000003f0: effa 38be 751b eebd 334d f5bd 43a7 963c
0.0256266 0.18675777 -0.09438063 -0.08591851 0.05526889 -0.3134076 -0.048010595 0.010989708
0.21703383 0.1403907 -0.3203883 0.056840654 -0.14521891 0.02626288 0.07638815 0.02472615
0.12031018 -0.085852236 -0.013726062 0.21716505 -0.17305726 0.024285326 -0.14459814 0.16648091
0.07355405 0.2532091 -0.00027465753 0.043877278 0.19975068 0.062820695 0.04608943 0.15772992
-0.07044413 0.18147406 -0.07103356 0.0073906453 0.0026632226 0.056371782 -0.00223572 0.03351967
-0.061036356 -0.21222407 0.005978155 0.0109184 0.039217815 0.18470314 0.20135428 -0.0010130658
0.14844476 -0.0020357063 -0.052517444 -0.049457006 0.18246247 -0.07607444 -0.27355957 0.019445108
0.095310174 0.26913118 0.05904971 0.09460209 -0.1136966 -0.20465223 -0.2711627 -0.13681123
0.026571857 0.109592035 0.1534996 -0.041495536 0.117712915 0.045048136 -0.14819995 0.23197962
0.01909627 -0.17339319 0.039172184 -0.052868087 -0.119561955 0.0034757175 0.026201965 0.04254486
0.020474084 0.24741091 0.15968452 0.0056201923 0.23474087 -0.07819427 0.02350192 -0.07045018
0.07785364 0.049296733 0.054642927 0.18758169 -0.1627219 0.09824259 -0.29514623 -0.078524865
-0.052759256 0.06527797 0.2570884 0.051967006 0.17381094 -0.14018881 -0.20879762 -0.062230725
-0.032866832 0.075114526 -0.0048395414 -0.05658599 -0.14065191 0.14428169 0.023874639 0.09090674
-0.05328321 0.028964926 -0.19738556 -0.15724742 -0.16908486 0.13003947 -0.13966736 -0.0580572
-0.06527414 0.10017092 -0.062609114 0.11398966 0.13911428 0.3037196 0.028058827 -0.030600682
-0.028074006 0.13753183 -0.09023601 0.22273643 -0.05909821 -0.02948377 -0.0844003 0.044739198
-0.14398813 0.08847447 0.3255509 -0.060704358 0.20793411 0.10291679 0.13483611 0.04186969
-0.07517959 -0.07325467 0.107639916 0.03778184 -0.04252977 -0.072688155 -0.055106044 -0.091749735
0.21573849 0.14675958 0.24170466 0.098723516 0.08218644 -0.18690553 -0.25617218 0.049536467
0.1948286 -0.26570722 -0.10544423 0.025343884 -0.27627012 0.046280615 0.14156452 -0.12835456
0.16476853 0.18365283 -0.04446869 -0.01916626 0.35527846 -0.13998696 0.15975268 0.13746382
0.2028894 -0.14188026 -0.040481117 -0.05440357 -0.01842336 -0.15558971 -0.1079718 -0.07308835
0.14303556 0.008236648 -0.08438464 0.023395203 0.047737297 0.084285825 0.08222238 0.28321666
-0.061609574 0.03735989 -0.13807498 0.035372585 -0.13074668 0.17791751 0.01909535 -0.2503915
-0.024201198 0.049136814 -0.047451865 -0.09071478 0.12357941 0.031294383 -0.009128588 -0.19439007
-0.09034912 -0.0030931549 -0.10544368 -0.01981675 -0.25696516 0.11841918 0.07933308 -0.017979138
-0.05322475 -0.181905 0.08347254 0.030172305 0.075428955 0.21775088 0.18929711 -0.06424419
0.24104095 0.04277039 -0.14640039 -0.029561486 -0.19118951 0.107706025 -0.2646385 -0.28663284
-0.21829192 0.20025438 0.03519641 0.11446314 -0.11521173 -0.10871903 0.02166817 -0.07635016
-0.076725766 -0.14957197 0.026207965 -0.04567814 -0.113433644 0.17954846 -0.022241056 0.098018125
-0.04138079 0.13095865 0.047165465 -0.04447668 -0.18064474 -0.11626331 -0.11977615 0.018390303

F.nbr.0.linears.1.bias f4 [20]
00000000: 0c5f d8bb 0819 67bc 7375 24bd 2a9f a33d
00000010: 17f1 2dbc 7d8a 8abd 8349 dcbd 0941 733c
00000020: b51c 16bc 6f4d 9b3d e614 073a 9c16 d3bd
00000030: 98fd 2d3d c360 8dbc e298 babc 4539 50bd
00000040: 44c0 0cbd 4362 6d3d 9405 33bd ecc5 c1bb
-0.0066031273 -0.014105089 -0.04015107 0.079893425 -0.010616562 -0.06764696 -0.10756209 0.014847049
-0.009162118 0.07583129 0.00051529554 -0.10307047 0.042478174 -0.017258054 -0.022777978 -0.050835866
-0.034363046 0.057955038 -0.04370649 -0.0059134867

F.out.weight f4 [5, 40]
00000000: 9089 e1bd 1807 33bd b0cf 9fbd a0cb 0bbe
00000010: 3e6b e2bc dae2 14be 7988 d43d 9352 22bd
00000020: 037a 583d bc09 b93a 6dcb 083e f5a2 92bc
00000030: c72a ae3c 9b6c babd 7336 393b 864d 28be
00000040: 48e4 babd 5d4d c2bd a09f 183e 0433 94bd
00000050: a250 a6bd 20fe f33d 6c49 c43c e7e3 9ebd
00000060: ddf3 5abd a3a5 9ebc 83dd d53c b4dc ad3d
00000070: 8bf9 e83c e0f3 ab3d b778 a0bd 6d7f a53c
00000080: c55c 623c bf38 4f3d 8959 893d 9c05 e2bb
00000090: 522e 55be bb19 3abc 6ffc edbc d16f 863c
000000a0: 8cde 753e 9ca2 4d3e d962 3a3e 41cd 673e
000000b0: 3c9b dcbe a86d 7fbd bcc1 76be 7913 edbe
000000c0: a370 7ebe 9f7a 263e 6ca4 4c3d 054b ef3e
000000d0: 9af7 eebe c398 d53c 14d4 b43e 8819 22be
000000e0: 7eee a73e 0cdc 993e 5080 babd d9fc d83d
000000f0: 1226 cfbd 8ffc 6b3b 9334 a23c a605 863d
00000100: 6d03 85bd 3c94 183e 164e a939 55e5 58be
00000110: d124 593c ab79 983d edcd 983d abb2 c8bd
00000120: 7202 c43d c3ca 5ebc a325 d6bd 5ce3 b63b
00000130: 9cb7 a5be d96f 7a3b 8244 ab3d c10e 083e
00000140: b942 993d 4ad7 36be 4b02 643e b32a aabd
00000150: 8244 9bbe 3110 10be ea52 c1bb 1399 f8be
00000160: 3c1c 30be 163b bd3b 115e 963e 3bfa 313e
00000170: 66a0 98bd 2bf0 a5be 48c7 2fbd 9235 debe
00000180: f59e e03b 3cf1 74bd 6c17 aabd 29e3 a3be
00000190: f073 573e 9367 adbd f774 9fbe 2c4a 82be
000001a0: dbce bcbb a057 bdbd dcfa 09be 9ce1 bd3e
000001b0: 8975 8bbe 5ee9 f8bd fd54 d53d b8bc 413f
000001c0: 90ae 27be 39a8 14be df12 d1bd 8b91 91be
000001d0: c50b 063f 45e8 153f 1b36 c13e c39c 4ebe
000001e0: 3c6a 06be 9d9b c2bd 63d6 e9be 85e6 34bd
000001f0: b3db bd3d 5f62 8abe fa0f 2b3e 2872 e9bd
00000200: 8e01 273e 1882 da3e 3a57 61be 33a3 af3d
00000210: 3a3d 3f3e 2b73 f53d 2213 cebb 0ca5 60bd
00000220: c65f 0bbd ceb4 023e 1122 0e3f c661 063e
00000230: fd3d 98bd c13a 393e 60e1 c73d 0790 953d
00000240: 9396 8c3e e6c9 323e c36b a43e 3cd8 f5be
00000250: 3a36 e9be 41b4 4b3e a730 0d3e fe2e a53d
00000260: 2738 c3bc 33d3 60be 2dd3 69be 20d1 833d
00000270: 7076 2c3e 6009 3ebd 59f0 f4bc 37ab 9a3e
00000280: 18ba 563d 4ac1 643e 7c2e febd 9b12 3b3e
00000290: 7bd9 c53b 9e78 493d 3c53 b0bd 9930 ae3d
000002a0: 18f6 db3c 4a38 b23d 0c04 84be 5711 3d3d
000002b0: 6e89 28be 8ac2 a03e c91c 8d3e 50ad 4e3e
000002c0: fb36 a83c e654 2e3e 44f5 843d 955a a93e
000002d0: 320b 793c cbc0 39be 131d c3bd 7583 96bd
000002e0: b9aa adbd beda 33bd 3fa3 bfbd fb1f 893e
000002f0: 3628 603d 922d 98bd ea36 f43c 2950 cfba
00000300: 1cb1 f1bb d59c 2b3d 4ddf 73bd e947 43be
00000310: 2de0 4bbc 66ad 2dbb d4eb 4f3d 9354 83be
-0.11012566 -0.043707937 -0.07803285 -0.13651896 -0.027639028 -0.14539662 0.103775926 -0.03962953
0.052850734 0.0014117281 0.13358851 -0.01789997 0.021260632 -0.09102746 0.0028261214 -0.16435823
-0.091255724 -0.09487412 0.14904642 -0.07236293 -0.08120848 0.11913705 0.023960792 -0.07758313
-0.053455222 -0.019366091 0.026106602 0.084893614 0.028439304 0.08396125 -0.078355245 0.020202363
0.013816063 0.050591227 0.067065306 -0.0068976413 -0.20818451 -0.011358674 -0.029051034 0.01641074
0.24010676 0.20081562 0.1820177 0.22636892 -0.43087184 -0.062360436 -0.24097341 -0.4630392
-0.24847655 0.16257714 0.049961492 0.46736923 -0.4667328 0.026073819 0.35318053 -0.15830052
0.32799143 0.30050695 -0.09106505 0.10595102 -0.10114683 0.003600869 0.01980046 0.06544046
-0.06494794 0.14900297 0.0003229237 -0.21181233 0.013253407 0.07445081 0.07461152 -0.09799703
0.09570779 -0.013598147 -0.104563974 0.0055813026 -0.32366645 0.003821364 0.08362676 0.13286878
0.074834295 -0.17855564 0.222665 -0.083089255 -0.30325705 -0.14068677 -0.0058997767 -0.48554286
-0.1719827 0.005774866 0.29368642 0.17380612 -0.074524686 -0.32409796 -0.04291466 -0.43400246
0.0068548867 -0.05980037 -0.083052486 -0.32009247 0.2104032 -0.08467021 -0.31143925 -0.25447214
-0.005761964 -0.09245229 -0.13474602 0.3708619 -0.2723811 -0.12153886 0.10416601 0.75678587
-0.16375184 -0.14517297 -0.102086775 -0.28431353 0.5236171 0.5855754 0.37736592 -0.20176987
-0.13126463 -0.09502337 -0.45671377 -0.044165153 0.0927042 -0.27028176 0.16705313 -0.11398727
0.16309187 0.4267738 -0.2200593 0.0857605 0.186757 0.11984857 -0.006288902 -0.0548449
-0.034026884 0.12764284 0.5552073 0.13123235 -0.07433698 0.18088819 0.09759784 0.07302862
0.2745863 0.1745983 0.32113466 -0.48016536 -0.45549184 0.1989298 0.1378809 0.08065604
-0.023830486 -0.21955566 -0.22834463 0.06436372 0.16842055 -0.04639566 -0.029899763 0.30208752
0.052423567 0.22339359 -0.1241121 0.18268816 0.0060378886 0.049187295 -0.08609626 0.08505363
0.026850745 0.087021425 -0.25784338 0.046159115 -0.16458675 0.31398422 0.27561024 0.20183301
0.02053403 0.17024574 0.06492093 0.3307692 0.015200423 -0.18139951 -0.0952703 -0.07349292
-0.084798284 -0.04390978 -0.093573086 0.26782212 0.05472585 -0.07430567 0.029811341 -0.0015816736
-0.0073758494 0.041897614 -0.059539128 -0.190704 -0.012443584 -0.0026501059 0.050762013 -0.25650463

F.out.bias f4 [5]
00000000: 3900 253c be63 babd c44f 303d f44e 203d
00000010: 9922 a3bd
0.010070854 -0.091010556 0.04304482 0.039137796 -0.07965583

i2h.linears.0.weight f4 [20, 22]
00000000: 9818 babc d0db 943e c1b0 663e 122d 713c
00000010: 7c00 13bd 75c8 343e 9262 8b3e 96a3 4ebd
00000020: ff33 afbe 3efd 22be c00d 0ebd d6f6 643c
00000030: 2b48 a93a 4126 d6be 1ffe 473d 6e11 003c
00000040: 5758 35be 632c 62bd e844 80be 4e1a 26bd
00000050: dd87 9abd ef75 103d f853 7a3e df12 d63d
00000060: 63f2 3f3e 5fcd 4d3d 3412 22be 16d8 e33d
00000070: 7203 db3d af2b 48be 16c4 933d f2d0 22be
00000080: 39f4 9b3e 4320 c23e 9169 58bd 2970 853e
00000090: 01ec 243e a65d b83d c90a eabd 4b10 213d
000000a0: c9e9 df3d e283 473e b17c dfbd cb76 b63c
000000b0: 14b3 92be f8db d63d 391e 29be 1ccf 92bd
000000c0: 48a6 193e 0865 2bbe 6d58 97be c8e5 1c3e
000000d0: 64fc 43be 18ce 5f3d bcb2 6dbd d5e2 d7be
000000e0: 506a 13bc 25a5 2fbe 9d39 4abd 7bf8 adbc
000000f0: f3db 83be 9552 8abd a4f9 ab3c 7603 813e
00000100: 5ead ea3d 7de5 a93a f33b 1f3e 1c22 933e
00000110: 7168 503e 1a85 3b3e c57b 8dbe f57b 1e3e
00000120: 6b11 ad3e 4ddc d3bd 5b39 58be 5d72 d4bd
00000130: 630d 28be 50e2 643e b4e2 1ebe 5d16 ecbc
00000140: 87da 403d e262 843d 9606 593e fc2b d13d
00000150: a59c a03d 5c72 393e b8d4 08be 55c4 a23c
00000160: 0cb9 f3bd af23 f33d 1306 813e 892a 913d
00000170: 7ff7 13bd 583c ff3c b05b 183e 50a9 9fbe
00000180: 7a52 44be 68b5 b9bd e83c 6bbe 91de adbd
00000190: 814b a23c f087 c2be ed36 243d d135 edbd
000001a0: f423 063e d412 743e f35c b2be df62 763d
000001b0: 2c9b 67be 947e b9bc fd52 6c3d 3810 fabb
000001c0: 3268 60be 1fd9 c8bd c4ae 0c3e d3cc 35bd
000001d0: 4b26 29be 5cf7 2c3e 698d e6be 694b bc3d
000001e0: 46ad c7bc d19e b43e b7c3 81bd ac5b f1bd
000001f0: 84e9 55be 6963 3b3d 2270 23bd 149f b13e
00000200: c58e 6c3b 81ef da3e 3723 5e3e 1c8d 2abe
00000210: 30d4 953d 4121 49be 8c56 fdbd bfa7 d13d
00000220: bf52 edbd 452b 79bd 34e3 efbd 0461 e3bd
00000230: 1fae a73e fc88 043c c70e 723d c46d 763e
00000240: a9bf d6bc 1630 4f3e ce5b 60be fcb9 1f3e
00000250: f3bb 193d 60e4 93be 5ecc c03d e4fc cdbd
00000260: 49a9 c53d f7eb 1b3e 0dd5 57bd 3692 e43d
00000270: 3273 75be 536d 70be 371f f63d 1ef0 1d3d
00000280: b12c 89bd fc16 343c 50cb 983a 410b 8d3e
00000290: 377d 193d a710 5abe 3a63 3c3e 47cb 053e
000002a0: a64a 133c d4af d1bd 9ddd 0cbe baed f9be
000002b0: 1510 67bc 68ac 173e 9aae 1e3d 36c4 cc3b
000002c0: 4ced a93c 2128 b63d 39d5 573e b7f3 293c
000002d0: d32a 403d dc22 85bd a21a 9a3c bd44 6e3d
000002e0: 75c4 cfbd 1b7b e83c cc0d 393e 1a79 15bd
000002f0: c891 893d b2e7 62bc 1d54 44be 5f87 ec3d
00000300: a2c7 b0bc b06a 92be 1986 b63d 5b2d 1e3e
00000310: dfd4 f93c 8e06 a8bc 4689 f4be bd6d cdbb
00000320: d200 9abd 09cf f2bd 7a80 783c d0f1 f03c
00000330: 7ad9 09be f8cc 00be 9c7d ab3e 742f 3f3d
00000340: 0ab0 a3be 9123 12be 4987 443d 9710 f63e
00000350: 6822 833c 018b 38bd f590 183e 93d1 61be
00000360: f600 8e3e 4c9c 03be 5e00 67bd bf39 05bc
00000370: 3061 0c3e 0d2a edbc 728b 7c3e 8205 03bc
00000380: 4b2a 003d 4678 a7bd 0f87 c3bd 93df a03d
00000390: 8c67 89be 950f 553e be8d 833e ceb7 2a3e
000003a0: 3eee 913e 4f06 0c3e 5cbf 92be cb22 de3d
000003b0: b488 1bbc a876 d13d 4fbd 48bc 9c25 2b3e
000003c0: 4d50 803e 6dc7 67bd f07f a8be c63c 493e
000003d0: 7a65 243b 2102 973c e23a 29be 668d 173e
000003e0: aad9 21be 462c 6cbe 9488 df3e e62e 1fbd
000003f0: 69a7 05bd cc8a 92be 8505 22be 1bf9 9f3c
-0.022716805 0.29073954 0.22528364 0.014720218 -0.035889134 0.17654593 0.2722364 -0.050448976
-0.34219357 -0.15916917 -0.03468108 0.013974866 0.0012915184 -0.4182606 0.048826333 0.007816656
-0.1770948 -0.05521811 -0.2505257 -0.04055243 -0.07545445 0.03526872 0.24446094 0.10452818
0.18744807 0.050244685 -0.15827256 0.111251995 0.106940165 -0.19547914 0.07215135 -0.15900019
0.30459765 0.3791524 -0.05283505 0.26062134 0.16105653 0.09002237 -0.11427838 0.03932218
0.10933263 0.19483903 -0.10912455 0.022273442 -0.2865225 0.104911745 -0.16515435 -0.07168409
0.15004838 -0.16737759 -0.2955965 0.1532203 -0.19139248 0.054639906 -0.058031783 -0.42165247
-0.008997515 -0.17152841 -0.04937135 -0.021236649 -0.25753745 -0.067540325 0.020993061 0.25197953
0.114588484 0.001296207 0.15550213 0.2873696 0.20352341 0.18312493 -0.2763349 0.15476973
0.3380235 -0.103447534 -0.2111563 -0.103733756 -0.16411357 0.22351956 -0.15516168 -0.028819257
0.047083404 0.06464173 0.21193919 0.102134675 0.078423776 0.18110031 -0.13362396 0.019869009
-0.11900529 0.118720405 0.25199947 0.07088191 -0.036124703 0.031156704 0.14878726 -0.31183863
-0.19172087 -0.090678036 -0.22972453 -0.08489717 0.019811394 -0.37994337 0.040091444 -0.1158253
0.13099653 0.23835307 -0.3483654 0.060152885 -0.22617787 -0.022643365 0.05769633 -0.007631328
-0.21914747 -0.098070376 0.13738543 -0.04438479 -0.16518514 0.16891235 -0.45029762 0.09194071
-0.024374615 0.35277417 -0.06336158 -0.11785063 -0.2088986 0.0457491 -0.03990186 0.3469168
0.003609584 0.42760852 0.21693121 -0.16655391 0.07315862 -0.19641592 -0.12370023 0.10237073
-0.11588048 -0.06083228 -0.117132574 -0.11102489 0.3275003 0.0080893 0.059096124 0.2406531
-0.026214438 0.20233187 -0.2191002 0.15598291 0.037532758 -0.28885174 0.0941398 -0.10058001
0.09651429 0.15226732 -0.052693415 0.111607 -0.23969725 -0.23479204 0.120176725 0.03855907
-0.06697977 0.010991808 0.0011657272 0.2754765 0.03747293 -0.21295415 0.18397227 0.13065825
0.008989966 -0.10238615 -0.13756414 -0.48814183 -0.014102955 0.14811862 0.03874073 0.006248976
0.020743035 0.08894373 0.21077432 0.010373048 0.04691584 -0.065007895 0.018811528 0.058171023
-0.10144893 0.028379014 0.1807167 -0.036492445 0.06717259 -0.013849186 -0.19172712 0.115492575
-0.021579567 -0.2859702 0.08912296 0.15446989 0.030497013 -0.020510938 -0.4776098 -0.0062691853
-0.07519688 -0.11855895 0.01516735 0.02941218 -0.13461867 -0.1257819 0.3349427 0.046676114
-0.31970245 -0.1427138 0.04798058 0.48059532 0.016007617 -0.04505444 0.14899047 -0.22052602
0.27735108 -0.12852591 -0.056396835 -0.0081314435 0.13708949 -0.028950715 0.24662569 -0.007996919
0.031290334 -0.08177237 -0.09547245 0.078551434 -0.26836812 0.20806725 0.25694078 0.16671678
0.28502077 0.13674282 -0.2866162 0.1084648 -0.009493042 0.1022771 -0.012252166 0.16713566
0.25061265 -0.05658667 -0.3291011 0.1965209 0.0025084899 0.018433632 -0.16526368 0.14800033
-0.15805689 -0.23063764 0.43658888 -0.038863085 -0.032630358 -0.2862152 -0.15822418 0.019527962

i2h.linears.0.bias f4 [20]
00000000: 1b95 db3d 44b4 6e3e 0aac 85be a0a2 e83d
00000010: 50a6 983e 9efa 64be e76e 7dbd 76a6 1cbe
00000020: f15d 0e3e 4dc2 3a3e ec36 3bbe 53f8 29be
00000030: ad2f ab3d 7f01 213e 3987 8b3d 66c5 333d
00000040: db06 dfbd 7af4 54bd e0dc 4ebe 338e ff3d
0.10721799 0.23310953 -0.26107818 0.11359143 0.29814386 -0.22361228 -0.061873343 -0.15297875
0.13903023 0.18238182 -0.1828267 -0.16598634 0.08358703 0.15723227 0.06812901 0.043889426
-0.108899795 -0.051990964 -0.20201445 0.12478294

h2o.linears.0.weight f4 [10, 20]
00000000: fdbf e5be cb39 aabe 7d8c 12be d2ac d3be
00000010: dc1d 423e d641 1cbe 791b f8bc f940 14be
00000020: 8cc2 e0be 61c3 ab3d b3cb b6be 39a0 6cbf
00000030: cfd2 093f b70b 6fbd 89c8 e9be f00c 593f
00000040: 2219 2cbf bd0e 9ebd 7897 08bf f8dd 0dbf
00000050: a0d6 2f3e 23ac 203c af1e ac3e bd62 bcbc
00000060: a52c 283e ab30 36be bf3e 0bbd d580 1e3e
00000070: 072b 9d3e 709b c93d 1999 abbd 395c 8d3e
00000080: 6495 d8bc 45ea 753e 8438 4abe f24d 97be
00000090: 9c60 d93c 5ca3 b43e 4285 ba3e a882 03be
000000a0: ce94 513e 54f0 7f3e a474 68be e8d5 0b3e
000000b0: 1b5d 66be f21f 8a3e e280 d03e c3a9 2ebe
000000c0: 0340 143e 2c2e a3bf 0a7d c83e 4844 87bf
000000d0: 38ac 8f3d cff4 33bd 1f52 623e 9eaf df3c
000000e0: 24de 063e ff75 96be bc03 8c3e ddb7 be3e
000000f0: 14b7 7c3e 8b30 85bb f824 95be 8ae1 e23e
00000100: b278 bc3d 3807 533e 4076 47bf 460b b4be
00000110: 368b d1bd 3864 903e ea0b 0b3e ba33 2d3f
00000120: 73d3 09bf 91a8 18bf 7519 3a3f e0eb b93e
00000130: 8ae7 b63e a2bb cbbe a5ec 8b3e c67b 873e
00000140: 644c cebe 4437 b73e 24a0 f8be a69c 8b3e
00000150: 0a00 f9be 939d ed3e 2e9f 293f 1600 c2be
00000160: 36ae c3be cce7 d5bd 5287 6c3e ea5e 21be
00000170: 53e1 e03d e382 03bf 4c81 12bf ec32 0cbf
00000180: fff9 01be 5ba6 debe df61 70be 629a e23e
00000190: c41e e2be 4230 31bf 3a19 103f e01f 15bf
000001a0: f657 2dbf 3bb4 2d3f e8c9 d23e d136 ac3e
000001b0: 1df7 e1bd 73b3 28bf 4028 8b3e ce9f 513f
000001c0: 1a58 dabd 3f4e 92bd 817a 0ebf 9b39 f33e
000001d0: 21f7 163e 2f7d 333d ca88 cd3e 4650 c7be
000001e0: 8750 11bf 4dd1 4ebf 042b 463f 3618 33bf
000001f0: cfe5 2dbf 3072 3b3f a8c1 423e b3d1 d33e
00000200: f167 ccbe 27a3 07bf becf b73e 43eb 1c3f
00000210: 5d1e a7be 2c2e 01bf f343 a8be b85c 073f
00000220: e305 153f ca02 9c3e 414a 643f 0e9e c6be
00000230: b331 e1be 3b87 40bf 453d 273f 6184 3dbf
00000240: 8d74 2ebf 4527 143f c632 5d3e f190 d73e
00000250: 2983 b9be 3aee 05bf fc6f b93e 88b7 e33e
00000260: cd27 84be 93bf 9ebe a3ee 05bf 6d93 c53e
00000270: 04c6 d43e cf8e 893d fc47 173f d007 b1be
00000280: 6850 f1be a0b1 73bf 5da5 203f 379e 17bf
00000290: d3a3 48bf d36f 413f b788 aa3e 480e 133f
000002a0: a827 05bf 66af 3ebf 45d8 9b3e ddf7 593f
000002b0: d505 88be edbf adbe 7ae5 0abf 0b4c f83e
000002c0: 9870 a13e 7684 7d3e 0d9f 1b3f 73db f6be
000002d0: c17d 5bbf 759e 75bf fd15 543f 4fc1 1ebf
000002e0: c0a3 4abf b554 513f 771e 8a3d 9f0f ed3e
000002f0: 1c4b 85be e20a 22bf e8e6 a73e 7b7d 1d3f
00000300: 60a8 febd 2088 56be a953 e1be 6d6d 0a3f
00000310: 5934 163f 5dcc 183e 3cd4 6a3f dfae f1be
-0.44873038 -0.33247218 -0.14311405 -0.4134279 0.18956703 -0.1525949 -0.030286537 -0.1447791
-0.43898427 0.08386875 -0.35702285 -0.9243198 0.53837293 -0.05836078 -0.4566081 0.84785366
-0.6722585 -0.07717655 -0.5335612 -0.5541682 0.17171717 0.009806666 0.3361716 -0.0229963
0.1642328 -0.17792003 -0.033995386 0.15478833 0.3069689 0.098441005 -0.083788104 0.27609423
-0.026438423 0.24015148 -0.19748122 -0.29551655 0.026535325 0.35280883 0.36429793 -0.1284281
0.2046692 0.24994022 -0.22700745 0.13655818 -0.22496454 0.26977497 0.4072333 -0.17056946
0.14477544 -1.2748466 0.39157897 -1.0567713 0.0701527 -0.04393464 0.22101639 0.02730542
0.13170677 -0.293869 0.273466 0.37249652 0.24679214 -0.0040646247 -0.29129767 0.44312698
0.09202708 0.20608222 -0.7791481 -0.3516485 -0.102316305 0.2820146 0.13578764 0.67657053
-0.5383827 -0.5963221 0.72695094 0.3631277 0.35723525 -0.3979159 0.27328983 0.2646162
-0.40292656 0.35784352 -0.48559678 0.2726795 -0.48632842 0.46409282 0.66258514 -0.3789069
-0.3821885 -0.10444602 0.23098496 -0.15758863 0.10980477 -0.5137159 -0.5722854 -0.547652
-0.12693022 -0.43486294 -0.23474835 0.4425841 -0.44164097 -0.6921426 0.5628849 -0.5825176
-0.6771234 0.67853135 0.41169667 0.33635572 -0.11033461 -0.6589882 0.27179146 0.8188447
-0.10661335 -0.071438305 -0.55655676 0.47504887 0.1474271 0.043820556 0.40143424 -0.3892843
-0.567635 -0.8078812 0.77409387 -0.6995882 -0.67928785 0.7322111 0.19019186 0.41370925
-0.3992305 -0.52983326 0.35900682 0.6129648 -0.32640353 -0.5046108 -0.3286434 0.5287585
0.5821211 0.30470878 0.891758 -0.3879246 -0.4398323 -0.75206345 0.65327865 -0.7403012
-0.6814659 0.5787242 0.216014 0.4210277 -0.3623288 -0.5231663 0.3621825 0.4447596
-0.25811616 -0.31005535 -0.52317256 0.3858904 0.41557324 0.06716692 0.59094214 -0.34576273
-0.47131658 -0.9519291 0.62752324 -0.5922579 -0.78374976 0.75561255 0.3330743 0.57443666
-0.52013636 -0.74486387 0.30438438 0.85143834 -0.2656695 -0.3393549 -0.54256403 0.48495516
0.31531215 0.24757561 0.6078957 -0.482143 -0.8573876 -0.9594491 0.8284605 -0.62013716
-0.7915611 0.8176988 0.06744092 0.4630098 -0.26033866 -0.63297856 0.32793355 0.61519593
-0.12434459 -0.20950365 -0.4400914 0.5407322 0.58673626 0.14921708 0.91730094 -0.4720373

h2o.linears.0.bias f4 [10]
00000000: 86e9 7d3d 8fc7 fd3c 4cea 343d 20e1 e6bd
00000010: 1fc3 1b3d 7cd3 81bf 478f 85bf c7c3 8abf
00000020: c68e a1bf 635e 9bbf
0.061990283 0.030978946 0.044168755 -0.11273408 0.03802788 -1.0142665 -1.043435 -1.0840997
-1.2621696 -1.213818

linears.0.weight f4 [20, 5]
00000000: 78b8 0dbe ee84 943e dafb a23d 04d8 693e
00000010: 3a7e 3b3e 18be c7bc 454c 17be e0c8 bcbe
00000020: 06f5 90be fe59 55bd 0b12 a2bd 9744 b2be
00000030: eed2 793e fec5 6b3e 6d18 363e 8c97 e0bc
00000040: afc6 533c 965d 973e ae07 20be d21b c93e
00000050: a150 e7bc 81cc 99bc d1c2 89be 180d 1fbe
00000060: 923e 94be 80e1 da3d 13e8 bebe ffbf aebd
00000070: 29b8 8dbe bc16 cebd b15b 97bd dda6 823e
00000080: 7b46 de3e 3beb 8b3e a124 5f3e d6f4 a2bc
00000090: 5deb 96be 9574 af3d e13d 9abe 5322 273e
000000a0: f32c 7dbd fde1 c23e f497 543e 4516 7f3d
000000b0: 1a74 f33d 457f e2bc 80b9 8a3e fb8d 52be
000000c0: 2b17 acbc dea7 f7be ce62 1ebe c0e6 2cbb
000000d0: e83a eb3d 562c 9e3e 2204 6a3e 6a04 1dbd
000000e0: ada5 f43e 9ffa 26be 69a9 9f3d 24b2 87bd
000000f0: edc8 eebc 0b32 a3be 18de 4fbe 1885 61be
00000100: 0b1e 94bd a6ca 473d 3f5b dfbe 346b 6fbc
00000110: 5711 63be cd1d 05be b915 6d3d 5994 a0be
00000120: fe86 21be 1cd5 50be 3ffe 1ebe 1e52 6a3e
00000130: d1cf 8fbe 0c4f b53e b83b f53c deba 373e
00000140: c71d 7dbd 81d1 c53e 0caa 4fbe 301d 493e
00000150: ded0 bcbd 25e6 373e 23ec 083d 2809 15be
00000160: 4262 88bd 13fc 4ebe 3ae0 46bc 3a09 eb3e
00000170: 194d 963d 89a7 963e bc54 87bc 0ad0 95be
00000180: 37b8 40be d245 9f3e a3e0 90bd 1876 683e
-0.138399 0.29007667 0.07958193 0.2283631 0.1830987 -0.024382636 -0.14775188 -0.36872005
-0.28311938 -0.052087776 -0.07913598 -0.34817955 0.2439687 0.23024747 0.17782755 -0.027416013
0.012925788 0.29563588 -0.1562793 0.39279038 -0.028236689 -0.018774273 -0.26906446 -0.15532339
-0.28953987 0.10687542 -0.37286434 -0.08532714 -0.27679566 -0.1006293 -0.073905356 0.25517932
0.43413147 0.27327904 0.21791317 -0.019892137 -0.29476443 0.08567158 -0.30125335 0.16321687
-0.061810445 0.3806304 0.2076109 0.062277097 0.11887379 -0.027648577 0.2709465 -0.20561974
-0.021007141 -0.4837026 -0.15467378 -0.0026382655 0.11485845 0.308932 0.22853139 -0.038334288
0.4778265 -0.16306542 0.07795984 -0.066257745 -0.029148543 -0.31874117 -0.20299566 -0.22023427
-0.07232293 0.048777245 -0.43624303 -0.014612962 -0.22174583 -0.1299965 0.057882044 -0.3136318
-0.15774152 -0.20393795 -0.15526675 0.22882888 -0.2808824 0.3541187 0.029935703 0.17942378
-0.061795976 0.386364 -0.20279711 0.1964004 -0.09219526 0.17958887 0.033428323 -0.14554274
-0.06659366 -0.20213346 -0.012138421 0.45905477 0.07338924 0.29424694 -0.016519897 -0.29260284
-0.18820272 0.31107956 -0.07074096 0.22701299

linears.0.bias f4 [20]
00000000: a5f4 533b 5303 243e fb6b 933d ad77 05bd
00000010: 3ba9 0d3e e388 82bd 23b6 cf3d 3c02 c83d
00000020: 9a9e 2abd 1c3c 0e3e 2b72 82bd 99e0 0a3e
00000030: 4855 203e 2a67 303e 4393 d63d daf9 0a3e
00000040: 1d54 1d3e 7e4a 063e 6ef3 873e 898e b43d
0.0032341864 0.16016893 0.0719833 -0.032584835 0.13834088 -0.06373765 0.10142162 0.09766051
-0.04165516 0.13890117 -0.06369432 0.1356224 0.15657532 0.17226854 0.10477307 0.13571873
0.15364118 0.13114354 0.2655291 0.08816249

linears.1.weight f4 [2, 20]
00000000: 7ae4 143e 026b 9fbe d208 863e 2074 f03e
00000010: 29f3 27bf 122f 85bc b80c b83e 91ad 1d3e
00000020: 29e7 6f3e 9a19 aabe 56ff 883e cf29 08be
00000030: dfa1 dfbd b193 6bbd 51cd 82be 7f6c fb3e
00000040: a85e 27be adef b3be d7f4 afbc 0063 bd3e
00000050: e55f 663e d0f0 9fbe 479d e0bd f394 e3bd
00000060: 1f69 31be 6d36 e9be 0b95 ab3e 1082 8bbe
00000070: fc85 dc3e ebe7 5c3e 94d3 7d3d 32d7 fc3e
00000080: 2d1b 93be ed84 12bf f582 d8be f172 e0be
00000090: 74ee 0c3f e685 a5bd a187 d93e ac2f 1dbe
0.14540282 -0.31136328 0.26178604 0.46963596 -0.6560541 -0.016257796 0.35947204 0.15398242
0.23428024 -0.33222657 0.26757306 -0.13297199 -0.10919546 -0.057513896 -0.2554727 0.49106213
-0.16344702 -0.35143796 -0.021479053 0.36989594 0.22497518 -0.31238413 -0.10967498 -0.11112394
-0.17325257 -0.45549336 0.33512148 -0.27247667 0.43070972 0.21572845 0.061969355 0.4938293
-0.2873167 -0.5723408 -0.42287412 -0.43837693 0.5505135 -0.0808218 0.4248629 -0.15350217

linears.1.bias f4 [2]
00000000: 7569 78bd bd09 e23b
-0.060647447 0.0068981335

exp_avg f4 [20, 5]
00000000: 3198 7c3f 45d0 f0bf af6b 91c0 2708 9dc0
00000010: 1e35 0cbf f881 c03e fd18 1c40 5f53 99bf
00000020: e3db b5c0 1448 0e3f 409f 523f 4a40 57bf
00000030: 654c 473f 7603 e640 eb8b 99bf 9648 46c0
00000040: fcd4 be3f 3d39 efc0 6e48 963f ffbc 83be
00000050: cb7b cebd 3c44 a83e a870 0bbf 085c aec0
00000060: e709 313f ec6a a2be 845c c8bd 0c01 9cc0
00000070: d84c f1c0 17ca 5a3e 2cd6 35be e15f 9f3f
00000080: 1591 5cc0 2301 bbc0 f1a1 3a3f 5e69 04bf
00000090: 92ea e13f 28c2 eac0 2479 be40 9950 cabf
000000a0: fcd5 233e edc4 9b3f 4ce6 debf 863e c440
000000b0: a1cc 19bf eaba 13bf 5c84 2440 00a0 ac40
000000c0: 9fae 5741 dec1 823b cb6d 1d40 e1c6 dabf
000000d0: df9c 2941 94b0 c13e a3a4 403f ac66 3d40
000000e0: bb29 4b3e 7b3f 2140 4576 9040 7f20 e8bf
000000f0: d048 ac3f de03 51c0 2c90 80c0 a930 b540
00000100: d0f9 19c0 d2cd ab3f 09fb 12bf 21b0 c5bf
00000110: e886 ecc0 6651 a13e b96e ee3f f4e7 81c0
00000120: ef3b b83e e6f0 a53f 4ed8 86bf ec14 44c0
00000130: 3a6c 8340 74a6 a1c0 c185 9a40 3743 493e
00000140: c18e c2be d0bf 9b3f 1317 fac0 927e 663e
00000150: 404b d1bf 5092 423e cecd 6dc0 355a c53f
00000160: a107 b840 9786 58bf 040b 5fbe f210 33c0
00000170: f396 09c1 c9e1 04c1 12ce 34bf 6a8d 8a3f
00000180: a210 f2be b96c c43f 1d2c 17c1 8ee2 643f
0.98669726 -1.8813559 -4.544395 -4.907245 -0.5476855 0.37599158 2.4390252 -1.1978568
-5.6830916 0.5557873 0.82274246 -0.8408247 0.77850944 7.1879225 -1.1995825 -3.0981803
1.4908748 -7.475737 1.1740854 -0.2573013 -0.100822054 0.3286456 -0.54468775 -5.4487343
0.69155735 -0.317222 -0.09783271 -4.875128 -7.5406303 0.21366154 -0.17757481 1.2451135
-3.446355 -5.8438888 0.7290335 -0.5172328 1.764971 -7.3362007 5.9522877 -1.5805846
0.15999597 1.2169472 -1.7414031 6.1326323 -0.60077864 -0.57707083 2.5705786 5.3945312
13.480132 0.003990396 2.4598262 -1.7091943 10.600799 0.3783003 0.75251216 2.9593916
0.19840138 2.5194995 4.514437 -1.8134917 1.3459721 -3.265861 -4.017599 5.66219
-2.4058723 1.3422186 -0.574143 -1.5444375 -7.391468 0.31507415 1.862754 -4.0595646
0.35983226 1.2964141 -1.0534761 -3.063777 4.1069613 -5.051569 4.8288274 0.19654547
-0.37999538 1.2167912 -7.8153167 0.2250922 -1.635109 0.19001126 -3.7156863 1.5418154
5.7509313 -0.8458037 -0.21781546 -2.7979093 -8.599353 -8.305123 -0.7062694 1.0824406
-0.47278315 1.534568 -9.44827 0.89408195

exp_avg_sq f4 [20, 5]
00000000: c039 2a42 38e8 5a43 7f85 8f44 ccbf 1444
00000010: fba7 4a43 1390 c142 b2ea e543 7cbb 9a44
00000020: d36d 3444 ca72 f443 5802 3142 503b 9d43
00000030: 474a f443 3150 6e44 86a4 bc43 b4a2 2e44
00000040: 00be d544 b9aa eb45 4d13 eb44 a5b5 c544
00000050: ea33 ca41 8d7f 3243 fe1f b443 39c7 0b44
00000060: 49e3 4c43 ac46 e842 7951 1c44 af9a da44
00000070: daf9 a644 61b3 0644 3525 8b42 07a7 db43
00000080: c062 1e44 8bf0 3044 e6f7 b143 8a67 9043
00000090: 4115 2544 ff85 8f45 9665 a844 b9e6 4d44
000000a0: 5c62 f141 28a9 eb42 7981 d743 2d11 1844
000000b0: 991c 1443 d84e fc42 13c6 8444 7c40 2c45
000000c0: c5ed 8145 52aa 8444 2e72 3944 01cc e344
000000d0: 1724 0a46 c004 0145 5997 da44 97ee a743
000000e0: 1dfe 7c44 6dc8 3545 2afa ac44 900e 5644
000000f0: 2015 2443 db29 f243 5cd2 4e45 685f 4444
00000100: 5f23 4144 b0bb bc42 a5a0 cd43 3372 9a44
00000110: 02f7 a144 7510 df43 edf9 7c42 721b e243
00000120: c306 f143 04cb 8d43 6e32 7b43 cfd2 dc43
00000130: f908 b344 ab7e 8a45 f7fd e844 0bb1 7644
00000140: 64ae 9243 fdab 3044 321e 8745 c91f 5244
00000150: d13e 3b44 2ba4 db42 47d9 1844 94d6 b044
00000160: 2245 3244 1a32 0f44 1ee3 bf43 9236 aa44
00000170: 6eb7 de45 5a96 3045 7adc a544 8dc0 4543
00000180: 5b76 2644 b970 3345 61ee f844 7bfd 5144
42.556396 218.9071 1148.1718 594.9968 202.65617 96.781395 459.83356 1237.8589
721.716 488.8968 44.25229 314.46338 488.5803 953.253 377.28534 698.54224
1709.9375 7541.3403 1880.6031 1581.6764 25.275349 178.49825 360.24994 559.11285
204.88783 116.13803 625.273 1748.8339 1335.8079 538.8028 69.57267 439.3049
633.54297 707.7585 355.9367 288.8089 660.3321 4592.7495 1347.1746 823.60504
30.173027 117.83038 431.0115 608.2684 148.11171 126.15399 1062.1898 2756.0303
4157.721 1061.3225 741.78406 1822.3751 8841.022 2064.2969 1748.7296 335.86398
1011.9705 2908.5266 1383.8176 856.22754 164.08252 484.327 3309.1475 785.4907
772.5527 94.36658 411.25504 1235.5687 1295.719 446.12857 63.24407 452.21442
482.05283 283.58606 251.19699 441.64694 1432.2804 4431.8335 1863.9364 986.7663
293.36243 706.6873 4323.7744 840.49664 748.9815 109.82064 611.39496 1414.7056
713.0802 572.78284 383.77435 1361.7053 7126.9287 2825.397 1326.8899 197.75215
665.8493 2871.0452 1991.4493 839.96063

exp_avg f4 [20]
00000000: 4cbe 3bc1 ece5 0e41 878c 2ec0 debb 34c2
00000010: 87fe 6140 02ff 67c1 1343 f1c0 4cb5 07c2
00000020: dbff 35c1 b7bc 6240 40f2 4342 5484 d041
00000030: 89a4 a9c1 3204 2d41 295a f13f 00bd 11c2
00000040: 8128 05c2 4222 d7c0 9859 02c2 331f bd41
-11.733959 8.931133 -2.727327 -45.183464 3.53116 -14.499758 -7.539438 -33.927048
-11.374965 3.5427682 48.986572 26.064613 -21.20534 10.813524 1.885564 -36.43457
-33.289555 -6.722932 -32.587494 23.640234

exp_avg_sq f4 [20]
00000000: 1758 cb44 4841 c843 e2f5 5744 5cd1 bf46
00000010: 4c30 3e43 c547 5545 614c 2744 738b 2146
00000020: c64d 8544 070d ce44 0aee d246 5ada 3e46
00000030: f739 8e45 1824 9844 7238 6744 13d3 5446
00000040: 8ec2 2e46 da32 9143 1275 5e46 42bb 7645
1626.7528 400.51 863.8419 24552.68 190.18866 3412.4856 669.1934 10338.862
1066.4304 1648.4071 26999.02 12214.588 4551.2456 1217.1279 924.88196 13620.769
11184.639 290.39728 14237.268 3947.7036
