three_body/params.pth (torch_old, 23254 bytes, 42 tensors)

F.cur.0.linears.0.weight f4 [20, 5]
-0.031017877 -0.14743312 -0.13435894 -0.033104032 -0.052167997 -0.09118612 0.083054155 -0.014093046
-0.075353086 0.028138911 -0.03707997 0.009429467 0.12375099 -0.12633458 0.038362235 0.16878183
-0.017110484 -0.028397243 0.19929807 0.106718495 0.06578978 -0.15007588 -0.18128523 -0.049310755
-0.113803506 0.070169166 -0.01759042 2.4403304e-05 0.07529161 0.13484544 0.045937218 -0.05623087
0.084558904 -0.021300986 -0.097067386 -0.15017949 -0.14008589 -0.0047476557 0.17889227 0.013549347
0.09149039 0.01828708 -0.02114742 -0.0708736 -0.08875285 -0.06631728 0.011213959 0.008295705
0.052544538 0.013646307 0.03530177 0.11774217 0.17673127 -0.052488092 0.032873627 -0.11244622
-0.06747551 -0.03313357 -0.15625085 -0.060144763 0.3039465 0.20358042 0.14107928 -0.03745633
0.0076558213 0.1456005 -0.0021052128 -0.006743033 -0.21284784 0.06645141 0.023377327 0.15839098
-0.055019163 0.02873109 0.05019361 -0.03209117 0.117142394 -0.061039213 0.061993573 -0.11088777
0.04077563 0.080335096 -0.101936065 0.0013486738 -0.05739438 -0.11466591 -0.045098443 0.02655514
0.08163863 0.16261047 0.12122934 0.16197427 -0.007030254 -0.124447994 0.063717335 0.015127219
0.01585554 -0.064550206 0.13733526 0.039762
00000000: 3419 febc b5f8 16be 6495 09be 1898 07bd
00000010: 1cae 55bd cabf babd 4c18 aa3d 85e6 66bc
00000020: b852 9abd 9383 e63c 2be1 17bd 0d7e 1a3c
00000030: 2971 fd3d da5d 01be b821 1d3d 25d5 2c3e
00000040: 492b 8cbc 56a1 e8bc cb14 4c3e 3a8f da3d
00000050: cbbc 863d 7ead 19be d6a2 39be 13fa 49bd
00000060: d011 e9bd dab4 8f3d c919 90bc b2b5 cc37
00000070: 7d32 9a3d ec14 0a3e aa28 3c3d 5752 66bd
00000080: 382d ad3d 687f aebc 44cb c6bd a7c8 19be
00000090: ad72 0fbe 3992 9bbb 892f 373e 15fe 5d3c
000000a0: 505f bb3d c9ce 953c 5b3d adbc 2e26 91bd
000000b0: 0ec4 b5bd 5bd1 87bd c1ba 373c b5ea 073c
000000c0: f138 573d c394 5f3c 9798 103d cf22 f13d
000000d0: 0bf9 343e c1fd 56bd 7fa6 063d 344a e6bd
000000e0: 9a30 8abd 11b7 07bd 3900 20be 5b5a 76bd
000000f0: e09e 9b3e 6377 503e 1677 103e cf6b 19bd
00000100: afdd fa3b 4c18 153e 9cf7 09bb a9f4 dcbb
00000110: c9f4 59be ad17 883d cf81 bf3c 3f31 223e
00000120: c65b 61bd 765d eb3c d197 4d3d 0872 03bd
00000130: 5ae8 ef3d 4104 7abd f9ec 7d3d 2119 e3bd
00000140: 5904 273d ba86 a43d dbc3 d0bd fcc5 b03a
00000150: 5f16 6bbd f6d5 eabd 25b9 38bd 2a8a d93c
00000160: 2732 a73d 5c83 263e 1747 f83d 95dc 253e
00000170: 0c5e e6bb 97de febd 3c7e 823d 28d8 773c
00000180: 7ae3 813c e632 84bd 9da1 0c3e 7bdd 223d

F.cur.0.linears.0.bias f4 [20]
0.01840274 0.015234049 0.03700311 -0.052846882 -0.091591135 -0.03739844 0.044332836 0.07839822
-0.06911856 -0.07972767 0.05604743 -0.06721002 0.02690032 -0.037603457 -0.035645295 0.0014514215
-0.08290032 0.0015654187 0.024467126 0.04270371
00000000: 58c1 963c 3c98 793c 9390 173d f975 58bd
00000010: 2294 bbbd 1b2f 19bd 5996 353d 3f8f a03d
00000020: 088e 8dbd 4348 a3bd fd91 653d 68a5 89bd
00000030: 0f5e dc3c 1506 1abd cd00 12bd a03d be3a
00000040: a5c7 a9bd bc2e cd3a 486f c83c 16ea 2e3d

F.nbr.0.linears.0.weight f4 [20, 10]
-0.022640025 -0.010579339 0.022430064 0.029735845 0.010517179 0.035039227 0.024179347 0.0205033
0.049189333 0.03526847 0.11387647 -0.079097405 -0.009722379 -0.03150422 0.115082435 -0.1257901
-0.07376557 -0.0059771333 0.10941543 0.02899381 -0.017821934 0.050973374 -0.01668461 0.055328384
0.03315829 0.23671669 0.04032965 -0.0049123876 -0.16728653 0.09765481 0.03355865 0.03649852
-0.009788772 -0.11596245 -0.07815711 -0.10136425 -0.095625855 -0.10502687 -0.12914136 0.16478609
-0.09722337 -0.24382967 -0.0024889 0.2003178 -0.0407755 -0.054136723 -0.28606704 -0.10279825
0.029245928 -0.10683702 0.012569969 -0.083139084 -0.10865957 -0.044824112 -0.009582015 0.12987998
0.034959637 -0.028629012 -0.035951942 0.10978588 -0.009709324 0.048972625 0.014197872 -0.059509598
-0.043767825 -0.022165345 0.024549723 -0.036431257 -0.0043969066 0.0726134 0.12307711 0.14987952
0.34427235 0.29158 -0.10314425 -0.036877956 0.12635532 0.11804329 -0.043133207 -0.015083818
-0.09641598 0.12811457 -0.03113689 -0.06242399 -0.017200131 0.015856817 -0.07944138 0.03975145
0.055493604 0.11477661 -0.01401009 0.07107938 0.028349143 0.02610577 -0.07165291 0.23152907
-0.023423146 0.077210106 -0.025618117 -0.0922082 0.031595867 0.13808094 -0.001978534 0.12566255
-0.076869495 -0.096169434 0.056770716 -0.119140096 0.037141535 0.023920305 -0.16174176 0.17279291
-0.03125323 0.04155514 0.20604423 0.13480367 -0.03297092 0.047772292 0.047887504 -0.014360723
0.11798591 -0.14738618 0.1455152 -0.041215822 -0.05009128 0.11290371 0.004756027 -0.06043837
-0.055177364 -0.09930015 0.026668888 -0.0014308125 0.048204 0.074233696 -0.009482187 0.05438439
0.06577661 0.1478029 -0.071083955 0.14192739 -0.055652857 -0.027687473 -0.07706005 0.10288261
-0.16669318 0.090200044 0.23558193 -0.15018661 -0.12897117 0.004165004 -0.053665496 -0.015588446
-0.13455886 -0.0054363916 -0.18535835 0.09683607 -0.1292251 -0.10487192 0.1772501 0.26617086
-0.038718462 -0.046859592 -0.095200114 0.053171925 -0.17590478 0.12848958 -0.18840505 -0.0345457
-0.16475499 0.041011892 0.056047548 0.042574164 0.108234674 0.15123428 -0.035095155 -0.08184729
0.10137557 0.09634975 -0.07474426 -0.035721384 -0.14061958 -0.113252394 -0.10799968 -0.04822314
-0.10223743 0.008844171 0.04552129 -0.19327737 -0.18963762 -0.057841565 -0.047165412 0.072708115
0.089880764 -0.05567895 0.209707 0.18565263 -0.014661105 -0.15287519 0.05780835 0.03600677
00000000: 9377 b9bc f754 2dbc 41bf b73c 9698 f33c
00000010: 3f50 2c3c 4b85 0f3d c413 c63c 89f6 a73c
00000020: c17a 493d ac75 103d 1138 e93d d2fd a1bd
00000030: 9d4a 1fbc 920a 01bd 57b0 eb3d 1fcf 00be
00000040: 6712 97bd d4db c3bb 3215 e03d 6d84 ed3c
00000050: 4eff 91bc 75c9 503d 2aae 88bc 04a0 623d
00000060: fdd0 073d dc65 723e b430 253d 18f8 a0bb
00000070: 294d 2bbe 3fff c73d cc74 093d 797f 153d
00000080: 1661 20bc b97d edbd d610 a0bd 0f98 cfbd
00000090: 7dd7 c3bd 5418 d7bd a23d 04be afbd 283e
000000a0: 0c1d c7bd 7cae 79be d01c 23bb 1c20 4d3e
000000b0: 3604 27bd 78be 5dbd 6177 92be e487 d2bd
000000c0: 2895 ef3c 5ecd dabd 45f2 4d3c d344 aabd
000000d0: e988 debd 7d99 37bd e2fd 1cbc 42ff 043e
000000e0: d631 0f3d 6487 eabc 5842 13bd 6bd7 e03d
000000f0: db13 1fbc 8597 483d 319e 683c 56c0 73bd
00000100: e445 33bd 1994 b5bc 801c c93c f138 15bd
00000110: ed13 90bb 56b6 943d da0f fc3d 047a 193e
00000120: 7744 b03e f949 953e 4b3d d3bd 570d 17bd
00000130: 4a63 013e aec0 f13d 72ac 30bd 1e22 77bc
00000140: be75 c5bd 7730 033e cb12 ffbc 4cb0 7fbd
00000150: 4ae7 8cbc 28e6 813c 2ab2 a2bd 6bd2 223d
00000160: 434d 633d 0010 eb3d 948a 65bc 1192 913d
00000170: 763c e83c c5db d53c c3be 92bd f515 6d3e
00000180: e6e1 bfbc 5520 9e3d 16dd d1bc a7d7 bcbd
00000190: ab6a 013d 1765 0d3e 4baa 01bb afad 003e
000001a0: c16d 9dbd 7bf4 c4bd 6988 683d b9ff f3bd
000001b0: b921 183d 84f4 c33c a29f 25be a0f0 303e
000001c0: 6303 00bd b935 2a3d 42fd 523e f909 0a3e
000001d0: 840c 07bd e1ac 433d b025 443d 3d49 6bbc
000001e0: 99a2 f13d 67ec 16be f001 153e ecd1 28bd
000001f0: 842c 4dbd 0f3a e73d 72d8 9b3b 398e 77bd
00000200: a901 62bd e15d cbbd b678 da3c 1a8a bbba
00000210: 8f71 453d d607 983d 2d5b 1bbc 2bc2 5e3d
00000220: e3b5 863d a559 173e 7794 91bd 6a55 113e
00000230: 40f4 63bd d7d0 e2bc a9d1 9dbd 1eb4 d23d
00000240: 9eb1 2abe cdba b83d 643c 713e 85ca 19be
00000250: 0511 04be 967a 883b 5ad0 5bbd ae66 7fbc
00000260: ccc9 09be c223 b2bb 94ce 3dbe fd51 c63d
00000270: 9653 04be 17c7 d6bd 0d81 353e 8c47 883e
00000280: 4097 1ebd d8ef 3fbd 47f8 c2bd ceca 593d
00000290: 6220 34be c692 033e 41ed 40be cb7f 0dbd
000002a0: 88b5 28be 16fc 273d 1d92 653d 3f62 2e3d
000002b0: 24aa dd3d 29dd 1a3e f0bf 0fbd 8d9f a7bd
000002c0: ff9d cf3d 0553 c53d 8513 99bd 9650 12bd
000002d0: 94fe 0fbe dff0 e7bd f02e ddbd a185 45bd
000002e0: dc61 d1bd 24e7 103c 8874 3a3d 81ea 45be
000002f0: 5d30 42be 47eb 6cbd 8530 41bd fee7 943d
00000300: 6813 b83d 9c0f 64bd 6fbd 563e b91b 3e3e
00000310: 2235 70bc 508b 1cbe 73c8 6c3d d67b 133d

F.nbr.0.linears.0.bias f4 [20]
0.077411756 -0.006175323 -0.07818436 -0.055958044 -0.00029436598 0.01973505 0.02652237 -0.09923386
0.040061593 0.023136083 0.013772242 -0.04320116 -0.0858884 0.08673497 0.059084088 0.08838018
-0.020879809 0.03159771 -0.029687684 -0.03413215
00000000: 0e8a 9e3d 5d5a cabb 1f1f a0bd 4334 65bd
00000010: 2255 9ab9 66ab a13c 7145 d93c 1f3b cbbd
00000020: a017 243d e287 bd3c f8a4 613c b3f3 30bd
00000030: 42e6 afbd 1ba2 b13d 2802 723d ab00 b53d
00000040: 220c abbc 9a6c 013d 9633 f3bc 27ce 0bbd

F.out.weight f4 [5, 40]
0.022631492 -0.05033384 -0.116206095 0.029671442 -0.15594336 0.10379956 -0.13832816 0.044459287
-0.14756049 -0.07360435 0.062289484 -0.10020639 -0.07137475 -0.18521355 -0.17200246 -0.02005366
-0.08533776 0.09487036 -0.027087806 -0.009433005 0.07565321 0.00294964 0.052308947 0.0012500258
0.1812262 0.10897111 0.21634676 0.09343291 -0.021224566 -0.029671144 0.07453807 0.06730062
-0.12490756 0.043716338 0.08742049 0.11500689 0.013705678 -0.07607212 0.21037555 -0.04719657
0.07016123 0.0714149 0.17651507 -0.062529616 -0.04153092 0.035983063 0.04774616 -0.0618779
0.013113905 -0.1497479 -0.079673655 0.047230616 -0.017031541 0.02525848 0.07304486 0.04181614
-0.04776545 0.008901603 0.03124448 0.086831875 -0.18961394 0.023082761 -0.03266192 -0.12304791
0.042046677 0.23782454 -0.042631935 0.056698024 -0.068793885 0.005405401 0.19782247 0.08843486
0.021880068 -0.22731969 0.018215647 -0.055965748 0.15729678 0.037080284 0.038692858 -0.12955073
0.02493286 4.3755972e-05 -0.12534806 0.14693114 -0.11398006 0.08065797 0.07731862 -0.050716564
-0.05785078 0.048334677 0.027497154 0.185694 0.18095325 -0.08360133 0.22481975 0.09334017
-0.04567546 -0.08193945 0.25545105 0.20715363 0.0068015964 -0.011069694 -0.028645778 -0.0029297445
0.09698994 -0.010097154 -0.008391486 -0.053097863 -0.00950861 0.30198243 0.023841692 -0.052555252
0.03267405 0.00793972 0.18223196 0.2114041 0.029717013 0.10339905 -0.21486908 -0.06485002
-0.225729 0.033975165 0.025863621 -0.0624433 0.029265951 -0.011756625 0.17341354 0.02994701
0.20722903 -0.18792509 0.14671592 -0.038067516 0.087896556 0.124789014 -0.10525778 0.21356401
-0.0172896 -0.16878147 -0.08796636 0.13516928 -0.15178262 0.04414037 -0.10963626 0.030203922
0.04555992 -0.0067390576 -0.06938496 -0.086124204 -0.03819819 0.11014003 -0.14076744 0.21662442
0.13188843 0.088646024 0.07713123 0.06317719 -0.008161462 0.041153554 0.08653158 -0.056023043
-0.04475188 0.121049024 -0.11032944 0.031997684 -0.032924276 0.017510641 -0.054366548 -0.06338773
0.1658841 0.084868364 -0.12296162 -0.10337428 0.01733001 -0.05485743 0.058540486 0.053176824
-0.12524354 0.063613474 0.16969521 -0.098657496 0.056036573 0.065279044 -0.05057448 -0.018672423
-0.03389423 0.10683494 0.13149916 -0.061164655 0.058459293 -0.09088564 -0.18453713 -0.082562104
-0.0053126626 0.1918872 0.017589133 0.15512405 0.051285993 0.11010124 0.15552455 -0.04078237
00000000: ae65 b93c db2a 4ebd 76fd edbd 8611 f33c
00000010: 9eaf 1fbe dd94 d43d e6a5 0dbe f11a 363d
00000020: 191a 17be e1bd 96bd 4223 7f3d 0239 cdbd
00000030: ed2c 92bd 9fa8 3dbe 6a21 30be 9347 a4bc
00000040: 90c5 aebd 644b c23d 3fe7 ddbc e48c 1abc
00000050: 12f0 9a3d bf4e 413b e841 563d e8d7 a33a
00000060: 5c93 393e 3f2c df3d 018a 5d3e c159 bf3d
00000070: 24df adbc e610 f3bc 6aa7 983d e8d4 893d
00000080: 89cf ffbd e70f 333d 8409 b33d bb88 eb3d
00000090: c88d 603c b3cb 9bbd b06c 573e 3151 41bd
000000a0: b1b0 8f3d fa41 923d 5ec0 343e 870f 80bd
000000b0: 531c 2abd fa62 133d 7a91 433d ae73 7dbd
000000c0: b4db 563c 8357 19be f12b a3bd e474 413d
000000d0: bb85 8bbc dfea ce3c 8b98 953d 6747 2b3d
000000e0: b4a5 43bd 07d8 113c 6cf4 ff3c e9d4 b13d
000000f0: 282a 42be 0f18 bd3c 81c8 05bd 8b00 fcbd
00000100: 2339 2c3d 4788 733e d39e 2ebd 303c 683d
00000110: cfe3 8cbd ca1f b13b f991 4a3e 561d b53d
00000120: d43d b33c 7ec6 68be fb38 953c 573c 65bd
00000130: 6812 213e 7fe1 173d 677c 1e3d f2a8 04be
00000140: ff3f cc3c 9e86 3738 3e5b 00be 1e75 163e
00000150: 616e e9bd 0130 a53d 3a59 9e3d 2cbc 4fbd
00000160: f1f4 6cbd 95fa 453d b641 e13c 9126 3e3e
00000170: cf4b 393e 2d37 abbd 2637 663e 2229 bf3d
00000180: 3116 3bbd dfcf a7bd 7bca 823e 1520 543e
00000190: eddf de3b a95d 35bc 8daa eabc f500 40bb
000001a0: a9a2 c63d 896e 25bc 717c 09bc 257d 59bd
000001b0: 00ca 1bbc 719d 9a3e a74f c33c 2d44 57bd
000001c0: 3ad5 053d 9915 023c 049b 3a3e 517a 583e
000001d0: 1871 f33c e2c2 d33d a406 5cbe 16d0 84bd
000001e0: 8125 67be 8b29 0b3d f2df d33c 8cc4 7fbd
000001f0: 26bf ef3c dc9e 40bc 5293 313e 6f53 f53c
00000200: d933 543e 6f6f 40be b33c 163e afec 1bbd
00000210: 1c03 b43d 6291 ff3d 6491 d7bd 86b0 5a3e
00000220: eba2 8dbc 0dd5 2cbe b527 b4bd d169 0a3e
00000230: e76c 1bbe 88cc 343d fa88 e0bd 376e f73c
00000240: 0a9d 3a3d 50d3 dcbb b419 8ebd e361 b0bd
00000250: b575 1cbd 1991 e13d 5725 10be cbd2 5d3e
00000260: c30d 073e 0c8c b53d faf6 9d3d 0b63 813d
00000270: a7b7 05bc a190 283d 7837 b13d 6b78 65bd
00000280: bf4d 37bd 8de8 f73d 67f4 e1bd 0110 033d
00000290: 9bdb 06bd 7a72 8f3c 75af 5ebd 6dd1 81bd
000002a0: 86dd 293e 77cf ad3d 4dd3 fbbd e5b5 d3bd
000002b0: aaf7 8d3c 2fb2 60bd 26c8 6f3d f1cf 593d
000002c0: d83f 00be c847 823d 95c4 2d3e f10c cabd
000002d0: 9b86 653d 05b1 853d 3027 4fbd e9f6 98bc
000002e0: add4 0abd 47cc da3d b7a7 063e ca87 7abd
000002f0: 0373 6f3d 4022 babd 4df7 3cbe 5216 a9bd
00000300: d815 aebb 147e 443e 1617 903c d7d8 1e3e
00000310: 4311 523d c27c e13d d441 1f3e 6a0b 27bd

F.out.bias f4 [5]
-0.09093369 0.014154344 -0.047760334 0.019909164 -0.050672643
00000000: 713b babd 9fe7 673c 57a0 43bd 8b18 a33c
00000010: 1e8e 4fbd

i2h.linears.0.weight f4 [20, 22]
-0.1264194 0.1351885 0.2740204 0.046497893 0.048718046 -0.08322799 0.071667425 -0.010637985
0.21452819 0.009042182 -0.1148051 -0.018640798 0.050415147 -0.05610809 0.05290416 -0.05812251
0.08735623 0.08574922 -0.20031336 -0.118514456 0.04389548 -0.053766448 -0.035152495 -0.07834802
-0.01885482 0.25922984 0.14666146 0.09846496 -0.035904475 0.018712431 -0.05265705 0.0658532
0.03628013 0.055198178 0.12017349 -0.08828575 -0.12123098 0.062090397 0.031141732 0.03166815
-0.028126318 0.035267737 -0.06572637 -0.02060855 -0.011982568 0.072395995 -0.048716184 -0.17754938
0.0191114 -0.06547931 -0.19351338 -0.09297183 0.06900997 0.035895973 0.08284756 0.015645538
0.028778875 -0.18619184 0.11964982 0.036787815 -0.13187256 0.046242867 -0.017362162 -0.19692625
0.072274454 0.094109975 0.084918275 0.06490856 -0.042584058 -0.0022926556 0.16546428 -0.0540947
0.09665952 0.066206664 -3.7095742e-07 -0.19476706 -0.015786238 -0.23852366 -0.12485523 -0.23173764
-0.05998337 -0.12579085 -0.2006562 -0.061459992 0.00745883 -0.10458969 0.018654078 -0.008516347
-0.13051435 0.006651471 0.031705078 0.10733582 -0.17314473 0.015495876 -0.18877284 -0.07976528
0.13770793 -0.013955401 -0.0047242274 0.0036477207 0.1815318 0.007853577 -0.0071485913 -0.060329463
0.100647755 -0.0738614 0.104830675 -0.040112544 0.05227017 -0.010822848 -0.123415016 -0.013104455
0.08453808 -0.06888377 0.09331294 0.047270626 0.0835882 0.03816262 -0.026646024 0.008912692
0.024165632 0.049023364 -0.12619905 -0.09907261 0.1506356 -0.059046216 -0.04216817 -0.16043714
-0.06550227 -0.1462033 -0.08620508 -0.05209818 -0.07581941 0.06687526 -0.024505123 0.055690687
0.093727715 0.07351161 0.17700307 -0.0280489 -0.07951737 0.021395499 0.036195293 0.01963158
0.061222237 0.057094447 -0.04724584 0.056202177 0.055703405 -0.048696686 -0.15203264 -0.03232766
-0.10906159 0.038773246 0.257019 -0.033483405 -0.113637395 0.07456007 -0.10166619 0.2215036
0.040493052 0.11692284 0.1859811 0.019860288 -0.03200095 -0.056524977 -0.035320234 -0.15009598
0.028690256 0.029784508 0.10361533 -0.07972418 -0.053198982 -0.048115004 0.086216174 0.12880997
-0.00069462904 -0.17105135 -0.033709686 0.0073002693 0.04853523 -0.06450809 0.12675576 -0.04450142
0.024581118 -0.12270649 -0.03215291 0.056957975 -0.16912375 -0.051706396 0.13040328 0.0105554955
-0.044653814 0.04874502 -0.09175164 -0.061411437 -0.116908304 -0.117200255 -0.09259655 -0.06387675
-0.19136025 0.15582734 0.054432318 0.08705132 0.010601113 0.02188245 0.09348076 -0.06620268
0.047666755 -0.054011486 -0.12306575 -0.06543248 0.028645411 -0.111309074 -0.020929366 0.096346796
0.11480777 0.10979072 0.09059964 -0.11654027 -0.1504463 -0.12832539 0.09433234 -0.12197246
-0.029640537 0.14789243 0.020258745 0.016312353 0.049792428 -0.17068124 -0.28299683 -0.03682548
0.03587367 -0.2014896 0.053123504 0.0047642235 -0.10054347 0.13358817 0.023342773 0.040285807
0.03908283 -0.03346772 0.076549664 -0.078990705 0.13004196 -0.1582906 -0.13733555 0.16765751
0.035008185 -0.076614074 -0.15615958 -0.047048025 0.10980122 0.12111145 0.048227817 0.16405691
00000000: 1674 01be db6e 0a3e 674c 8c3e 9374 3e3d
00000010: 938c 473d 7073 aabd 5fc6 923d f14a 2ebc
00000020: 47ad 5b3e a925 143c f01e ebbd 96b4 98bc
00000030: 1d80 4e3d 99d1 65bd 08b2 583d de11 6ebd
00000040: d3e7 b23d 499d af3d f21e 4dbe b5b7 f2bd
00000050: bfcb 333d 353a 5cbd 10fc 0fbd ed74 a0bd
00000060: 6c75 9abc c6b9 843e 6c2e 163e ffa7 c93d
00000070: 9210 13bd d04a 993c ebae 57bd 0bde 863d
00000080: 799a 143d 7c17 623d 851d f63d 29cf b4bd
00000090: f347 f8bd 8052 7e3d f21c ff3c 76b6 013d
000000a0: 2a69 e6bc e774 103d 8c9b 86bd 43d3 a8bc
000000b0: 8852 44bc 5a44 943d 9f8a 47bd 81cf 35be
000000c0: 838f 9c3c 041a 86bd 5f28 46be 0468 bebd
000000d0: 1955 8d3d a807 133d fbab a93d 122b 803c
000000e0: adc1 eb3c 13a9 3ebe f70a f53d d2ae 163d
000000f0: 9a09 07be 2969 3d3d 183b 8ebc 09a7 49be
00000100: a104 943d bbbc c03d a2e9 ad3d c7ee 843d
00000110: 9f6c 2ebd 6140 16bb 786f 293e 6792 5dbd
00000120: 6df5 c53d 5c97 873d 0028 c7b4 0471 47be
00000130: 2452 81bc 8c3f 74be 19b4 ffbd a24c 6dbe
00000140: 1fb1 75bd 51cf 00be d278 4dbe 79bd 7bbd
00000150: 3369 f43b 1f33 d6bd 70d0 983c 2688 0bbc
00000160: 8ea5 05be 95f4 d93b 2fdd 013d e2d2 db3d
00000170: da4c 31be 6ae2 7d3c ab4d 41be fb5b a3bd
00000180: 4f03 0d3e 32a5 64bc b1cd 9abb 990e 6f3b
00000190: 79e3 393e 4aac 003c bb3e eabb 071c 77bd
000001a0: 6920 ce3d a544 97bd 77b1 d63d 0d4d 24bd
000001b0: 3f19 563d 5152 31bc 03c1 fcbd 11b4 56bc
000001c0: 4d22 ad3d ef12 8dbd db1a bf3d d89e 413d
000001d0: 4a30 ab3d 6850 1c3d c348 dabc 8a06 123c
000001e0: 01f7 c53c b9cc 483d 533a 01be 95e6 cabd
000001f0: 3840 1a3e 72da 71bd 88b8 2cbd a249 24be
00000200: 0e26 86bd 51b6 15be 4a8c b0bd e764 55bd
00000210: 3547 9bbd e5f5 883d f8be c8bc eb1b 643d
00000220: 51f4 bf3d 418d 963d 4b40 353e cfc6 e5bc
00000230: 01da a2bd 9d45 af3c 8441 143d 68d2 a03c
00000240: 2bc4 7a3d dedb 693d db84 41bd 4134 663d
00000250: 4129 643d 2d76 47bd 72ae 1bbe 026a 04bd
00000260: af5b dfbd b2d0 1e3d ff97 833e e525 09bd
00000270: b9ba e8bd f3b2 983d 5d36 d0bd d7d1 623e
00000280: 0bdc 253d 3e75 ef3d d471 3e3e 0bb2 a23c
00000290: 6e13 03bd bc86 67bd f3ab 10bd c3b2 19be
000002a0: d407 eb3c a4fe f33c 4634 d43d 6e46 a3bd
000002b0: 2de7 59bd 3d14 45bd 1b92 b03d c3e6 033e
000002c0: c417 36ba 1628 2fbe 2b13 0abd 1937 ef3b
000002d0: e1cc 463d d11c 84bd 43cc 013e 1f47 36bd
000002e0: 575e c93c 8a4d fbbd c5b2 03bd c44c 693d
000002f0: c72e 2dbe 16ca 53bd 7088 053e f5f0 2c3c
00000300: ebe6 36bd dca8 473d 49e8 bbbd 8f8a 7bbd
00000310: 9f6d efbd b006 f0bd 43a3 bdbd d0d1 82bd
00000320: f1f3 43be 3491 1f3e 6cf4 5e3d f647 b23d
00000330: 4ab0 2d3c d342 b33c d772 bf3d 4595 87bd
00000340: 373e 433d 263b 5dbd e509 fcbd 7701 86bd
00000350: c8a9 ea3c 03f6 e3bd 1074 abbc 7851 c53d
00000360: 5620 eb3d f5d9 e03d 4e8c b93d aaac eebd
00000370: 980e 1abe bb67 03be 5031 c13d b2cc f9bd
00000380: b6d0 f2bc 1d71 173e abf5 a53c 7ca1 853c
00000390: 25f3 4b3d 10c7 2ebe f6e4 90be 51d6 16bd
000003a0: 45f0 123d 4a53 4ebe 0898 593d 341d 9c3b
000003b0: bce9 cdbd 56cb 083e 5839 bf3c bb02 253d
000003c0: 5115 203d 7315 09bd 12c6 9c3d e1c5 a1bd
000003d0: b829 053e ee16 22be b1a1 0cbe 69ae 2b3e
000003e0: be64 0f3d d7e7 9cbd 4ce8 1fbe 6eb5 40bd
000003f0: 76df e03d 4809 f83d 888a 453d 89fe 273e

i2h.linears.0.bias f4 [20]
0.042838898 -0.08715339 -0.08701848 0.09396285 -0.049106974 0.05813709 0.09188348 -0.023503356
-0.029347593 0.016128805 0.09431642 0.054760218 0.0027114695 -0.07859857 -0.003364457 0.07766777
0.018537115 -0.09708089 -0.058254857 -0.04084374
00000000: d777 2f3d 7a7d b2bd bf36 b2bd 986f c03d
00000010: 6524 49bd 2821 6e3d 682d bc3d 1c8a c0bc
00000020: 5d6a f0bc 8e20 843c f828 c13d 404c 603d
00000030: e9b2 313b 49f8 a0bd 397e 5cbb 4810 9f3d
00000040: 26db 973c 58d2 c6bd a59c 6ebd c44b 27bd

h2o.linears.0.weight f4 [10, 20]
-0.07042698 -0.0105220955 0.011311252 -0.031636562 -0.0440227 -0.06833496 0.16039424 0.19652782
-0.001692822 0.1444557 -0.039530095 0.09492516 0.0020285053 0.010074876 0.04324899 0.14269197
-0.026440946 -0.11810947 -0.052195933 -0.014011731 -0.09510818 -0.11206531 -0.055636235 0.0050580353
-0.14477737 0.037902202 -0.052912023 -0.13504076 0.04484063 0.037458234 0.012168348 0.1439896
0.12650691 -0.035513163 -0.12444663 0.007980091 -0.09460612 0.061628774 -0.079747744 -0.017151754
0.14669673 -0.009994037 -0.053295095 -0.08123255 0.09635788 0.0987774 -0.050676897 0.0847378
-0.0077590304 0.12494965 -0.062481612 -0.06585009 -0.108098954 0.059431497 -0.1499396 -0.043491017
-0.017004656 0.028696366 0.10421013 0.067263484 -0.09130196 -0.09231095 0.06556099 0.14957924
-0.043236986 -0.051600795 -0.05381299 -0.12589999 -0.063912734 0.18096262 -0.1353353 0.108384736
0.023588303 -0.040668223 0.089401565 -0.03303964 -0.1332294 -0.09748101 -0.20290415 -0.008904464
-0.07606473 0.026249152 -0.07887213 -0.09267479 0.059486303 -0.037866335 0.088698015 0.15348433
0.06531888 -0.05480424 0.028271928 -0.15976526 0.16619161 0.039103482 -0.014798685 -0.06796023
0.051400233 -0.06456348 0.12608024 -0.042622123 0.03040288 0.07187134 0.12934148 0.046193462
0.07701314 -0.02687118 0.043464534 0.07817718 -0.15537648 -0.018825004 -0.06615088 -0.06132579
0.058944438 0.07143248 0.10405974 -0.074837536 0.0062069795 0.15176813 -0.21140774 -0.10814441
-0.009728782 -0.116114244 0.08326796 -0.03410517 0.031431187 0.29812282 -0.029209347 -0.07295004
-0.15621844 0.070829 -0.049950078 -0.13723832 0.10661051 0.07709942 0.07391687 0.0854166
0.044804174 0.009305384 -0.0045035407 -0.06284909 0.1362986 0.1199477 -0.0622048 0.09227546
0.06354027 0.11735933 -0.052336738 0.04877987 -0.0037639835 -0.0880385 0.14682364 -0.16929366
0.059668243 -0.05318742 0.041580904 -0.04805194 0.15784176 -0.071053244 -0.18626817 0.043458804
-0.20750062 -0.031007925 0.063446805 0.033997685 0.015081323 0.17196716 -0.0013148623 -0.006511287
0.18306202 -0.072665475 -0.08376538 -0.027623586 -0.06352988 -0.03155715 0.07311825 0.083726
0.09081628 0.17106801 -0.14100063 0.34522343 0.104185484 0.050736286 0.021785108 0.0951975
0.1639502 -0.08453308 0.12222338 0.055543102 -0.0727554 -0.07278195 -0.052614477 0.12908223
-0.16317189 0.021126507 -0.018783892 0.123147234 0.07959683 -0.15613402 -0.11109205 -0.21034583
00000000: 053c 90bd de64 2cbc d452 393c 5795 01bd
00000010: 2651 34bd 33f3 8bbd 633e 243e 973e 493e
00000020: aee1 ddba 32ec 133e 4fea 21bd 1f68 c23d
00000030: acf0 043b 1811 253c da25 313d d81d 123e
00000040: af9a d8bc 61e3 f1bd 67cb 55bd 7691 65bc
00000050: 14c8 c2bd 7f82 e5bd d2e2 63bd e0bd a53b
00000060: 8540 14be 573f 1b3d 47ba 58bd 2048 0abe
00000070: cfaa 373d ce6d 193d c05d 473c 0272 133e
00000080: 078b 013e 4076 11bd e0dd febd edbe 023c
00000090: dac0 c1bd 746e 7c3d c952 a3bd d681 8cbc
000000a0: ab37 163e 08be 23bc f54b 5abd 405d a6bd
000000b0: 4857 c53d ce4b ca3d 9492 4fbd 038b ad3d
000000c0: 773f febb 9ae5 ff3d b8ec 7fbd 69dc 86bd
000000d0: fc62 ddbd 716e 733d c489 19be a323 32bd
000000e0: 594d 8bbc a414 eb3c 1f6c d53d 70c1 893d
000000f0: 86fc babd 860d bdbd d744 863d 4d2b 193e
00000100: 4419 31bd 5b5b 53bd 036b 5cbd edeb 00be
00000110: aee4 82bd 444e 393e 5695 0abe d1f8 dd3d
00000120: 423c c13c b993 26bd 2b18 b73d 9354 07bd
00000130: 4a6d 08be 20a4 c7bd 1bc6 4fbe 07e4 11bc
00000140: d3c7 9bbd 7608 d73c b687 a1bd 48cc bdbd
00000150: e9a7 733d bb19 1bbd 4ea7 b53d ff2a 1d3e
00000160: e8c5 853d 697a 60bd 889a e73c 8199 23be
00000170: 222e 2a3e f92a 203d 2f76 72bc bc2e 8bbd
00000180: 0d89 523d dc39 84bd 2e1b 013e 8994 2ebd
00000190: 760f f93c 4831 933d 1872 043e 5b35 3d3d
000001a0: 11b9 9d3d f320 dcbc de07 323d 5b1b a03d
000001b0: 031b 1fbe e536 9abc 1d7a 87bd c030 7bbd
000001c0: b96f 713d 314b 923d 461d d53d 6c44 99bd
000001d0: eb63 cb3b 1b69 1b3e 457b 58be d17a ddbd
000001e0: 7865 1fbc 4ecd edbd 6488 aa3d ddb1 0bbd
000001f0: fdbd 003d 8ea3 983e 7148 efbc d566 95bd
00000200: baf7 1fbe cb0e 913d 7498 4cbd 3488 0cbe
00000210: 9c56 da3d 4de6 9d3d ba61 973d e6ee ae3d
00000220: 9584 373d 9c75 183c 7092 93bb 06b7 80bd
00000230: dc91 0b3e 24a7 f53d 76ca 7ebd ebfa bc3d
00000240: 6721 823d 175a f03d 0c5f 56bd 67cd 473d
00000250: 2aad 76bb 874d b4bd f058 163e 515b 2dbe
00000260: b066 743d 0ddb 59bd bd50 2a3d 1cd2 44bd
00000270: 45a1 213e 5d84 91bd 15bd 3ebe dc01 323d
00000280: 0b7b 54be 5504 febc 66f0 813d 2841 0b3d
00000290: a717 773c 2918 303e 7557 acba a25c d5bb
000002a0: 9c74 3b3e a3d1 94bd 2f8d abbd dc4a e2bc
000002b0: f41b 82bd 1242 01bd 05bf 953d 8978 ab3d
000002c0: e3fd b93d 742c 2f3e 7862 10be 20c1 b03e
000002d0: 335f d53d dad0 4f3d af76 b23c e8f6 c23d
000002e0: 90e2 273e ae1f adbd 4050 fa3d 2a81 633d
000002f0: c800 95bd b40e 95bd 4782 57bd 222e 043e
00000300: 8816 27be 7f11 ad3c ade0 99bc 9e34 fc3d
00000310: aa03 a33d 99e1 1fbe 3b84 e3bd e664 57be

h2o.linears.0.bias f4 [10]
-0.09219092 -0.095911965 0.039448466 0.012090327 0.0929066 -0.048304558 -0.018361822 0.028898599
0.07108584 -0.039373066
00000000: 98ce bcbd 7e6d c4bd b794 213d 8216 463c
00000010: d145 be3d 00db 45bd 886b 96bc c1bc ec3c
00000020: 7495 913d a745 21bd

linears.0.weight f4 [20, 5]
-0.071375854 -0.101108715 0.08956286 0.037641346 0.19965105 0.046665058 0.04366326 0.044898607
-0.037405934 0.008959295 0.119908944 -0.10429302 0.09163314 0.052452344 -0.10299184 0.086919166
-0.015515504 -0.0025137335 0.03872274 0.03359518 0.29163045 0.2607215 0.052065156 0.0065454245
-0.011183501 -0.18221527 -0.12004551 -0.06192952 -0.11583292 0.24677649 -0.041280843 -0.09574056
0.17268124 0.0028800704 -0.14735144 0.13713369 -0.029460337 -0.0010072733 -0.10958157 -0.032001562
0.068430796 0.035323523 -0.1534454 -0.22423503 -0.011324405 -0.060404245 -0.13617244 -0.0021873002
0.056070544 -0.015346099 0.113512725 0.08718839 0.16236915 -0.1481247 0.032507475 -0.03813851
-0.026212899 0.11504819 -0.09588519 -0.07933309 -0.13732664 -0.09796006 -0.12831134 -0.15174368
-0.030813647 0.15857694 0.063552774 -0.02484963 -0.008511517 0.22537689 0.05875896 -0.19687448
0.18122455 0.20251556 0.15488178 -0.11475952 -0.09812265 -0.06381297 -0.08715457 0.080112785
-0.00598224 -0.21219486 0.110096514 -0.05623521 0.11711694 -0.0871001 -0.0033053453 0.07424421
-0.066071816 0.002926631 -0.095814936 0.057384986 0.25663087 -0.05491307 -0.06915576 0.10638094
-0.0032603256 0.00045877305 0.24441718 0.12007444
00000000: 812d 92bd 1612 cfbd bc6c b73d d02d 1a3d
00000010: 5371 4c3e dc23 3f3d 3fd8 323d 9ae7 373d
00000020: f736 19bd 02ca 123c d292 f53d 9497 d5bd
00000030: 28aa bb3d 45d8 563d 63ed d2bd ad02 b23d
00000040: be34 7ebc 73bd 24bb bc9b 1e3d 199b 093d
00000050: 9650 953e 4a7d 853e 4642 553d 007b d63b
00000060: 013b 37bc a496 3abe 6cda f5bd cfa9 7dbd
00000070: cf39 edbd fab2 7c3e 1a16 29bd a013 c4bd
00000080: 5ad3 303e 90bf 3c3b 4ce3 16be c66c 0c3e
00000090: ce56 f1bc 7c06 84ba 4d6c e0bd 1214 03bd
000000a0: 7225 8c3d 66af 103d ca20 1dbe de9d 65be
000000b0: ff89 39bc 716a 77bd ca70 0bbe cf58 0fbb
000000c0: 3aaa 653d 346e 7bbc 5c79 e83d d48f b23d
000000d0: 1944 263e 00ae 17be 8f26 053d 2037 1cbd
000000e0: 6fbc d6bc 639e eb3d 745f c4bd 6379 a2bd
000000f0: 5b9f 0cbe 499f c8bd 0c64 03be b262 1bbe
00000100: e76c fcbc fe61 223e f527 823d 7491 cbbc
00000110: e473 0bbc 33c9 663e 3cad 703d 7799 49be
00000120: ee92 393e 3d60 4f3e 5499 1e3e 0a07 ebbd
00000130: 87f4 c8bd 60b0 82bd 187e b2bd 2c12 a43d
00000140: ab06 c4bb 9c49 59be 487a e13d e456 66bd
00000150: 02db ef3d 8a61 b2bd 7e9e 58bb 590d 983d
00000160: a950 87bd b8cc 3f3b 9f3a c4bd 850c 6b3d
00000170: 1f65 833e 87ec 60bd 89a1 8dbd 40de d93d
00000180: 30ab 55bb 7a87 f039 7f48 7a3e 97e9 f53d

linears.0.bias f4 [20]
-0.028275821 -0.020061888 0.094027154 0.041682128 -0.053962175 0.07120403 -0.026473157 0.039341584
0.038831975 0.04538353 -0.04980111 -0.030410528 -0.0010056465 4.4974695e-05 -0.09140298 -0.06906783
-0.0821547 -0.06457936 -0.078332774 -0.024362221
00000000: b2a2 e7bc d458 a4bc 4f91 c03d e1ba 2a3d
00000010: 7107 5dbd 6bd3 913d 3cde d8bc a424 213d
00000020: 470e 1f3d 15e4 393d 40fc 4bbd 801f f9bc
00000030: e6cf 83ba 36a3 3c38 7c31 bbbd 6f73 8dbd
00000040: b940 a8bd 2f42 84bd ef6c a0bd 4893 c7bc

linears.1.weight f4 [2, 20]
0.105157845 0.0148807615 -0.19320461 0.051310398 -0.024712859 -0.004249226 0.08890454 -0.12514435
-0.14177077 -0.030835485 0.1338181 0.06420393 -0.21393117 0.02403365 0.08886611 0.013484999
-0.09846373 0.026391963 -0.07002642 0.03169988 -0.20926915 -0.028131012 -0.11903869 -0.06254391
-0.054628823 -0.035710134 -0.09640419 -0.28571084 -0.02980696 0.010853732 0.2772442 -0.028608026
-0.09328383 -0.09325806 -0.071188815 0.05325726 -0.016082337 0.17716478 -0.028576056 0.031675827
00000000: ff5c d73d 70ce 733c 6ed7 45be da2a 523d
00000010: 9f72 cabc 173d 8bbb 9513 b63d d725 00be
00000020: 5b2c 11be b39a fcbc 9d07 093e 5a7d 833d
00000030: c610 5bbe 38e2 c43c 6fff b53d 2ff0 5c3c
00000040: 5aa7 c9bd f533 d83c 036a 8fbd bcd7 013d
00000050: a74a 56be 0273 e6bc 8fca f3bd 0617 80bd
00000060: 79c2 5fbd ca44 12bd 8f6f c5bd b148 92be
00000070: ba2d f4bc dad3 313c f4f2 8d3e 615b eabc
00000080: 980b bfbd 15fe bebd 71cb 91bd 4924 5a3d
00000090: 1bbf 83bc af6a 353e 5518 eabc 83be 013d

linears.1.bias f4 [2]
-0.096164025 0.044954274
00000000: a5f1 c4bd f921 383d

exp_avg f4 [20, 5]
-20650.672 27596.322 -7238.5835 -8333.467 -32027.516 7968.885 -16854.521 1410.1857
633.01324 21548.484 -90638.05 100693.664 -70491.734 -48383.742 -103256.44 16015.479
-18030.875 13681.974 9469.526 18181.555 -1559.0992 2779.5278 1281.2412 -269.89087
-4753.0293 3262.9941 -2698.1309 3666.8777 2496.9702 1834.7417 -9884.126 20198.87
-3726.15 -2033.9075 -25632.365 -723.62103 6713.734 4339.0854 2335.3323 -11157.115
20638.32 -33843.117 8070.792 5858.652 38521.89 13607.688 -27647.48 5540.8633
4402.5615 35634.03 4224.994 9828.6875 13271.514 9782.734 -21622.123 -10466.527
24378.012 -1660.626 -880.15894 -29375.992 20887.062 -18146.24 20205.621 13638.185
14371.741 -15407.511 21298.227 -8093.6626 -6082.9565 -25609.408 -1274.0148 649.60114
504.99445 -906.5196 432.9861 784.892 -1115.4882 465.5588 742.7241 -949.3856
-8072.0254 15298.248 670.1679 -1215.793 -20944.422 -1515.9863 -10605.932 -9649.419
-5567.031 19777.781 21353.986 -32885.168 4009.9287 4485.8286 45673.02 -39721.54
57427.215 -16262.764 -14624.053 -71347.37
00000000: 5855 a1c6 a598 d746 ab34 e2c5 de35 02c6
00000010: 0837 fac6 1407 f945 0bad 83c6 f145 b044
00000020: d940 1e44 f858 a846 0607 b1c7 d5aa c447
00000030: dead 89c7 beff 3cc7 38ac c9c7 ea3d 7a46
00000040: c0dd 8cc6 e5c7 5546 1bf6 1346 1c0b 8e46
00000050: 2de3 c2c4 72b8 2d45 b827 a044 08f2 86c3
00000060: 3c88 94c5 e8ef 4b45 18a2 28c5 0b2e 6545
00000070: 860f 1c45 bc57 e544 8170 1ac6 bdcd 9d46
00000080: 66e2 68c5 0a3d fec4 bb40 c8c6 bfe7 34c4
00000090: dfcd d145 af98 8745 51f5 1145 7654 2ec6
000000a0: a43c a146 1e33 04c7 5636 fc45 3715 b745
000000b0: e479 1647 c19e 5446 f6fe d7c6 e826 ad45
000000c0: 7e94 8945 0832 0b47 f407 8445 c092 1946
000000d0: 0e5e 4f46 f0da 1846 3fec a8c6 1c8a 23c6
000000e0: 0674 be46 0894 cfc4 2c0a 5cc4 fc7f e5c6
000000f0: 202e a346 7bc4 8dc6 3edb 9d46 bd18 5546
00000100: f78e 6046 0bbe 70c6 7464 a646 4ded fcc5
00000110: a717 bec5 d112 c8c6 7940 9fc4 7966 2244
00000120: 4a7f fc43 41a1 62c4 397e d843 1739 4444
00000130: 9f6f 8bc4 87c7 e843 58ae 3944 ae58 6dc4
00000140: 3440 fcc5 fe08 6f46 bf8a 2744 60f9 97c4
00000150: d8a0 a3c6 907f bdc4 bab7 25c6 adc5 16c6
00000160: 3ff8 adc5 9083 9a46 f9d3 a646 2b75 00c7
00000170: dc9e 7a45 a12e 8c45 0569 3247 8a29 1bc7
00000180: 3753 6047 0e1b 7ec6 3680 64c6 af59 8bc7

exp_avg_sq f4 [20, 5]
4.426358e+07 7.9052e+07 5.8795e+06 7.6733825e+06 1.05076056e+08 7.0035355e+06 3.1665908e+07 251094.19
51042.445 5.1262012e+07 9.2606016e+08 1.133624e+09 5.750496e+08 2.6939514e+08 1.1762209e+09 2.8647512e+07
3.6044064e+07 2.1619738e+07 1.0232575e+07 3.596924e+07 225060.31 748260.6 184243.31 7348.551
2.2442672e+06 1.1044234e+06 717509.1 1.526044e+06 692787.7 296915.22 1.1379724e+07 4.7146412e+07
1.6677572e+06 503747.8 7.536597e+07 84107.9 5.4029265e+06 2.1279518e+06 601684.3 1.4710395e+07
4.5925864e+07 1.2465745e+08 7.417985e+06 3.8698135e+06 1.600312e+08 2.1128864e+07 8.7154184e+07 3.6090555e+06
2.2465862e+06 1.435654e+08 1.7616784e+06 1.2337297e+07 1.9919976e+07 1.0668512e+07 5.6572064e+07 1.183708e+07
6.5138824e+07 365558.94 99308.92 9.360606e+07 4.837743e+07 3.579206e+07 4.688467e+07 2.1208608e+07
2.1600492e+07 2.6554194e+07 5.0712036e+07 7.6589595e+06 4.265857e+06 7.2445704e+07 131157.4 44197.11
24588.992 88682.57 180260.19 52558.05 100879.46 22273.225 59994.53 185429.11
7.036682e+06 2.5621762e+07 39831.367 175440.12 4.756849e+07 206931.0 1.3760213e+07 1.0524468e+07
3.4617698e+06 4.653646e+07 5.0510436e+07 1.20642376e+08 1.8980626e+06 2.3334195e+06 2.3103984e+08 1.8222294e+08
3.7899837e+08 3.1462678e+07 2.5137622e+07 5.812879e+08
00000000: 27da 284c 9cc7 964c 986d b34a 4d2c ea4a
00000010: ab6a c84c 1fbb d54a 7a97 f14b 8c35 7548
00000020: 7262 4747 8f8c 434c 3aca 5c4e 7623 874e
00000030: 3e1a 094e 2675 804d 6a37 8c4e 2c90 da4b
00000040: 487f 094c 0df2 a44b ff22 1c4b 3636 094c
00000050: 14c9 5b48 4aae 3649 d4ec 3348 68a4 e545
00000060: adfa 084a 3bd1 8649 522c 2f49 e048 ba49
00000070: 3b23 2949 67fa 9048 0ca4 2d4b 6bd9 334c
00000080: 6a95 cb49 7af8 f548 cabf 8f4c f345 a447
00000090: 5de2 a44a 3fe1 014a 45e5 1249 7b76 604b
000000a0: 7a31 2f4c e5c3 ed4c 0261 e24a d631 6c4a
000000b0: 1e9e 184d 5033 a14b c13b a64c 7e47 5c4a
000000c0: e91e 094a 26ea 084d 730c d749 9140 3c4b
000000d0: 34fa 974b e0c9 224b 28ce 574c 989e 344b
000000e0: 227c 784c de7e b248 76f6 c147 168a b24c
000000f0: 968b 384c 2f89 084c d0d9 324c 10cf a14b
00000100: 76cc a44b a997 ca4b 7973 414c 9fbb e94a
00000110: 022f 824a e12d 8a4c 5a15 0048 1ca5 2c47
00000120: fc19 c046 4935 ad47 0c09 3048 0d4e 4d47
00000130: bb07 c547 7302 ae46 885a 6a47 4715 3548
00000140: 14be d64a 817a c34b 5e97 1b47 0854 2b48
00000150: 9a75 354c c014 4a48 d5f6 514b 3497 204b
00000160: 274a 534a c385 314c 99ae 404c 691b e64c
00000170: 75b2 e749 ae6b 0e4a 3656 5c4d 06c8 2d4d
00000180: 73b8 b44d 8b0a f04b ebc8 bf4b ff96 0a4e

exp_avg f4 [20]
-315.0047 14017.65 -22100.402 6398.059 -652.9744 -1089.9138 -18837.459 -8720.765
15962.733 26286.87 -24484.73 -16851.768 -4016.3386 -11577.046 7609.734 -6233.132
-12088.195 19449.812 23377.355 -31768.818
00000000: 9a80 9dc3 9a06 5b46 cea8 acc6 79f0 c745
00000010: 5d3e 23c4 3e3d 88c4 eb2a 93c6 0f43 08c6
00000020: ef6a 7946 bd5d cd46 7649 bfc6 89a7 83c6
00000030: 6b05 7bc5 2fe4 34c6 dfcd ed45 0ec9 c2c5
00000040: c8e0 3cc6 a0f3 9746 b6a2 b646 a331 f8c6

exp_avg_sq f4 [20]
36585.895 2.1757824e+07 5.2556896e+07 4.44322e+06 40883.297 142001.42 3.957363e+07 8.617952e+06
2.753904e+07 7.678049e+07 6.770084e+07 3.0888608e+07 1.9055812e+06 1.4760247e+07 6.769973e+06 4.510531e+06
1.5964613e+07 4.254235e+07 6.0556056e+07 1.1222882e+08
00000000: e5e9 0e47 c0ff a54b 187d 484c a898 874a
00000010: 4cb3 1f47 5bac 0a48 20f6 164c e07f 034b
00000020: 301b d24b 7972 924c 0d21 814c 50a9 eb4b
00000030: 6a9d e849 3739 614b 6a9a ce4a 86a6 894a
00000040: c599 734b 4449 224c c600 674c 3a0f d64c

exp_avg f4 [20, 10]
222417.22 -275898.56 156506.7 110872.47 304211.78 220939.14 -281466.75 153292.64
102122.94 307642.66 159383.6 -185790.94 99493.99 74921.305 204238.83 157544.42
-183991.67 97531.24 74382.56 204947.28 -156986.8 163713.78 -108672.56 -80337.89
-169846.58 -156367.7 160502.38 -108409.79 -81977.266 -168850.92 15446.41 -20621.963
2197.0251 6613.1255 27204.473 16513.22 -20765.656 4026.955 6475.9976 25247.508
-9786.519 52450.66 25727.28 12891.804 -81698.73 -3817.6907 53855.867 45901.92
22229.32 -94141.45 -10216.858 -28281.053 -47342.24 -28081.828 58081.008 -11129.261
-25418.742 -49463.695 -27142.973 60138.805 78472.016 -152555.58 13786.342 14472.222
197803.89 77398.89 -155347.64 783.01807 10198.776 206544.23 -197516.16 200176.39
-183851.53 -120761.83 -180244.38 -194462.81 198270.56 -173288.22 -116353.52 -185058.58
83749.766 -128470.94 30205.61 27182.615 163480.75 82768.79 -134664.81 26611.271
24533.658 168481.81 -91137.234 156271.58 -16642.111 -19763.766 -212252.58 -92970.73
164154.28 -11491.46 -12067.035 -218849.94 -56438.047 112585.98 -20976.377 -17656.12
-140991.75 -44933.37 116810.086 13618.402 -3058.4678 -161400.05 -16052.588 80737.5
28547.36 13363.527 -139239.9 -20825.008 93492.766 28945.38 20645.354 -140267.38
46027.496 -27393.861 40039.29 30847.764 19196.105 46466.887 -26626.498 45083.652
34296.51 16960.129 795203.75 -886309.75 569681.56 411939.1 932741.3 792341.2
-884583.6 569635.75 402356.16 932819.44 -6578.0703 15124.198 -5502.437 149.82518
-18293.291 -2601.797 13670.059 7484.1353 6961.7573 -27610.992 464278.12 -510692.7
317960.3 237168.33 543301.75 466803.9 -512843.88 322260.22 238547.78 541774.06
-54303.8 43997.996 -49262.324 -36884.72 -39098.824 -55088.996 44419.387 -52296.64
-36827.523 -36375.51 90430.51 -114703.055 85623.34 52504.105 106051.75 85077.5
-112407.45 78469.61 45487.535 109751.26 39021.574 -98296.99 -7060.9194 -2447.8647
125155.69 37843.75 -89336.96 -21753.867 -7853.5137 130332.516 414.63828 -1567.8383
8857.951 3213.022 232.18115 -189.22598 -4277.446 3516.1 103.95732 3464.5535
00000000: 4e34 5948 52b7 86c8 add6 1848 3c8c d847
00000010: 798a 9448 c9c2 5748 586f 89c8 29b3 1548
00000020: 7875 c747 5537 9648 e6a5 1b48 bc6f 35c8
00000030: ff52 c247 a754 9247 b573 4748 1bda 1948
00000040: ebad 33c8 9f7d be47 4847 9147 d224 4848
00000050: b34e 19c8 72e0 1f48 4840 d4c7 f2e8 9cc7
00000060: a5dd 25c8 edb3 18c8 98bd 1c48 e5bc d3c7
00000070: a21c a0c7 bbe4 24c8 a459 7146 ed1b a1c6
00000080: 6750 0945 01a9 ce45 f288 d446 7102 8146
00000090: 503b a2c6 48af 7b45 fb5f ca45 043f c546
000000a0: 13ea 18c6 a9e2 4c47 8ffe c846 376f 4946
000000b0: 5d91 9fc7 0d9b 6ec5 de5f 5247 ec4d 3347
000000c0: a4aa ad46 bade b7c7 6fa3 1fc6 1bf2 dcc6
000000d0: 3dee 38c7 a863 dbc6 02e1 6247 0be5 2dc6
000000e0: 7c95 c6c6 b237 41c7 f20d d4c6 ceea 6a47
000000f0: 0244 9947 e5fa 14c8 5e69 5746 e320 6246
00000100: f92a 4148 722b 9747 e9b4 17c8 28c1 4344
00000110: 1b5b 1f46 0fb4 4948 0ae3 40c8 197c 4348
00000120: e28a 33c8 eadc ebc7 1805 30c8 b4e7 3dc8
00000130: a49f 4148 0e3a 29c8 c340 e3c7 a5b8 34c8
00000140: e292 a347 78eb fac7 38fb eb46 3b5d d446
00000150: 30a6 1f48 65a8 a147 3482 03c8 8be6 cf46
00000160: 51ab bf46 7488 2448 9e00 b2c7 e59b 1848
00000170: 3904 82c6 8867 9ac6 2547 4fc8 5d95 b5c7
00000180: 924e 2048 d78d 33c6 248c 3cc6 7cb8 55c8
00000190: 0c76 5cc7 fde4 db47 c1e0 a3c6 3df0 89c6
000001a0: f0af 09c8 5f85 2fc7 0b25 e447 9cc9 5446
000001b0: 7c27 3fc5 039e 1dc8 5ad2 7ac6 c0b0 9d47
000001c0: b806 df46 1cce 5046 faf9 07c8 04b2 a2c6
000001d0: 629a b647 c322 e246 b54a a146 d8fa 08c8
000001e0: 7fcb 3347 b903 d6c6 4a67 1c47 87ff f046
000001f0: 36f8 9546 e382 3547 ff04 d0c6 a71b 3047
00000200: 83f8 0547 4280 8446 3c24 4249 5c62 58c9
00000210: 1915 0b49 6324 c948 55b8 6349 5371 4149
00000220: 7af6 57c9 3c12 0b49 8576 c448 37bd 6349
00000230: 9090 cdc5 cb50 6c46 7ff3 abc5 3fd3 1543
00000240: 95ea 8ec6 c19c 22c5 3c98 5546 15e1 e945
00000250: 0f8e d945 fcb5 d7c6 c4b2 e248 965c f9c8
00000260: 0a41 9b48 159c 6748 5ca4 0449 7dee e348
00000270: 7c69 fac8 875a 9d48 f2f4 6848 e144 0449
00000280: cd1f 54c7 ffdd 2b47 536e 40c7 b814 10c7
00000290: d3ba 18c7 ff30 57c7 6383 2d47 a448 4cc7
000002a0: 86db 0fc7 8317 0ec7 419f b047 8707 e0c7
000002b0: ac3b a747 1b18 4d47 e021 cf47 c02a a647
000002c0: ba8b dbc7 ce42 9947 89af 3147 a15b d647
000002d0: 936d 1847 7ffc bfc7 5ba7 dcc5 d6fd 18c5
000002e0: d871 f447 c0d3 1347 7b7c aec7 bcf3 a9c6
000002f0: 1c6c f5c5 428e fe47 b351 cf43 d3fa c3c4
00000300: ce67 0a46 5ad0 4845 602e 6843 da39 3dc3
00000310: 91ab 85c5 9ac1 5b45 26ea cf42 db88 5845

exp_avg_sq f4 [20, 10]
5.719023e+09 8.767856e+09 2.8859016e+09 1.4396218e+09 1.0571545e+10 5.6485243e+09 9.122689e+09 2.7740815e+09
1.2277208e+09 1.0807136e+10 2.9286825e+09 3.9625613e+09 1.1648426e+09 6.574675e+08 4.755623e+09 2.8617833e+09
3.8869332e+09 1.1189732e+09 6.480014e+08 4.79026e+09 2.834661e+09 3.062773e+09 1.3883983e+09 7.551514e+08
3.265756e+09 2.811291e+09 2.9447496e+09 1.3811332e+09 7.853559e+08 3.2284605e+09 2.3864968e+07 4.2672744e+07
530708.0 4.8592045e+06 7.365654e+07 2.7630558e+07 4.3283496e+07 2.0039236e+06 4.7451895e+06 6.2445508e+07
1.484686e+07 3.408519e+08 7.529575e+07 1.8275414e+07 8.175689e+08 3.9617672e+06 3.5840864e+08 2.3963696e+08
5.4604704e+07 1.0746108e+09 1.0974308e+07 9.898671e+07 2.5879438e+08 9.005225e+07 4.0764563e+08 1.319539e+07
8.0636824e+07 2.8448733e+08 8.466657e+07 4.3753907e+08 6.852974e+08 2.6228677e+09 2.3219542e+07 2.4498988e+07
4.378376e+09 6.677685e+08 2.720162e+09 299083.88 1.2480683e+07 4.7754255e+09 4.551257e+09 4.647211e+09
3.9533937e+09 1.704238e+09 3.7576625e+09 4.418108e+09 4.5617915e+09 3.5270945e+09 1.5877659e+09 3.955553e+09
7.9691904e+08 1.8831009e+09 1.0662862e+08 8.573582e+07 3.0327224e+09 7.7858835e+08 2.068223e+09 8.294219e+07
7.014679e+07 3.2214254e+09 9.874065e+08 2.8791112e+09 3.5446636e+07 4.859126e+07 5.2823757e+09 1.027438e+09
3.1715464e+09 1.7699148e+07 1.9478152e+07 5.6119265e+09 3.494974e+08 1.4131186e+09 5.1280468e+07 3.548338e+07
2.19735e+09 2.2246922e+08 1.5226097e+09 1.8774982e+07 1.3778772e+06 2.8795978e+09 3.547834e+07 7.899293e+08
9.149107e+07 1.9484506e+07 2.3053978e+09 5.7422564e+07 1.0495469e+09 9.380017e+07 4.6809068e+07 2.3380017e+09
2.4105872e+08 8.26264e+07 1.8726698e+08 1.1069103e+08 3.8782124e+07 2.4533731e+08 7.8186856e+07 2.3690285e+08
1.3615618e+08 3.0019218e+07 7.283313e+10 8.999337e+10 3.8140432e+10 1.9836832e+10 9.878467e+10 7.2325554e+10
8.965645e+10 3.813881e+10 1.8949822e+10 9.880136e+10 5.2488595e+06 2.7858066e+07 3.4687355e+06 4757.2026
4.0589724e+07 933066.1 2.2738822e+07 6.522318e+06 5.4859815e+06 9.0665304e+07 2.4682635e+10 2.9696455e+10
1.1846247e+10 6.553423e+09 3.3284618e+10 2.4948615e+10 2.9947822e+10 1.2171635e+10 6.62699e+09 3.3087955e+10
3.3008538e+08 2.1153352e+08 2.7937453e+08 1.5570074e+08 1.626014e+08 3.401135e+08 2.1553144e+08 3.1611437e+08
1.5578878e+08 1.3957206e+08 9.544746e+08 1.5236786e+09 8.619322e+08 3.236206e+08 1.2951939e+09 8.4719776e+08
1.4648795e+09 7.273224e+08 2.4491795e+08 1.3862627e+09 1.6760838e+08 1.083732e+09 4.896155e+06 582818.94
1.7389018e+09 1.5779434e+08 8.952208e+08 5.0879908e+07 6.508011e+06 1.8871964e+09 99963.51 497598.97
9.316353e+06 1.2486259e+06 99642.555 51744.195 2.5401252e+06 1.6534374e+06 19492.445 1.7229042e+06
00000000: af70 aa4f b7a6 0250 5d03 2c4f c59d ab4e
00000010: 3e87 1d50 d256 a84f 4cf0 0750 2059 254f
00000020: 115b 924e f409 2150 2690 2e4f e32f 6c4f
00000030: 2ddc 8a4e a2c0 1c4e 86ba 8d4f 5993 2a4f
00000040: e5ad 674f 5a64 854e de7e 1a4e c9c2 8e4f
00000050: 7ff5 284f 358e 364f 8e82 a54e c90a 344e
00000060: 7ba7 424f e590 274f 5085 2f4f d7a4 a44e
00000070: 523e 3b4e 666e 404f 4413 b64b 9ac8 224c
00000080: 4091 0149 894a 944a 1c7d 8c4c efcd d24b
00000090: 0a1d 254c 9d9e f449 cbcf 904a f135 6e4c
000000a0: 8c8b 624b e687 a24d 819d 8f4c 2b6e 8b4b
000000b0: 72ec 424e 9dce 714a 0ee7 aa4d 1e89 644d
000000c0: e84c 504c 851a 804e 6474 274b 5bcd bc4c
000000d0: 39ce 764d d3c2 ab4c 6e61 c24d 7e58 494b
000000e0: 73cd 994c 75a7 874d 197d a14c 88a2 d04d
000000f0: 3c63 234e c955 1c4f ab26 b14b 96e9 ba4b
00000100: 5c7c 824f 5b35 1f4e 6122 224f 7c09 9248
00000110: ab70 3e4b 9b51 8e4f 56a3 874f 687f 8a4f
00000120: 00a4 6b4f 3729 cb4e 61f9 5f4f 7dab 834f
00000130: b5f3 874f 313b 524f c546 bd4e f3c4 6b4f
00000140: 1400 3e4e ae7b e04e c260 cb4c 3287 a34c
00000150: acc3 344f 43a1 394e 288d f64e 1e33 9e4c
00000160: 5dcb 854c 0d03 404f 836a 6b4e c09b 2b4f
00000170: db37 074c 675c 394c 546d 9d4f d7f5 744e
00000180: f509 3d4f a608 874b 449b 944b 9a3f a74f
00000190: 42a7 a64d f574 a84e 959e 434c bd5b 074c
000001a0: e6f8 024f c629 544d 5c82 b54e e33d 8f4b
000001b0: aa32 a849 2da3 2b4f d156 074c 7555 3c4e
000001c0: 6081 ae4c ada7 944b 9469 094f b90c 5b4c
000001d0: 423b 7a4e dde8 b24c fb8f 324c 135b 0b4f
000001e0: 3ae4 654d ec98 9d4c 7a97 324d 5b20 d34c
000001f0: 2bf1 134c cef8 694d 2d21 954c 9ced 614d
00000200: 41d9 014d 4907 e54b 8ba9 8751 2fa0 a751
00000210: 8d15 0e51 c1cb 9350 3400 b851 83b7 8651
00000220: 87ff a651 0114 0e51 eb2f 8d50 2908 b851
00000230: b72e a04a 498a d44b feb6 534a 9fa9 9445
00000240: 67d6 1a4c a2cc 6349 c37b ad4b 9c0b c74a
00000250: 3b6b a74a 2bee ac4c 64e6 b750 7e41 dd50
00000260: d985 3050 a64e c34f 5ffd f750 b5e1 b950
00000270: f020 df50 1a5f 3550 ec7f c54f 4486 f650
00000280: a065 9d4d edbb 494d 5637 854d e07c 144d
00000290: 9c11 1b4d c32d a24d fb8b 4d4d 2ebc 964d
000002a0: 5f92 144d 361b 054d 8290 634e fba2 b54e
000002b0: 2b80 4d4e 7850 9a4d 2e66 9a4e d9fc 494e
000002c0: 93a0 ae4e 3c68 2d4e 6c92 694d 6141 a54e
000002d0: 04d8 1f4d e030 814e 366b 954a 2f4a 0e49
000002e0: 124b cf4e 027c 164d f16f 554e 6917 424c
000002f0: d69b c64a aaf8 e04e c13d c347 dff7 f248
00000300: 0128 0e4b 8f6b 9849 479d c247 3220 4a47
00000310: 7509 1b4a ebd5 c949 e448 9846 c250 d249

exp_avg f4 [20]
116379.75 41841.02 -9721.102 -326.62747 -65616.664 40537.844 110825.3 -25346.658
71440.0 -118704.75 -107320.164 -122637.04 -32017.793 184065.23 -31336.352 90756.45
9019.79 49563.793 77811.85 14411.428
00000000: e04d e347 0571 2347 68e4 17c6 5150 a3c3
00000010: 5528 80c7 d859 1e47 a674 d847 5105 c6c6
00000020: 0088 8b47 60d8 e7c7 159c d1c7 8586 efc7
00000030: 9623 fac6 4fc0 3348 b4d0 f4c6 3a42 b147
00000040: 29ef 0c46 cb9b 4147 edf9 9747 b62d 6146

exp_avg_sq f4 [20]
1.5272506e+09 1.9656347e+08 1.0016203e+07 226409.88 4.9677667e+08 1.9230314e+08 1.3801219e+09 7.1316264e+07
5.767462e+08 1.6108646e+09 1.2794742e+09 1.7243756e+09 1.1828473e+08 3.7703552e+09 1.138089e+08 9.0974317e+08
1.0461063e+07 2.780684e+08 6.7615514e+08 2.3384424e+07
00000000: fd0f b64e 2175 3b4d cbd5 184b 781a 5d48
00000010: afe1 ec4d 0265 374d fa85 a44e 6506 884c
00000020: cb81 094e b007 c04e 7486 984e c48f cd4e
00000030: 379c e14c 0ebb 604f c012 d94c 51e6 584e
00000040: 879f 1f4b e697 844d 3c35 214e b468 b24b
