three_body/params.pth (torch_old, 8729 bytes, 14 tensors)

F.cur.0.linears.0.weight f4 [20, 5]
-0.015245055 -0.05197838 0.067344345 0.06762231 0.038611017 0.04494407 -0.1291558 0.19896708
-0.0097962795 -0.03216465 0.17471379 0.080164656 -0.14476769 0.015343676 0.025167286 0.1433344
-0.087696664 -0.011901498 0.034716785 -0.08273337 0.052155674 0.08534019 0.025948202 -0.018689422
0.08734831 -0.0077774017 0.1438702 -0.083977334 0.03218249 -0.01579618 0.08040919 -0.07808778
0.058420904 0.011742487 -0.045733523 0.045403477 -0.016090792 0.06837275 -0.050561875 -0.02308745
-0.004543751 -0.057608783 0.09503749 -0.052765336 0.09311393 0.044329904 -0.07983983 0.04331213
-0.10844562 -0.09537411 0.021527527 0.049130734 0.13491088 0.053735405 -0.08150291 0.045590382
-0.17319193 -0.00080926187 0.038556702 -0.22024553 0.027313584 0.13494097 0.073306926 0.00909581
-0.026302058 -0.022548432 0.09661209 0.19339791 -0.037708446 0.10500421 -0.0406203 -0.013253152
0.01820461 0.0900029 0.03278843 0.053961154 -0.15815358 0.23655324 0.1401858 -0.12868081
0.05018297 0.07964768 0.112180114 -0.023725236 0.14297198 0.103766 0.075688526 0.042095415
-0.038233645 -0.020688385 0.035717916 0.15855001 -0.013403184 0.028363664 0.044348117 -0.025729557
0.07680679 -8.793394e-05 -0.084370516 -0.059478074
00000000: 65c6 79bc 48e7 54bd d5eb 893d 917d 8a3d
00000010: 9626 1e3d 4617 383d 6b41 04be 07be 4b3e
00000020: 9380 20bc 14bf 03bd 2ce8 323e 5e2d a43d
00000030: fb3d 14be 0b64 7b3c a02b ce3c 41c6 123e
00000040: 4f9a b3bd 80fe 42bc 3033 0e3d 1d70 a9bd
00000050: 30a1 553d d6c6 ae3d 5391 d43c 8f1a 99bc
00000060: ace3 b23d 93d9 febb b652 133e 4ffc abbd
00000070: c9d1 033d fe66 81bc 93ad a43d 7cec 9fbd
00000080: c24a 6f3d 8f63 403c 1353 3bbd fff8 393d
00000090: d6d0 83bc 0307 8c3d f819 4fbd e421 bdbc
000000a0: bfe3 94bb 30f7 6bbd 04a3 c23d 7720 58bd
000000b0: 84b2 be3d 4693 353d 1183 a3bd 0f68 313d
000000c0: bd18 debd 8053 c3bd 7f5a b03c 4f3d 493d
000000d0: 1426 0a3e a819 5c3d ffea a6bd fbbc 3a3d
000000e0: 3a59 31be a524 54ba a2ed 1d3d 0b88 61be
000000f0: bdc0 df3c f72d 0a3e f121 963d 9806 153c
00000100: 6a77 d7bc 7db7 b8bc 8fdc c53d 1a0a 463e
00000110: 2c74 1abd 720c d73d 7961 26bd c023 59bc
00000120: d621 953c 7153 b83d 294d 063d 5f06 5d3d
00000130: 03f3 21be 033b 723e de8c 0f3e e7c4 03be
00000140: a88c 4d3d 531e a33d b0be e53d 6d5b c2bc
00000150: 3f67 123e 4583 d43d 9602 9b3d 3e6c 2c3d
00000160: e29a 1cbd b07a a9bc f34c 123d ef5a 223e
00000170: 0799 5bbc ea5a e83c 5fa6 353d cbc6 d2bc
00000180: e14c 9d3d 2d69 b8b8 73ca acbd 489f 73bd

F.cur.0.linears.0.bias f4 [20]
0.03787089 0.024770297 -0.002411209 0.002520062 0.040349893 -0.09406612 -0.09680525 0.06742852
-0.09788765 0.0525508 0.07238335 0.06631417 0.030501716 0.011110328 0.046182297 0.0595892
0.0031488165 -0.07195406 0.06221544 0.011140145
00000000: 821e 1b3d 14eb ca3c 6005 1ebb a027 253b
00000010: ee45 253d bda5 c0bd d541 c6bd f717 8a3d
00000020: 5279 c8bd 823f 573d b93d 943d b9cf 873d
00000030: bcde f93c 1808 363c a629 3d3d ce13 743d
00000040: 605c 4e3b a65c 93bd 9ed5 7e3d 2885 363c

F.nbr.0.linears.0.weight f4 [20, 10]
0.0666345 -0.055334438 0.04141194 0.24585755 0.010735263 0.13795096 0.103076614 -0.023819782
0.023443818 -0.11098987 0.037090056 0.060960572 0.03219051 -0.18144672 0.24496353 0.07347944
0.071983404 0.1928144 0.10309621 0.08277302 -0.07024738 0.033297237 -0.10580646 0.15554188
-0.043274667 0.03864887 0.11418136 -0.15504946 -0.07418057 -0.058849465 0.10773342 -0.0014051265
-0.0030873956 0.08459741 -0.018762965 0.039572727 0.0460716 0.040832464 0.07260517 -0.0051126014
-0.15416192 -0.0127467355 0.075021096 0.13562058 0.10608389 0.065513045 -0.0027810538 0.14850827
0.06429269 0.1287635 -0.10688528 -0.0031783283 0.10411978 0.14480795 -0.017152445 -0.04127048
0.044928994 0.15408216 -0.18480991 0.029265666 0.030506954 -0.0064185555 -0.12995467 0.056187283
0.05221646 -0.043525152 -0.061117053 0.027829383 0.17922834 0.023161957 -0.04556854 -0.09382961
0.12088527 0.076726615 -0.0008867543 0.0010917431 0.053320527 0.015618485 0.023352925 0.2025526
0.1430864 0.0062644132 0.28963378 0.030082067 0.004483733 -0.1885959 0.13644528 0.003386515
-0.14330946 0.18557778 -0.046305068 0.02212693 -0.07777967 0.03404558 0.06131009 -0.061798293
-0.025928557 -0.11920216 -0.028296322 -0.048740193 0.072477944 0.0767749 0.060851224 0.15784378
-0.08329545 0.0022125707 -0.087940976 0.08632711 0.063657545 0.14102022 0.092772044 0.109273374
0.036019843 0.100808196 -0.031557456 0.078696065 0.10338439 -0.21204758 -0.11715344 -0.0483528
-0.12669902 0.04467522 -0.006206873 -0.14934188 -0.15003179 -0.08229109 0.031231854 -0.100557506
0.12855907 -0.00990137 -0.022179622 -0.20802262 0.014333456 -0.2402929 0.08622373 0.024804791
-0.045993473 0.11447459 -0.21162224 0.094986245 0.06826725 0.046527557 -0.042300694 -0.134509
-0.06538412 -0.24564865 -0.13556379 -0.2218947 0.26319012 -0.090081714 0.20707715 -0.05419715
-0.035374057 -0.025193332 -0.0058657797 0.055188086 0.07058744 -0.025255445 -0.05483997 -0.0903393
0.0087572215 0.07887905 -0.0904808 0.13558872 -0.0283802 0.031120477 -0.0056716795 -0.12892303
-0.026422381 -0.10850691 0.051707268 -0.04963245 0.0053047943 0.12865813 -0.055193096 -0.01765105
-0.042033207 0.17637537 0.101664044 -0.13923943 0.1032538 -0.0018930519 0.22732544 0.05768326
-0.090801656 0.1256812 0.04602587 -0.116599694 -0.05740888 -0.043269664 0.13867903 -0.028529136
0.17230153 0.034218293 0.14500211 -0.052376773 0.049915995 -0.0748934 -0.12861882 -0.022177948
00000000: ab77 883d 5da6 62bd 919f 293d 15c2 7b3e
00000010: f5e2 2f3c 0443 0d3e d519 d33d b421 c3bc
00000020: 400d c03c a84e e3bd beeb 173d cbb1 793d
00000030: 32da 033d 2bcd 39be b8d7 7a3e 637c 963d
00000040: 096c 933d 2371 453e 1b24 d33d e784 a93d
00000050: dcdd 8fbd af62 083d 0fb1 d8bd 5f46 1f3e
00000060: c740 31bd 474e 1e3d ebd7 e93d 49c5 1ebe
00000070: fceb 97bd 230c 71bd 57a3 dc3d 392c b8ba
00000080: e755 4abb 6841 ad3d cab4 99bc 0317 223d
00000090: 93b5 3c3d f13f 273d 05b2 943d 9c87 a7bb
000000a0: 9fdc 1dbe afd7 50bc a9a4 993d 1fe0 0a3e
000000b0: 8342 d93d b42b 863d 5742 36bb 8d12 183e
000000c0: e3ab 833d 94da 033e abe6 dabd 804b 50bb
000000d0: c03c d53d 8948 143e 4983 8cbc 3c0b 29bd
000000e0: 7707 383d b7c7 1d3e cf3e 3dbe 8dbe ef3c
000000f0: b8e9 f93c bf52 d2bb d612 05be a324 663d
00000100: ede0 553d 6e47 32bd e055 7abd 72fa e33c
00000110: a287 373e 25be bd3c 14a6 3abd bd29 c0bd
00000120: b292 f73d d822 9d3d 1375 68ba d218 8f3a
00000130: a066 5a3d ade4 7f3c a24e bf3c f369 4f3e
00000140: 3e85 123e b545 cd3b e14a 943e ab6e f63c
00000150: 47ec 923b 491f 41be 50b8 0b3e 4bf0 5d3b
00000160: b7bf 12be 1a08 3e3e 62aa 3dbd 8943 b53c
00000170: f34a 9fbd 6173 0b3d 4a20 7b3d 3520 7dbd
00000180: 2068 d4bc 4320 f4bd b0cd e7bc cca3 47bd
00000190: 516f 943d 293c 9d3d 223f 793d cda1 213e
000001a0: ce96 aabd c700 113b 661a b4bd 45cc b03d
000001b0: e35e 823d 9b67 103e 45ff bd3d b8ca df3d
000001c0: 8b89 133d 8774 ce3d 6442 01bd 672b a13d
000001d0: 32bb d33d 0023 59be 25ee efbd 960d 46bd
000001e0: 63bd 01be 5dfd 363d 0663 cbbb 14ed 18be
000001f0: efa1 19be 3b88 a8bd f2d9 ff3c 18f1 cdbd
00000200: fda4 033e 5b39 22bc 0ab2 b5bc e203 55be
00000210: dfd6 6a3c 580f 76be 1196 b03d 6b33 cb3c
00000220: a763 3cbd a771 ea3d 80b3 58be 2688 c23d
00000230: b3cf 8b3d ae93 3e3d 7e43 2dbd babc 09be
00000240: 1ce8 85bd 528b 7bbe 3cd1 0abe 5d38 63be
00000250: dbc0 863e c37c b8bd 080c 543e d5fd 5dbd
00000260: 63e4 10bd 3f62 cebc ba35 c0bb e70c 623d
00000270: 2690 903d 82e4 cebc e09f 60bd d003 b9bd
00000280: 737a 0f3c 578b a13d ff4d b9bd c5d7 0a3e
00000290: 987d e8bc 5ff0 fe3c 7fd9 b9bb 6604 04be
000002a0: c073 d8bc df38 debd 00cb 533d 654b 4bbd
000002b0: d7d3 ad3b f5be 033e 2812 62bd ef98 90bc
000002c0: 032b 2cbd bf9b 343e 3d35 d03d c894 0ebe
000002d0: ba76 d33d 4820 f8ba 00c8 683e 4845 6c3d
000002e0: 38f6 b9bd 93b2 003e 9f85 3c3d d2cb eebd
000002f0: 9325 6bbd 883b 31bd e001 0e3e efb5 e9bc
00000300: d06f 303e 7b28 0c3d 6f7b 143e 0789 56bd
00000310: b774 4c3d b661 99bd a7b4 03be 87ae b5bc

F.nbr.0.linears.0.bias f4 [20]
0.09497339 -0.00026419014 0.09647467 0.016133532 -0.0025667176 0.027948998 -0.07884668 0.08154672
0.09149898 -0.08794653 -0.05951599 0.07903414 0.02513551 -0.03615229 -0.049824394 -0.022912502
-0.018821798 0.09224885 -0.060801983 0.014063634
00000000: 6981 c23d 0083 8ab9 8394 c53d 782a 843c
00000010: 6036 28bb 4cf5 e43c 5e7a a1bd f701 a73d
00000020: d163 bb3d 4f1d b4bd 0ac7 73bd a7dc a13d
00000030: fce8 cd3c 6c14 14bd aa14 4cbd 00b3 bbbc
00000040: 2c30 9abc f7ec bc3d 800b 79bd 286b 663c

F.out.weight f4 [5, 40]
-0.0016709281 -0.09957244 0.10301963 0.017687995 0.16317394 0.14922924 0.017057933 0.08875858
-0.03319336 -0.017808642 0.0889819 -0.07233497 -0.007986188 -0.072608605 0.104231596 -0.020305987
-0.06857938 -0.034782518 -0.17557774 -0.021168677 0.13614595 0.303009 0.03527942 0.04560088
0.04682442 0.037041917 -0.09065556 -0.05235647 0.21362154 -0.01846001 -0.048338395 0.18301028
0.13645934 -0.11570565 -0.09155564 -0.10875525 -0.14016011 0.10154358 0.25957727 0.016716383
-0.089571945 -0.06621367 -0.14639437 0.039684318 0.049769387 0.10053574 -0.031776495 0.12892835
-0.12482263 0.06958793 0.1301973 -0.023299737 -0.065451525 0.011719871 0.04693449 -0.13954605
0.1144711 -0.11944266 -0.13349919 -0.00017932945 0.08829034 -0.016827095 -0.0069113853 -0.05569492
0.0009901304 0.06299126 -0.103770755 -0.043198787 -0.052355733 0.084187694 0.1172299 -0.3194813
-0.04154612 -0.14395654 -0.002710345 0.03091721 -0.12637334 0.08513854 -0.020461898 -0.13149409
0.004391981 -0.06789653 0.1642947 0.12753949 -0.05903774 -0.003973305 0.03720355 0.05044169
-0.026426075 -0.011697713 0.005832247 -0.053331096 -0.1549146 -0.01110481 -0.11126741 -0.17157136
0.040757712 -0.18421997 -0.066716336 0.020810714 -0.02515298 0.085318595 -0.03898319 -0.21891463
0.10030619 0.04051678 0.17936803 0.13828284 0.042477686 -0.1748559 -0.06609707 0.06526682
0.0041714213 -0.07098836 0.17234848 0.07628145 0.00032548056 -0.035988465 0.03130192 -0.02235224
-0.04533025 0.0026706038 -0.030695051 0.01944027 0.049303994 -0.061825193 -0.084343456 0.07752049
-0.116942346 -0.05768348 -0.055828523 0.051173385 0.024159247 -0.05359112 0.0059692673 -0.23332381
-0.10200121 0.04194342 0.035714053 0.16454417 -0.10998666 -0.0027846477 0.11431678 -0.042949475
-0.054819148 0.044374354 -0.058478624 -0.0031124335 0.0012387738 -0.091077216 -0.020066468 -0.013705884
-0.13510303 0.112956636 0.094185844 0.024477184 0.115184225 -0.004079304 0.114916556 0.06400999
0.120776944 -0.09593066 0.0704761 -0.040973116 -0.051681437 -0.16665109 0.11179798 0.21518873
0.038773138 -0.12475926 0.033343825 -0.16557983 0.13502435 0.1251405 -0.058302112 -0.043725103
-0.079180166 0.017486578 -0.018275995 0.07973581 -0.04802346 -0.045637164 0.09324465 -0.11759996
-0.067010075 -0.22014315 -0.10150681 -0.094940215 0.074092455 0.021967322 -0.12685765 -0.008283276
0.1190828 -0.17874376 -0.06033646 0.053102363 -0.04203662 -0.059902765 -0.121885434 0.100117736
00000000: 0b03 dbba a3ec cbbd f5fb d23d 6ae6 903c
00000010: 1217 273e 8dcf 183e 14bd 8b3c 0fc7 b53d
00000020: c3f5 07bd 6ee3 91bc 243c b63d 5b24 94bd
00000030: 80d8 02bc d2b3 94bd 6077 d53d be58 a6bc
00000040: 5973 8cbd 1d78 0ebd a7ca 33be ef69 adbc
00000050: d869 0b3e ff23 9b3e 2781 103d fdc7 3a3d
00000060: f7ca 3f3d 44b9 173d 9fa9 b9bd bd73 56bd
00000070: 9bbf 5a3e 7239 97bc 7bfe 45bd 0c67 3b3e
00000080: ffbb 0b3e 15f7 ecbd 8681 bbbd 13bb debd
00000090: 2286 0fbe 15f6 cf3d 50e7 843e ccf0 883c
000000a0: 7f71 b7bd 089b 87bd 68e8 15be 068c 223d
000000b0: fcda 4b3d afe5 cd3d 1228 02bd cb05 043e
000000c0: 02a3 ffbd 1e84 8e3d 7152 053e 17df bebc
000000d0: 730b 86bd b404 403c 613e 403d 29e5 0ebe
000000e0: d36f ea3d 5a9e f4bd 03b4 08be 620a 3cb9
000000f0: 91d1 b43d fad8 89bc e778 e2bb 5b20 64bd
00000100: 43c7 813a 9001 813d c385 d4bd 36f1 30bd
00000110: f772 56bd 996a ac3d 3b16 f03d 0e93 a3be
00000120: 442c 2abd 5869 13be 0ba0 31bb 1746 fd3c
00000130: 0368 01be 1d5d ae3d b69f a7bc 63a6 06be
00000140: 9bea 8f3b 560d 8bbd df3c 283e b699 023e
00000150: 8fd1 71bd 8032 82bb c062 183d f29b 4e3d
00000160: 7f7b d8bc c4a7 3fbc 6f1c bf3b b571 5abd
00000170: efa1 1ebe f3f0 35bc 2be0 e3bd 67b0 2fbe
00000180: 8ff1 263d 29a4 3cbe 93a2 88bd 3b7b aa3c
00000190: 9f0d cebc 84bb ae3d d6ac 1fbd 282b 60be
000001a0: 556d cd3d ecf4 253d 41ac 373e 049a 0d3e
000001b0: 15fd 2d3d 6d0d 33be e75d 87bd 9caa 853d
000001c0: 6bb0 883b 5862 91bd 1f7c 303e 7339 9c3d
000001d0: 43a5 aa39 a468 13bd 7136 003d 0b1c b7bc
000001e0: 36ac 39bd 4c05 2f3b 3074 fbbc 3341 9f3c
000001f0: fcf2 493d 6a3c 7dbd 43bc acbd 10c3 9e3d
00000200: 787f efbd 8345 6cbd 73ac 64bd 2f9b 513d
00000210: 9de9 c53c 5d82 5bbd d899 c33b 70ec 6ebe
00000220: 03e6 d0bd ddcc 2b3d e648 123d 447e 283e
00000230: b040 e1bd a37e 36bb ea1e ea3d caeb 2fbd
00000240: 0b8a 60bd e2c1 353d 4887 6fbd f8f9 4bbb
00000250: 5a5e a23a b186 babd 6f62 a4bc a58e 60bc
00000260: 7358 0abe cf55 e73d 82e4 c03d 6084 c83c
00000270: b5e5 eb3d afab 85bb 5f59 eb3d ab17 833d
00000280: e759 f73d 4b77 c4bd c655 903d 6dd3 27bd
00000290: eaaf 53bd 95a6 2abe 57f6 e43d 6f5a 5c3e
000002a0: 95d0 1e3d c881 ffbd 8993 083d c28d 29be
000002b0: d343 0a3e d524 003e 32ce 6ebd 1819 33bd
000002c0: 3629 a2bd 0340 8f3c 8ab7 95bc 874c a33d
000002d0: 3fb4 44bd 09ee 3abd 0df7 be3d 3fd8 f0bd
000002e0: 943c 89bd 356d 61be cde2 cfbd 0470 c2bd
000002f0: c9bd 973d d0f4 b33c f9e6 01be 94b6 07bc
00000300: afe1 f33d 9b08 37be 5d23 77bd dd81 593d
00000310: 972e 2cbd 9a5c 75bd 129f f9bd 870a cd3d

F.out.bias f4 [5]
-0.041427232 0.086955406 0.020645 -0.090783454 -0.013461389
00000000: 9aaf 29bd ad15 b23d b41f a93c adec b9bd
00000010: 288d 5cbc

i2h.linears.0.weight f4 [20, 22]
0.048787173 0.14523451 -0.022335866 0.084896356 -0.05368296 0.021003082 -0.007579843 0.07296044
0.052440327 -0.057974536 0.047752317 -0.15562001 0.056542493 -0.035837803 0.13440903 0.10376566
-0.04068871 0.012134698 -0.019511936 0.14091863 0.032834142 0.026105816 0.049228024 -0.08197501
0.016479542 -0.07394001 0.0691004 0.07866844 -0.051454492 0.10025122 -0.07239529 0.027145356
-0.028342297 0.015045163 0.12935965 0.009743523 0.01917543 -0.008488466 -0.017285425 0.13814312
-0.10404273 -0.26310545 0.0331434 -0.029697323 -0.0071424763 -0.024175325 0.050099075 0.06124559
0.31336182 0.097354256 -0.10527784 -0.061433014 -0.09545796 -0.006520897 -0.16583702 -0.038441468
-0.07259588 0.080313705 0.08739069 -0.104213275 -0.1643425 -0.011390168 -0.02113797 -0.044874575
0.015659107 -0.1000459 -0.06027331 -0.17618617 -0.035704605 -0.06254127 0.05959943 -0.06851592
0.05766004 0.052016407 -0.1294891 0.12339959 -0.026007755 0.0574232 0.0070954612 -0.028931618
-0.0371547 0.0586963 0.01821955 -0.09936199 -0.062168982 -0.060721695 0.002194446 0.09142359
0.115663074 -0.0072425776 0.006518659 0.09829213 0.071668185 0.12101891 -0.09952068 -0.033199385
-0.21042652 -0.03463951 0.061542075 -0.13380802 -0.12787502 -0.039856356 -0.029145835 -0.008161486
0.06642889 0.06879731 0.05323116 0.07794093 0.11358613 -0.009802602 0.074400865 0.07792591
0.18301573 -0.061535697 -0.17880458 -0.056075532 0.060144898 -0.11296324 -0.014435097 -0.039724506
-0.15823594 0.07079452 0.00015801506 0.025564903 -0.055164464 -0.1074744 -0.13436402 0.032342892
-0.34500605 -0.12648116 0.105839156 0.07613709 -0.040320102 -0.022775007 0.014577359 -0.0047315583
-0.106122494 0.08788474 0.12755455 -0.06722836 -0.013218546 0.19746637 -0.030220775 -0.009583945
0.043201767 0.03772168 -0.03711743 -0.07029065 0.026111085 0.07041822 0.07882343 -0.072483495
0.021340838 0.09685334 0.007510697 -0.007968354 -0.13098423 -0.12406581 -0.03332144 -0.050758835
0.0033577997 -0.07484456 0.033816066 0.018908327 0.11679174 -0.1148563 -0.008961086 -0.12063592
-0.052677196 0.057281215 -0.009701439 -0.10965258 0.12269919 -0.055689383 -0.16119106 -0.19106677
0.22130711 -0.05249951 0.03735007 0.2615013 0.015303028 -0.06343322 0.11692933 -0.1667218
-0.17507446 0.03186954 -0.12451257 0.1235968 0.062387753 -0.03495557 0.15109272 0.009031481
0.04614944 0.20591734 0.0051526683 0.05567599 0.0027147313 0.22951642 -0.060465794 0.036437236
0.073426925 0.24672051 -0.092780605 -0.13898788 0.13460816 -0.16554753 -0.102060996 0.17125328
0.16202778 -0.08491411 0.08754041 0.004474822 -0.09200937 0.012083848 0.045166176 -0.044532876
-0.027845448 -0.33174083 -0.04044438 -0.20935202 0.0041125766 0.021856308 0.013300309 0.0779894
0.045463517 0.24208479 -0.08652659 -0.014104746 0.051700987 -0.09064322 0.07904435 0.04625417
0.06693914 0.03621599 0.045266397 -0.10668667 -0.12325894 -0.20010813 -0.0752072 0.16305627
-0.12981771 -0.21926291 0.02024725 0.18688166 -0.044412877 -0.1278981 -0.16556205 0.014753138
0.045879573 0.038257483 0.061785657 -0.04995432 0.004849354 0.13611086 -0.034462225 -0.23453353
00000000: 0fd5 473d 5bb8 143e b5f9 b6bc 24de ad3d
00000010: aae2 5bbd a80e ac3c 5560 f8bb 486c 953d
00000020: abcb 563d b576 6dbd ef97 433d da5a 1fbe
00000030: 1a99 673d a9ca 12bd 85a2 093e 1783 d43d
00000040: 34a9 26bd 9dd0 463c 7fd7 9fbc f94c 103e
00000050: 187d 063d dddb d53c 53a3 493d 84e2 a7bd
00000060: 1b00 873c dc6d 97bd 8384 8d3d eb1c a13d
00000070: f2c1 52bd 8350 cd3d fb43 94bd f05f de3c
00000080: 1b2e e8bc fd7f 763c db76 043e 4ca3 1f3c
00000090: cb15 9d3c 3513 0bbc 2a9a 8dbc 6475 0d3e
000000a0: 5b14 d5bd c2b5 86be 60c1 073d cd47 f3bc
000000b0: 6f0b eabb 550b c6bc b034 4d3d a8dc 7a3d
000000c0: f670 a03e ab61 c73d e89b d7bd 2fa1 7bbd
000000d0: 777f c3bd 40ad d5bb 2ed1 29be cd74 1dbd
000000e0: 26ad 94bd 837b a43d e4f9 b23d c56d d5bd
000000f0: 6649 28be d49d 3abc 8929 adbc 67ce 37bd
00000100: 8747 803c dde4 ccbd 25e1 76bd 266a 34be
00000110: fe3e 12bd a315 80bd 881e 743d 1352 8cbd
00000120: ef2c 6c3d 280f 553d ca98 04be edb8 fc3d
00000130: 370e d5bc 9734 6b3d 0b81 e83b 0002 edbc
00000140: 872f 18bd 886b 703d 2a41 953c 4d7e cbbd
00000150: e7a4 7ebd 50b7 78bd b2d0 0f3b 4b3c bb3d
00000160: c3e0 ec3d 2553 edbb 7a9a d53b 624d c93d
00000170: c5c6 923d c3d8 f73d 80d1 cbbd 14fc 07bd
00000180: 0d7a 57be 29e2 0dbd 8b13 7c3d f804 09be
00000190: abf1 02be 6b40 23bd 3fc3 eebc c1b7 05bc
000001a0: df0b 883d 9be5 8c3d eb08 5a3d 7f9f 9f3d
000001b0: d89f e83d 189b 20bc 7b5f 983d 9f97 9f3d
000001c0: 7a68 3b3e db0c 7cbd 8c18 37be 75af 65bd
000001d0: 7f5a 763d 4559 e7bd 2f81 6cbc 2ab6 22bd
000001e0: 9a08 22be b8fc 903d d8b0 2539 7d6d d13c
000001f0: 22f4 61bd 8a1b dcbd b996 09be fb79 043d
00000200: a2a4 b0be 4784 01be 33c2 d83d c3ed 9b3d
00000210: b126 25bd a792 babc e0d5 6e3c 300b 9bbb
00000220: c056 d9bd eafc b33d a99d 023e 06af 89bd
00000230: 9a92 58bc a034 4a3e 8f91 f7bc fb05 1dbc
00000240: 56f4 303d 0c82 1a3d 7208 18bd 8bf4 8fbd
00000250: eae6 d53c 6d37 903d 2e6e a13d 3a72 94bd
00000260: fbd2 ae3c 0b5b c63d 4b1c f63b b38d 02bc
00000270: bb20 06be 3716 febd 107c 08bd 7fe8 4fbd
00000280: 880e 5c3b 1b48 99bd b782 0a3d a3e5 9a3c
00000290: 8230 ef3d c839 ebbd 85d1 12bc f70f f7bd
000002a0: 0bc4 57bd b59f 6a3d c9f2 1ebc 8891 e0bd
000002b0: b749 fb3d 8d1a 64bd 450f 25be 02a7 43be
000002c0: 559e 623e ba09 57bd 63fc 183d 80e3 853e
000002d0: 8db9 7a3c 47e9 81bd a578 ef3d 1fb9 2abe
000002e0: b846 33be a389 023d 7200 ffbd 5220 fd3d
000002f0: 4d8a 7f3d 922d 0fbd 0db8 1a3e c7f8 133c
00000300: 3207 3d3d ffdb 523e b7d7 a83b 820c 643d
00000310: a2e9 313b 5a06 6b3e fbaa 77bd 363f 153d
00000320: db60 963d 4da4 7c3e c203 bebd d752 0ebe
00000330: b9d6 093e 4b85 29be 5b05 d1bd 055d 2f3e
00000340: 9cea 253e 73e7 adbd 6348 b33d 87a1 923b
00000350: 696f bcbd 55fb 453c 2b00 393d 1b68 36bd
00000360: 231c e4bc efd9 a9be 02a9 25bd 6060 56be
00000370: cbc2 863b 000c b33c 8ae9 593c e8b8 9f3d
00000380: f437 3a3d 13e5 773e da34 b1bd 9817 67bc
00000390: 6ac4 533d 27a3 b9bd 01e2 a13d 0375 3d3d
000003a0: 6317 893d 3857 143d 4269 393d 8a7e dabd
000003b0: 2f6f fcbd 25e9 4cbe 3c06 9abd 39f8 263e
000003c0: efee 04be 7586 60be 90dd a53c e85d 3f3e
000003d0: 47ea 35bd b8f7 02be 1989 29be 25b7 713c
000003e0: 38ec 3b3d e1b3 1c3d f512 7d3d e79c 4cbd
000003f0: 54e7 9e3b a560 0b3e 4328 0dbd 8f29 70be

i2h.linears.0.bias f4 [20]
0.022544228 -0.08003803 0.01271937 -0.09270481 0.07162083 -0.0069236755 0.09351493 0.07810744
-0.057339955 0.07739466 -0.08544197 -0.09264936 0.06698678 -0.0513145 -0.073249474 -0.06500183
-0.057653166 -0.08837824 0.012841657 -0.08574426
00000000: acae b83c fbea a3bd e864 503c 05dc bdbd
00000010: f1ad 923d 00e0 e2bb c184 bf3d cbf6 9f3d
00000020: 4ddd 6abd 1781 9e3d 33fc aebd f3be bdbd
00000030: 5d30 893d 272f 52bd d203 96bd ae1f 85bd
00000040: ba25 6cbd a7ff b4bd d065 523c b09a afbd

h2o.linears.0.weight f4 [10, 20]
0.16952458 0.008084701 -0.12065514 0.10534246 -0.0419739 -0.08450131 -0.06224486 0.063913636
0.011771026 -0.15861149 -0.22675021 0.017128522 -0.20051031 0.06711849 -0.20686345 -0.018974993
0.110475115 -0.11791432 -0.08630087 0.027229428 -0.008009096 -0.02001278 -0.07824471 -0.03437383
-0.18594328 -0.026259279 -0.14135158 0.0016007444 0.12383061 -0.1458957 -0.14852107 -0.14710915
-0.0019096412 -0.013641317 -0.08827055 -0.043716934 0.07729545 -0.10771338 0.22215477 -0.07380324
-0.15559743 0.03778601 -0.11876749 -0.08193386 -0.069906086 -0.027226841 0.040550403 -0.23155153
-0.028578177 -0.104928434 0.00930147 0.15551412 0.08326527 0.27570197 0.028458297 0.01670832
-0.036534313 0.07506394 0.18696414 -0.018112874 0.25582525 0.066261105 0.00791684 0.11866949
-0.025641829 -0.17611378 -0.036855467 -0.012135836 0.09691899 0.10597364 0.04291516 -0.113955334
-0.124208845 0.072940126 -0.10627752 -0.046086263 0.17762646 -0.03472366 -0.07653818 0.017165199
-0.060208976 -0.048074912 -0.07729913 0.11775229 -0.037648868 0.09704379 0.03439276 -0.107239716
0.17581278 0.081699826 0.06335505 -0.10400438 -0.036705192 0.01046052 0.04979132 0.026776671
0.114167236 -0.18224366 -0.19496176 0.05943754 -0.1682221 0.073519126 -0.04525457 0.03470346
0.09408124 -0.011152907 0.15802811 0.004289917 0.20865595 -0.17530006 0.010333453 0.025543094
0.059270453 -0.04614113 -0.12590756 -0.073047504 0.03621043 0.14831196 -0.059062492 -0.015834479
-0.015823977 -0.14519192 0.07427553 -0.036293987 -0.024239145 0.054087687 0.042612236 0.03209293
-0.016947916 0.22063029 0.02303176 -0.009338729 -0.16740574 0.2046423 -0.02173206 -0.19584249
0.0010888813 0.05358491 0.004987334 0.08374291 0.0032110314 -0.13807538 0.09329129 0.103681445
-0.18206958 -0.044887275 -0.13259469 -0.10706808 -0.070077024 -0.015309113 -0.14277351 -0.04418027
-0.06107494 -0.086259656 -0.08739698 0.027775971 0.048684467 0.060319062 -0.27084145 0.057558287
0.15190311 0.08818807 -0.015162694 0.049680926 0.012729995 -0.04642936 0.100937665 0.08553099
-0.010747652 -0.14338975 0.14962536 -0.06066805 0.056874435 0.08292889 -0.10668037 0.09395745
0.042096343 -0.021608207 0.13777113 0.15234245 -0.22518401 -0.08114027 -0.051950194 -0.15304068
0.08208259 -0.14484094 0.18935944 0.108079135 -0.024719983 0.07425588 -0.14176439 0.05884105
-0.14122443 -0.0018988367 -0.00019545264 0.13245222 -0.09024822 -0.035953354 -0.0281757 -0.1736653
00000000: da97 2d3e b275 043c 0b1a f7bd cabd d73d
00000010: d3ec 2bbd 060f adbd 77f4 7ebd 27e5 823d
00000020: 43db 403c 0d6b 22be 3531 68be 1d51 8c3c
00000030: 9352 4dbe 6b75 893d 03d4 53be 7271 9bbc
00000040: c740 e23d 107d f1bd 83be b0bd 4010 df3c
00000050: 9538 03bc d7f1 a3bc c33e a0bd 93cb 0cbd
00000060: ea67 3ebe b31d d7bc 78be 10be 12d0 d13a
00000070: e79a fd3d af65 15be e815 18be c8a3 16be
00000080: ed4c faba d57f 5fbc 31c7 b4bd 8710 33bd
00000090: 144d 9e3d d598 dcbd 8a7c 633e 2726 97bd
000000a0: ef54 1fbe 81c5 1a3d 5f3c f3bd f1cc a7bd
000000b0: ec2a 8fbd d30a dfbc 2e18 263d d81b 6dbe
000000c0: c81c eabc b8e4 d6bd 3165 183c 183f 1f3e
000000d0: fb86 aa3d cf28 8d3e 6021 e93c e3df 883c
000000e0: 01a5 15bd 1fbb 993d 8773 3f3e 7361 94bc
000000f0: 87fb 823e e7b3 873d a2b5 013c fd08 f33d
00000100: d00e d2bc 2c57 34be c2f5 16bd 63d5 46bc
00000110: 777d c63d b508 d93d cfc7 2f3d 6a61 e9bd
00000120: 3561 febd a261 953d 07a8 d9bd f3c4 3cbd
00000130: b6e3 353e 663a 0ebd 0dc0 9cbd 089e 8c3c
00000140: b09d 76bd 33ea 44bd 024f 9ebd 1d28 f13d
00000150: b335 1abd e5be c63d 6cdf 0c3d 7fa0 dbbd
00000160: 4408 343e 3d52 a73d 4bc0 813d 4000 d5bd
00000170: 2f58 16bd 9a62 2b3c fcf1 4b3d c05a db3c
00000180: 83d0 e93d 159e 3abe 0ea4 47be c774 733d
00000190: 6a42 2cbe 3291 963d db5c 39bd 3725 0e3d
000001a0: aaad c03d afba 36bc 1fd2 213e 6f92 8c3b
000001b0: e8a9 553e dc81 33be a54d 293c c03f d13c
000001c0: 93c5 723d 7bfe 3cbd e9ed 00be ee99 95bd
000001d0: 6351 143d 17df 173e 83eb 71bd 4fb7 81bc
000001e0: 49a1 81bc 31ad 14be c51d 983d 01a9 14bd
000001f0: 2c91 c6bc 0d8b 5d3d 2b8a 2e3d e073 033d
00000200: 5bd6 8abc e8ec 613e 1aad bc3c 7801 19bc
00000210: 696c 2bbe c08d 513e 6f07 b2bc ef8a 48be
00000220: cbb8 8e3a da7b 5b3d ca6c a33b 6781 ab3d
00000230: 2b70 523b a263 0dbe 810f bf3d f056 d43d
00000240: 7370 3abe b8db 37bd e7c6 07be 8246 dbbd
00000250: 8b84 8fbd 13d3 7abc 3833 12be 5ff6 34bd
00000260: b729 7abd e7a8 b0bd 30fd b2bd 6f8a e33c
00000270: 5d69 473d 1f11 773d bbab 8abe 3dc2 6b3d
00000280: 7d8c 1b3e f29b b43d f36c 78bc 3a7e 4b3d
00000290: 7891 503c b62c 3ebd 68b8 ce3d df2a af3d
000002a0: eb16 30bc c3d4 12be 6437 193e 107f 78bd
000002b0: 2bf5 683d 9fd6 a93d 3d7b dabd c36c c03d
000002c0: 376d 2c3d b203 b1bc e013 0d3e a9ff 1b3e
000002d0: a396 66be df2c a6bd bac9 54bd b2b6 1cbe
000002e0: eb1a a83d 2f51 14be 71e7 413e 9858 dd3d
000002f0: 9081 cabc 7813 983d af2a 11be 5003 713d
00000300: 239d 10be 63e2 f8ba 6bf2 4cb9 8ea1 073e
00000310: 0fd4 b8bd d343 13bd bad0 e6bc 51d5 31be

h2o.linears.0.bias f4 [10]
0.08787685 -0.07744311 0.06500859 0.046356134 0.05255028 0.050191037 0.05981811 0.031956814
0.05549719 -0.09069695
00000000: c7f8 b33d 7e9a 9ebd 3923 853d eedf 3d3d
00000010: f63e 573d 1e95 4d3d d603 753d 26e5 023d
00000020: 0651 633d 53bf b9bd

linears.0.weight f4 [20, 5]
-0.1001327 0.10118886 0.13148531 0.0012285965 0.10903291 -0.02203747 0.030435389 0.038657453
-0.08972534 0.00891257 -0.08399632 -0.0058076545 -0.004590267 0.098341756 0.039549407 -0.1069747
0.05961218 0.048960354 0.045228235 0.07798785 -0.08806641 -0.1007236 -0.014556617 0.013650194
0.25799674 -0.047762364 0.050839175 -0.07973245 -0.20997897 0.02901727 0.014649968 -0.08217125
-0.06965931 0.004451678 0.1957642 0.047818758 -0.12383699 -0.20521188 0.017987164 -0.06699219
-0.006085133 0.0855008 -0.13543497 -0.07098035 0.025857477 0.072106086 -0.044261303 0.11397512
0.018740868 0.017896796 0.025513206 -0.025119364 -0.15040354 0.043892603 0.08397806 0.07107532
-0.17381683 -0.05762915 -0.034920268 0.18778849 -0.11901913 -0.020823574 0.053049248 -0.14096771
0.13267843 0.08199777 0.074687906 -0.00016995565 0.08806746 0.026625479 0.100732796 -0.0331418
-0.045747887 0.08962875 -0.31893632 0.08315789 -0.035253238 0.04517061 0.20152901 0.04232011
0.011447749 -0.00772798 -0.090109326 0.045903858 -0.20375775 0.13696969 0.1468563 -0.07192885
0.122988336 -0.17375661 -0.09090524 0.1304674 0.04755312 -0.10488091 0.004132483 0.11181021
0.016185803 -0.15794706 0.079536885 0.08174544
00000000: 5f12 cdbd 1b3c cf3d 16a4 063e dc08 a13a
00000010: a54c df3d ed87 b4bc a353 f93c 4757 1e3d
00000020: ebc1 b7bd 0706 123c 4306 acbd 234e bebb
00000030: f369 96bb 6767 c93d 8ffe 213d 8d15 dbbd
00000040: e72b 743d a78a 483d 3e41 393d 18b8 9f3d
00000050: 295c b4bd 2d48 cebd e07e 6ebc 10a5 5f3c
00000060: 2618 843e 78a2 43bd bd3c 503d c44a a3bd
00000070: ba04 57be a0b5 ed3c 6b06 703c 6649 a8bd
00000080: 8aa9 8ebd 62df 913b 6976 483e 9add 433d
00000090: 3f9e fdbd 1023 52be d159 933c 3433 89bd
000000a0: cc65 c7bb 0b1b af3d 77af 0abe 255e 91bd
000000b0: 0fd3 d33c 5bac 933d 574b 35bd ca6b e93d
000000c0: 7386 993c 4d9c 923c 1201 d13c 20c7 cdbc
000000d0: 6303 1abe bbc8 333d b0fc ab3d f08f 913d
000000e0: 0afd 31be 8b0c 6cbd 8e08 0fbd a04b 403e
000000f0: 4dc0 f3bd 3396 aabc 2b4a 593d d759 10be
00000100: dbdc 073e 72ee a73d f9f5 983d 1f36 32b9
00000110: b65c b43d ad1d da3c ff4c ce3d b2bf 07bd
00000120: 2362 3bbd 478f b73d 9f4b a3be af4e aa3d
00000130: b365 10bd d104 393d 9f5d 4e3e da57 2d3d
00000140: 578f 3b3c ff3a fdbb 3d8b b8bd af05 3c3d
00000150: dfa5 50be c841 0c3e 7f61 163e 6f4f 93bd
00000160: 4fe1 fb3d 41ed 31be 872c babd 3f99 053e
00000170: 0fc7 423d cdcb d6bd c869 873b c0fc e43d
00000180: 1798 843c e0bc 21be 3ce4 a23d 276a a73d

linears.0.bias f4 [20]
-0.07659452 0.028523572 0.075088166 0.08518655 0.068628035 -0.08073272 0.083129026 0.09532245
0.0048441067 -0.09600524 -0.07230091 -0.088546395 0.016107582 0.0822384 0.06414699 -0.048633765
-0.043530155 0.023647986 -0.053666618 -0.009564146
00000000: 96dd 9cbd 44aa e93c d3c7 993d 4976 ae3d
00000010: db8c 8c3d 3257 a5bd 8d3f aa3d 6b38 c33d
00000020: 50bb 9e3b 659e c4bd 8012 94bd d057 b5bd
00000030: 0cf4 833c 9b6c a83d 7f5f 833d 3334 47bd
00000040: ad4c 32bd 6cb9 c13c 87d1 5bbd f0b2 1cbc

linears.1.weight f4 [2, 20]
0.13617302 -0.06457328 -0.13874966 -0.010035536 0.16354787 0.0050587542 0.04841524 0.124640524
0.046380326 -0.058760177 0.059023876 -0.105356716 -0.19413039 0.042928483 0.22064994 0.14411262
-0.14150533 -0.039721534 0.06288559 -0.15471739 -0.16465966 0.040328186 0.015172939 0.016749002
-0.018741384 0.07466416 -4.14421e-05 0.11286148 0.14222866 0.017876532 0.12649138 -0.07521161
0.10225804 0.21232371 0.13657816 -0.07472179 -0.10598641 0.19764332 -0.06769263 0.07926719
00000000: f170 0b3e ff3e 84bd 6414 0ebe 176c 24bc
00000010: 1879 273e e8c3 a53b 0f4f 463d 8843 ff3d
00000020: 4cf9 3d3d 83ae 70bd 05c3 713d 43c5 d7bd
00000030: 1eca 46be c7d5 2f3d 0ff2 613e 4292 133e
00000040: c6e6 10be 0cb3 22bd 29ca 803d 3c6e 1ebe
00000050: 8b9c 28be 2b2f 253d eb97 783c 3435 893c
00000060: 8887 99bc 86e9 983d 1ed2 2db8 eb23 e73d
00000070: 64a4 113e ce71 923c f586 013e 8b08 9abd
00000080: aa6c d13d 636b 593e 25db 0b3e bd07 99bd
00000090: 670f d9bd 0363 4a3e 6fa2 8abd d656 a23d

linears.1.bias f4 [2]
-0.02526933 0.03174349
00000000: a001 cfbc 7605 023d
