three_body/params.pth (torch_old, 23269 bytes, 42 tensors)

F.cur.0.linears.0.weight f4 [20, 5]
0.047200326 -0.18447687 -0.20231979 -0.025106605 -0.043567702 -0.21534024 0.16197462 0.05698084
-0.05488817 -0.0712313 0.20637774 -0.0031027508 0.1702073 -0.10695123 0.07941003 0.20029551
-0.035383787 -0.14152388 0.20166785 0.069591016 0.15610792 -0.31181717 -0.33042964 -0.09912626
-0.05787435 -0.01964585 0.11038114 0.14181353 0.2513487 0.15246242 0.07477978 -0.102289215
-0.039177746 -0.02344193 -0.034452695 -0.17264457 -0.08792642 0.04206168 0.21547584 0.14555919
0.13191427 -0.02384236 -0.12585151 -0.19939591 -0.18764958 -0.13204554 0.014405354 0.033799272
0.006367187 -0.02228265 0.03726842 0.1581411 0.23512414 -0.012651996 0.08745149 -0.24417454
-0.18040603 -0.17364159 -0.089209706 0.012251034 0.32822168 0.14436093 -0.09852043 -0.14412642
-0.083576486 0.26201937 -0.09280609 -0.09883359 -0.25635803 0.10021459 -0.16766192 0.12592275
-0.12678753 0.10423844 -0.04485603 -0.13212381 0.027442936 -0.12368054 0.11074877 -0.097197235
0.05410789 -0.019039651 -0.2637891 -0.018711234 0.04939632 -0.12877393 0.01305936 0.15062638
0.11862525 0.11548756 0.062176708 0.14156166 -0.11003795 -0.1481072 -0.055831276 -0.078870974
0.007007484 -0.061340757 0.20340386 0.09733585
00000000: 2155 413d 81e7 3cbe eb2c 4fbe 5eac cdbc
00000010: 0c74 32bd 2782 5cbe addc 253e be64 693d
00000020: 6bd2 60bd b7e1 91bd b054 533e 8557 4bbb
00000030: d34a 2e3e 3f09 dbbd baa1 a23d 441a 4d3e
00000040: 97ee 10bd a3eb 10be 0482 4e3e bc85 8e3d
00000050: c1da 1f3e 80a6 9fbe 132e a9be b502 cbbd
00000060: a80d 6dbd 55f0 a0bc 820f e23d 9137 113e
00000070: c7b0 803e 1c1f 1c3e 2426 993d 027d d1bd
00000080: d878 20bd 4a09 c0bc 451e 0dbd bdc9 30be
00000090: c412 b4bd de48 2c3d b3a5 5c3e 780d 153e
000000a0: 8914 073e 0e51 c3bc 38df 00be 712e 4cbe
000000b0: 3627 40be f236 07be 6f04 6c3c 1b71 0a3d
000000c0: d6a3 d03b 1b8a b6bc c5a6 183d beef 213e
000000d0: 62c4 703e 514a 4fbc c419 b33d e408 7abe
000000e0: 5cbc 38be 1acf 31be 94b3 b6bd 90b8 483c
000000f0: ac0c a83e 5ad3 133e 14c5 c9bd e095 13be
00000100: 262a abbd 6727 863e 1f11 bebd 4469 cabd
00000110: 5c41 83be 4f3d cd3d 91af 2bbe e5f1 003e
00000120: 97d4 01be f77a d53d f5ba 37bd 774b 07be
00000130: 02d0 e03c 394c fdbd 40d0 e23d 580f c7bd
00000140: 3ca0 5d3d 0bf9 9bbc 5d0f 87be 4d48 99bc
00000150: cc53 4a3d 50dd 03be edf6 553c cd3d 1a3e
00000160: ccf1 f23d be84 ec3d 01ad 7e3d 8af5 103e
00000170: 945b e1bd 6aa9 17be 56af 64bd 1b87 a1bd
00000180: 099f e53b 7240 7bbd 1a49 503e 0558 c73d

F.cur.0.linears.0.bias f4 [20]
0.061353177 0.0330437 -0.018007066 -0.008056391 -0.08473064 -0.028324982 -0.0024286082 0.061633702
-0.026956066 -0.08167785 0.05475401 -0.10858716 0.0023526358 -0.014520884 -0.027115881 -0.007300055
-0.072553016 0.03569407 0.068636455 0.0048559387
00000000: 784d 7b3d d558 073d 8e83 93bc f4fe 03bc
00000010: 4287 adbd cb09 e8bc 4929 1fbb 9f73 7c3d
00000020: f8d2 dcbc b746 a7bd be45 603d f262 debd
00000030: ae2e 1a3b 00e9 6dbc 2022 debc 4d35 efbb
00000040: ad96 94bd f233 123d 4591 8c3d 911e 9f3b

F.nbr.0.linears.0.weight f4 [20, 10]
0.030017339 0.021078132 -0.018754113 0.10397023 -0.04113604 -0.026653087 -0.010119685 0.024549235
-0.004163877 0.044383727 0.11717112 -0.071893506 -0.06593979 -0.106858626 0.09407715 -0.1365394
-0.0017259611 -0.03334747 0.18509972 0.02792099 0.010425852 0.029718656 -0.01562847 0.10209828
0.036745396 0.21098103 -0.043379866 0.031556085 -0.27296013 0.12608217 0.08539252 0.18598425
-0.037333164 -0.09854997 -0.1835491 -0.09370769 -0.19074716 0.028452402 -0.08827968 0.03135222
-0.20432019 -0.23974387 0.04012948 0.089030884 0.034288455 0.07351657 -0.19794416 -0.2415186
-0.13055147 -0.104883835 -0.012559595 -0.15650943 -0.035754457 -0.03119481 -0.042246807 0.104668766
0.16284055 -0.038665753 -0.03305952 0.11046513 0.052319195 -0.0069562295 0.07152553 0.09483942
-0.121673025 -0.11233435 0.095355414 -0.065334335 -0.11051982 0.10244898 0.15248765 0.12262338
0.3403378 0.31480783 -0.11742127 -0.09170239 0.09714205 0.13176742 -0.17409639 -0.004297753
-0.08354323 0.19359212 -0.080876336 -0.010960021 -0.042875234 0.016193163 -0.12564543 0.12157141
0.038653437 0.109423526 -0.09842535 0.08389401 0.041512284 -0.05322052 -0.008790639 0.32324913
-0.030346133 0.053429756 0.042211797 -0.115831956 0.09105124 0.12250443 -0.041195765 0.23286493
-0.036425084 -0.18361372 -0.018849954 -0.07662437 -0.14811568 0.077090055 -0.20141178 0.13740803
0.00831495 -0.029381659 0.224516 0.1926242 -0.027182 0.016312204 0.112597816 -0.040472027
0.040332615 -0.16634531 0.13975218 -0.17647561 0.05472943 0.17111866 0.023458315 -0.061594743
0.019318774 -0.121774405 0.054804515 -0.0127744535 0.03827041 0.07437547 -0.053145938 0.04191567
0.07497397 0.10255786 -0.0697999 0.15975547 -0.26005226 -0.1964112 -0.021483073 -0.15190545
-0.1397078 0.20823163 0.30004996 -0.23394626 -0.019737603 -0.012216588 -0.11813902 -0.10713839
-0.06427402 -0.027087683 -0.22220337 0.12422919 -0.031636566 -0.18963416 0.14308918 0.30044594
0.030870534 -0.059524447 -0.11142921 0.119494416 -0.16970368 0.084349394 -0.16727115 0.019959887
-0.21826316 0.12688674 0.09974512 -0.015096232 0.05045527 0.10950601 -0.08642617 -0.1551178
0.1617569 0.0978277 -0.14164817 -0.00064940215 -0.092268884 -0.17218783 0.101495236 0.07182875
-0.1286828 0.030229207 0.15915588 -0.24403954 -0.16586475 -0.026066562 0.011901415 0.2056168
0.030400079 0.0019000388 0.1351031 0.1290912 -0.1650666 -0.13219158 -0.03243585 0.010102806
00000000: ece6 f53c 0cac ac3c 3aa2 99bc 58ee d43d
00000010: 447e 28bd 9357 dabc 09cd 25bc 7a1b c93c
00000020: 2271 88bb b6cb 353d 6af7 ef3d e73c 93bd
00000030: 710b 87bd b2d8 dabd 85ab c03d fcd0 0bbe
00000040: a539 e2ba 5b97 08bd c88a 3d3e 8fba e43c
00000050: 31d1 2a3c 8a74 f33c 4707 80bc e718 d13d
00000060: 5782 163d 690b 583e 16af 31bd f440 013d
00000070: 6ec1 8bbe af1b 013e 46e2 ae3d a872 3e3e
00000080: a9ea 18bd 91d4 c9bd 4cf4 3bbe d1e9 bfbd
00000090: 3953 43be 0315 e93c facb b4bd 2f6b 003d
000000a0: 5039 51be 6b7f 75be cf5e 243d d355 b63d
000000b0: 0d72 0c3d db8f 963d e0b1 4abe a750 77be
000000c0: 49af 05be 56cd d6bd c2c6 4dbc 0244 20be
000000d0: 4473 12bd 428c ffbc fd0a 2dbd 945c d63d
000000e0: acbf 263e fb5f 1ebd 6b69 07bd 8b3b e23d
000000f0: a74c 563d 15f1 e3bb fa7b 923d 2b3b c23d
00000100: b52f f9bd 8d0f e6bd b349 c33d 02ce 85bd
00000110: 3758 e2bd c5d0 d13d b925 1c3e f721 fb3d
00000120: c240 ae3e 7e2e a13e 907a f0bd 76ce bbbd
00000130: 69f2 c63d 0aee 063e 5346 32be 2ad4 8cbb
00000140: b718 abbd 033d 463e 7ea2 a5bd a991 33bc
00000150: f19d 2fbd 86a7 843c 32a9 00be 6efa f83d
00000160: 1153 1e3d 7119 e03d 3b93 c9bd 9fd0 ab3d
00000170: c908 2a3d c3fd 59bd 9d06 10bc e980 a53e
00000180: 7498 f8bc 29d9 5a3d 47e6 2c3d 4e39 edbd
00000190: 1379 ba3d 9ae3 fa3d e4bc 28bd 2574 6e3e
000001a0: 7832 15bd 3c05 3cbe 386b 9abc 3ded 9cbd
000001b0: a3ab 17be 64e1 9d3d e43e 4ebe b1b4 0c3e
000001c0: 6e3b 083c ceb1 f0bc 86e7 653e 473f 453e
000001d0: c9ac debc 2ca1 853c af99 e63d ffc5 25bd
000001e0: d033 253d 6d56 2abe 321b 0f3e 06b6 34be
000001f0: f72b 603d bb39 2f3e a72b c03c c54a 7cbd
00000200: 6842 9e3c dc64 f9bd b37a 603d f14b 51bc
00000210: 6fc1 1c3d 2b52 983d 8eaf 59bd c4af 2b3d
00000220: f48b 993d db09 d23d 40f3 8ebd f096 233e
00000230: 9225 85be 0520 49be 45fd afbc 1a8d 1bbe
00000240: 900f 0fbe ac3a 553e 26a0 993e 9c8f 6fbe
00000250: c1b0 a1bc 1528 48bc dff2 f1bd 5f6b dbbd
00000260: 19a2 83bd fde6 ddbc 4889 63be e06b fe3d
00000270: 5895 01bd 752f 42be f885 123e 0dd4 993e
00000280: 34e4 fc3c e8cf 73bd ff34 e4bd 7db9 f43d
00000290: cdc6 2dbe 60bf ac3d 2149 2bbe eb82 a33c
000002a0: 6180 5fbe 99ee 013e 2b47 cc3d 3056 77bc
000002b0: 2faa 4e3d b044 e03d 3400 b1bd 33d7 1ebe
000002c0: 9aa3 253e e459 c83d 380c 11be a43c 2aba
000002d0: 78f7 bcbd 0252 30be bcdc cf3d f41a 933d
000002e0: 6dc5 03be 3ea3 f73c c2f9 223e 80e5 79be
000002f0: 73d8 29be 8b89 d5bc 27fe 423c 368d 523e
00000300: 9609 f93c b90a f93a 7858 0a3e 7c30 043e
00000310: 3807 29be 3b5d 07be 74db 04bd 3d86 253c

F.nbr.0.linears.0.bias f4 [20]
0.07137558 0.033503704 -0.12556803 -0.0007746427 -0.093649216 0.020070054 0.0037684403 -0.08785562
0.0477816 0.0025272013 0.038150914 0.0015900446 -0.045982763 0.053280175 0.03213097 -0.049425956
-0.041823823 -0.005008627 -0.037808184 -0.030984757
00000000: 5c2d 923d 2e3b 093d e894 00be 6411 4bba
00000010: 29cb bfbd f469 a43c f0f7 763b a6ed b3bd
00000020: a4b6 433d 679f 253b 2244 1c3d 0b69 d03a
00000030: 6c58 3cbd 503c 5a3d c49b 033d df72 4abd
00000040: 754f 2bbd 691f a4bb c1dc 1abd bfd3 fdbc

F.out.weight f4 [5, 40]
-0.2521271 0.12156067 -0.087946475 -0.03347282 -0.49337408 0.23244803 -0.2436901 0.108527295
-0.42578745 0.1492068 0.21003598 -0.19515021 -0.1536132 -0.45016736 0.009817984 -0.026692038
-0.2685173 0.32818276 -0.031140765 -0.011222668 0.109836206 0.027162837 0.04319697 -0.10995602
0.11042325 0.20964581 0.5390524 0.17266157 -0.312538 -0.17994472 0.24427097 -0.21722692
-0.13844787 0.011314335 0.16035517 -0.012358167 0.006437531 0.09440264 0.556148 -0.15262787
0.051933642 0.01966098 0.20409551 -0.06120867 -0.044538803 0.05540711 0.039010767 -0.059520338
0.009946146 -0.1651821 -0.047109835 0.020506645 -0.0007387545 0.0052248454 0.06152296 0.012924499
-0.047674175 0.011028182 -0.017161079 0.068299875 -0.19119929 0.041740913 -0.06343978 -0.26183784
0.020859584 0.30871361 -0.04873708 0.035052106 -0.19283584 -0.022213167 0.0757022 0.084900945
0.05455626 -0.21225594 0.101285934 -0.107413895 0.0073927934 0.03413883 0.042132482 -0.18837355
0.12335377 0.31260934 -0.6719268 -0.037723847 -0.04792969 0.06358361 -0.10872895 0.3008468
-0.27461824 0.33115304 -0.22608654 0.4985586 -0.15272343 -0.37403068 0.5031379 0.53545994
0.00013127051 0.10824358 0.09794809 0.53115577 -0.22164653 -0.18075183 0.2850905 -0.2854177
0.30350643 0.283378 -0.10467207 -0.083932966 -0.17237914 0.37517038 -0.22412439 0.22299688
0.27432996 -0.010976551 0.5886509 0.3262057 0.0067464462 -0.0107898675 0.22911522 -0.057876937
-0.27072138 0.058534935 -0.0546783 -0.10180477 -0.029445974 0.058872126 0.11184805 0.07606081
0.08182838 -0.10404984 0.15180653 0.03357684 0.013747355 0.054446485 -0.054399427 0.21403357
-0.07819746 -0.08158513 -0.11488577 0.18066432 -0.1772009 0.03914671 -0.15125261 -0.06677673
0.018576633 0.014443187 -0.20215322 -0.13036975 -0.07054943 0.14856896 -0.35955402 0.29097915
0.16758497 0.004453239 0.14095305 0.071681246 -0.23497383 -0.102426425 0.12594612 -0.021809021
0.062140707 0.20578745 -0.25693426 -0.04021313 0.045897234 -0.23435749 0.002432929 -0.23045653
0.45732582 0.03067121 -0.22522804 -0.054329608 0.06947416 -0.049399823 0.10675298 0.1981047
-0.068851 -0.17145044 0.26297843 -0.30918136 0.009072595 0.09090194 -0.16420093 -0.1295886
-0.038030695 0.238759 0.25632954 -0.11310258 -0.09974885 -0.17559952 -0.25857142 -0.20443872
0.02612118 0.15537044 0.21834143 0.33623934 -0.027522182 0.18684287 0.2854213 -0.18795109
00000000: ce16 81be cdf4 f83d 481d b4bd cc1a 09bd
00000010: 879b fcbe db06 6e3e e689 79be 8f43 de3d
00000020: d000 dabe abc9 183e ac13 573e 75d5 47be
00000030: c74c 1dbe 567c e6be 9cdb 203c 43a9 dabc
00000040: 197b 89be 9207 a83e eb1a ffbc 48df 37bc
00000050: cef1 e03d 9984 de3c 4eef 303d 9f30 e1bd
00000060: 9625 e23d 64ad 563e 57ff 093f 32ce 303e
00000070: fb04 a0be 6e43 38be 2b22 7a3e bc70 5ebe
00000080: 47c5 0dbe c35f 393c 2534 243e e979 4abc
00000090: edf1 d23b 2c56 c13d b75f 0e3f 7b4a 1cbe
000000a0: 5fb8 543d 1010 a13c 6afe 503e f1b5 7abd
000000b0: 526e 36bd 91f2 623d c1c9 1f3d 99cb 73bd
000000c0: 29f5 223c 7f25 29be 3ef6 40bd 8dfd a73c
000000d0: faa8 41ba 2e35 ab3b 80ff 7b3d 47c1 533c
000000e0: ff45 43bd 8caf 343c 6495 8cbc cee0 8b3d
000000f0: bfc9 43be 85f8 2a3d b7ec 81bd 9c0f 86be
00000100: b8e1 aa3c b60f 9e3e 88a0 47bd cc92 0f3d
00000110: c276 45be 63f8 b5bc c109 9b3d 8ce0 ad3d
00000120: 6376 5f3d 9f59 59be 006f cf3d d1fb dbbd
00000130: 3f3f f23b 28d5 0b3d 1c93 2c3d ffe4 40be
00000140: e7a0 fc3d 550e a03e 6503 2cbf 5284 1abd
00000150: ec51 44bd 2038 823d 49ad debd 9708 9a3e
00000160: c39a 8cbe e48c a93e 3b83 67be 1343 ff3e
00000170: 8863 1cbe f380 bfbe a5cd 003f e713 093f
00000180: a9a5 0939 cfae dd3d 0299 c83d d3f9 073f
00000190: 4ff7 62be 0217 39be 62f7 913e 4522 92be
000001a0: 3265 9b3e ec16 913e 4f5e d6bd 0ce5 abbd
000001b0: 2884 30be 5516 c03e dd80 65be 4b59 643e
000001c0: fa74 8c3e fed6 33bc d3b1 163f 6f04 a73e
000001d0: 4b11 dd3b fcc7 30bc 2e9d 6a3e 5e10 6dbd
000001e0: fe9b 8abe 54c2 6f3d 5af6 5fbd 057f d0bd
000001f0: af38 f1bc e623 713d 9710 e53d c5c5 9b3d
00000200: a395 a73d 1518 d5bd 2c73 1b3e de87 093d
00000210: 963c 613c 4703 5f3d efd1 5ebd 9e2b 5b3e
00000220: fd25 a0bd 1b16 a7bd 3b49 ebbd 1100 393e
00000230: 2774 35be 4d58 203d f7e1 1abe 3dc2 88bd
00000240: 062e 983c 1ea3 6c3c 4101 4fbe a67f 05be
00000250: 387c 90bd 7622 183e 7717 b8be 38fb 943e
00000260: 659b 2b3e 7aec 913b ff55 103e 9ecd 923d
00000270: fb9c 70be f2c4 d1bd 05f8 003e d5a8 b2bc
00000280: 4187 7e3d f2b9 523e e38c 83be 86b6 24bd
00000290: bdfe 3b3d 69fb 6fbe c671 1f3b ccfc 6bbe
000002a0: 9c26 ea3e 3042 fb3c 2ea2 66be b988 5ebd
000002b0: 7848 8e3d 7857 4abd 4ea1 da3d f5db 4a3e
000002c0: c101 8dbd b490 2fbe 1ca5 863e 054d 9ebe
000002d0: 39a5 143c cc2a ba3d 4a24 28be e0b2 04be
000002e0: 13c6 1bbd 3d7d 743e a03d 833e 53a2 e7bd
000002f0: 2049 ccbd 5cd0 33be 7963 84be 6258 51be
00000300: 16fc d53c 6e19 1f3e e594 5f3e 9027 ac3e
00000310: 3376 e1bc bd53 3f3e be22 923e 4076 40be

F.out.bias f4 [5]
-0.10412649 0.01147604 -0.16717483 -0.0040626624 -0.005864313
00000000: 4540 d5bd 0006 3c3c e12f 2bbe 1520 85bb
00000010: 6c29 c0bb

i2h.linears.0.weight f4 [20, 22]
-0.08495383 0.16873051 0.17916043 0.013147377 0.09816706 -0.13283797 -0.34689757 -0.046190683
0.14104734 0.13636817 0.01014868 -0.1336879 -0.21987644 -0.11198835 0.10357125 0.03240265
0.08668012 -0.11542422 -0.2880737 -0.09962493 0.06751397 0.036108978 -0.053751305 -0.13419864
-0.044658337 0.40404433 0.29279348 0.13226534 -0.18813975 -0.086570896 -0.18576169 0.02826714
-0.005840931 0.18037598 -0.0255272 -0.15270293 -0.17423782 0.07737117 -0.076156825 0.06470854
0.051826537 0.06297961 -0.19456862 -0.13656464 -0.07816964 0.4039454 -0.05827868 0.01353939
0.30503964 -0.19743186 -0.39172193 -0.21517286 0.12652719 0.15017922 0.2548125 -0.104244106
-0.18774171 -0.4029217 0.09603029 0.22870679 -0.3002108 -0.075912274 0.10753619 -0.0483643
0.07280555 -0.04724325 0.33080956 0.35249028 -0.17631447 -0.16038035 0.0935968 0.10926153
-0.12440236 0.09485829 -0.10519499 -0.27719098 -0.12324693 -0.16557744 -0.06888546 -0.054544166
0.0034655093 -0.19400966 -0.20325974 -0.21730483 -0.07094686 -0.13163932 0.010800413 -0.020688275
-0.3762187 0.049451288 0.010594456 0.17807342 -0.06799763 0.15340717 -0.15783207 -0.17063269
0.11834996 -0.24946764 -0.12602457 0.14897932 0.21496898 -0.014111118 -0.115011595 -0.19940253
0.17203395 -0.08229162 0.10861997 -0.121669136 -0.08746347 -0.012037654 -0.17623004 -0.26387095
0.13471523 -0.19705978 -0.039046362 0.0950224 0.09089229 0.17904615 -0.007948475 -0.038808763
-0.0965921 0.010760526 0.051947616 -0.03616304 0.24312592 -0.1890056 0.043576628 -0.09611463
-0.18767749 -0.25179556 0.06660528 0.09157495 -0.33614567 -0.06433485 -0.033083268 0.05419741
0.09099737 0.021826979 0.21206862 -0.021727635 -0.019596567 0.025248945 0.08718955 0.00387457
0.074329294 0.013253101 0.061683845 0.091182105 0.020757861 -0.1274518 -0.12138751 -0.0018998891
-0.06929652 0.029395662 0.08426666 -0.3791 0.010403416 0.18210119 -0.10319441 0.18861604
0.36177316 0.18070342 0.23690708 0.08899034 -0.025199393 -0.15038325 -0.023500858 -0.2596696
-0.03690107 -0.03556937 0.19517006 0.1542603 -0.064918496 -0.049231965 0.17791046 0.18647392
-0.06754893 -0.26925018 0.0022561254 0.10561038 0.068149425 -0.110350184 0.39659882 -0.015836561
0.13314383 -0.098990954 0.014060004 0.055943232 -0.12977643 -0.15408476 0.107925154 0.064809956
-0.06724531 0.20486115 0.03556071 -0.020207291 -0.11338945 -0.1798473 0.040732767 -0.0020910997
-0.33474258 0.09972752 0.053772572 0.19642416 -0.0024534261 -0.084202744 0.027251411 -0.1470647
0.026998734 0.10641379 -0.018599868 0.09936116 -0.03361565 -0.14135934 0.013738747 0.014645675
0.042993665 0.09315196 -0.07678005 -0.10822164 -0.35362154 -0.07576946 -0.072666295 -0.16741301
-0.03493384 0.2633052 0.009921375 -0.11342903 0.04809993 -0.4654347 -0.26339176 0.19722025
0.21189642 -0.08910804 0.1551771 0.00972395 -0.22066434 -0.024335578 0.10653672 0.08388873
-0.15469514 -0.13513517 0.34896266 0.014818201 0.22100584 -0.2545404 -0.32182634 0.25575316
0.15983774 0.10482119 -0.11631307 0.013036377 -0.034673944 -0.0003226402 0.23333889 0.29332718
00000000: 46fc adbd b1c7 2c3e d575 373e 1968 573c
00000010: d00b c93d ad06 08be 8f9c b1be 7132 3dbd
00000020: b76e 103e 19a4 0b3e a646 263c 7be5 08be
00000030: 4a27 61be 265a e5bd 2a1d d43d a4b8 043d
00000040: 5985 b13d 8963 ecbd 657e 93be 2808 ccbd
00000050: c444 8a3d 02e7 133d 542a 5cbd 5e6b 09be
00000060: a9eb 36bd e6de ce3e 07e9 953e 9170 073e
00000070: b5a7 40be 154c b1bd 5038 3ebe 7d90 e73c
00000080: 4865 bfbb 7bb4 383e 6b1e d1bc 285e 1cbe
00000090: 666b 32be c774 9e3d 1cf8 9bbd e985 843d
000000a0: 1048 543d 74fb 803d ff3c 47be 9ad7 0bbe
000000b0: 6717 a0bd eed1 ce3e a0b5 6ebd 51d4 5d3c
000000c0: 282e 9c3e 942b 4abe c78f c8be 4656 5cbe
000000d0: 5890 013e 95c8 193e c976 823e ef7d d5bd
000000e0: 5d3f 40be c14b cebe 87ab c43d 1d32 6a3e
000000f0: 3bb5 99be e577 9bbd ef3b dc3d a519 46bd
00000100: 141b 953d 2382 41bd df5f a93e 9b79 b43e
00000110: c88b 34be bf3a 24be aeaf bf3d 82c4 df3d
00000120: aac6 febd 1045 c23d 7970 d7bd faeb 8dbe
00000130: e368 fcbd 228d 29be d213 8dbd b469 5fbd
00000140: 991d 633b 78aa 46be 5223 50be 2885 5ebe
00000150: 964c 91bd 75cc 06be 37f4 303c 757a a9bc
00000160: bd9f c0be 6f8d 4a3d 5f94 2d3c e158 363e
00000170: 5742 8bbd c516 1d3e bb9e 21be 56ba 2ebe
00000180: 7761 f23d 7274 7fbe 960c 01be 098e 183e
00000190: d420 5c3e 5232 67bc 338b ebbd 2d30 4cbe
000001a0: ab29 303e 8288 a8bd 2674 de3d ab2d f9bd
000001b0: 0c20 b3bd 9539 45bc a675 34be 181a 87be
000001c0: caf2 093e 0aca 49be 14ef 1fbd 1b9b c23d
000001d0: bd25 ba3d e057 373e 523a 02bc f0f5 1ebd
000001e0: 14d2 c5bd eb4c 303c 06c7 543d b21f 14bd
000001f0: 00f6 783e af8a 41be 687d 323d bfd7 c4bd
00000200: 872e 40be 59eb 80be 5968 883d a68b bb3d
00000210: 491b acbe fdc1 83bd 5282 07bd 1afe 5d3d
00000220: d45c ba3d 7ece b23c 8428 593e 27fe b1bc
00000230: fb88 a0bc e0d6 ce3c 6f90 b23d 7fec 7d3b
00000240: f539 983d 8923 593c 33a8 7c3d afbd ba3d
00000250: 640c aa3c ba82 02be 049a f8bd b305 f9ba
00000260: 55eb 8dbd 2ccf f03c 0094 ac3d 6519 c2be
00000270: 1773 2a3c bc78 3a3e 9757 d3bd 9024 413e
00000280: 553a b93e 510a 393e c597 723e 9140 b63d
00000290: f56e cebc 11fe 19be df84 c0bc 6af3 84be
000002a0: 9425 17bd 30b1 11bd a9da 473e 69f6 1d3e
000002b0: fdf3 84bd 75a7 49bd 292e 363e 05f3 3e3e
000002c0: 1857 8abd 29db 89be 81db 133b 414a d83d
000002d0: ed91 8b3d 47ff e1bd 000f cb3e adbb 81bc
000002e0: db56 083e c5bb cabd ee5b 663c bb24 653d
000002f0: 1de4 04be 65c8 1dbe dd07 dd3d 15bb 843d
00000300: e9b7 89bd 1fc7 513e 1ba8 113d c389 a5bc
00000310: ba38 e8bd e429 38be 67d7 263d d50a 09bb
00000320: 6163 abbe f13d cc3d a140 5c3d 6a23 493e
00000330: a9c9 20bb 7d72 acbd 5a3e df3c 2198 16be
00000340: 732c dd3c 79ef d93d c05e 98bc dd7d cb3d
00000350: 90b0 09bd 81c0 10be 7b18 613c 6af4 6f3c
00000360: 201a 303d 74c6 be3d dc3e 9dbd 4fa3 ddbd
00000370: e20d b5be 052d 9bbd 11d2 94bd 516e 2bbe
00000380: c916 0fbd f0cf 863e 438d 223c 7b4d e8bd
00000390: 6f04 453d 754d eebe 49db 86be 1bf4 493e
000003a0: 60fb 583e 477e b6bd bfe6 1e3e 3451 1f3c
000003b0: d5f5 61be 685b c7bc ed2f da3d dbcd ab3d
000003c0: 6768 1ebe e060 0abe 3cab b23e 0ac8 723c
000003d0: 5b4f 623e 1f53 82be 6cc6 a4be 14f2 823e
000003e0: 81ac 233e 7eac d63d 8c35 eebd 8796 553c
000003f0: 4406 0ebd 0928 a9b9 64f0 6e3e fb2e 963e

i2h.linears.0.bias f4 [20]
0.1011763 -0.26187095 -0.317718 0.23588978 -0.09750109 0.1507033 0.15777768 -0.14387386
-0.10994133 0.012097308 0.25525868 0.20693898 0.14193529 -0.28305572 -0.025560677 -0.060281724
-0.016237717 -0.18581384 0.00060493377 -0.087182865
00000000: 8535 cf3d f313 86be efab a2be 178d 713e
00000010: a7ae c7bd f751 1a3e 7990 213e ab53 13be
00000020: ec28 e1bd ca33 463c 44b1 823e d0e7 533e
00000030: 7c57 113e aeec 90be a064 d1bc f8e9 76bd
00000040: f604 85bc fc45 3ebe 6b94 1e3a ee8c b2bd

h2o.linears.0.weight f4 [10, 20]
-0.4330917 -0.19357404 -0.1917145 0.056102008 -0.20313074 -0.33219346 0.11022455 0.13313483
0.22090302 0.44653997 0.28840774 0.42698365 -0.12744725 0.16470595 -0.0909871 -0.10728307
-0.11046487 0.14573945 -0.36350572 -0.16459635 -0.57346755 -0.30748627 -0.5488062 -0.5549605
-0.2332784 -0.014604458 -0.32896304 0.57314694 0.5638001 0.09813856 -0.25035492 0.415214
0.4606605 0.47902444 -0.58538383 -0.40894845 0.22231066 0.44316006 0.03914778 -0.3642889
0.18750939 0.2013972 0.07458488 0.19314405 -0.32074928 0.24629997 -0.2099326 0.269265
-0.046255954 0.08585734 -0.60780454 -0.17776977 -0.37812883 -0.3785512 0.058225423 0.123347454
-0.23386176 -0.045089584 0.12144033 0.3837831 -0.27008623 -0.29857424 0.0052055432 0.46801412
-0.6193116 -0.38427812 -0.4637272 -0.2651855 -0.04364436 0.44740403 -0.5611906 0.39874858
-0.31926376 -0.2997649 0.19673845 -0.14625831 -0.44794342 -0.13123673 -0.5322713 -0.05511501
-0.078128375 0.13099016 -0.2510871 -0.16574976 0.44956484 0.1885144 0.1314207 0.32780156
0.048155893 -0.20700367 0.061185207 -0.20605703 0.38504624 -0.0050972286 -0.08588842 -0.07822042
0.26948434 -0.017061038 0.35952932 -0.1798469 0.0071027647 0.65441686 0.7369328 -0.25272763
0.16149089 -0.3966829 -0.3574939 0.16680232 0.11089615 0.051903438 -0.58272606 -0.570497
-0.4020835 0.34189612 -0.007416684 0.17080891 0.18904008 0.4281369 -0.4146042 -0.25546426
0.014952437 0.65622413 0.9065313 -0.2732911 0.3191212 -0.26453277 -0.31768242 -0.06549595
0.22360784 0.3476003 -0.71079016 -0.8023464 -0.5206039 0.48952985 -0.12570402 0.16690348
0.3606602 0.4458894 -0.33580998 -0.3414393 0.010134677 0.5353589 0.38890818 -0.2670828
0.12314983 -0.25172037 -0.3430999 0.060558263 0.29988605 0.08585408 -0.35158214 -0.44298935
-0.35008526 0.31599844 -0.06868327 0.25582287 0.28328535 0.22807741 -0.4530637 -0.12323779
-0.094516456 0.8048187 0.9416473 -0.10522539 0.3186234 -0.43466133 -0.39601973 -0.08138669
0.5186821 0.19354135 -0.75500584 -0.72985333 -0.698409 0.2829665 -0.143513 0.23632243
0.3965255 0.62067854 -0.4480844 0.06420712 -0.056434438 0.42674544 0.43384048 0.097546056
0.054909214 -0.34668967 -0.28156152 0.36929268 0.019207891 -0.011315515 -0.35730362 -0.18164612
-0.40815938 0.122727625 -0.01680106 -0.15051977 0.056367442 0.001215399 -0.067435086 -0.19912873
00000000: 32be ddbe 4638 46be ce50 44be 38cb 653d
00000010: 8101 50be 4315 aabe 69bd e13d 7f54 083e
00000020: 6734 623e e3a0 e43e 2eaa 933e 9a9d da3e
00000030: 8881 02be ada8 283e 7257 babd 3ab7 dbbd
00000040: 683b e2bd b93c 153e 6c1d babe f28b 28be
00000050: c5ce 12bf d76e 9dbe 907e 0cbf e411 0ebf
00000060: 88e0 6ebe 8947 6fbc d86d a8be c2b9 123f
00000070: 3455 103f dffc c83d 852e 80be ee96 d43e
00000080: b1db eb3e b142 f53e b7db 15bf b161 d1be
00000090: 68a5 633e e0e5 e23e 6c59 203d 1384 babe
000000a0: 7602 403e 113b 4e3e f5bf 983d 8ec7 453e
000000b0: 4039 a4be 0f36 7c3e 92f8 56be 1add 893e
000000c0: e276 3dbd f9d5 af3d 1499 1bbf 4709 36be
000000d0: 1a9a c1be 76d1 c1be c87d 6e3d 979d fc3d
000000e0: 7579 6fbe dbaf 38bd b5b5 f83d 387f c43e
000000f0: be48 8abe b9de 98be 4393 aa3b 8c9f ef3e
00000100: 348b 1ebf 1ac0 c4be a76d edbe 65c6 87be
00000110: 6ec4 32bd 2412 e53e 30aa 0fbf c628 cc3e
00000120: 8a76 a3be c97a 99be ce75 493e bdc4 15be
00000130: d758 e5be ec62 06be ef42 08bf 47c0 61bd
00000140: c501 a0bd 4922 063e 7d8e 80be 4eba 29be
00000150: 5d2d e63e eb09 413e 2693 063e 9bd5 a73e
00000160: 1d3f 453d c5f8 53be 579d 7a3d 9d00 53be
00000170: c824 c53e a706 a7bb 45e6 afbd 0732 a0bd
00000180: daf9 893e 97c3 8bbc 3a14 b83e c929 38be
00000190: 4fbe e83b dd87 273f a1a7 3c3f 8465 81be
000001a0: de5d 253e 051a cbbe 7109 b7be 3ace 2a3e
000001b0: 851d e33d b398 543d 892d 15bf 170c 12bf
000001c0: e3dd cdbe 020d af3e a807 f3bb 88e8 2e3e
000001d0: b993 413e c234 db3e 0047 d4be 36cc 82be
000001e0: 11fb 743c 4efe 273f 6f12 683f d0ec 8bbe
000001f0: db63 a33e d770 87be 45a7 a2be be22 86bd
00000200: 74f9 643e abf8 b13e 58f6 35bf 9366 4dbf
00000210: 4c46 05bf a8a3 fa3e 8eb8 00be bfe8 2a3e
00000220: 74a8 b83e 9e4b e43e 49ef abbe 22d1 aebe
00000230: eb0b 263c 480d 093f f91e c73e 14bf 88be
00000240: fa35 fc3d 7ee1 80be caaa afbe f10b 783d
00000250: aa8a 993e 44d4 af3d 9302 b4be 80cf e2be
00000260: 603e b3be 8cca a13e d0a9 8cbd 37fb 823e
00000270: c70a 913e 208d 693e f7f7 e7be 1864 fcbd
00000280: d891 c1bd 9908 4e3f cc0f 713f 6980 d7bd
00000290: 9b22 a33e ee8b debe 19c3 cabe 11ae a6bd
000002a0: 5ac8 043f b42f 463e 1048 41bf abd7 3abf
000002b0: efca 32bf fce0 903e 12f5 12be 82fe 713e
000002c0: 6405 cb3e cae4 1e3f 526b e5be 067f 833d
000002d0: cc27 67bd 617e da3e 5720 de3e 3ac6 c73d
000002e0: 7ce8 603d 4f81 b1be d528 90be ee13 bd3e
000002f0: de59 9d3c b664 39bc 80f0 b6be 7101 3abe
00000300: 44fa d0be 9f58 fb3d 60a2 89bc db21 1abe
00000310: 8ce1 663d 064e 9f3a 681b 8abd 67e8 4bbe

h2o.linears.0.bias f4 [10]
-0.06959534 -0.106653936 -0.13436668 -0.00094305683 0.03495206 -0.7600193 -0.8346659 -0.5481635
-0.80926436 -0.4038046
00000000: 0088 8ebd 616d dabd 6b97 09be 7937 77ba
00000010: e429 0f3d a090 42bf aaac 55bf 7154 0cbf
00000020: f32b 4fbf 7abf cebe

linears.0.weight f4 [20, 5]
0.069682054 0.120506175 0.082912214 0.032538034 0.29623675 0.28214094 0.21999049 0.09439803
0.05194658 0.18294886 0.031204846 -0.06639263 -0.008959987 -0.1930807 0.0033864486 0.2930287
0.12179505 0.04606327 0.1618823 0.14067957 0.43373728 0.38208106 0.08670236 0.0144682815
0.154557 -0.28465953 0.047912464 -0.28681612 -0.36792287 0.08025758 0.117513895 0.037906796
0.19368221 0.17797677 -0.07041103 0.0800864 0.1136192 -0.10345895 -0.30878583 0.018811563
0.046719525 0.2506457 -0.042702913 -0.26948485 0.20643139 -0.25288156 -0.30804586 -0.07899675
-0.083923526 -0.05067679 0.17040041 -0.04143233 0.21381514 0.057768513 -0.043630995 0.06040746
-0.06904235 0.20352839 0.18487498 -0.12657805 -0.07471668 0.25994822 0.044919703 -0.31575668
0.15501419 0.28641787 0.22521052 0.00837125 -0.0048578307 0.28620994 0.23398478 -0.058106154
0.19705483 0.34066033 0.26419976 0.02602733 -0.5206574 -0.023098556 0.26223153 0.037527766
-0.11989302 -0.33780336 0.06228561 -0.21120672 0.11630596 -0.18325551 -0.21364756 0.105719894
0.057226636 -0.22113164 -0.23566642 -0.019459452 0.17032474 -0.25945517 -0.030839136 0.17844029
-0.038261686 0.10770099 0.50279945 0.062872395
00000000: 77b5 8e3d f1cb f63d e1cd a93d 9a46 053d
00000010: 58ac 973e c774 903e 3045 613e c153 c13d
00000020: f0c5 543d f256 3b3e 4ea1 ff3c dcf8 87bd
00000030: e9cc 12bc f2b6 45be 2eef 5d3b dc07 963e
00000040: af6f f93d d7ac 3c3d 79c4 253e 4e0e 103e
00000050: d012 de3e 21a0 c33e 0291 b13d 5f0c 6d3c
00000060: 3144 1e3e e5be 91be dc3f 443d 90d9 92be
00000070: 6360 bcbe 165e a43d 20ab f03d 2844 1b3d
00000080: a154 463e 8b3f 363e a833 90bd 5704 a43d
00000090: 2fb1 e83d 49e2 d3bd 2d19 9ebe b51a 9a3c
000000a0: f95c 3f3d a254 803e 40e9 2ebd ebf9 89be
000000b0: c062 533e b179 81be 30b8 9dbe 0cc9 a1bd
000000c0: 19e0 abbd 7792 4fbd 727d 2e3e f2b4 29bd
000000d0: 5bf2 5a3e ad9e 6c3d 6ab6 32bd d06d 773d
000000e0: 1366 8dbd bf69 503e de4f 3d3e ad9d 01be
000000f0: 0f05 99bd ef17 853e b9fd 373d dcaa a1be
00000100: 0abc 1e3e 5da5 923e 969d 663e 9127 093c
00000110: 702e 9fbb 1c8a 923e b599 6f3e b800 6ebd
00000120: bec8 493e 086b ae3e 3145 873e 4437 d53c
00000130: ce49 05bf 2f39 bdbc 3643 863e b7b6 193d
00000140: 798a f5bd 90f4 acbe 321f 7f3d 9346 58be
00000150: d231 ee3d 55a7 3bbe 6dc6 5abe ac83 d83d
00000160: 7a66 6a3d 5570 62be 8a52 71be 6e69 9fbc
00000170: 9c69 2e3e 4fd7 84be 5ba2 fcbc 0db9 363e
00000180: 49b8 1cbd 5692 dc3d 77b7 003f 3ec3 803d

linears.0.bias f4 [20]
-0.012631773 0.0032054388 -0.114075266 0.09591367 0.06492722 0.30550337 -0.024697071 -0.0243509
-0.086424366 0.18953697 0.0063786604 0.1314157 0.11555659 0.16538943 0.051262353 0.17523366
-0.07872167 0.095083155 -0.13688257 0.17957845
00000000: 7ff5 4ebc 5712 523b 4ba0 e9bd 636e c43d
00000010: 90f8 843d f06a 9c3e 8351 cabc 8a7b c7bc
00000020: 42ff b0bd fb15 423e 1504 d13b d691 063e
00000030: efa8 ec3d d95b 293e 79f8 513d 7470 333e
00000040: d438 a1bd f5ba c23d f22a 0cbe 6ae3 373e

linears.1.weight f4 [2, 20]
0.2608444 0.36218545 -0.24807465 0.37877983 0.2826152 -0.3346301 0.23688239 -0.45712993
-0.14482729 -0.34579855 0.24258596 0.1563396 -0.15686484 0.24152826 0.30812111 -0.033288483
-0.25976974 -0.16358152 -0.21878523 0.29017252 -0.15866356 -0.12970379 -0.056110557 -0.052183934
-0.14061357 -0.14383909 0.03807054 -0.5087228 -0.39155877 0.13497114 0.26001865 0.1858795
-0.3965971 -0.14999023 0.047416843 0.3678029 0.04951588 0.44624865 -0.07118476 0.16583729
00000000: 668d 853e 5f70 b93e 4807 7ebe 6eef c13e
00000010: f1b2 903e a354 abbe 4c91 723e ef0c eabe
00000020: 9b4d 14be 820c b1be 7468 783e 7d17 203e
00000030: 2da1 20be 2f53 773e 0dc2 9d3e 8159 08bd
00000040: 8a00 85be ea81 27be 3c09 60be 7e91 943e
00000050: b378 22be 12d1 04be 2fd4 65bd d2be 55bd
00000060: 01fd 0fbe 8e4a 13be dbef 1b3d a83b 02bf
00000070: 647a c8be e035 0a3e 2a21 853e 3257 3e3e
00000080: c60e cbbe 0a97 19be 2a38 423d a950 bc3e
00000090: 2ad1 4a3d b47a e43e 51c9 91bd 40d1 293e

linears.1.bias f4 [2]
0.027979594 0.18856812
00000000: 7635 e53c 0018 413e

exp_avg f4 [20, 5]
-4.939632 3.0855696 6.3812037 -0.56401247 -1.21407 3.9408848 -0.25443515 2.2015383
0.5729149 -0.7900108 -3.3692994 1.9590023 -8.785409 -5.4162145 -1.2076498 -2.334803
-0.13179211 0.4818676 0.077077284 0.72730833 -7.7456083 0.3734775 6.643735 3.4504323
1.5214381 7.322144 -0.31049973 -3.1109743 -2.8066504 -3.860965 -3.406065 0.2292418
3.690124 2.5497174 0.34543177 6.385295 -1.2862148 3.533127 1.1902455 -2.7273674
-9.841138 0.22603907 2.7593653 3.457999 3.9070637 2.0123587 -1.402605 2.8462284
1.1636395 0.80892396 4.0368915 -2.3279886 -5.8330607 -1.049424 -0.57723933 1.5607172
0.6438424 10.883135 2.6694596 -3.5323076 -3.3110373 0.2295481 0.41440633 0.92819387
1.3052565 -8.093009 0.41190997 2.8442037 2.5186598 1.8391162 4.2005973 1.5728648
7.0698667 0.55520743 -3.0047257 5.2635627 -0.5734043 8.706203 4.304476 -1.9421312
-4.622366 0.545284 5.5188637 1.8942028 -0.018417792 6.7412186 -0.20650461 -4.1612105
-4.1547303 -3.322513 -2.6087377 0.60629565 1.5917298 0.21325798 1.5897808 10.25298
0.48165447 9.4102545 2.4213533 -6.182227
00000000: 7711 9ec0 f979 4540 d232 cc40 1f63 10bf
00000010: a566 9bbf 7537 7c40 5345 82be 01e6 0c40
00000020: 8daa 123f 263e 4abf 9aa2 57c0 96c0 fa3f
00000030: 0991 0cc1 a151 adc0 4594 9abf 6a6d 15c0
00000040: 83f4 06be 5ab7 f63e b2da 9d3d e130 3a3f
00000050: 06dc f7c0 7138 bf3e 7a99 d440 e2d3 5c40
00000060: 7cbe c23f 014f ea40 d2f9 9ebe 341a 47c0
00000070: 29a0 33c0 0d1a 77c0 f8fc 59c0 5dbe 6a3e
00000080: fe2a 6c40 922e 2340 6fdc b03e 5654 cc40
00000090: b0a2 a4bf c11e 6240 f759 983f 308d 2ec0
000000a0: 4d75 1dc1 c976 673e 7199 3040 db4f 5d40
000000b0: 550d 7a40 7cca 0040 9088 b3bf 9b28 3640
000000c0: 24f2 943f a415 4f3f 372e 8140 c4fd 14c0
000000d0: 6fa8 bac0 8753 86bf f5c5 13bf 95c5 c73f
000000e0: dbd2 243f 5221 2e41 6dd8 2a40 5411 62c0
000000f0: 09e8 53c0 a80e 6b3e 112d d43e 1d9e 6d3f
00000100: a512 a73f f77c 01c1 dde5 d23e 6f07 3640
00000110: b931 2140 2968 eb3f 4b6b 8640 a253 c93f
00000120: 593c e240 1322 0e3f 6d4d 40c0 1b6f a840
00000130: a0ca 12bf 9c4c 0b41 44be 8940 c197 f8bf
00000140: 6cea 93c0 bb97 0b3f 889a b040 3d75 f23f
00000150: e9e0 96bc 10b8 d740 f275 53be a328 85c0
00000160: 8df3 84c0 0ea4 54c0 8ff5 26c0 3136 1b3f
00000170: cdbd cb3f 4d60 5a3e f07d cb3f 350c 2441
00000180: 6a9b f63e 6790 1641 74f7 1a40 ced4 c5c0

exp_avg_sq f4 [20, 5]
632.9067 108.46947 2057.0825 122.39365 1250.2701 358.14615 5.897347 60.05706
7.8172183 45.316277 1044.0719 51.398956 1185.9137 183.87404 864.5884 54.765194
10.753608 74.862335 7.903904 64.00792 540.6921 12.917472 2680.176 251.4545
63.95986 551.8818 7.6277742 541.21423 92.5743 92.2707 141.02295 16.912252
347.43536 66.89212 67.145325 972.9563 24.757027 243.32744 25.304102 233.67894
1235.0476 13.797143 878.014 161.70432 70.73068 345.97614 20.79225 233.7696
24.580061 243.47496 266.1536 42.045124 1123.4402 104.0293 352.68045 376.0516
6.9010115 2144.4424 132.09052 87.681305 164.97931 1.4760172 80.33925 14.489345
3.7621708 1042.2384 12.66848 919.1133 115.60666 29.409914 446.47433 11.896308
665.72284 36.817627 164.26749 1131.2853 78.434814 1154.3746 168.66943 535.69556
197.76112 7.8509645 1095.4037 96.8682 69.298454 494.749 21.780085 772.21185
174.08403 140.66267 104.8 20.890953 171.56529 17.077353 121.20983 1966.0432
54.76092 1026.1943 85.05915 342.10757
00000000: 073a 1e44 5ef0 d842 5291 0045 8cc9 f442
00000010: a548 9c44 b512 b343 11b7 bc40 6e3a 7042
00000020: a726 fa40 de43 3542 4d82 8244 8898 4d42
00000030: 3d3d 9444 c1df 3743 a825 5844 8f0f 5b42
00000040: c70e 2c41 84b9 9542 c8ec fc40 0e04 8042
00000050: 4b2c 0744 f7ad 4e41 d182 2745 5a74 7b43
00000060: e6d6 7f42 6ff8 0944 ba16 f440 b64d 0744
00000070: 0b26 b942 998a b842 e005 0d43 4b4c 8741
00000080: bab7 ad43 c4c8 8542 684a 8642 343d 7344
00000090: 640e c641 d353 7343 cd6e ca41 cfad 6943
000000a0: 8661 9a44 19c1 5c41 e580 5b44 4eb4 2143
000000b0: 1c76 8d42 f2fc ac43 8756 a641 05c5 6943
000000c0: f7a3 c441 9779 7343 a913 8543 352e 2842
000000d0: 166e 8c44 000f d042 1957 b043 9b06 bc43
000000e0: 16d5 dc40 1407 0645 2c17 0443 d45c af42
000000f0: b4fa 2443 22ee bc3f b2ad a042 5bd4 6741
00000100: 68c7 7040 a147 8244 18b2 4a41 40c7 6544
00000110: 9c36 e742 8147 eb41 b73c df43 4757 3e41
00000120: 436e 2644 4045 1342 7a44 2443 2169 8d44
00000130: a0de 9c42 fd4b 9044 60ab 2843 84ec 0544
00000140: d9c2 4543 1a3b fb40 ebec 8844 85bc c142
00000150: cf98 8a42 df5f f743 9d3d ae41 8f0d 4144
00000160: 8315 2e43 a5a9 0c43 9a99 d142 ac20 a741
00000170: b790 2b43 6b9e 8841 6f6b f242 62c1 f544
00000180: 2f0b 5b42 3846 8044 491e aa42 c50d ab43

exp_avg f4 [20]
-5.360433 0.5661143 -6.760394 -0.0057691396 -0.006953853 -3.4164112 0.5166106 -0.0023178637
2.5741982 2.4919977 1.0649368 -2.7281966 0.4250612 -0.12555458 -2.8987672 2.023869
-0.8716182 -4.1709943 0.54411465 -2.8160665
00000000: ab88 abc0 deec 103f 2655 d8c0 0d0b bdbb
00000010: 26dd e3bb 7ba6 5ac0 9840 043f 4de7 17bb
00000020: aabf 2440 e47c 1f40 d94f 883f c69a 2ec0
00000030: 9fa1 d93e 6191 00be 6785 39c0 1287 0140
00000040: 5f22 5fbf c978 85c0 194b 0b3f 6f3a 34c0

exp_avg_sq f4 [20]
2028.0436 75.610596 1502.806 109.30612 171.66753 100.49931 123.729225 327.04584
80.62182 283.69513 544.7289 86.68986 5.845758 69.87877 189.60313 948.31696
128.23727 231.0501 198.91994 453.55145
00000000: 6581 fd44 a038 9742 cbd9 bb44 bc9c da42
00000010: e3aa 2b43 a6ff c842 5d75 f742 de85 a343
00000020: 5f3e a142 fad8 8d43 a62e 0844 3561 ad42
00000030: 7310 bb40 eec1 8b42 679a 3d43 4914 6d44
00000040: be3c 0043 d30c 6743 81eb 4643 96c6 e243

exp_avg f4 [20, 10]
-17.668427 -3.9343479 -22.465445 -0.5845343 17.404316 -4.970666 -2.7883816 -4.296806
4.0147905 13.3073635 -3.0553086 -0.5693073 -10.679405 -2.9631782 1.514835 1.4713882
0.81563485 3.6546135 0.9929956 -0.55916995 5.53198 1.0571083 7.595522 1.1977016
-2.066133 -1.6158031 -0.21871562 -3.6706283 -1.3231732 0.6867859 -25.020351 -4.588775
-3.75898 4.7769465 17.894201 -7.3535953 -6.0289674 -7.350562 2.0102034 13.772588
15.294694 -0.24003488 7.034542 -0.58904034 -8.33143 -2.161301 0.5588454 2.137054
-0.9997429 -3.4070067 31.28089 4.822307 -4.730111 -10.253454 -21.95077 9.126866
7.5541263 12.164682 -3.013965 -17.431433 12.133983 -4.745765 -42.60673 -11.935227
4.234603 -5.641005 1.8537097 6.088008 3.9241686 5.5181475 4.3258085 -0.5055554
-16.757334 -6.4414887 -2.5841093 1.7905768 2.3334734 6.0998073 0.55351037 -3.5425005
-32.10656 -0.07533371 15.588614 11.6233835 18.137316 -1.4428556 -5.218328 -13.362223
0.4744036 12.084862 10.091056 0.83085495 36.315758 8.649042 -8.958132 -3.659277
-2.1934478 -5.0318995 -3.3891857 -2.9906697 1.2870176 1.8292881 -37.50629 -15.393409
-5.418394 13.00727 6.461232 11.443998 -1.0480479 -11.287516 13.795887 0.93010944
32.573254 4.8610387 -16.198088 0.15234785 -0.5074803 3.091714 -3.6715872 -10.903142
7.8845477 1.6595771 26.025225 6.4421644 -6.767591 -1.5801479 -0.7855436 -3.1961474
-1.979476 -2.4925175 -12.308319 -4.28385 1.2668418 7.368852 16.520842 -11.735752
-5.662384 -10.131987 3.7114646 17.262835 27.696667 0.47168285 18.158077 1.2602781
-14.734943 -3.6611054 1.2793698 1.5660874 -1.7384028 -5.5106487 1.5172257 -1.2056184
20.320665 10.449085 7.889502 -11.3243065 -4.352635 -12.81254 1.3358127 13.012319
-7.1253333 2.926908 -5.965015 -1.3209063 2.43142 6.9900684 1.9312767 -2.1724136
-0.7036885 -1.2466491 -0.47745907 1.0175143 -9.491925 -2.5623467 2.3723974 1.3910972
1.7440293 0.67311263 0.54064727 1.1099899 33.329834 -5.9695272 -20.062925 -8.4470215
-8.310609 -10.868793 1.2615061 6.2921457 2.084707 0.7755275 -15.678608 -2.1607256
8.914104 7.7021236 11.554443 -6.14309 -4.369391 -8.435788 1.4969246 10.174022
00000000: f058 8dc1 5bcc 7bc0 3bb9 b3c1 0aa4 15bf
00000010: 0a3c 8b41 b20f 9fc0 d874 32c0 6f7f 89c0
00000020: 2a79 8040 f6ea 5441 2d8a 43c0 20be 11bf
00000030: d8de 2ac1 b6a4 3dc0 1de6 c13f 7356 bc3f
00000040: 72cd 503f 30e5 6940 f634 7e3f c325 0fbf
00000050: fb05 b140 534f 873f 840e f340 494e 993f
00000060: 863b 04c0 a3d2 cebf fdf6 5fbe 93eb 6ac0
00000070: bd5d a9bf 33d1 2f3f ae29 c8c1 3fd7 92c0
00000080: 2193 70c0 bfdc 9840 5327 8f41 a750 ebc0
00000090: 4ded c0c0 ce37 ebc0 2ca7 0040 855c 5c41
000000a0: 11b7 7441 b4cb 75be f81a e140 59cb 16bf
000000b0: 8a4d 05c1 c152 0ac0 7e10 0f3f 7ec5 0840
000000c0: 27ef 7fbf 660c 5ac0 433f fa41 5750 9a40
000000d0: 125d 97c0 260e 24c1 2d9b afc1 a507 1241
000000e0: 67bb f140 8aa2 4241 cde4 40c0 9373 8bc1
000000f0: cb24 4241 4fdd 97c0 4b6d 2ac2 b1f6 3ec1
00000100: de81 8740 1d83 b4c0 5c46 ed3f f6d0 c240
00000110: 9425 7b40 aa94 b040 066d 8a40 146c 01bf
00000120: 050f 86c1 ad20 cec0 0c62 25c0 9f31 e53f
00000130: a157 1540 9f31 c340 dbb2 0d3f 54b8 62c0
00000140: 1e6d 00c2 8f48 9abd f76a 7941 61f9 3941
00000150: 3919 9141 7eaf b8bf 8bfc a6c0 aacb 55c1
00000160: 07e5 f23e 985b 4141 f774 2141 e9b2 543f
00000170: 5643 1142 7a62 0a41 8254 0fc1 9831 6ac0
00000180: 7361 0cc0 5205 a1c0 6be8 58c0 2267 3fc0
00000190: febc a43f 1d26 ea3f 7106 16c2 674b 76c1
000001a0: 7c63 adc0 c71d 5041 6ac2 ce40 9e1a 3741
000001b0: 6f26 86bf aa99 34c1 f4bb 5c41 a71b 6e3f
000001c0: 034b 0242 a18d 9b40 af95 81c1 1301 1c3e
000001d0: 3bea 01bf a4de 4540 49fb 6ac0 4573 2ec1
000001e0: 374e fc40 066d d43f a933 d041 3626 ce40
000001f0: 1b90 d8c0 4942 cabf 6319 49bf ae8d 4cc0
00000200: 785f fdbf 6885 1fc0 e0ee 44c1 4d15 89c0
00000210: df27 a23f a3cd eb40 af2a 8441 a4c5 3bc1
00000220: 4032 b5c0 9e1c 22c1 a388 6d40 491a 8a41
00000230: c692 dd41 6a80 f13e be43 9141 cb50 a13f
00000240: 54c2 6bc1 8d4f 6ac0 64c2 a33f 8d75 c83f
00000250: fc83 debf 3c57 b0c0 7434 c23f b451 9abf
00000260: b990 a241 742f 2741 cd76 fc40 5c30 35c1
00000270: c948 8bc0 2a00 4dc1 e9fb aa3f 7532 5041
00000280: bb02 e4c0 7652 3b40 67e1 bec0 7513 a9bf
00000290: 639c 1b40 a4ae df40 1334 f73f d308 0bc0
000002a0: ee24 34bf 3392 9fbf 8475 f4be e93d 823f
000002b0: edde 17c1 7dfd 23c0 5cd5 1740 790f b23f
000002c0: 5a3c df3f 1c51 2c3f dc67 0a3f 2614 8e3f
000002d0: c051 0542 5e06 bfc0 df80 a0c1 0027 07c1
000002e0: 41f8 04c1 93e6 2dc1 0879 a13f 4259 c940
000002f0: d76b 0540 f888 463f 94db 7ac1 5449 0ac0
00000300: 2ca0 0e41 cc77 f640 00df 3841 3194 c4c0
00000310: 0dd2 8bc0 fdf8 06c1 3a9b bf3f cbc8 2241

exp_avg_sq f4 [20, 10]
3007.7183 276.46472 5752.86 465.61737 5063.146 1003.8007 251.30582 2577.8794
250.42204 4830.7827 885.53 18.19723 3856.2898 198.16235 548.79694 92.98506
24.726091 222.90755 47.073605 397.52338 2192.244 158.77303 4813.979 106.34077
3517.4792 305.95108 166.56747 1408.2085 141.6116 3001.392 4438.98 230.04251
4161.6807 830.4948 7284.068 1592.3027 238.87695 3670.1445 319.97705 7149.0664
5763.2524 19.776009 552.98303 103.21758 695.8029 244.47562 12.76038 186.10277
17.227589 269.31097 7933.4175 531.1257 14747.355 3431.2136 18360.264 3329.2766
547.7165 10597.291 845.4361 17932.516 2379.861 418.20743 49777.992 7122.766
2950.3652 651.6821 212.42915 6575.002 323.67657 3085.1873 533.0241 161.48135
3367.281 1269.6921 3187.2136 791.829 112.18625 3258.7087 132.80606 3632.5066
9914.796 206.38152 19905.99 3601.4275 4744.7256 1075.0225 186.84918 3814.4385
358.10455 4354.771 5004.011 188.38129 20276.514 2007.098 2662.6238 665.6681
167.36205 2879.101 206.32695 2526.2305 7039.147 1620.8887 31677.514 7689.9233
37949.387 9449.796 1452.3197 28999.602 1656.8671 41764.6 6918.1787 679.8835
17386.791 2163.144 9242.074 2044.7982 597.23236 6899.1777 477.5823 9591.651
1690.6338 135.34854 7603.113 1029.8763 1707.1431 592.7633 99.95979 2320.907
91.388 1997.4375 2673.2021 372.24832 5897.9736 1332.0076 14650.397 3076.0132
377.47748 7551.938 668.87604 15000.703 17066.95 146.87808 2765.6035 246.76152
2258.97 1511.9539 140.08594 1558.28 119.368904 2081.5999 2885.9138 276.04016
9111.554 1914.5925 9598.154 2884.283 248.14389 7515.916 435.3501 10894.538
2995.421 378.25952 5157.0737 518.15814 9885.336 2314.4795 367.65466 5950.146
478.3416 10758.726 740.4267 106.607376 2562.202 433.2023 1893.9137 539.4837
101.79863 1419.3516 100.135994 2111.0684 18908.404 312.01642 32940.504 4337.085
3650.4153 2231.5273 168.16846 3328.5874 449.6767 4126.7026 1881.3136 188.82219
10021.94 1726.1106 5611.7 1077.9705 188.73367 3781.5596 294.75858 5662.0806
00000000: 7efb 3b45 7c3b 8a43 e1c6 b345 06cf e843
00000010: 2b39 9e45 3ff3 7a44 4a4e 7b43 121e 2145
00000020: 0b6c 7a43 43f6 9645 ec61 5d44 ed93 9141
00000030: a304 7145 9029 4643 0133 0944 5af8 b942
00000040: 09cf c541 55e8 5e43 5f4b 3c42 fec2 c643
00000050: e703 0945 e5c5 1e43 d56f 9645 79ae d442
00000060: abd7 5b45 bdf9 9843 4691 2643 ac06 b044
00000070: 929c 0d43 4696 3b45 d7b7 8a45 e20a 6643
00000080: 720d 8245 ab9f 4f44 8ba0 e345 b009 c744
00000090: 80e0 6e43 5062 6545 10fd 9f43 8868 df45
000000a0: 051a b445 4435 9e41 ea3e 0a44 676f ce42
000000b0: 63f3 2d44 c279 7443 842a 4c41 4f1a 3a43
000000c0: 1ad2 8941 cea7 8643 57eb f745 0bc8 0444
000000d0: 6c6d 6646 6b73 5645 8770 8f46 6d14 5045
000000e0: dbed 0844 2a95 2546 e95b 5344 0819 8c46
000000f0: c7bd 1445 8d1a d143 fe71 4247 2196 de45
00000100: d865 3845 a8eb 2244 dd6d 5443 0478 cd45
00000110: 9ad6 a143 ffd2 4045 8b41 0544 3a7b 2143
00000120: 7f74 5245 26b6 9e44 6b33 4745 0ef5 4544
00000130: 5c5f e042 57ab 4b45 5ace 0443 1b08 6345
00000140: 2feb 1a46 ab61 4e43 fb83 9b46 d716 6145
00000150: ce45 9445 b860 8644 64d9 3a43 0467 6e45
00000160: 620d b343 2b16 8845 1760 9c45 9c61 3c43
00000170: 0769 9e46 23e3 fa44 fb69 2645 c26a 2644
00000180: af5c 2743 9ef1 3345 b353 4e43 b0e3 1d45
00000190: 2df9 db45 709c ca44 077b f746 634f f045
000001a0: 633d 1447 2fa7 1346 3b8a b544 348f e246
000001b0: bf1b cf44 9a24 2347 6e31 d845 8bf8 2944
000001c0: 95d5 8746 4e32 0745 4c68 1046 8b99 ff44
000001d0: df4e 1544 6c99 d745 89ca ee43 9bde 1546
000001e0: 4854 d344 3a59 0743 e798 ed45 0bbc 8044
000001f0: 9464 d544 da30 1444 6aeb c742 830e 1145
00000200: a8c6 b642 00ae f944 3c13 2745 c91f ba43
00000210: ca4f b845 3e80 a644 97e9 6446 3640 4045
00000220: 1ebd bc43 81ff eb45 1138 2744 d062 6a46
00000230: e655 8546 cae0 1243 a8d9 2c45 f3c2 7643
00000240: 852f 0d45 86fe bc44 0016 0c43 f6c8 c244
00000250: e1bc ee42 9919 0245 9f5e 3445 2405 8a43
00000260: 375e 0e46 f652 ef44 9ef8 1546 8744 3445
00000270: d624 7843 54df ea45 d0ac d943 273a 2a46
00000280: bc36 3b45 3821 bd43 9728 a145 1f8a 0144
00000290: 5875 1a46 aca7 1045 ccd3 b743 2bf1 b945
000002a0: ba2b ef43 e71a 2846 4f1b 3944 fa36 d542
000002b0: 3b23 2045 e599 d843 3dbd ec44 f5de 0644
000002c0: e698 cb42 406b b144 a145 c842 18f1 0345
000002d0: cfb8 9346 1a02 9c43 81ac 0047 ae88 8745
000002e0: a526 6445 7078 0b45 202b 2843 6609 5045
000002f0: 9ed6 e043 9ff5 8045 092a eb44 7bd2 3c43
00000300: c397 1c46 8ac3 d744 9a5d af45 0ebf 8644
00000310: d2bb 3c43 f458 6c45 1961 9343 a5f0 b045

exp_avg f4 [20]
16.314617 1.1102471 -2.175519 15.586495 -6.297037 -20.599512 6.3806915 -7.5193014
15.37206 -5.102538 -15.965345 -14.446973 -2.2300215 21.762852 -9.22464 16.845522
-2.1004946 1.4963692 -1.4693453 11.405679
00000000: 5684 8241 941c 8e3f b43b 0bc0 4962 7941
00000010: 5481 c9c0 cdcb a4c1 a02e cc40 1e9e f0c0
00000020: f5f3 7541 fe47 a3c0 0e72 7fc1 cd26 67c1
00000030: acb8 0ec0 521a ae41 2098 13c1 a1c3 8641
00000040: 816e 06c0 0789 bf3f 8213 bcbf a97d 3641

exp_avg_sq f4 [20]
5390.4556 472.7549 4047.9946 8175.474 424.0311 20298.885 4076.5068 5250.0195
4847.7188 3363.7224 52343.656 11880.658 2745.422 17508.04 2474.419 12538.333
13869.64 2599.3958 4694.7197 6065.4014
00000000: a573 a845 a160 ec43 eaff 7c45 cb7b ff45
00000010: fb03 d443 c595 9e46 1cc8 7e45 2810 a445
00000020: c07d 9745 8f3b 5245 a877 4c47 a2a2 3946
00000030: c196 2b45 14c8 8846 b4a6 1a45 55e9 4346
00000040: 8fb6 5846 5576 2245 c2b5 9245 368b bd45

exp_avg f4 [5, 40]
6.2047987 -4.6731033 0.7186741 4.4780717 10.294319 -6.658217 2.8610668 -6.5616927
7.1694407 -2.936257 -4.9661508 1.3015126 8.330074 8.615199 -1.2552966 -0.4195637
6.7575035 -7.125264 4.759145 -2.4341514 1.0433968 16.470604 -5.7669935 11.097942
-19.169666 3.0500033 -3.907531 -16.966574 2.4602664 -11.0436125 -0.49781117 -16.203499
-4.9042115 0.1041525 -10.416975 -2.734795 6.432364 4.4652166 -15.478505 -12.465835
-1.0009791 -0.19769458 1.9690307 -0.8016114 3.8695307 -5.2089343 0.98861647 -10.841924
7.953498 0.6811673 -1.9041698 -0.7718747 8.560426 4.985549 0.056982525 -0.49144828
3.1412919 -7.07353 4.298263 -5.240186 -7.97373 -13.775072 11.082542 12.1465435
-14.780895 -0.52751136 -5.33848 9.359746 -5.3093963 19.968225 -17.244085 -9.170555
14.247796 -3.0511796 3.2710705 -13.034329 6.6519732 7.6436844 -0.96377456 -4.9904594
-2.9257984 -0.8434957 3.5387344 0.07298463 -3.606583 2.3074982 0.0076141707 -1.0738767
-0.818151 -0.40491202 3.3855605 -4.921206 1.1824422 -0.7714759 -2.8002746 -2.2731957
-3.6217203 0.9770222 -1.4665365 -1.4772884 1.2852083 -2.4195023 0.20961414 3.799628
-1.476935 -3.3213234 9.164319 23.207348 -7.6450562 -3.5997536 6.852906 -11.146825
4.7589884 3.3720503 -8.468294 -3.9294562 -0.59111875 8.037171 6.3772616 1.571254
2.0015762 -3.2017748 1.4051566 3.9382095 1.2927746 1.3559601 1.1739156 1.4934542
-0.6520085 -2.301036 0.37727144 -2.7208533 1.5815378 0.5608427 -2.004919 -0.7282537
-0.4168223 0.36787406 -0.80555445 0.9282414 3.0994055 6.3086534 -6.7085834 6.3216734
-6.65328 -3.4039662 7.098119 15.367006 -4.7325864 -10.861192 6.721681 -17.276754
0.4344532 3.92958 -15.496426 -6.4748387 0.81240135 10.144669 -1.6557223 -8.293148
0.14823543 1.0214719 -1.1326416 -0.19337194 -1.0128578 1.5079525 -0.71901935 3.190959
-2.1861882 0.15688066 0.6167502 1.0623893 -2.3195655 -1.0977559 1.0033271 0.5499051
-0.042962227 2.1226609 -0.43705598 1.8277866 2.2433822 2.451781 -1.6962633 -4.858749
4.205852 1.1678528 0.42115584 -4.882077 3.1889596 -1.3190157 3.8919437 7.5981927
-4.273172 1.0742744 3.3060935 4.062921 -2.9341338 -4.078895 0.98128396 4.2182283
00000000: b68d c640 108a 95c0 07fb 373f 5d4c 8f40
00000010: 88b5 2441 1d10 d5c0 b81b 3740 63f9 d1c0
00000020: 0f6c e540 a2eb 3bc0 b5ea 9ec0 f797 a63f
00000030: fc47 0541 dbd7 0941 8fad a0bf 0ed1 d6be
00000040: 783d d840 2a02 e4c0 ea4a 9840 23c9 1bc0
00000050: 078e 853f ccc3 8341 368b b8c0 2c91 3141
00000060: 7a5b 99c1 4133 4340 fd14 7ac0 8bbb 87c1
00000070: 0175 1d40 a3b2 30c1 1be1 febe c4a0 81c1
00000080: 4def 9cc0 e84d d53d eeab 26c1 e206 2fc0
00000090: edd5 cd40 0ee3 8e40 f5a7 77c1 0f74 47c1
000000a0: 1520 80bf 7370 4abe 3309 fc3f 6836 4dbf
000000b0: 64a6 7740 97af a6c0 f815 7d3f 8578 2dc1
000000c0: 0e83 fe40 fb60 2e3f d6bb f3bf 9599 45bf
000000d0: 81f7 0841 9e89 9f40 8266 693d 1c9f fbbe
000000e0: ed0a 4940 5c5a e2c0 5f8b 8940 9baf a7c0
000000f0: cc28 ffc0 b266 5cc1 1852 3141 3e58 4241
00000100: 8c7e 6cc1 fc0a 07bf d4d4 aac0 85c1 1541
00000110: 93e6 a9c0 edbe 9f41 e3f3 89c1 98ba 12c1
00000120: f9f6 6341 8746 43c0 3859 5140 9d8c 50c1
00000130: f7dc d440 1099 f440 eeb9 76bf d8b1 9fc0
00000140: 4840 3bc0 56ef 57bf a07a 6240 f778 953d
00000150: 42d2 66c0 0dae 1340 4b80 f93b cb74 89bf
00000160: 5872 51bf a150 cfbe 06ad 5840 857a 9dc0
00000170: 445a 973f 727f 45bf b337 33c0 0a7c 11c0
00000180: 44ca 67c0 201e 7a3f 78b7 bbbf c917 bdbf
00000190: b581 a43f 20d9 1ac0 17a5 563e 1b2d 7340
000001a0: 350c bdbf 9090 54c0 0da1 1241 a6a8 b941
000001b0: 4da4 f4c0 5d62 66c0 024b db40 6559 32c1
000001c0: a249 9840 accf 5740 227e 07c1 367c 7bc0
000001d0: 8f53 17bf 4198 0041 8712 cc40 da1e c93f
000001e0: d319 0040 e1e9 4cc0 2cdc b33f a00b 7c40
000001f0: a379 a53f 1a90 ad3f de42 963f 8229 bf3f
00000200: 07ea 26bf 2c44 13c0 b929 c13e 7622 2ec0
00000210: d56f ca3f 6393 0f3f 9850 00c0 d66e 3abf
00000220: bc69 d5be fd59 bc3e d138 4ebf 3aa1 6d3f
00000230: a95c 4640 7de0 c940 b7ac d6c0 264b ca40
00000240: abe7 d4c0 95da 59c0 ca23 e340 42df 7541
00000250: 5971 97c0 71c7 2dc1 0318 d740 cb36 8ac1
00000260: a670 de3e 3d7e 7b40 5cf1 77c1 e131 cfc0
00000270: 89f9 4f3f 9050 2241 b5ee d3bf bcb0 04c1
00000280: 07cb 173e 97bf 823f 66fa 90bf 4b03 46be
00000290: 53a5 81bf 9604 c13f a711 38bf ac38 4c40
000002a0: 82ea 0bc0 53a5 203e 57e3 1d3f 5ffc 873f
000002b0: c373 14c0 4483 8cbf 066d 803f 95c6 0c3f
000002c0: 29f9 2fbd add9 0740 cdc5 dfbe e9f4 e93f
000002d0: 9393 0f40 fbe9 1c40 281f d9bf df7a 9bc0
000002e0: 5796 8640 337c 953f bda1 d73e fa39 9cc0
000002f0: ea17 4c40 82d5 a8bf 9b15 7940 6524 f340
00000300: d3bd 88c0 d381 893f 0997 5340 7303 8240
00000310: d9c8 3bc0 4f86 82c0 6d35 7b3f bafb 8640
