three_body/params_10000.pth (torch_old, 8307 bytes, 14 tensors)

F.cur.0.linears.0.weight f4 [20, 5]
000000 b3 8e 4c bd bf 32 0f 3d b0 f8 52 bc b0 24 72 be
       -0.049940776 0.034960505 -0.0128766745 -0.23646808
000010 68 fa 87 be 95 a9 be 3d ea f8 b3 bd 1f 1c 17 be
       -0.26558232 0.09309689 -0.08787711 -0.14756821
000020 d3 67 41 3e 14 c7 ae 3d 63 34 f6 3d 58 a6 2b bd
       0.18887262 0.08534065 0.12021711 -0.041906685
000030 1f 0a a4 3b da 61 2b bd eb de d0 bd a8 d6 94 3d
       0.0050060893 -0.041841365 -0.10198768 0.07267505
000040 db 37 48 3d 8f e2 fd 3c c2 4c 08 3e 07 ca 92 be
       0.048881393 0.03099182 0.13310531 -0.2866976
000050 a1 99 52 be 5b e2 a0 3e da fd a2 3e 78 58 0c 3e
       -0.20566417 0.31422696 0.31834298 0.13705623
000060 2c 88 8e 3d 62 ef 37 3e eb 68 73 be 44 b2 59 3b
       0.069595665 0.17962411 -0.23770492 0.0033217827
000070 83 ac c0 3e 2a 86 8f 3d b5 d2 e4 3d 3d 47 bc 3d
       0.37631616 0.07008012 0.11173002 0.09193275
000080 2a aa 8f bd 08 a5 21 be c7 cd df 3d 4d 42 89 3d
       -0.07014878 -0.1578561 0.10927921 0.06702099
000090 9d e9 98 bd 67 09 1b bd 5c bd 6d bd 49 3e b7 bd
       -0.07466433 -0.037850764 -0.058041915 -0.08947427
0000a0 a6 93 91 3d 01 0f 1d bd ef 68 87 3e ef bf 77 3d
       0.0710824 -0.038344387 0.26447245 0.060485777
0000b0 1c 65 07 be ee a9 8d 3e 2d 05 c2 bd 05 2d 10 be
       -0.13222164 0.2766871 -0.094736435 -0.14079674
0000c0 69 a9 f3 3a c7 e3 d3 bd 7d 29 75 3e 72 f8 b5 3d
       0.0018589917 -0.103461795 0.23941608 0.08885278
0000d0 cb c9 a6 be 68 02 4f be d8 26 05 3d 53 6c 23 be
       -0.3257583 -0.20215762 0.032507747 -0.15959291
0000e0 32 f4 d8 3b b7 f5 b0 3c 01 4e 0a be 7f 72 41 3e
       0.006620907 0.021601541 -0.13506319 0.18891333
0000f0 07 19 16 be e7 0b ba 3d 02 29 d2 bc 32 80 3e be
       -0.14657985 0.090843014 -0.02565432 -0.1860359
000100 b2 07 83 3d 30 b3 8f be 07 99 5a 3d 32 59 6e 3d
       0.06397952 -0.28066397 0.053368594 0.058190532
000110 6b b9 21 3c 3a 59 5f be 29 5c 26 3e 5b c3 5b be
       0.009870867 -0.21811381 0.16246094 -0.21461241
000120 e7 b1 42 3e 1e 50 32 bd 04 f2 28 bc e5 a5 8b 3d
       0.19013177 -0.043533437 -0.010311607 0.06818751
000130 14 22 11 3c 4d e1 f4 bd 4a de 82 3e 2a 30 06 3d
       0.0088582225 -0.11957035 0.25560218 0.032760777
000140 90 e4 b4 3c b8 4e 07 be f2 3e b7 bd 80 c5 9c bd
       0.022081643 -0.13213623 -0.08947553 -0.07654858
000150 12 f1 31 bd 69 71 c7 be b9 a5 63 be e4 f6 3e 3e
       -0.043442793 -0.38953713 -0.22231187 0.18648869
000160 2b 14 1d bd f5 de d1 3d d6 83 c6 bc c6 9a 8f bc
       -0.03834931 0.10247604 -0.024232786 -0.017529856
000170 c9 b3 de 3d fb 08 44 3e 5a 63 35 3d 02 58 2f be
       0.10874135 0.19144051 0.044284202 -0.17123416
000180 3c c3 48 3d d6 20 c9 bc b8 a6 04 3d 97 c2 1d 3e
       0.049014315 -0.02455179 0.032385558 0.15406261

F.cur.0.linears.0.bias f4 [20]
000000 d2 60 d2 3c 5a f0 a0 bc 73 0a 4f bd c9 b7 1e 3d
       0.025680933 -0.019645859 -0.050547075 0.03874949
000010 6c 82 3a 3d 8b 08 95 3d 22 5e 76 bd 4c 66 1b bd
       0.045534536 0.0727702 -0.060148366 -0.037939355
000020 d6 a1 68 3d 21 2e 26 bd ee b6 ae 3d e2 22 51 bd
       0.056794964 -0.040571336 0.08530985 -0.051058657
000030 05 22 ba 3c 4a f2 bb bb 47 1a 38 bd cc 2b 6f 3c
       0.0227213 -0.00573567 -0.044946935 0.014597844
000040 08 9f 8e 3d 7a 05 20 3d 8a 5e c0 bc 44 17 39 bc
       0.069639266 0.039067723 -0.02348258 -0.011297051

F.nbr.0.linears.0.weight f4 [20, 10]
000000 62 93 8c bc 8b a8 40 3e 28 76 56 bc 59 a4 0f 3b
       -0.017160121 0.18814294 -0.013089694 0.0021918027
000010 09 cf 21 3b 22 cc b7 bd a8 bf 92 bb 7c 25 ef bd
       0.0024690053 -0.08974482 -0.0044784136 -0.116770715
000020 aa 47 50 bd 50 14 66 be a5 1b 03 be e9 6b 7b bd
       -0.050849594 -0.22468686 -0.12803514 -0.061382208
000030 29 9d b1 bd b1 b2 e0 bc e1 9f d1 bd 3c d7 a1 bc
       -0.08672554 -0.027428957 -0.102355726 -0.019755952
000040 93 79 8b 3d 28 05 ae 3d a0 bf b2 3b e9 1b 43 3e
       0.06810298 0.08497077 0.0054549724 0.19053616
000050 28 0e 92 bc b1 18 b4 3d f9 c8 f2 bd 48 b9 8e bd
       -0.017829016 0.08793772 -0.11854739 -0.06968933
000060 b4 b6 49 3d 45 59 eb 3b 68 58 81 be b0 71 bf bd
       0.049246505 0.0071822726 -0.2526276 -0.09347856
000070 c9 27 7c ba 38 6d e5 3d d8 1e 88 be 2a 18 ec be
       -0.00096189656 0.112024724 -0.26586032 -0.46112186
000080 88 9b 33 3e 7f ba 18 be 87 6b e5 be 15 e2 0a be
       0.17539799 -0.14914893 -0.448086 -0.13562806
000090 bb 5d e9 bd 7e fc 58 bd 47 6a ad 3d 5c 31 a7 3e
       -0.11394831 -0.05297517 0.084675364 0.32654846
0000a0 75 b3 10 3e 37 9f d8 bd 09 09 98 bd ec cd 03 3e
       0.14130957 -0.10577243 -0.07423598 0.12871522
0000b0 00 9a 02 be 77 86 ae 3d 48 d1 6b bd 2f 8b ff 3c
       -0.12754059 0.08521741 -0.057572633 0.031194298
0000c0 48 e7 76 3d c6 af 91 3d b5 b8 74 3e 14 be f4 3a
       0.06027916 0.07113604 0.23898585 0.001867237
0000d0 5b 56 09 be 00 af 59 bd c7 f6 18 be e1 5e 84 be
       -0.13411848 -0.05314541 -0.14937888 -0.25853637
0000e0 7d b9 09 3e a0 a3 b2 3d 63 9e 47 3d cd 6d 68 bd
       0.13449664 0.08722615 0.048735034 -0.05674534
0000f0 3a 85 19 bd a9 73 bc 3d ca f6 cf 3e c5 b8 4e be
       -0.03748057 0.09201748 0.40617973 -0.20187671
000100 82 2e e1 bd 04 0d 13 3e 64 e9 07 bd 99 aa cb 3d
       -0.10995199 0.14360434 -0.033181563 0.09944648
000110 ef d0 d1 3d 16 32 00 3e dd 9f cd 3d 23 ee cb bc
       0.10244929 0.12519106 0.10040257 -0.024893826
000120 94 b2 5a bc f4 fd df bc 37 fe da 3d 89 4a 09 bd
       -0.01334824 -0.027342774 0.10693019 -0.033518348
000130 37 da fb 3d ad 28 45 3e 62 b3 f0 bd 28 31 29 bd
       0.122974806 0.19253798 -0.117529646 -0.041306645
000140 bc cc 80 3e 99 af 91 3d ee 74 88 be 3f 3b cc bd
       0.251562 0.07113571 -0.2665171 -0.09972238
000150 1a 36 a5 3e ec 18 9e bc b3 a7 a0 3e e4 5c 90 3d
       0.3226784 -0.019298993 0.31377944 0.070489675
000160 44 98 18 bd cf f1 60 be 92 39 04 3e 90 c6 2e bd
       -0.037254587 -0.21967243 0.12912586 -0.042669833
000170 65 e8 a8 bc ae cc a9 bd 51 ef 40 ba e0 0d 86 be
       -0.020618627 -0.08290993 -0.00073598797 -0.2618246
000180 1b 80 0d 3d d6 e3 fd 3d 83 61 01 3e b1 06 a2 bc
       0.034546 0.12396972 0.12634854 -0.019778581
000190 74 a1 20 be f1 10 c8 3d a8 16 71 bd 9c 74 60 bd
       -0.1568659 0.09768856 -0.058859497 -0.054798707
0001a0 b2 73 1b 3d 5c 78 0c 3e 86 ae 54 bd f7 eb 41 be
       0.037952133 0.13717788 -0.05192425 -0.1893767
0001b0 9e 41 12 3d 64 f7 bc bb f1 f5 6d bc e0 a1 b2 be
       0.03570711 -0.005766796 -0.014523969 -0.34889126
0001c0 07 4f ea 3d f7 3d 5a 3e 93 d7 23 3e 0b 61 ac 3d
       0.114408545 0.213127 0.16000204 0.08416947
0001d0 23 19 c5 3d 69 31 6f bd 60 dd 54 3d 2d 21 11 3e
       0.09623935 -0.05839673 0.051968932 0.14172812
0001e0 27 cf d5 bd 6d cb 35 3e f5 c9 dd 3d fa ae 5b bb
       -0.10439902 0.17753382 0.10829536 -0.0033521042
0001f0 bd 13 45 3d d8 39 3e 3e ed cd 83 bd d2 b5 d9 bd
       0.048114527 0.18576753 -0.064357616 -0.106303826
000200 a2 3b 50 3e 65 a8 33 3d 2b 5f 48 3c 03 22 4c 3d
       0.20335248 0.043861765 0.012229721 0.049837124
000210 10 33 32 be df 04 b1 bd 9d c0 63 3e 82 9e ea bd
       -0.17402291 -0.08643507 0.22241445 -0.11456014
000220 7e d7 c3 bb af 56 ae 3d 78 4b 11 be 3e cf 0b bd
       -0.0059766164 0.08512627 -0.14188945 -0.03413319
000230 6c da c9 bb 2d ce 08 be 0a 59 db bd 57 6a 9d 3c
       -0.006160071 -0.133599 -0.10710342 0.019215746
000240 1c 3e 11 3e bc e0 6b be 2f 3c 34 3e be bd 5c 3d
       0.14183849 -0.23034948 0.17601083 0.05389189
000250 1b 18 f6 bd db c1 8b bd 4f 9d de 3c c1 28 50 bd
       -0.120163165 -0.06824084 0.02717462 -0.050820116
000260 1f 93 54 bc 23 ff 18 3d 32 28 2f bc f0 2d f4 bd
       -0.0129745295 0.037352692 -0.010690736 -0.119228244
000270 9d 9b d8 bc c4 ae cb bc e3 01 7c be 82 73 ce bd
       -0.02644139 -0.024863608 -0.24610095 -0.10080625
000280 69 31 af 3d be 18 a0 bd 0b 69 3b bd 5c f4 04 3e
       0.08554346 -0.07817219 -0.045754474 0.1298384
000290 f9 38 d5 3d 82 65 27 be 35 4d cd 3d 2d 3b a1 3b
       0.10411257 -0.16347316 0.10024492 0.0049203844
0002a0 5a 7a 9c 3d 63 36 af 3d 5d 45 ca bd e1 83 6d 3d
       0.07640524 0.08555295 -0.09876511 0.057987098
0002b0 3f 18 21 3e 18 8b d5 3d 78 f9 60 be 51 9f fd 3d
       0.15731905 0.10426921 -0.21970165 0.12383903
0002c0 9e 4c 63 be 48 9e 8e bd e3 ea 6c 3d ff 69 f6 3d
       -0.22197196 -0.069637835 0.057841193 0.12031936
0002d0 53 ee b4 bd 6f df a7 3e 9b e4 9c bd 9c 35 f4 3d
       -0.08834519 0.32787654 -0.076607905 0.11924288
0002e0 a5 02 ad bd 7e aa 80 3d 4a 71 4e be 72 b7 21 3d
       -0.0844777 0.06282519 -0.20160404 0.039481588
0002f0 74 7e af bc b9 81 a5 bd d0 21 00 bd 57 c4 3b 3e
       -0.021422602 -0.08081383 -0.031282246 0.18336616
000300 5f 48 63 bd 1c b1 f2 bd 39 93 d5 3c fb 89 97 3d
       -0.05548894 -0.11850187 0.026071178 0.073993646
000310 b1 7d a6 be 18 55 9d bd 80 d8 cd bd 02 42 ae 3d
       -0.3251777 -0.07682246 -0.1005106 0.08508684

F.nbr.0.linears.0.bias f4 [20]
000000 f5 a8 ae 3d f8 7c 15 3d f5 6b b8 bb e7 e3 29 3d
       0.0852832 0.036496133 -0.005628104 0.04147711
000010 5d e4 6e 3d 1b 27 c2 bd a2 1e 89 3d 20 86 a8 3b
       0.058323253 -0.09480115 0.06695296 0.005142942
000020 8d 1b 02 3c fa 1c 16 3d 03 70 91 bd 7b 02 99 3d
       0.007941139 0.036648728 -0.07101443 0.07471176
000030 d5 56 0b bd 2b b0 d6 3c 27 d1 4a 3d 9e 3e f1 3d
       -0.034018356 0.02620705 0.04951587 0.117795214
000040 83 2e 56 bc 2f 18 55 3d c4 c4 44 bd 5a 13 96 bd
       -0.013072613 0.052025016 -0.048039213 -0.0732791

F.out.weight f4 [5, 40]
000000 49 84 a0 3d ec 2b 9e bd ba a7 06 3e ca cf 44 3e
       0.078377314 -0.07723221 0.1314992 0.1921989
000010 c3 65 0c 3d 32 d2 50 bc 3c f9 3f 3e 16 f2 25 3e
       0.034276735 -0.012745427 0.18747419 0.1620563
000020 c2 5d aa bc d9 8d 00 be 93 13 d3 3d 28 a8 dd bd
       -0.02079666 -0.1255411 0.10306468 -0.10823089
000030 5c 4a 27 3c 69 ef 04 3d 2a 04 65 bc c0 4d 14 bc
       0.0102106 0.03245488 -0.013978044 -0.00905174
000040 f5 fa 40 3d ad 64 0c be 78 3a 1a be ab 0e e0 bd
       0.04711433 -0.1371028 -0.15061367 -0.10940298
000050 ee 42 08 3d 31 b1 15 3e be 34 bb 3d ac 31 92 bc
       0.033266954 0.14618374 0.09140919 -0.017845951
000060 7d c7 10 3e 5e d4 81 3e d8 b6 1b bd 25 b5 08 3e
       0.14138599 0.25357336 -0.03801617 0.13350351
000070 b0 93 a9 3c 4c ae b9 3c 10 8c 07 3d e0 19 20 be
       0.020700306 0.022666119 0.03309256 -0.1563487
000080 86 ba c9 bb 37 71 26 bd db 82 1a be b5 93 fc bc
       -0.0061562685 -0.040635314 -0.1508898 -0.030832151
000090 8a f5 83 bd 14 67 49 3e 1b 70 76 3e cd 16 47 3e
       -0.06443317 0.19668227 0.24066202 0.19442292
0000a0 58 49 5c 3e 84 75 18 be ba a2 28 3d 68 c3 00 3e
       0.21512353 -0.14888579 0.041170813 0.12574542
0000b0 4b b1 3e bc ed fa 16 be b7 a6 37 bd fa ff 88 3d
       -0.01163895 -0.14744158 -0.044836726 0.06689449
0000c0 87 17 13 3e ef d2 f9 ba 0e e7 7a bd 18 f0 bd 3c
       0.14364444 -0.0019060055 -0.061255507 0.023185775
0000d0 97 cc 58 3e d6 31 89 3e e5 e2 ba 3d 07 13 9e be
       0.21171795 0.26795834 0.09125308 -0.30873892
0000e0 3a e7 4f bd db db 67 3e e4 cd 5e bd 73 13 3a be
       -0.050757624 0.22642462 -0.05439557 -0.18171482
0000f0 7a 33 36 be 0e e5 b4 3d 19 c2 5a bd 77 23 26 3f
       -0.17793074 0.08832751 -0.053407762 0.64897865
000100 a0 51 e4 bb d2 a5 2b bd 45 9f 5b 3e 2f ea 2a be
       -0.0069677383 -0.041906185 0.21447475 -0.16690896
000110 99 c2 71 be fb f1 0a 3e 6b 81 9e bd 0e 4e c4 bd
       -0.2360939 0.1356887 -0.07739528 -0.095852
000120 55 46 aa 3c 82 66 07 be c8 6f f5 bd 89 15 ff bd
       0.02078549 -0.13222697 -0.11984211 -0.124552794
000130 7c 4c 47 3d a5 5c f7 3c 36 41 fd bd 53 4b c4 bb
       0.048656926 0.030195544 -0.123659536 -0.0059904247
000140 37 ff 22 3d 44 c8 6e 3d b0 af cb 3d 20 5f 43 be
       0.039794173 0.058296457 0.09945619 -0.19079256
000150 b5 da 4b be cf a7 02 be 60 ca 9e 3d 04 30 a2 3d
       -0.19907649 -0.12759326 0.07753444 0.079193145
000160 87 d2 53 be 27 42 53 3e a0 0c 84 3e 7a 88 aa 3d
       -0.20685779 0.20630704 0.25790882 0.08326812
000170 39 e9 94 3d 6f 77 3b be 55 e4 90 3b ba a0 e8 bd
       0.07271046 -0.18307279 0.0044217505 -0.11358781
000180 55 2e f0 3d 80 a7 99 bd 07 1b 12 be ee 61 64 be
       0.11727587 -0.07502651 -0.14268123 -0.22302982
000190 40 b1 06 3d 0f 09 f1 3c 91 76 a1 bd 14 9b fa bd
       0.032883883 0.029423265 -0.07883943 -0.1223661
0001a0 6a 3a 8c 3c 23 ec 83 3e 9c b9 7c be 25 f4 fb 3d
       0.017117698 0.25766096 -0.2468018 0.12302426
0001b0 ff 71 5d 3e 9f 46 3a 3e 76 27 50 be 35 29 b2 3d
       0.21625517 0.18191002 -0.20327553 0.08699266
0001c0 f0 d6 5c be eb fe 8a 3e bb e8 5b 3e 5c 91 c9 3d
       -0.21566367 0.27147612 0.21475498 0.09842178
0001d0 c9 3e d9 3d 99 42 8e be ff f1 92 be b3 fe 54 bc
       0.106076784 -0.27785185 -0.28700253 -0.013000178
0001e0 e1 53 84 3d 9b c8 06 3e bc 9a b3 bd 24 b4 d2 3d
       0.06461311 0.13162462 -0.087697476 0.10288265
0001f0 72 bf 72 bd 30 81 3e 3e af 1b f7 3d e6 f0 45 bc
       -0.059264608 0.18603969 0.12065827 -0.01208136
000200 a7 52 0a 3d 85 ca 23 3e 19 8a 25 be e6 26 46 bd
       0.03377023 0.15995224 -0.16165961 -0.04837694
000210 b0 b1 15 be 70 dc 4c 3d 7a 6d 10 3c 0c 15 aa 3d
       -0.14618564 0.050014913 0.008815164 0.083047956
000220 bc 46 6e bd d7 5e 90 3d f4 79 8d 3d 30 ff a0 bd
       -0.058172926 0.07049339 0.06908026 -0.07861173
000230 22 02 92 be 36 57 da 3c 37 c9 f6 3c 5f 60 75 3e
       -0.28517252 0.026652914 0.030125244 0.23962544
000240 0f 31 54 3e ce 4d 91 bd 1a aa 85 be 10 c8 98 3c
       0.2072184 -0.07094918 -0.2610634 0.018650085
000250 7c 03 af bb b3 22 b9 3d 22 f5 1b bd 7c d1 78 3e
       -0.0053409915 0.090398215 -0.038075574 0.24298662
000260 0c d2 52 be 3c 11 0e be cb 98 b3 3d fe 44 96 bd
       -0.20587939 -0.13873762 0.08769377 -0.07337378
000270 7a 7b 71 3d 42 52 14 3d a7 94 d3 bd ff 6e 9a bd
       0.058955647 0.03621126 -0.103310876 -0.07540702
000280 cb df 66 3d f3 a2 77 bd 6c 02 49 be ef 56 5e be
       0.05636577 -0.060458135 -0.1962983 -0.2171285
000290 82 de 32 3d e7 79 b7 bd 99 ac 51 3d 8b 15 cb bd
       0.04366923 -0.08958798 0.051189993 -0.09916218
0002a0 e4 e0 19 be 37 92 94 be 45 96 50 3c de d1 a0 3d
       -0.15027195 -0.29017803 0.01273114 0.07852529
0002b0 21 3e ad 3d 7e 84 41 3e 5f 70 49 be d7 d7 cd 3d
       0.08459116 0.18898198 -0.19671772 0.10050934
0002c0 27 35 21 be 47 ef 0c 3e f5 47 89 3d 2c 99 18 3e
       -0.15742932 0.13763152 0.06703178 0.1490218
0002d0 1f 24 49 bd 55 d8 ff 3d 24 10 26 3e 32 97 2c 3b
       -0.049106713 0.12492434 0.16217095 0.0026335237
0002e0 07 fd a6 bd 90 b7 84 bd 82 4f bc 3d 8b 39 3e bd
       -0.0815373 -0.06480324 0.091948524 -0.046441596
0002f0 b0 a6 04 bd df 02 be 3c cf 36 10 3e 3e 16 cc 3c
       -0.032385528 0.023194728 0.14083408 0.02491295
000300 4a 45 87 3d 40 b6 04 3d 95 36 22 3b a9 87 10 be
       0.06605013 0.03240037 0.0024751772 -0.1411425
000310 68 eb 0e bc 38 11 80 3d 81 55 be bc 53 d2 11 3d
       -0.008723117 0.06253284 -0.02323413 0.03560097

F.out.bias f4 [5]
000000 b7 c2 45 3d 8d bb d8 bc 79 36 25 bd 89 8a 92 bc
       0.048281398 -0.026456619 -0.040335152 -0.017888324
000010 e5 01 63 3b
       0.003463858

i2h.linears.0.weight f4 [20, 22]
000000 e9 86 2b be 39 77 09 be 3c 63 2c 3d c0 8d 32 be
       -0.16750683 -0.13424386 0.042086825 -0.17436886
000010 05 bf 3b be 41 57 c4 bd e7 0c 82 bd bd c9 48 bd
       -0.18334587 -0.09586955 -0.06350117 -0.049020518
000020 63 12 fd bd b9 92 6a b9 90 4e c9 3d 72 1b 0c be
       -0.123570226 -0.00022370637 0.09829438 -0.13682345
000030 c6 ec 79 bd b3 72 cc ba ac 19 fa 3d 0f f9 08 be
       -0.06101682 -0.0015598148 0.12211928 -0.13376258
000040 02 ca 06 3d 87 58 1d 3e d3 df db 3d d4 fc 72 bc
       0.032907493 0.15365802 0.107360505 -0.014830787
000050 5e e6 63 3c 29 4a 12 3d 3e df 5b 3d d3 a8 fa 3d
       0.013909904 0.035715256 0.053679697 0.12239232
000060 83 59 0d 3d 35 47 d4 3c 53 9e 12 be dc 6f 16 be
       0.034509193 0.02591286 -0.14318208 -0.14691108
000070 f3 8f d2 bd 27 c0 04 be eb ef f7 bd 3c dc e3 3c
       -0.102813624 -0.12963925 -0.121063076 0.027814977
000080 a0 1c 23 3d a9 e6 06 be 52 c3 12 3e 82 15 2f 3e
       0.03982222 -0.13173927 0.14332321 0.17098048
000090 0f b1 84 3d 29 f7 42 3d ef 21 16 3e 71 4b 43 be
       0.06479084 0.04759899 0.14661382 -0.19071747
0000a0 c4 77 e7 bc fd c4 d1 bc 58 62 57 be 75 30 57 bc
       -0.02825535 -0.025606627 -0.21033609 -0.013134112
0000b0 ef ed a9 3d 2e 53 02 3c 72 6e 23 be 81 b6 6c bc
       0.08297335 0.007954402 -0.159601 -0.014447809
0000c0 5e 5b 50 3d 75 1a 10 3e b0 de 89 bd a6 18 af 3c
       0.050868385 0.14072593 -0.067319274 0.021374058
0000d0 b2 b7 71 bc 80 29 05 be fb 48 40 3b b6 92 69 3d
       -0.014753269 -0.13004112 0.0029340375 0.05702468
0000e0 35 76 10 bc 8e 65 dc bd cc b9 8d bd 03 91 22 3e
       -0.008817245 -0.107615575 -0.069202036 0.1587563
0000f0 e5 70 4c be 3f 6d f8 bd 8d 9a 0a 3d 4a 95 16 3e
       -0.19964941 -0.12130212 0.033838797 0.14705387
000100 be 54 0f bd d5 eb 19 be aa b0 a6 3c 3c 0c 75 be
       -0.034992926 -0.15031369 0.020347912 -0.23930448
000110 17 17 4a bd c6 46 76 be 0c 5f 6e 3e 9f 01 98 ba
       -0.049338426 -0.24050435 0.23278445 -0.0011597163
000120 6f 21 c2 bd d1 c0 21 be 68 fe 8a 3d f1 f1 d9 bc
       -0.09479033 -0.1579621 0.067868054 -0.026604624
000130 99 30 dc bc 82 98 48 3e 86 76 7d bc 77 af c0 3d
       -0.026878642 0.19589427 -0.015470153 0.09408467
000140 db 86 09 bd b3 12 bf 3d 46 b6 12 bd c5 b9 56 bd
       -0.033575874 0.093297385 -0.03581836 -0.052423257
000150 de 09 52 3d 74 01 8e bc 3e 3d f4 bc e0 c7 1e 3d
       0.05127894 -0.017334677 -0.029814359 0.038764834
000160 e4 97 d4 bd d3 3e 45 be 0c 15 bb 3d 36 b3 67 be
       -0.10380533 -0.19262247 0.09134874 -0.22626957
000170 79 7f fb bd 26 19 07 bd d4 cc 81 bd 29 8a 96 3c
       -0.12280173 -0.032982968 -0.06337896 0.018376427
000180 f8 c3 67 bd 38 57 08 be b5 13 51 3d 97 5b 38 3e
       -0.056583375 -0.13314521 0.051044185 0.18003689
000190 c4 7d 4d bd 1c 91 a7 bb 1b 9a 5a bd c9 fc d0 3c
       -0.050168768 -0.005113734 -0.053369623 0.025511162
0001a0 4c 50 f2 bd fb 51 9f 3e f8 cc a7 3d 9f 67 69 3c
       -0.11831722 0.31117234 0.081933916 0.014245897
0001b0 25 5d 1a 3d d8 08 30 3e da a8 31 3e 8d 90 9a bd
       0.037686486 0.17190874 0.17349568 -0.07547102
0001c0 44 5e c7 3d 43 18 9b 3d 20 53 ef 3d 38 f1 b7 3c
       0.097347766 0.07572987 0.11685777 0.02245389
0001d0 a0 31 b9 bd a4 41 3e bd 29 a9 60 bd 37 ba 29 be
       -0.09042668 -0.04644932 -0.054848824 -0.16574942
0001e0 d0 a6 3d be 7d 4a fe 3d a8 ef f4 bc 2c e8 9d 3d
       -0.18520665 0.12416551 -0.029899433 0.07710299
0001f0 b3 db c5 3d 86 0d df bd 6f 1a c5 3d 38 32 11 be
       0.09661045 -0.10891251 0.096241824 -0.14179313
000200 26 d8 05 bc d9 8f 0e bc 8b fb 22 bd 8b 0f 11 be
       -0.00816921 -0.008701288 -0.03979067 -0.14166085
000210 82 53 3d 3e f1 2c 85 bd 99 35 b0 3d f6 69 25 3e
       0.18488887 -0.065027125 0.08603973 0.16153702
000220 78 65 52 be 0d e0 54 3d cb c5 76 bd 1b 86 e6 3d
       -0.2054652 0.051971484 -0.060247224 0.11256047
000230 07 d4 73 3d 60 a0 8c be dd 1e d3 3d 02 cf 4b bd
       0.059528377 -0.27466106 0.10308621 -0.049757965
000240 eb c6 c7 bd 90 3d 80 3d 43 b3 1d 3d 34 1e 86 bd
       -0.097547375 0.06261742 0.038501035 -0.065487295
000250 89 ee 15 be c1 4b b6 bd aa 1e 1a bd 35 2d 07 bd
       -0.14641775 -0.08901168 -0.0376269 -0.033002097
000260 c3 4d 06 3e 48 18 10 be 14 19 a7 bd 46 a7 2d 3e
       0.13115601 -0.14071763 -0.0815908 0.16958341
000270 aa 2f 33 3c f2 7a e1 3d 0f 31 3f 3c 95 60 5a 3c
       0.010936657 0.11009778 0.011669411 0.013328691
000280 df c2 0e be 0c 98 08 3e a3 48 c9 bd c1 b7 73 3d
       -0.13941525 0.13339251 -0.098283075 0.059501413
000290 5d 66 92 bb 67 82 a8 bd d6 23 b4 bd d8 63 44 3d
       -0.004467769 -0.08227997 -0.08795898 0.04794678
0002a0 f1 04 fb 3c cd 0a 02 3d 96 24 94 bd ec f1 1e 3e
       0.030642005 0.03174858 -0.07233541 0.15521973
0002b0 71 91 ef 3d 33 b1 d9 3d 49 00 d1 3d 40 85 ac bd
       0.116976626 0.10629501 0.102051325 -0.08423853
0002c0 c7 57 2e be 4f b1 2f 3b 0b b5 8e 3d db b5 a5 3d
       -0.17025672 0.0026808565 0.06968125 0.08091327
0002d0 23 f9 1e be 48 d2 0b 3e 94 ca 5d 3e 97 e6 18 bd
       -0.15524726 0.13654435 0.21659309 -0.037329283
0002e0 d6 8e be bd dd d0 90 3e 9a a8 80 ba e1 9d 02 3d
       -0.093045875 0.2828435 -0.0009815872 0.031888846
0002f0 50 e0 ba 3d 2b 09 06 3e 11 d6 a0 3d 6f 6f 68 bd
       0.091248155 0.13089435 0.0785333 -0.056746896
000300 12 a7 b7 bb 98 87 23 be 73 9d 3d be f5 8c 69 be
       -0.005604633 -0.15969694 -0.18517093 -0.22807677
000310 fd b0 91 3d e5 8c 03 ba 76 da 12 3e 9f 2b 19 bd
       0.07113836 -0.00050182483 0.14341149 -0.037395116
000320 fb 42 0b be d8 3c f1 bc d5 b4 89 bd 29 e6 f8 3c
       -0.1359977 -0.029447958 -0.06723944 0.030383186
000330 f4 3b 29 3e 17 69 06 bd bc 3c 23 3e 58 79 5a be
       0.16526777 -0.032815065 0.15941137 -0.21335351
000340 b8 c1 64 bd bc 30 68 3d 78 76 80 3d b2 a3 60 be
       -0.055848807 0.0566871 0.06272596 -0.21937445
000350 ae fc 5e bd fd d4 fa 3d 32 58 06 be a7 9f 63 be
       -0.054440193 0.122476555 -0.13119581 -0.22228871
000360 e5 b6 9c bd ad c1 99 bd b4 c2 8a 3b 46 92 1e be
       -0.07652072 -0.07507644 0.004234636 -0.15485486
000370 88 b4 ff 3c 39 87 15 3e aa f2 4c 3d 4f cb b2 bd
       0.031214014 0.14602365 0.05003611 -0.08730184
000380 b4 8c 46 3e 45 05 fd 3d 32 17 b3 3c ee 5f 43 bd
       0.19389611 0.12354521 0.021861646 -0.047698908
000390 f8 b8 7b bd a2 95 15 3e 16 0a 67 bd 20 fd 4e 3e
       -0.061455697 0.14607862 -0.056406103 0.20213747
0003a0 dd 31 d7 3d 18 33 52 3c 7a 4f 47 bd d2 1c a1 3d
       0.105075575 0.0128295645 -0.04865978 0.07866825
0003b0 61 d4 32 be a6 2c c8 3d 83 85 76 3b b0 ef 83 3d
       -0.17463829 0.09774141 0.00376162 0.06442201
0003c0 d2 be 6f bd b2 90 6a be 55 3e bb 3d f3 26 33 3d
       -0.05853159 -0.2290676 0.09142748 0.043738317
0003d0 fe b2 1f bd de d2 02 3d 45 1d 33 bc 49 24 8b bd
       -0.03898906 0.03193938 -0.010932271 -0.0679403
0003e0 aa 69 38 be 56 56 4d be 08 1f 47 bd 46 d3 1b 3e
       -0.18009058 -0.20052466 -0.048613578 0.15217313
0003f0 f6 ab c6 bd 72 38 91 3d 9a 76 bf bc ae 43 7b 3d
       -0.09700768 0.07090844 -0.023371983 0.06134384

i2h.linears.0.bias f4 [20]
000000 5b 65 d7 bb 48 d5 a3 3d 0f d3 df 3d 36 ed a5 3d
       -0.006573362 0.079996645 0.10928928 0.08101885
000010 25 c5 51 be bd a7 79 3c 2d 62 d1 bb 39 10 04 3e
       -0.20485361 0.015237746 -0.0063898773 0.12896813
000020 9d ab a6 3c aa 2c bf bc fe f7 d2 3d d4 b4 49 3e
       0.020345503 -0.023336727 0.10301207 0.19697887
000030 6c 01 b1 bd bd 87 62 3d d8 1d d1 bd 5d 23 80 bd
       -0.08642849 0.05530523 -0.1021077 -0.06256745
000040 c9 b8 8d 3d 0c 91 04 3e ae 4d 59 be 3f 86 9a 3d
       0.069200106 0.12945956 -0.21221039 0.07545137

h2o.linears.0.weight f4 [10, 20]
000000 74 9f dd 3e 0a 26 06 bf fa b8 15 be 67 91 c7 3e
       0.43285716 -0.52401793 -0.14621344 0.3897812
000010 15 30 12 3f 2a 2e 37 bc 8a f1 ab 3d b4 2d d9 be
       0.5710462 -0.01118044 0.08395679 -0.4241768
000020 b4 d0 31 bc 99 6d e8 bd 71 48 f2 be ad fb b1 be
       -0.010852981 -0.11349029 -0.47320893 -0.34762326
000030 25 81 7f be ae da 61 be 7d 0a 3c bf fa 18 2e 3e
       -0.24951608 -0.22056076 -0.73453504 0.17001715
000040 72 7e 00 3f 6c 05 4a be fc 17 da be 65 33 1e 3f
       0.5019294 -0.19728631 -0.42596424 0.6179717
000050 f1 ac 61 3d 3b 20 9e 3e 13 05 4a be c9 72 32 be
       0.05509657 0.30883965 -0.19728498 -0.174266
000060 e7 3d da be 12 86 23 be 58 51 89 bd 20 d6 18 3e
       -0.42625353 -0.15969113 -0.06704968 0.14925432
000070 bf d4 90 3d 58 14 cd bd 3f e9 3b be e3 81 dd 3e
       0.07071828 -0.10013646 -0.18350695 0.43263158
000080 f9 c9 93 3e 7a b8 bc 3d 41 d6 ab 3d c9 db 58 3e
       0.2886503 0.092148736 0.08390475 0.21177591
000090 75 ae aa be 5c 88 3c be b3 57 23 bc b3 7d bc bb
       -0.33336225 -0.18411392 -0.00996964 -0.005752289
0000a0 5f bb fe bd 49 59 c3 3d 0f cd 2a bd d3 8b db be
       -0.12438082 0.09538514 -0.041699465 -0.42880115
0000b0 21 35 84 be d8 ad 11 bf 5e ea 39 bf 51 41 9b 3e
       -0.25821784 -0.5690589 -0.7262324 0.3032327
0000c0 14 a0 aa bd 9e 51 fe 3d 16 0a 3e 3e fa 95 bd 3d
       -0.08331314 0.12417911 0.18558535 0.092571214
0000d0 a6 a0 81 bd 1d 53 1b 3f 8a 82 9a 3e 4c 2b dd 3b
       -0.063294694 0.60673696 0.30177718 0.006749546
0000e0 72 d0 fe bc 92 c4 00 bd e0 de 0f 3e 51 aa 82 be
       -0.031105254 -0.031437464 0.14049864 -0.25520566
0000f0 46 2a 5c be e6 35 0c bf ee 2c 35 3e 20 f0 dd 3e
       -0.21500501 -0.5476974 0.1769292 0.43347263
000100 6a dc fa 3e b0 a3 e9 3e 03 e2 17 3f 94 5b e5 be
       0.48996288 0.45632696 0.5932924 -0.4479643
000110 0d 0c 16 bf d8 58 a9 3e 24 84 df 3d 31 0b 7f be
       -0.5861214 0.33075595 0.10913876 -0.24906613
000120 d9 0d d6 be 92 98 2f bf 79 a1 01 bf c8 98 c4 be
       -0.4180744 -0.6859218 -0.5063701 -0.38397813
000130 9a 06 be 3e d0 07 7b 3e bd 4a b9 3d f4 35 bd bd
       0.37114412 0.24514699 0.09047458 -0.09238806
000140 2d 57 db be ca 3e b5 3d cb dd 9d 3e c7 f7 40 be
       -0.42839947 0.08849867 0.30833277 -0.1884452
000150 d8 db 14 bf 49 4c 35 3f 64 ca 46 3f a9 24 4a 3e
       -0.58147955 0.70819527 0.77652574 0.19740547
000160 7d 9e 18 bf a3 f0 c7 3e 5f 2c cd 3e 99 65 68 3e
       -0.59616834 0.3905078 0.40072915 0.22695006
000170 21 0d 23 be b8 15 13 bf 01 8b 1e 3e 0e 95 e6 be
       -0.15922977 -0.57455015 0.15482713 -0.45035595
000180 11 2e a1 be 66 57 bf 3e 82 3b 10 3f f8 36 00 bf
       -0.31480458 0.37371367 0.563408 -0.50083876
000190 bc 9f 25 3e 9a 11 53 be 8e 44 da be 9e 6c 4d be
       0.16174215 -0.20612183 -0.42630428 -0.20060965
0001a0 ff cc 19 3f 89 7d a9 bd 39 5f df 3e 08 31 b9 be
       0.60078424 -0.08275897 0.43627337 -0.3617022
0001b0 87 8f d6 3c 31 13 10 3e 3f 43 8b be 67 c6 d1 be
       0.026191486 0.14069821 -0.27199742 -0.4097168
0001c0 88 e9 d2 3d 49 c7 f2 be 61 d1 b5 3e 66 e2 82 3e
       0.10298449 -0.47417668 0.35511306 0.25563353
0001d0 e2 63 39 be f4 6b 1c bf a2 56 01 3f e3 ab ca 3c
       -0.18104509 -0.61102223 0.50522816 0.024740165
0001e0 e7 bf 71 3e 1c be 2f be d4 0c 2b be 4a c1 23 be
       0.23608361 -0.17162365 -0.16704112 -0.15991703
0001f0 e3 59 05 3f 1b 56 dd 3c 81 e6 85 3e e0 5c 95 be
       0.5209028 0.027018597 0.26152423 -0.2917242
000200 f8 18 e0 bd 57 6f 3d 3e 8a 2a b8 bd c6 45 85 be
       -0.109422624 0.18499504 -0.08992489 -0.26029795
000210 2b e2 81 3e 6a 37 7a be 4c cc b8 3e 35 29 4e 3e
       0.25367865 -0.24435201 0.36093366 0.20132907
000220 02 56 8e be 05 87 b6 be b3 6e f1 3e e8 22 7e bd
       -0.27799994 -0.35649887 0.4715477 -0.062045008
000230 fe 60 da bd 68 7e 1e be cc 03 5d be 25 d4 3e bd
       -0.10663031 -0.15477908 -0.2158348 -0.046589036
000240 32 58 f1 3e 05 e2 1b bc de 19 40 3e cf 55 06 bf
       0.471376 -0.0095143365 0.18759868 -0.52474684
000250 50 bc 1f be 26 65 4c 3e 89 0a 01 bf 46 96 9d be
       -0.1559918 0.1996046 -0.504067 -0.30778712
000260 8a 9d 6b 3e f9 2b fe bd 08 64 f4 3e 4d 02 31 3e
       0.23009315 -0.12410731 0.47732568 0.17286034
000270 ba 2d 9c be 6f 49 17 bf d1 4c 0a 3f 66 6b f5 3c
       -0.30503637 -0.59096426 0.5402346 0.029958438
000280 d8 77 04 3e c7 41 9e be 84 45 7a be dd 93 65 be
       0.12936342 -0.3090956 -0.2444058 -0.22419687
000290 60 fe c0 3e d7 55 f5 bd 4a bb bd 3e 0a fb ed be
       0.37694073 -0.11979263 0.37056953 -0.4648059
0002a0 da f1 0f 3e 5f 90 c1 3e db 60 e1 be 1f 0f 58 be
       0.14057103 0.3780546 -0.44019207 -0.21099518
0002b0 29 19 b9 3e 84 cd 26 be 71 6b c3 3e df 89 08 3e
       0.36152008 -0.16289335 0.3816791 0.13333844
0002c0 ab 7e 92 be 5f 46 d3 be d2 7e 0e 3f 5b 74 32 3d
       -0.28612265 -0.41264626 0.5566226 0.043567996
0002d0 fc cc b8 3e c4 37 da be 87 a8 a0 be 87 5e 68 be
       0.3609389 -0.4262067 -0.31378576 -0.2269231
0002e0 1f 68 fe 3e 27 a3 c5 3a 20 67 07 3f d8 42 1a bf
       0.49688813 0.001507853 0.5289173 -0.60258245
0002f0 4d 29 c8 3d a8 8a b2 3e a8 e6 f3 be ae 7c fa be
       0.097735025 0.3487141 -0.47636914 -0.48923248
000300 8c ec a5 3e b5 76 9f be a3 e7 ee 3e 15 99 a7 3e
       0.32407033 -0.31145254 0.466611 0.3273398
000310 b3 2b f6 be dc 62 16 bf 85 2e 0c 3f 66 76 15 be
       -0.48080215 -0.587446 0.54758483 -0.14595947

h2o.linears.0.bias f4 [10]
000000 a5 ba 55 3e 27 56 d7 3d 5f 84 9c be 16 05 5c bd
       0.2087198 0.10514479 -0.3056974 -0.053715788
000010 b5 a4 32 be b4 1d 40 bf 38 c8 2b bf 00 11 20 bf
       -0.17445643 -0.75045323 -0.67102385 -0.6252594
000020 2a 19 4f bf 13 0f 34 bf
       -0.8089777 -0.703355

linears.0.weight f4 [20, 5]
000000 b9 8a 80 3e 2b 11 17 3e 42 f7 39 be 17 9a ea 3d
       0.25105837 0.14752643 -0.18160728 0.114551716
000010 bc d4 95 3e 83 1a 80 bb 9e f2 88 3e df eb c1 be
       0.29263866 -0.0039094104 0.26747602 -0.37875268
000020 92 00 45 3d e3 96 78 3e 87 49 32 3d 70 88 8f be
       0.048096247 0.24276309 0.043527152 -0.2803378
000030 fa 03 a9 3a df 3b e5 bd 5b 29 09 be 10 97 80 3d
       0.0012894862 -0.1119306 -0.13394682 0.06278813
000040 e5 02 ef bd cc 1a 27 bd dd 84 07 be d1 46 e3 bd
       -0.11670474 -0.04079704 -0.13234277 -0.110974915
000050 03 3d 78 3d dc 49 08 be 0c 0f 9c be 64 fd c6 bc
       0.06060506 -0.13309425 -0.3048023 -0.024290748
000060 02 24 06 be 24 e5 5c 3d f5 1a a8 be 0d a8 99 be
       -0.13099673 0.053929463 -0.32833067 -0.30011025
000070 54 f7 2d be 5f d8 0c 3c f5 63 0d be ee 56 12 bd
       -0.1698888 0.008596509 -0.13807662 -0.035727434
000080 68 75 83 3e 36 85 a6 bd b6 93 19 bd ff c4 30 3d
       0.2567551 -0.08130877 -0.037494384 0.04315662
000090 8e 4c d9 bc ac a3 f2 3e f8 f4 1e bc d0 d9 03 bd
       -0.026525762 0.47390497 -0.00970196 -0.032190144
0000a0 d5 2a 35 3e 0e a1 6e bd 3f 7f 81 be 39 a9 11 bc
       0.1769212 -0.058259062 -0.25292394 -0.0088904435
0000b0 12 fc 82 3e 7d 2b 30 3e 7c ce c0 3e a4 db 87 bc
       0.2558294 0.1720409 0.37657535 -0.016584225
0000c0 51 c0 14 3e 38 f3 a6 3e ac 5a 04 bd 55 c0 94 3e
       0.14526488 0.32607436 -0.032313034 0.29052988
0000d0 21 23 a4 3e b7 f6 a6 bb 64 ad 36 bc 42 11 03 3e
       0.3205805 -0.0050953287 -0.011149738 0.12799552
0000e0 f3 ef 08 3e 9c af df be 80 bd b5 bc 90 56 a1 3d
       0.13372783 -0.43688667 -0.022185087 0.078778386
0000f0 29 53 95 3d d6 c6 ea bc 70 56 37 be d7 39 1a 3d
       0.07291252 -0.028659265 -0.17904067 0.037652817
000100 05 d4 02 3c f9 25 84 bd 6c 83 c2 be 3e c5 b6 3b
       0.00798512 -0.06452555 -0.37990892 0.0055777123
000110 a6 bf 10 be 07 92 27 be c5 78 c3 3d fc e9 15 3c
       -0.14135608 -0.16364299 0.09544519 0.0091500245
000120 43 4e 9d be 02 f8 05 3c 7e eb 39 3e 4c c5 36 3e
       -0.3072377 0.008176805 0.1815624 0.178487
000130 df 87 81 be 96 1c 15 be 1b 5a fb bd 30 94 bb bd
       -0.25298974 -0.14561686 -0.12273046 -0.09159124
000140 13 42 d5 3c a5 12 8f 3e 05 06 24 bc 4f 12 9d 3e
       0.026032483 0.27943912 -0.010011201 0.3067803
000150 01 d7 bd 3d bb cb 55 3e c9 05 09 bd e1 dc bd be
       0.09269524 0.20878498 -0.033452783 -0.3708258
000160 63 2a 3d be 26 d9 80 bc 3f ff 14 be 15 32 8e 3e
       -0.184732 -0.015728544 -0.14550494 0.27772585
000170 7f 76 8b 3e 58 8b d4 3c e9 86 c0 3d 68 12 3c be
       0.27238843 0.02594535 0.09400732 -0.18366396
000180 91 9c 23 3d 43 58 b8 3e 08 a3 ab 3d 7d ad 9e be
       0.039944235 0.36004838 0.08380705 -0.30991736

linears.0.bias f4 [20]
000000 37 1b 55 bd 07 04 6b 3c f7 cf d7 3d 66 ab ce 3c
       -0.052027907 0.014344222 0.10537713 0.025228214
000010 48 50 c4 bd 62 eb e6 3b 79 33 29 bd 41 c6 14 3e
       -0.09585625 0.007047103 -0.041308854 0.14528753
000020 f3 cc 88 bd 9a 7f 8c 3d 8e 24 9e 3d 33 a0 b9 3b
       -0.06679716 0.068602756 0.07721816 0.005664849
000030 f5 84 ac bd 9f ba 4e 3c 53 60 18 3d 99 ab b9 3c
       -0.08423797 0.012617736 0.037201237 0.022664832
000040 10 9b bf 3c 31 ac b8 3d 4a b1 96 3d 59 ee b6 bc
       0.02338937 0.09017218 0.07358034 -0.02233045

linears.1.weight f4 [2, 20]
000000 ad 4a 9b 3e 41 78 98 3e a9 06 b3 be 30 1b 6b be
       0.3033041 0.29779246 -0.3496602 -0.2295959
000010 10 10 5b bc 39 1f c3 bd c3 a4 18 be 5d 91 26 be
       -0.013370529 -0.095274396 -0.14906602 -0.16266389
000020 29 b4 3e 3e 14 48 c4 3e 36 b7 11 3c 36 c2 49 3e
       0.18623413 0.3833624 0.008893779 0.19702992
000030 17 c7 df 3d a0 a0 03 bf de 6c 4e 3e f1 f9 76 be
       0.10926645 -0.5141697 0.20158717 -0.24118783
000040 c3 bd 18 3e d1 60 86 3c 91 16 b7 3d b8 de 7a be
       0.14916138 0.016403588 0.08939851 -0.24499023
000050 6b 27 05 be 5b a2 ec bd 65 01 33 be e5 ab 14 be
       -0.13003318 -0.11554404 -0.17481 -0.14518698
000060 ba 92 47 be 98 ad 7c be 49 93 00 3e a4 8f 8f 3e
       -0.19489565 -0.24675596 0.12556185 0.28039277
000070 a8 0d 59 be 2f 4f db 3d 67 55 fc 3d 0a 46 9c be
       -0.21196616 0.107084624 0.12320977 -0.30522186
000080 72 e6 43 be 24 23 ee bd 64 ef 54 be 0e 50 95 be
       -0.19130877 -0.11627796 -0.20794445 -0.2916264
000090 cb 97 c6 3d 76 ef d8 be c0 fe 94 3e 55 fd 87 3e
       0.09696921 -0.42370194 0.2910061 0.26560465

linears.1.bias f4 [2]
000000 0b 6b 96 3c 95 95 91 bc
       0.018361589 -0.017771522
