workspace/point_processes/dataset:self_inhibiting-pid:5437/params.pth (torch_old, 5419 bytes, 17 tensors)

F.linears.0.weight f4 [20, 5]
000000 99 ca 39 3e f8 0b 4c 3e e1 48 5c be a3 d6 5b 3d
       0.18143691 0.1992644 -0.21512176 0.05367149
000010 7b 8c 01 3e 0c 83 24 bc 75 77 2d be 61 e8 03 3e
       0.12651245 -0.01004101 -0.169401 0.12881614
000020 3c 86 47 be a0 c7 a3 3d 31 98 b3 bd be db 8c 3d
       -0.194848 0.0799706 -0.087692626 0.0687785
000030 8c ae c9 3d ab 46 6e 3d f2 bc 4e be c9 27 0a 3e
       0.09847745 0.058172863 -0.20189264 0.1349174
000040 46 f3 6f 3d 2b b2 35 bd a9 8f 15 be a9 b6 b5 bd
       0.058581613 -0.044359367 -0.14605583 -0.0887273
000050 67 f4 f3 bd 22 f8 cb bd 9a 67 03 be 3a d3 92 bd
       -0.119118504 -0.09959437 -0.1283249 -0.071691945
000060 86 38 e3 bd cf 57 44 bd 20 c7 d9 3c 67 10 66 be
       -0.11094765 -0.047935303 0.026584208 -0.22467194
000070 23 a4 5b 3d 4f 98 f9 3c d6 2a de 3d d6 35 63 3d
       0.05362333 0.030468134 0.10848014 0.055471264
000080 87 e2 08 be 39 74 c6 3d 5b 8d 44 3b 53 5f ae 3d
       -0.13367663 0.096901365 0.002999148 0.085142754
000090 63 a1 7d 3c 82 1c 8a bd 24 11 7f be e9 5c 1c be
       0.015480372 -0.06743719 -0.24908882 -0.15269817
0000a0 ec 1c 9a bd a6 e2 c8 3d a3 92 4a 3c 18 fe ee 3d
       -0.07525048 0.09808855 0.0123640625 0.11669558
0000b0 e9 c2 50 bc 9b 9d 1b 3e 89 d1 07 3e 01 73 8a b9
       -0.012741783 0.1519684 0.13263525 -0.00026407096
0000c0 88 37 1c be b1 c3 d6 bc 90 1d c0 3d 45 5c 07 be
       -0.15255558 -0.02621636 0.093806386 -0.13218792
0000d0 cd 2e 38 bd 23 4b df 3d 0b 15 ac 3d af 59 c9 3d
       -0.044966508 0.10903003 0.08402451 0.09831559
0000e0 ef 4f 72 be d4 f4 05 be 9d 01 3f be 4e fb 39 3e
       -0.23663305 -0.13081676 -0.18652959 0.18162271
0000f0 60 a8 2e bd 5f d1 fc bd dd 85 5d bb 56 b9 b2 bc
       -0.042641044 -0.12344622 -0.0033801713 -0.02181689
000100 6f 35 a1 bc 77 ce e2 3d d9 27 c1 bd 70 7c c6 3c
       -0.0196788 0.11074536 -0.094314285 0.024229258
000110 2d c7 c0 3d 20 c6 41 3d 13 74 ac 3d c6 15 5f 3c
       0.0941299 0.047308087 0.08420577 0.013616031
000120 02 6d 1f 3d 14 d4 95 bc d7 44 56 bd fb cb 0c 3e
       0.038922317 -0.018289603 -0.052311745 0.13749687
000130 14 55 4b 3e ad cb ff 3d 0b 49 96 bd 6a 3e 41 bc
       0.19856673 0.1249002 -0.073381506 -0.011794666
000140 b0 2d 45 bd d1 71 09 3e 66 7f db bd 6c 17 ff 38
       -0.048139274 0.13422324 -0.10717659 0.0001216371
000150 63 ba b7 bd df ed 2b be 5a 40 a7 be e8 41 24 3d
       -0.08971097 -0.1678996 -0.32666284 0.040101916
000160 6c fa 01 3e 14 e9 a0 3c 4b 60 4b 3d 18 ae d3 bd
       0.12693185 0.01964239 0.04965238 -0.1033594
000170 94 20 f5 bd cf d7 0e be 29 a0 7d bd 5e 0b 99 3d
       -0.119691044 -0.13949512 -0.06192032 0.07472871
000180 fd 0f af 3d f6 80 74 bd 67 a7 90 3d 25 d7 49 bd
       0.085479714 -0.0596933 0.070631795 -0.049277443

F.linears.0.bias f4 [20]
000000 e3 fb 26 3d 59 3b 95 bd 83 ae e4 bc 76 d0 d0 bd
       0.04076756 -0.0728671 -0.027915245 -0.10196011
000010 b6 6f ba bc f8 9a 99 3d ea 40 be bd 29 cd 14 bc
       -0.022758346 0.07500261 -0.09289725 -0.009082117
000020 62 44 45 3b a6 e8 80 3d 5c 2b 78 bd c2 ec 5a bd
       0.0030100574 0.06294374 -0.060588226 -0.053448446
000030 16 29 0c bd 54 ed 00 3d f9 88 0c bb f9 ec ac 3d
       -0.03421887 0.031476334 -0.0021443947 0.084436364
000040 b1 71 39 3d a1 f2 fa bd e7 68 b1 bc 8c 75 07 3d
       0.04527444 -0.12253309 -0.021656467 0.033071086

F.linears.1.weight f4 [3, 20]
000000 93 e6 fa bd 42 1e 3d bd fd ae 3a 3d b1 b9 1f 3d
       -0.1225101 -0.046171434 0.045577038 0.03899545
000010 3f fa 11 3e 03 db 4c 3e e2 1d c1 3d 2f 5e ae 3d
       0.14255618 0.20005421 0.09429528 0.08514058
000020 cf 27 bc bc 14 14 eb bd 8c fd d5 3d 2d 85 b7 bc
       -0.022968201 -0.11478439 0.10448751 -0.02240237
000030 81 4f f1 bb f2 ce 12 bc 6c 2d 69 be 39 ef 16 3e
       -0.007364214 -0.008960472 -0.22771233 0.14739694
000040 04 98 46 3d f6 ec 94 3d a3 5e c9 3e 68 03 16 3c
       0.048484817 0.07271759 0.39330015 0.009156086
000050 67 dd 5f 3e 8d 2a 3e 3d 62 07 1e be c1 e6 81 bd
       0.21861802 0.0464273 -0.15432504 -0.06342841
000060 5d b1 4f be dd 75 27 3e ae 6f 16 3b 7a 9f 4d be
       -0.20282502 0.16353555 0.002295475 -0.20080367
000070 51 07 80 be 31 f9 fb 3d 91 3e 42 bc 00 49 47 3e
       -0.25005582 0.12303389 -0.011855737 0.19461441
000080 5a 3b 28 be 6b c7 db 3d 5d c3 36 3e 2f 1c 0d 3e
       -0.16428891 0.10731395 0.17847963 0.13780282
000090 72 88 d8 3d be e2 9d bc 74 f8 64 3e 68 9f ad 3d
       0.105729 -0.019273158 0.22360402 0.0847767
0000a0 0d 7e b7 be 16 13 59 3e 53 c5 da 3c 09 a9 b9 3c
       -0.35838357 0.21198687 0.02670542 0.02266361
0000b0 48 2b 15 3e ce 48 4e bd 04 72 4b be 6f 9c 38 be
       0.14567292 -0.0503624 -0.19867712 -0.18028425
0000c0 1c f0 6a be 66 5b 9e bc 8f 8c 5b 3c 52 f5 79 3e
       -0.22943157 -0.019330692 0.013400211 0.24409989
0000d0 96 a6 17 be 8f 23 29 3e da a6 41 bd 34 b3 c0 bd
       -0.14809641 0.16517471 -0.047278263 -0.0940918
0000e0 1c ba f4 3d 03 cd 54 3e 6a dd b2 3e 7d 77 40 3d
       0.1194956 0.20781331 0.3493455 0.046988953

F.linears.1.bias f4 [3]
000000 7f e2 91 3d ee cf e6 3d 3a 78 76 bd
       0.07123279 0.11270128 -0.06017325

G.0.linears.0.weight f4 [20, 3]
000000 e5 83 cf bd 01 10 a2 3d 97 25 36 3d b7 64 c9 bc
       -0.10132579 0.07913209 0.044469442 -0.024584157
000010 0e a8 d7 3b 1e a0 f2 3d 3e 85 14 3e 2e 85 6c be
       0.006581313 0.11846946 0.14503953 -0.23097679
000020 8f 9d 08 bd 98 e7 dd 3d 11 99 4f 3d 0c 75 56 bb
       -0.033353385 0.108351886 0.050683085 -0.0032723574
000030 71 c8 d2 3c 9b f5 20 bc 29 d8 e7 3d 06 ca f1 bc
       0.025730344 -0.009824182 0.11320526 -0.029515278
000040 2d 14 9f 3c 8a f9 4d 3c ae 9b 06 3d e3 77 31 be
       0.0194188 0.012571702 0.03286331 -0.1733089
000050 45 0b 3d bd af 0a c4 3d 86 cb c3 3d c0 f1 de 3d
       -0.046153326 0.0957235 0.095603034 0.10885954
000060 dc 74 c7 bd e9 01 c6 bd 98 78 ac 3d 5c 2d cc bd
       -0.09739086 -0.09668333 0.08421439 -0.09969589
000070 b0 49 57 3c 6c 4f c2 3b d1 7a 03 bd 5e 80 81 b9
       0.013140127 0.005929878 -0.03209955 -0.00024700438
000080 fc 1e b3 3e ed ce 02 bd 5b f2 fd bd 3b d1 b6 ba
       0.34984577 -0.03193562 -0.12399741 -0.0013947854
000090 c3 82 bb 3d 78 a7 c6 3d ea b3 39 bd e7 ed 2b be
       0.091558 0.09699911 -0.045337595 -0.16789971
0000a0 91 e6 4b bd 9b 0d 84 3d f7 df 43 3e a3 9f 5b bd
       -0.049780432 0.064479075 0.19128405 -0.05361904
0000b0 57 fb b2 3d 6f be ed 3d fb 99 c9 3c dc e3 1d 3e
       0.087393455 0.11608588 0.024609556 0.15418953
0000c0 c1 ca 78 bb fe 11 2b ba 1e b8 f8 3b 7e d0 cd 3c
       -0.0037962648 -0.00065258134 0.007590308 0.02512383
0000d0 d0 97 de bc e7 76 06 bd cf 37 9c 3d 1c cd d8 3d
       -0.027172 -0.032828238 0.07627832 0.105859965
0000e0 20 47 32 3d 52 85 19 bc 4f 29 cc bd 3b e2 64 bd
       0.04352486 -0.009370165 -0.099688165 -0.055879813

G.0.linears.0.bias f4 [20]
000000 46 b1 0d bd 0a dc 22 3d a2 f5 7f 3d 63 be e7 3d
       -0.03459289 0.039760627 0.062490113 0.1131561
000010 89 75 d2 bd 6e b2 2a bd c9 5c b8 bd 23 b8 99 3d
       -0.10276324 -0.04167407 -0.09002072 0.075058244
000020 f0 a1 d0 bd 04 f1 cb bd 45 89 0d 3d b9 bb c8 bd
       -0.10187137 -0.099580795 0.03455474 -0.0980143
000030 c3 62 22 bd 26 8c 96 bd 83 b0 47 3d 46 31 2d bd
       -0.039644968 -0.0735095 0.04875232 -0.04228332
000040 f6 fe 82 3c 64 66 24 bc e0 ea af 3d fc 17 a8 3d
       0.015990715 -0.010034177 0.08589721 0.082077

G.0.linears.1.weight f4 [2, 20]
000000 db 45 a9 bd 59 86 ab bc 0e 84 11 3e 90 2a 16 be
       -0.08265277 -0.020938085 0.14210531 -0.14664674
000010 b2 d5 03 3e b5 f5 7a be 47 dd aa 3d 0e 7d 4e bd
       0.12874487 -0.24507792 0.083429866 -0.05041223
000020 51 dd 24 3e 36 28 b2 3d a5 2f 5e be 2c 59 b7 3d
       0.1610005 0.08699076 -0.21697862 0.08952555
000030 54 95 70 3c e4 a2 ca 3d d9 e0 28 be 70 df 4d 3d
       0.01468404 0.0989435 -0.16492023 0.050261915
000040 a9 bf 1c bc ee 11 1b 3c b8 ff db bd 21 ec a3 bd
       -0.00956718 0.009464724 -0.10742134 -0.080040224
000050 0c a5 28 3d c9 e1 27 bd df 91 78 bd 06 e7 33 3d
       0.041173026 -0.04098681 -0.06068599 0.043921493
000060 d5 76 85 bd d7 c4 ec 3d 5e 0c a7 bc 7d a8 00 3c
       -0.06516806 0.11560982 -0.02039164 0.007852671
000070 43 9f 5e 3c ce 39 33 3e 2f bd 7d 3c cf e4 9a 3c
       0.013587776 0.1750252 0.015486999 0.018907933
000080 b3 56 90 bd cf ff 42 3d 3c fb 25 be c7 07 13 be
       -0.070477866 0.04760724 -0.1620912 -0.14358436
000090 6c 52 9f bb 63 68 24 bc 4a f5 8f bd 2c b2 11 3d
       -0.0048621204 -0.010034653 -0.07029207 0.03557031

G.0.linears.1.bias f4 [2]
000000 61 e4 65 bd 1a b9 90 bc
       -0.056126002 -0.017666388

W.linears.0.weight f4 [20, 4]
000000 49 dc 16 bd 45 d7 3d be cb 3d 05 be 79 ae 60 bc
       -0.036831174 -0.1853915 -0.13011853 -0.0137134725
000010 2f 63 9c be f9 42 b6 bd b7 f7 03 3e 9f 5b 03 be
       -0.3054442 -0.08899493 0.12887464 -0.1282792
000020 49 57 a9 bc 20 fb d6 3d 22 15 41 3d 8f ab bd 3d
       -0.020671504 0.10497117 0.047139294 0.09261238
000030 4d 3e 99 be a3 40 5e bd 8a 2e a9 bd cb 00 a7 bc
       -0.29930344 -0.05426086 -0.0826083 -0.02038612
000040 e6 6b 41 be 19 76 aa bb 5f 24 84 3c 8a 80 02 be
       -0.18888816 -0.0052020666 0.016130624 -0.12744346
000050 91 e9 7f 3d c3 63 a6 bc 0f 3c 4f bd 05 4d 27 3e
       0.062478606 -0.020311242 -0.050594386 0.16337974
000060 56 97 12 bd 7b 13 c7 bd 56 ab 63 3d 59 85 68 be
       -0.035788856 -0.097205125 0.05558332 -0.22707118
000070 83 28 4c be e0 89 9c 3b bf d4 ae bc 0f e5 30 be
       -0.19937329 0.004777178 -0.02134168 -0.17274879
000080 cb 0e 20 bd c6 76 f1 3c 8c 2b 69 3c eb b5 83 3e
       -0.039076608 0.02947558 0.014231574 0.2572473
000090 01 13 0a bc 9b df de 3d 7d d5 34 3d 23 0e a3 bd
       -0.008427382 0.10882493 0.04414891 -0.07961681
0000a0 4c 2c a2 3d 59 f6 3a 3e e8 eb 1c be a6 c6 e4 3d
       0.07918605 0.18258037 -0.15324366 0.11170702
0000b0 1d de 17 be 8d 64 29 bd e0 b8 f8 bc f9 08 82 bd
       -0.14830823 -0.04135566 -0.030361593 -0.06349368
0000c0 eb 5e c2 3e f4 48 2f bd 15 66 19 be 86 38 27 bc
       0.37963042 -0.042794183 -0.14980347 -0.010206347
0000d0 0c 67 37 3e 78 f8 40 3e 34 d3 23 bb 9b 15 92 bc
       0.17910403 0.18844783 -0.0024997713 -0.017832568
0000e0 f0 6a c2 3d bf ac d7 3c f2 6e aa bc 5c f4 01 3d
       0.09493053 0.026327489 -0.020804856 0.03172718
0000f0 e2 76 2f be d2 e7 39 bd 64 20 31 3e 99 a7 68 bd
       -0.17135194 -0.045387097 0.17297512 -0.05680046
000100 0c 51 09 3c 47 36 9a 3d 41 a0 fc bc c2 2c a4 3e
       0.0083811395 0.07529884 -0.030838134 0.32065398
000110 ff ca 44 bd 45 40 10 3e 5d 1f 75 bd 87 17 3b 3d
       -0.048045155 0.14087017 -0.059844363 0.045676734
000120 c1 6d 71 3d 47 94 f6 3c c8 9f 8c 3c 46 ee e1 bc
       0.05894256 0.030100001 0.017166033 -0.027579438
000130 72 df 3a be aa 4f ac 3d 48 41 03 3e e0 6d 99 bd
       -0.182493 0.08413632 0.12817872 -0.0749166

W.linears.0.bias f4 [20]
000000 fc 0e 2c bd 0a be 71 bd e8 bc bf bc df 44 3d bd
       -0.042006478 -0.059019126 -0.023405507 -0.04620826
000010 88 c8 6e 3c 46 a9 29 3e c3 fd 06 3c d1 8a 08 bb
       0.014574178 0.16568479 0.008239212 -0.0020834694
000020 8f e8 0d 3e 67 40 68 bd 7b 72 f5 bb 1d a5 dd bd
       0.13858245 -0.056702044 -0.007490454 -0.108225085
000030 4e 7a 50 3d 41 c9 e6 3c 0a 66 f5 3d 65 30 2a bd
       0.05089789 0.028172137 0.11982353 -0.04155006
000040 aa 69 b5 3d 17 ab 9a 3d 7c 95 19 3e ae 2b fd 3b
       0.088580444 0.07552164 0.1499843 0.0077261543

W.linears.1.weight f4 [2, 20]
000000 24 23 5e 3d 93 74 db 3d a9 c1 01 be 14 8f 16 3e
       0.05423273 0.10715594 -0.12671532 0.14703017
000010 a5 14 2a 3e 6f 6e 5f bd d3 38 9f 3d 40 1e 68 3e
       0.16609438 -0.054548677 0.0777451 0.2266779
000020 df 29 90 bd d1 6d 8f bd cc e5 57 be e1 0a 04 3e
       -0.07039236 -0.07003368 -0.21083754 0.12894775
000030 75 de 24 be f5 c4 75 bd 49 13 76 bd 29 03 92 3d
       -0.16100486 -0.060002286 -0.060076986 0.07129509
000040 30 b9 83 bd 37 2b 12 3d 41 03 b8 bd 9b d7 c0 bd
       -0.06431806 0.035685744 -0.08984996 -0.094161235
000050 42 f8 fd bc ea bb 2a 3d a9 10 15 3e 3b bb df 3d
       -0.031002168 0.041683115 0.14557137 0.10924383
000060 80 63 5b 3e d5 38 0b be a9 c7 2f 3e f9 f9 f8 3d
       0.21424675 -0.13595898 0.17166008 0.121570535
000070 8d 18 b0 bd 66 a3 3e 3d ec 51 67 be c9 e9 8d 3d
       -0.08598433 0.046542548 -0.22589844 0.069293566
000080 0f 4b b0 bd f4 fc 02 be 0c 80 57 be 28 99 64 3e
       -0.08608066 -0.12791806 -0.2104494 0.2232405
000090 fd 3e bb bd 49 9d 0d be e2 cf 8d be 92 a1 81 3d
       -0.091428734 -0.13829531 -0.27697664 0.06329645

W.linears.1.bias f4 [2]
000000 73 ad 39 3d 9d 07 5a 3b
       0.04533143 0.0033268698

L.0.linears.0.weight f4 [20, 5]
000000 4d 2e 29 3d 57 0b 88 3e 61 54 8c be 8c 9f 8a 3d
       0.04130392 0.26571152 -0.27408126 0.067687124
000010 c8 67 34 3e 54 11 1b 3d 3f 5d 42 3e 4a 56 73 be
       0.17617714 0.037858322 0.18980883 -0.23763385
000020 f3 72 45 3d 0c a1 17 3e 51 53 86 bd 37 5c 48 be
       0.048205327 0.14807528 -0.0655886 -0.19566427
000030 fb ad dc 3e 60 45 3a be 84 a1 12 be 57 e6 0c 3e
       0.43101487 -0.18190527 -0.14319426 0.13759743
000040 37 33 a7 3e 06 7c b8 be 72 62 89 bd 6c 68 7e 3d
       0.3265626 -0.36032122 -0.0670823 0.062111303
000050 6a d8 b1 3d ee a5 08 3e d3 5b c2 bd bd 45 32 be
       0.08683856 0.13344547 -0.0949017 -0.17409416
000060 40 0b 35 3d fe ea 5e bc ec 73 da be 7d bd 81 3e
       0.044200182 -0.013605831 -0.42666566 0.2533988
000070 13 66 1a 3e ea 15 84 bd 30 da 88 bd b8 cb 96 be
       0.15078 -0.06449492 -0.06682241 -0.294523
000080 b8 c2 2e 3e ce 51 c8 3c 52 b7 15 3c 13 14 41 be
       0.17066467 0.02445307 0.009137945 -0.18855314
000090 53 1f e0 bd 5f 0f 63 3e 86 d0 19 be 12 0b 0b be
       -0.109434746 0.22173832 -0.15020952 -0.13578442
0000a0 64 d9 20 bd 41 0e ae 3d 9a 1d 9e 3d fb ee 1b 3e
       -0.03926982 0.084988125 0.0772049 0.15227883
0000b0 b6 ae 30 bd 48 92 2f 3e 80 59 c5 3e 33 b5 64 be
       -0.043135367 0.17145646 0.38544846 -0.22334747
0000c0 31 c4 54 3d ce dc 8f 3d 22 12 63 bd 7c 7b 83 be
       0.051944915 0.07024537 -0.055437215 -0.2568015
0000d0 1e 19 2a 3e fd 4d 8f bd c6 f5 22 be 9e c5 01 be
       0.16611144 -0.06997297 -0.15914068 -0.12673041
0000e0 42 29 98 be 24 21 46 3e 6b e1 00 3e fe 81 be 3d
       -0.29718977 0.1934858 0.1258599 0.09302138
0000f0 65 39 af bd 16 fd 54 be b9 3c d2 3d ba d6 26 3e
       -0.08555869 -0.2079967 0.10265488 0.16292849
000100 a6 46 6c 3d a7 c7 61 3e 51 a6 93 3e a5 8f 06 bf
       0.057684563 0.22048818 0.28837827 -0.52562934
000110 e1 47 8d bc c8 ae 51 3d 3f 57 ef 3c 89 5d 95 be
       -0.017246189 0.051192075 0.029216407 -0.29172924
000120 f1 e4 b3 3e 42 cf 1f be 08 1f b3 bd c9 29 5e bc
       0.35135606 -0.15606406 -0.08746153 -0.013559767
000130 f7 58 12 be 9b a2 d9 3d 9d 36 01 bd 6b dd b8 bd
       -0.1429175 0.10626718 -0.031546224 -0.09026607
000140 09 0b 67 bc f9 cb 6e bc 31 70 f0 3d 14 cb 1a 3e
       -0.014101752 -0.014574998 0.11740149 0.1511653
000150 5b ef 91 bc d9 5c 69 be 84 9e f2 bd fe f1 25 3e
       -0.017814329 -0.22789325 -0.11846641 0.16205594
000160 4b 18 8a 3d df 96 0a 3d 13 51 0e 3e 3c 5a 72 3e
       0.06742915 0.033835288 0.13898115 0.23667234
000170 62 5d 71 be f1 73 f8 3c a9 ce f2 bd 9a e8 1d 3e
       -0.23570779 0.030328723 -0.118558235 0.15420762
000180 83 66 05 3d 01 8a ef be 02 e4 c5 3d 77 6c 98 bc
       0.032568466 -0.46784976 0.0966263 -0.018606408

L.0.linears.0.bias f4 [20]
000000 d5 54 2f 3e 2e 98 30 3d a5 7c fe bd b3 c3 12 3e
       0.17122205 0.04311388 -0.12426118 0.14332466
000010 77 ef 7e 3b 68 99 82 bc b8 29 65 bd 0a 9b 50 3c
       0.0038900056 -0.01594229 -0.05594799 0.012732277
000020 29 bf 11 be 82 09 b3 3d 84 19 4b bd 10 0f c9 bc
       -0.14233078 0.08742048 -0.04958488 -0.024543315
000030 66 60 27 be 78 15 95 3d cb 6d de bd 76 34 08 be
       -0.16345367 0.072794855 -0.10860785 -0.13301262
000040 04 f2 d9 bd 49 c0 2a 3c f4 f5 97 3d 8f 66 1f 3e
       -0.10641864 0.010421821 0.07419959 0.15566467

L.0.linears.1.weight f4 [1, 20]
000000 fa f8 d5 3e d6 61 d6 3e 4d 29 8e be f4 dd 98 3e
       0.41791517 0.41871518 -0.27765885 0.29856837
000010 7d 0f 1c 3e 99 5d 14 be 7a 91 61 be ce 57 49 be
       0.15240283 -0.1448883 -0.22028151 -0.19662401
000020 05 b1 84 bc 40 36 9b 3e f2 09 84 be 76 9b 78 be
       -0.01619769 0.30314827 -0.25788838 -0.24278054
000030 2a 8b a1 be d5 54 4e 3e 4e 43 3b be 32 10 1f be
       -0.31551486 0.20149548 -0.18287393 -0.15533522
000040 97 e8 5d bd 0e 54 c3 be 5d 7b a3 3e ef e1 be 3e
       -0.054176893 -0.38150066 0.31930056 0.3728175

c0 f4 [3]
000000 62 4d 48 40 01 b3 28 c0 cb 18 9b bf
       3.129723 -2.6359255 -1.2116941

h0 f4 [2]
000000 00 00 00 00 00 00 00 00
       0.0 0.0
