workspace/dataset:exponential_hawkes-pid:5435/params.pth (torch_old, 5419 bytes, 17 tensors)

F.linears.0.weight f4 [20, 5]
000000 a3 55 0a 3e b8 a7 de 3d ef e9 b0 bd 70 6a 1f 3d
       0.1350923 0.108718336 -0.08638369 0.038919866
000010 a2 d2 82 3d 96 98 62 3c 19 a8 5a bc f0 e1 0f 3e
       0.06387831 0.013830325 -0.013345742 0.14051032
000020 e8 19 55 be af 13 63 3e 88 d9 fd bc b1 e3 02 bd
       -0.20810664 0.22175477 -0.030987516 -0.031955425
000030 b0 e3 df bb b3 b7 2b 3d 8c 7f 3b be fa 66 30 3e
       -0.0068325624 0.041923236 -0.18310374 0.17226782
000040 d4 89 fb 3d c1 6c 09 be ac f4 41 be 30 9e 59 bd
       0.12282148 -0.13420393 -0.18940991 -0.053129375
000050 e1 44 ad bd 39 f1 d3 bd a1 7e 5d be 79 a9 b6 bd
       -0.08460403 -0.10348744 -0.21630336 -0.08919043
000060 a6 19 0f bd e6 fe 91 bd c0 10 dd bd 90 95 96 3d
       -0.03493657 -0.07128696 -0.107942104 0.073527455
000070 b5 26 b0 3b f0 ef c9 bc b5 cf c5 3d 78 64 66 bd
       0.005375708 -0.024650544 0.096587576 -0.05624816
000080 9b fe 23 be da 36 d8 3c 0a da a1 3d 70 ac b0 3d
       -0.16015093 0.026393343 0.07902916 0.0862664
000090 fb 5c 6f bd 73 f2 08 be 5d 1b 86 be ac cb ba bd
       -0.058438282 -0.13373737 -0.26192752 -0.091208786
0000a0 12 4e 26 bd 74 9c 28 bd c4 c1 09 be 42 16 24 3e
       -0.040601797 -0.04116483 -0.13452822 0.16024116
0000b0 03 8a 5f 3d 37 4e f9 3d 2a e0 3a 3e 7f 5e 3a 3d
       0.054574978 0.121731214 0.18249574 0.045500275
0000c0 ce 6b d9 bd 24 a7 1b be 43 60 13 3e f4 95 15 be
       -0.10616265 -0.15200478 0.1439219 -0.14607984
0000d0 10 49 d8 bd 1f 51 cf ba 2e f3 58 3d 5b 0d d4 3d
       -0.105608106 -0.0015817023 0.05296629 0.1035411
0000e0 cd d4 1c be 05 96 5e bc 04 fa 31 be 51 0d 41 3e
       -0.15315552 -0.013585572 -0.1738053 0.18852736
0000f0 1a a3 2c bd 9b 8e 58 be 30 95 9e bd 8b 5f b2 bc
       -0.042147733 -0.2114815 -0.07743299 -0.021774074
000100 29 d7 90 3d 5e de 11 3e 2d 5f 03 3d 5c 93 45 3d
       0.070722885 0.14244983 0.03207319 0.048236236
000110 d6 8d bf 3d 4c 36 70 bd 5b e1 7b 3d f3 e1 06 3d
       0.09353225 -0.05864553 0.061494213 0.032930326
000120 42 18 c0 3d e4 f2 c5 3c a5 3c 94 bd 4b 45 e7 3d
       0.09379627 0.02416367 -0.072381295 0.112925135
000130 c7 cb a7 3d 62 87 9b 3e 95 8d 86 bd 3d b1 b9 bd
       0.08193164 0.30376726 -0.065699734 -0.09067009
000140 97 ff 80 3c 48 9d 52 3e dd df ef bb 11 e7 9b 3d
       0.015746875 0.2056781 -0.0073203878 0.07612432
000150 91 83 70 be b9 36 8a bd 5e a8 51 be 3e a1 9d bd
       -0.23487689 -0.06748719 -0.20474383 -0.0769677
000160 de d0 74 3d f4 43 7c bc a1 d0 02 3e 0c 49 ea bb
       0.059769504 -0.015397061 0.12774898 -0.007149821
000170 c3 b9 01 be f9 00 c1 bd 35 87 ee bd 67 35 ae 3d
       -0.12668519 -0.09424014 -0.116468824 0.085062794
000180 c4 f6 42 3e c6 cb ea bc 5f a8 21 3e 5b 7a 47 be
       0.19039446 -0.02866162 0.15786885 -0.19480269

F.linears.0.bias f4 [20]
000000 d6 2a 0b bd 64 c3 f4 3c 4a 6e c3 bc 7f 9b 12 3c
       -0.0339764 0.029878326 -0.0238563 0.008948206
000010 20 4c dd bc b2 71 63 ba 10 17 06 be c6 67 68 bd
       -0.027013838 -0.0008676305 -0.13094735 -0.05673959
000020 33 61 28 bd 77 e5 ea 3d 57 29 e3 bc 55 12 d5 bb
       -0.04110832 0.11469548 -0.027729673 -0.0065024295
000030 c9 31 d5 bd 95 ee ff 3d 79 0f 34 bd c4 d8 0c 3d
       -0.104098864 0.12496678 -0.04396007 0.03438641
000040 df 9e 22 3e 26 9c ae 3c 8c e0 d1 3d 7d 6c 0c 3e
       0.15880917 0.021314692 0.10247907 0.1371326

F.linears.1.weight f4 [3, 20]
000000 81 59 24 be e7 bc 8c 3d b3 ef c1 bb 9d 2b f2 3b
       -0.16049768 0.06871968 -0.005918467 0.007390453
000010 66 02 22 3e 39 f4 38 3e a1 ea 17 3e fb fb c4 3d
       0.15821227 0.18061914 0.14835598 0.09618374
000020 3d 19 ab bd 0e 41 fa bd 7e fc 2b 3e 86 3c 82 3d
       -0.08354423 -0.122194394 0.16795537 0.063592
000030 3c 5e cd 3d ad 48 9c bc 8e 94 51 be b1 4f 31 3e
       0.100277394 -0.019077623 -0.20466825 0.17315556
000040 07 10 4d bc ef c1 c1 3d 29 ce bb 3e 7e f2 64 bd
       -0.012516028 0.09460818 0.36680725 -0.05589532
000050 bd ef 84 3d 91 8d a3 3d 1d de e7 bb 13 99 b6 bd
       0.06491039 0.07985986 -0.0070760385 -0.08915915
000060 55 4b 61 be 83 e2 20 3e e4 f5 ba bd 26 0a 6a be
       -0.22001393 0.15711407 -0.09128931 -0.22855434
000070 9c 3d 40 be 61 67 1c 3e 34 ff c5 bc 34 8e 31 3e
       -0.18773502 0.15273811 -0.024169542 0.17339402
000080 fe 11 48 be 1d 2f d8 3d c4 cf 76 3e 53 bb 31 3e
       -0.19538113 0.10555861 0.24102694 0.17356615
000090 bc e0 20 3e fa 3a bf bc 25 34 2a 3e 84 4b da 3d
       0.1571073 -0.023343552 0.16621454 0.10658935
0000a0 06 d1 aa bd a0 9a b5 3c 38 17 64 3d a1 5b ac 3d
       -0.08340649 0.022168458 0.055686206 0.08415914
0000b0 d8 33 c0 3c 72 16 89 bd 7e 0c 46 bd 52 ef 09 be
       0.023462221 -0.06693734 -0.048351757 -0.134702
0000c0 5d 6a 34 be 44 ef dc 3d 16 14 d5 3c 04 30 ac 3d
       -0.176187 0.10787824 0.026010554 0.08407596
0000d0 33 29 85 be 40 a8 82 3e dc 9f ba 3c b6 45 f1 3b
       -0.26007995 0.2551899 0.022781305 0.0073630465
0000e0 cf 34 83 3e 5a 7e c9 3d c9 6f e5 3e 1b cd 58 3e
       0.25626227 0.09838553 0.44811848 0.21171992

F.linears.1.bias f4 [3]
000000 20 d6 07 3d f1 c2 fe 3d 6b f6 97 3d
       0.03316319 0.12439526 0.074200474

G.0.linears.0.weight f4 [20, 3]
000000 eb 77 62 bd 07 fd 28 3d b7 63 52 3d e9 dc 92 bd
       -0.055290144 0.04125693 0.051364627 -0.071710415
000010 25 7f 46 3d 09 2f 15 3e cc bf c5 3c c1 b4 a0 bd
       0.0484611 0.14568724 0.024139307 -0.07846976
000020 29 6c d9 3d b8 f1 80 3e a3 cd 08 3c fb 9a bc bd
       0.10616333 0.25184417 0.008349809 -0.09209248
000030 87 27 a3 be 82 f7 00 3e fa d8 8c 3e 98 d9 13 3e
       -0.31866094 0.12594417 0.2750929 0.14438474
000040 c7 99 9c bd 0d a4 71 bd c7 2d 4b be bb 5c dd bd
       -0.07646518 -0.05899434 -0.19841681 -0.108087026
000050 3e f8 ba 3d 03 ab 7e 3e 5e cb 8c bc 50 24 ec 3d
       0.0912938 0.24869923 -0.017186817 0.115303636
000060 20 4e ae be cf fc 8e 3b 09 28 2e 3e fc 56 13 be
       -0.3404398 0.004363633 0.1700746 -0.1438865
000070 78 4f ad 3d 66 41 b0 3d 78 f3 66 3d 44 3b 2b bc
       0.08462423 0.08606224 0.056384534 -0.010451142
000080 d8 6a b3 3e 0e a6 56 be 5d 3a 91 bd 88 0c 90 3d
       0.35042453 -0.20961782 -0.0709121 0.0703364
000090 ac 4f 7c 3d 85 29 b2 3d 78 66 31 be c4 b8 cb be
       0.06159942 0.086993255 -0.17324245 -0.39789402
0000a0 ad cf 9b 3d 2d 4c 16 3e 18 f1 ab 3e 7f 4a a0 bd
       0.076079704 0.14677496 0.33582377 -0.07826709
0000b0 69 d4 11 3d 14 c9 ca be 65 da 6f 3e 3e b1 04 3e
       0.03560296 -0.39606535 0.23423155 0.12958238
0000c0 93 b8 15 3e 42 79 83 3b d7 54 41 3d c1 c4 85 3d
       0.1462119 0.004012258 0.04720005 0.065316685
0000d0 f9 c3 18 bd 90 5d c7 bd 12 da 1b 3e 1b 7e 92 3d
       -0.03729627 -0.097346425 0.15219906 0.07152959
0000e0 44 24 4d bd 8b b7 ec 3d ec 13 eb bd e7 c3 61 be
       -0.050083414 0.115584455 -0.11478409 -0.22047387

G.0.linears.0.bias f4 [20]
000000 2b 23 19 bc d8 b9 e0 3d da c6 04 3e e0 2e fe 3d
       -0.009346764 0.10972947 0.12966481 0.124112844
000010 f7 b5 a0 bd 69 39 44 3c c9 9b 7f bd 4c 2e 88 3c
       -0.07847207 0.011976578 -0.062404428 0.016623639
000020 d1 56 36 bd a0 df 94 bc c5 20 8d 3d 14 49 7e bd
       -0.04451639 -0.018173039 0.06891016 -0.06208141
000030 ca 6d e9 bd e5 15 0f 3c 42 0f 51 3d 80 83 4e 3d
       -0.11397894 0.008733247 0.05103994 0.050418377
000040 37 9e 39 3d f9 cd b2 bd e6 c0 12 3d c2 d8 39 3d
       0.0453169 -0.087306924 0.035828494 0.045372732

G.0.linears.1.weight f4 [2, 20]
000000 57 1d 03 3d 2b c3 da 3d 5b 69 14 3e fb f4 46 be
       0.032010403 0.106817566 0.14493315 -0.1942939
000010 c8 58 4e 3e c8 ef a7 be d9 06 9e 3d f2 88 1a be
       0.20151055 -0.32800126 0.0771615 -0.15091303
000020 1b 51 5e 3e 4e a6 35 3e b4 f5 ad 3b 39 97 d9 3d
       0.21710627 0.17739221 0.005308831 0.106245466
000030 69 30 67 bc b9 a8 60 3e 2e 43 50 be aa d2 32 3e
       -0.014110663 0.21939363 -0.20338127 0.17463174
000040 76 40 95 bd b0 fd 0a be 28 a8 bb bd 60 a3 42 be
       -0.072876856 -0.13573337 -0.09162933 -0.19007635
000050 67 32 08 3d f3 ff f7 3c f3 ad 41 3d 6a 82 f6 3d
       0.033251192 0.030273413 0.04728503 0.12036593
000060 88 5b 8f bd d6 18 8a 3e 03 5a 2b bd 58 a8 4f 3d
       -0.0699988 0.26972073 -0.04183389 0.050697654
000070 6f 5f 56 bd 17 4c 8c 3d 01 80 80 3e ad fd 06 bd
       -0.052337106 0.068504505 0.2509766 -0.032956768
000080 8a e8 56 bd 4a e5 c8 bc 1e d0 67 3d c4 d1 32 bd
       -0.05246786 -0.024523396 0.05659496 -0.04365708
000090 15 bd f7 3c cc 93 69 bd 6f 9f fc 3c 53 fa fc bc
       0.030241529 -0.057025716 0.030837743 -0.030881083

G.0.linears.1.bias f4 [2]
000000 77 7d 5e 3c be eb ff 3c
       0.013579718 0.03124034

W.linears.0.weight f4 [20, 4]
000000 87 33 d1 bd e0 2e 3c be ac c8 73 be 79 34 61 be
       -0.10214906 -0.18377256 -0.23807019 -0.21992673
000010 14 e6 5a be e2 12 09 bd 0d d8 84 3c bf 17 dd bd
       -0.2137683 -0.033465274 0.016216302 -0.10795545
000020 a9 78 9d 3d df da 8d bc a5 2b 45 bd aa 23 43 3d
       0.0768903 -0.01731628 -0.048137326 0.047641434
000030 59 20 6d be 3c 60 a9 3d 89 ac ae bd ba 7f 63 3e
       -0.23156871 0.082703084 -0.08529002 0.22216693
000040 84 4f 2b 3c 09 2b 0c 3d 34 5c 35 3e be 9d c1 3d
       0.01045597 0.03422073 0.17710954 0.09453915
000050 64 c1 25 3d 30 59 66 3d ab f8 eb 3d a1 aa a0 3e
       0.040467635 0.0562374 0.11522039 0.3138018
000060 b4 d4 e3 bc c8 c4 21 be 42 a0 13 be 0c b5 ab be
       -0.027811386 -0.15797722 -0.14416602 -0.33536565
000070 af 11 8d bd 07 9b 0d 3e 5f 10 9a bb 4a a4 59 3d
       -0.068881385 0.1382867 -0.0047016586 0.053135194
000080 28 88 fc bd 96 db fa 3d 15 b0 6a 3e 0a 98 d5 3e
       -0.12330657 0.12248914 0.22918732 0.4171756
000090 b8 07 b2 3c 91 38 e3 3d c9 d2 1d 3d 8f e6 c7 3d
       0.021732196 0.110947736 0.0385311 0.097607724
0000a0 0a 53 f3 bd 2e c6 7f 3e 00 bb da 3d 72 f1 2e 3e
       -0.11881073 0.24977943 0.10680199 0.17084292
0000b0 00 8e a4 3b b2 b3 d6 3d af 9e ec 3c 17 28 62 3e
       0.0050218105 0.10483493 0.02888426 0.22085606
0000c0 eb a6 96 3d 68 e8 06 be 0b 23 66 be b2 ab 8c be
       0.07356056 -0.13174593 -0.22474305 -0.27474743
0000d0 87 65 16 3e 5b 36 8b 3e bf bd 32 3e c3 ee f0 3d
       0.14687167 0.27189907 0.17455195 0.1176429
0000e0 fb 15 79 3d 36 a8 e1 3d fd d1 10 3e ae 22 2d 3e
       0.060811978 0.11018412 0.14142604 0.1690776
0000f0 ce 46 e2 bd d9 03 01 be 49 1f 1a bc 33 62 31 be
       -0.11048661 -0.12599124 -0.009406873 -0.17322616
000100 75 6f 54 bd 3e 18 27 3e a0 b9 21 3e 0d c1 f0 3e
       -0.051864106 0.16317841 0.15793467 0.47022286
000110 90 ca d1 bd 20 21 74 3e 35 9b 98 3d ac e3 3c 3e
       -0.10243714 0.23840761 0.074514784 0.18446225
000120 54 65 08 bd e1 f7 06 3e 9a 0f 60 3e ca d9 df 3d
       -0.03329976 0.13180496 0.21880952 0.10930212
000130 45 34 65 be 6f 34 66 be 88 d5 48 3d e4 75 7a be
       -0.2238322 -0.2248094 0.049031764 -0.24459034

W.linears.0.bias f4 [20]
000000 2e 2d 7e be 8e 81 1e bd 8e 08 8c bd b2 0e 49 3e
       -0.24821922 -0.03869777 -0.06837569 0.19634512
000010 91 3b 72 3e c0 d8 a1 3e 91 ea cc bd 12 2c 65 3e
       0.23655535 0.3161068 -0.100056775 0.22380093
000020 88 d6 98 3e 7c d4 f6 3d 3e 8b 53 3d 18 5a 34 3e
       0.29851174 0.12052247 0.051646464 0.17612493
000030 55 c5 5a be 40 93 27 3e 47 ac 83 3e 69 c4 21 be
       -0.21364339 0.16364765 0.25717375 -0.15797581
000040 5e dd 73 3e 51 73 5b 3e 17 e0 92 3e 92 d5 25 be
       0.23814914 0.21430708 0.28686592 -0.16194752

W.linears.1.weight f4 [2, 20]
000000 d0 ac 03 be 93 76 83 bd 6c e5 6b 3d bd 23 fa 3d
       -0.12858891 -0.064191006 0.05759184 0.12213848
000010 13 87 4d 3e 42 90 37 3e 2a 97 c7 bd 7f 86 5a 3e
       0.20071058 0.17926124 -0.09745629 0.21340369
000020 cb ca 05 3e 80 40 85 3d eb 38 88 bd 6d 48 24 3e
       0.1306564 0.06506443 -0.06651481 0.16043253
000030 15 81 31 be 49 29 0e 3e a0 67 3e 3e 78 13 16 be
       -0.17334397 0.13882937 0.18594217 -0.14655864
000040 39 d1 06 3e a9 39 3c 3e db 03 01 3e fc 9c 90 be
       0.1316575 0.1838137 0.12599127 -0.2824477
000050 1d 57 dd 3d 32 a9 fb bc ca 77 00 3e ed a5 c3 bd
       0.10807631 -0.030720327 0.12545696 -0.09553132
000060 bf ab 4b bd 53 dd 88 be 30 48 95 3e 26 28 91 bd
       -0.049724337 -0.26731357 0.29156637 -0.07087736
000070 c2 4b 82 be 18 0f a3 bd 05 c9 9e be 5d 9c 07 be
       -0.25448424 -0.07961863 -0.3101274 -0.13243242
000080 c9 ad 20 3e 8e cf 6c be 9f d1 ab be 7e d7 80 3e
       0.15691294 -0.23126051 -0.33558366 0.25164407
000090 3d fb 64 be 47 06 93 be 9f 2a e1 be 47 b9 ef 3d
       -0.22361465 -0.28715727 -0.4397783 0.11705261

W.linears.1.bias f4 [2]
000000 3d 7f 83 3e 9e 5b ad bd
       0.25683013 -0.0846474

L.0.linears.0.weight f4 [20, 5]
000000 77 26 de 3c fb fc 95 3d 00 a3 4b be ff f0 d5 3d
       0.02711795 0.07323643 -0.19886398 0.10446357
000010 cd bf ca bc 04 ab 4f bb 7d 5b f6 bc 9d 80 f8 bd
       -0.02474966 -0.0031687627 -0.030072922 -0.12133906
000020 c8 fb ae 3d 21 d5 3d bd a0 e8 59 bc ec 89 11 3c
       0.08544117 -0.046345834 -0.013300091 0.008882981
000030 6f f1 94 3d e5 7a a3 be e6 37 bd 3e 8f 67 bc 3d
       0.07272612 -0.319297 0.3695671 0.0919944
000040 35 91 fc 3d d7 94 8c be 7b fe 27 3d 48 f3 65 bd
       0.123323835 -0.27457306 0.041014176 -0.056140214
000050 d8 1f a8 3c d2 be 35 bd 9f c8 e6 3b 2c 74 e7 bd
       0.020522997 -0.044371434 0.007042959 -0.11301455
000060 35 17 d0 bc 68 8c 92 3c 79 48 a2 be 07 5b e0 bd
       -0.025401691 0.017889217 -0.31695917 -0.10954862
000070 54 26 d1 3d ba c8 14 be 93 b1 46 bd 6f 4e f3 bd
       0.10212389 -0.14529696 -0.04850919 -0.118801944
000080 cd b1 dd 3d 0c b7 21 be 02 a9 49 3e 78 b4 0d be
       0.108249284 -0.15792483 0.19693378 -0.13838375
000090 ce 65 63 bd ae 11 01 3d 75 f5 59 be 8b 0c 61 3e
       -0.05551701 0.031511 -0.2128504 0.21977441
0000a0 bb d0 8e bc 2e 70 07 3e 7d af 0e 3c 95 95 36 3c
       -0.017433515 0.13226387 0.008708832 0.011144062
0000b0 1a 7d 04 3c 0d 32 4f 3b 97 f3 9a 3d 72 7b 51 3d
       0.008086467 0.0031615526 0.07565992 0.051143117
0000c0 1f 2e 8f 3e 49 20 c5 3c 26 90 19 3c 7a 54 14 bd
       0.27964875 0.024063246 0.009372747 -0.036213376
0000d0 b9 d0 e6 3c b4 a4 ca bd 30 a4 7c bd 4f fa e4 bd
       0.028175699 -0.09894696 -0.06168002 -0.11180555
0000e0 9c 5e 20 be 8b 1d 05 3e c0 87 02 be f2 3a 9e 3e
       -0.1566109 0.12999551 -0.12747097 0.30904347
0000f0 a5 64 16 bd f3 98 8d bd 6c 9b 57 3d 8a 0f 04 bd
       -0.036717076 -0.069139384 0.052638456 -0.03224138
000100 d7 61 fd 3d ed c9 76 3e 97 8e d0 bd f7 62 11 bf
       0.12372177 0.24100466 -0.10183447 -0.56791633
000110 60 f8 b1 3d 3f f4 88 3b fd 6e e4 bc 77 ba 0e bd
       0.08689952 0.004179507 -0.027884955 -0.034845795
000120 5f 15 44 3d 82 4e 8e be d0 07 d0 3e f4 f0 f5 bb
       0.047871944 -0.27794272 0.4063096 -0.0075055305
000130 74 1e b7 bc 38 a4 15 3b ad bf 1b be 5b 20 3c 3e
       -0.022353388 0.0022833478 -0.15209837 0.18371718
000140 c1 c3 29 3c e4 e8 33 3d 13 a9 8f bd ab 86 0a bc
       0.010361613 0.043923274 -0.0701467 -0.008454959
000150 b7 ec 98 3b a4 f9 20 be b5 90 a7 3c cb b1 09 3e
       0.0046668905 -0.1572023 0.020454744 0.13446729
000160 63 04 9f bd ab da c5 3d 62 3e 0d 3d 47 e4 72 3d
       -0.077645086 0.09660848 0.03448332 0.059299733
000170 f1 fb fb bd 0a 73 0e 3e b5 cc 6b be 2d 35 09 3e
       -0.123039134 0.13911071 -0.23027308 0.13399191
000180 a1 72 86 be ca a5 f6 be 0b be 40 3e 55 98 5a 39
       -0.2625933 -0.48173362 0.18822496 0.00020846848

L.0.linears.0.bias f4 [20]
000000 1a 9e 68 bd f2 c3 51 be 03 f8 32 3e 33 4e c1 bd
       -0.056791402 -0.20484903 0.17477421 -0.094387434
000010 d7 40 4d be 5d e8 56 be 4c 01 75 3e 9d 0b 5b 3e
       -0.20044266 -0.20987077 0.23926276 0.21391149
000020 59 06 62 be f9 31 92 be f7 7a 75 3e b8 c6 67 3e
       -0.22072734 -0.2855375 0.23972689 0.22634399
000030 d0 9d 4f 3d 47 dc a6 be 47 4f 82 3e 80 4b 00 3e
       0.05068761 -0.32589933 0.2545111 0.12528801
000040 28 5a 60 be 94 3a 7e 3e e8 a9 2b be 2b 9c 0a be
       -0.21909392 0.24827033 -0.16764033 -0.13536136

L.0.linears.1.weight f4 [1, 20]
000000 3b 75 6d 3e 89 88 90 3e 7e a4 21 be ab e7 26 3e
       0.23189251 0.28229168 -0.15785405 0.16299312
000010 04 c2 bb 3d 69 73 d5 3d 71 1f 59 be 51 5c 6a be
       0.09167865 0.10422403 -0.212034 -0.22886778
000020 a9 93 35 3d f0 b7 02 3e 8e e0 19 be 39 66 83 be
       0.044330273 0.12765479 -0.15027067 -0.25663927
000030 f8 fa 29 be 05 96 69 3e 9e 2c 1e be 20 e7 20 be
       -0.16599643 0.22811134 -0.15446708 -0.15713167
000040 82 cd 83 3d 35 78 b4 be db ca 7b 3e f8 63 86 3e
       0.06435682 -0.3524796 0.24589102 0.26248145

c0 f4 [3]
000000 78 62 3a 40 58 b2 74 bf 72 df 6e 40
       2.91226 -0.9558463 3.732388

h0 f4 [2]
000000 00 00 00 00 00 00 00 00
       0.0 0.0
