exponential_hawkes/params.pth (torch_old, 4727 bytes, 13 tensors)

F.cur.0.linears.0.weight f4 [20, 5]
0	0xbd87466f	-0.06605231
1	0x3de8d326	0.11368398
2	0xbd4e4f2a	-0.050368465
3	0xbdf1d345	-0.118078746
4	0x3c99e3c3	0.018785363
5	0xbd7935ff	-0.06084251
6	0x3d9114dd	0.070840575
7	0xbd813acf	-0.06310045
8	0x3e16f16b	0.14740531
9	0x3d9ae559	0.07563276
10	0x3d5406c9	0.051764283
11	0xbdbbc897	-0.09169119
12	0x3ce5df0a	0.028060455
13	0x3ca7c0f6	0.020477753
14	0xbd87805f	-0.06616282
15	0x3c9467f9	0.018115984
16	0x3dd50eba	0.104031995
17	0xbc9ad26e	-0.018899169
18	0x3d815d43	0.063166164
19	0xbe46bf06	-0.19408807
20	0x39d80398	0.00041201408
21	0x3e166d63	0.14690165
22	0x3e8d1644	0.2755605
23	0x3ddcf26a	0.10788424
24	0x3d41e09a	0.047333337
25	0x3de7eb6c	0.113242
26	0xbdd586cd	-0.10426102
27	0x3c61e280	0.013786912
28	0x3e8f0487	0.27933142
29	0x3e0833d4	0.13301021
30	0x3d375519	0.04475889
31	0x3d4b1cbf	0.04958796
32	0xbdb56c93	-0.088585995
33	0xbe11a7ee	-0.14224216
34	0x3e2745d5	0.16335233
35	0x3bfc31d6	0.0076963706
36	0xbe2a613a	-0.16638651
37	0xbd6a99a8	-0.057275444
38	0xbcc2ff42	-0.023803357
39	0xbd2705be	-0.04077696
40	0x3d483072	0.048874326
41	0x3db7e979	0.08980078
42	0x3d361ed0	0.04446298
43	0xbafb5822	-0.0019176046
44	0x3d9d1d6a	0.07671626
45	0x3b26b988	0.0025440175
46	0x3ddeae26	0.1087306
47	0xbd8aec9f	-0.06783413
48	0xbca3f424	-0.020013876
49	0xbc1796e0	-0.00925228
50	0x3e3e722c	0.1859824
51	0x3d71bbe8	0.059017092
52	0xbe77cfa3	-0.24200301
53	0xbe04b836	-0.12960896
54	0x3c233323	0.009960922
55	0xbdf28c73	-0.11843195
56	0x3aafccbb	0.0013412455
57	0x3dcdf7a6	0.10057001
58	0xbe18774c	-0.14889258
59	0x3d1b6f3b	0.037947875
60	0xbda4b932	-0.08043136
61	0x3dd1bead	0.10241447
62	0xbc70a4e7	-0.014687753
63	0xbe070ce4	-0.13188511
64	0x3ddd6c32	0.10811652
65	0xbe1e5b4d	-0.15464516
66	0x3d473bca	0.048641004
67	0x3bc0fe40	0.005889684
68	0x3a9cc0a0	0.0011959262
69	0xbdbb4ff0	-0.09146106
70	0x3d8e246d	0.069405414
71	0xbe3a100f	-0.18170188
72	0x3e107554	0.14107257
73	0xbc3621cd	-0.011116457
74	0x3db3b8f4	0.087755114
75	0x3dd6b1fe	0.10483168
76	0x3d52f61d	0.051504243
77	0xbe1073ad	-0.14106627
78	0x3e5aaaa0	0.21354151
79	0x3cbbffe6	0.02294917
80	0xbd29e948	-0.04148224
81	0xbe261e8b	-0.16222589
82	0xbd29ab9f	-0.041423436
83	0xbd1b1e6b	-0.037870806
84	0xbd3b7be9	-0.045772467
85	0xbe909ac3	-0.28243074
86	0xbe106fe7	-0.14105187
87	0x3de5da84	0.11223319
88	0xbcc895c7	-0.024485482
89	0x3e2ac68d	0.16677304
90	0x3ce1a7eb	0.02754589
91	0x3d449960	0.047997832
92	0x3ddb24f4	0.107004076
93	0x3e1e948f	0.15486358
94	0x3b916468	0.004437018
95	0xbd920523	-0.07129886
96	0xbcc619f1	-0.024182292
97	0xbd81a408	-0.063301146
98	0xbd7e930b	-0.06215195
99	0x3d9cc1e7	0.076541714

F.cur.0.linears.0.bias f4 [20]
0	0x3d60f3db	0.05492006
1	0xbd7884cc	-0.06067352
2	0xbd046e28	-0.032331616
3	0x3c9f0106	0.019409668
4	0x3d3005ea	0.04297439
5	0x3dae480e	0.08509837
6	0xbd11f108	-0.035630256
7	0xbbd2327e	-0.0064147105
8	0x3d29ff1d	0.04150306
9	0xbdb18378	-0.08667654
10	0x3d7f3f77	0.062316384
11	0xbdbdd77a	-0.092696145
12	0x3c3b9421	0.011448891
13	0xbcdd7007	-0.027030958
14	0xbd2ecd2a	-0.04267613
15	0x3cbdddc3	0.023177033
16	0x3dbc76a8	0.092023194
17	0xbc9e5f3e	-0.019332524
18	0xbd4a4a6f	-0.04938739
19	0xbd40499e	-0.046945207

F.nbr.0.linears.0.weight f4 [20, 10]
0	0xbcf5a841	-0.029987456
1	0x3de767f5	0.11299125
2	0x3c9ecdd0	0.019385248
3	0x3cacf03b	0.021110645
4	0xbd4605a2	-0.048345216
5	0xbd1277f3	-0.035758924
6	0xbcd9cfa1	-0.026588263
7	0xbe15149d	-0.14558645
8	0x3c024508	0.007951029
9	0xbdcab384	-0.09897521
10	0xbd69ca60	-0.057077765
11	0xbe1c8aec	-0.1528737
12	0xbb4bcd42	-0.0031097685
13	0x3d614f4d	0.055007268
14	0x3caad2f2	0.02085254
15	0xbd77d327	-0.060504105
16	0x3e1c225d	0.15247484
17	0x3ce0d17a	0.027443636
18	0x39b6144e	0.00034728873
19	0x3cc7982c	0.024364553
20	0x3cf1a104	0.029495724
21	0x3badd4c3	0.005304904
22	0xbdf96e0a	-0.121791914
23	0xbd7ffdd4	-0.06249793
24	0x3cfe9a69	0.031079488
25	0xbd1c2e70	-0.038130224
26	0xbe5c63dd	-0.2152247
27	0xbdc3847b	-0.09546753
28	0xbc5fbcf7	-0.013655893
29	0x3d820e98	0.0635044
30	0xbe43587d	-0.19076724
31	0xbe6d2745	-0.23159511
32	0xbad8f688	-0.0016552964
33	0xbe08e7f4	-0.13369733
34	0x3c8dd32e	0.017312612
35	0xbe27f85f	-0.1640334
36	0xbd400f72	-0.04688973
37	0xbd618453	-0.055057835
38	0xbd634d40	-0.055493593
39	0x3db60b33	0.08888855
40	0x3dad4933	0.08461227
41	0xbd09496f	-0.033517297
42	0xbda8d281	-0.082432754
43	0x3d4573da	0.048206188
44	0xbd8d7a77	-0.06908124
45	0x3d53facb	0.051752847
46	0xbdedf344	-0.11618665
47	0x3dd8ab71	0.10579575
48	0x3d2888cc	0.041146085
49	0x3d5e8af8	0.05433175
50	0x3e3280ba	0.17431918
51	0xbdb1ccb7	-0.086816244
52	0xbd966d5e	-0.07345079
53	0x3cee9ca9	0.029127436
54	0xbe1c0749	-0.15237154
55	0xbe73a93b	-0.23795025
56	0x3d23901a	0.039932348
57	0x3d0ef3b0	0.034900367
58	0x3e29557a	0.16536513
59	0x3a281552	0.00064118684
60	0x3d9b959e	0.075968966
61	0x3d76947b	0.060200196
62	0x3ea8e7f9	0.3298948
63	0xbe218c2f	-0.15776132
64	0xbcbd7ace	-0.023129847
65	0x3e0345d0	0.128196
66	0x3db5e0d0	0.0888077
67	0x3d8bdf24	0.0682967
68	0x3df71c66	0.120659634
69	0x3da51ccb	0.080621324
70	0xbd29d67a	-0.041464306
71	0xbdde293f	-0.10847711
72	0x3d742196	0.059602343
73	0xbb9bdc34	-0.004756475
74	0x3c32329c	0.010876324
75	0x3bcafc0f	0.0061945985
76	0xbb57542e	-0.0032856571
77	0x3e4488e5	0.19192846
78	0xbcdc8a6e	-0.026921477
79	0x3cd4464f	0.025912432
80	0x3d18eff9	0.03733823
81	0x3db63cb2	0.088982955
82	0xbe075ac0	-0.13218212
83	0xbdc125f3	-0.09431066
84	0x3c07d91c	0.008291509
85	0x397226c0	0.00023093354
86	0x3d91a93d	0.07112358
87	0x3d0971ca	0.033555783
88	0x3da6514d	0.08120976
89	0xbc4c43f4	-0.012467373
90	0x3de1541d	0.110023715
91	0x3d69fbc2	0.05712486
92	0xbbd138fa	-0.006384966
93	0xbd743b9f	-0.05962717
94	0xbd0acf43	-0.033889066
95	0xbe1c6e28	-0.15276396
96	0xbd4d43b2	-0.050113387
97	0x3d35f61e	0.04442417
98	0x3dc8dbf2	0.09807576
99	0xbe16bdf7	-0.14720903
100	0xbda1920a	-0.07889183
101	0x3938302d	0.00017565554
102	0xbdef77a7	-0.11692744
103	0xbdcc4662	-0.09974362
104	0x3d830f71	0.063994296
105	0x3cc9cec9	0.024634736
106	0x3cd064e1	0.025438728
107	0xbe1757b5	-0.14779551
108	0x3c7e15f7	0.0155081665
109	0x3cab6af2	0.020925019
110	0xbdac60b1	-0.0841688
111	0xbe87188b	-0.26385912
112	0x3e3de0a3	0.18542723
113	0x3e471a9a	0.19443741
114	0x3dc2d8ba	0.095139936
115	0x3cd99ddc	0.026564531
116	0x3caf446c	0.02139493
117	0xbdb76029	-0.08953888
118	0x3da4b4ae	0.080422744
119	0x3e1761c6	0.14783391
120	0x3da26019	0.079284854
121	0xbd26d0df	-0.04072654
122	0xbc4742cb	-0.012161921
123	0xbbd74eb8	-0.0065706633
124	0x3c24bed3	0.010055262
125	0x3e6e148a	0.23250023
126	0x3dfdb0c0	0.12387228
127	0xbca55d4f	-0.020186095
128	0x3d80bb42	0.062857166
129	0xbc223fc6	-0.0099029
130	0xbd881878	-0.06645292
131	0x3d83e67c	0.06440446
132	0x39eab55c	0.0004476708
133	0xbdba7562	-0.0910442
134	0x3db6d1cd	0.08926735
135	0xbd16d35e	-0.03682267
136	0xbd0a2468	-0.033726126
137	0x3d8f5499	0.069985576
138	0xbe127a96	-0.14304575
139	0xbccbaaf0	-0.024861783
140	0xbd8bc41b	-0.068245135
141	0xbd23faf4	-0.04003425
142	0xbd2bf82d	-0.041984726
143	0xbc6accdc	-0.014331069
144	0x3d8ae63e	0.067821965
145	0xbe821cc7	-0.2541258
146	0x3d3ef29c	0.04661809
147	0xbbdd0787	-0.006745282
148	0xbd33341c	-0.043750867
149	0xbd4757b2	-0.048667617
150	0xbdaaaa74	-0.083332926
151	0xbd88a95e	-0.06672929
152	0x3c82e3f1	0.015977832
153	0x3d38a5d4	0.04508002
154	0xbdf365be	-0.1188464
155	0xbbee6fc8	-0.007276509
156	0xbd9074ac	-0.070535034
157	0xbc420026	-0.011840856
158	0xbe552cc5	-0.2081786
159	0x3d82c738	0.06385654
160	0x3cfe197a	0.031018008
161	0x3c9eeffb	0.019401541
162	0x3c0c1678	0.008550279
163	0x3e00daec	0.12583512
164	0x3d3df41b	0.046375375
165	0xbdb09d21	-0.0862372
166	0x3c703aa5	0.014662419
167	0xbce73fa8	-0.028228596
168	0x3d89fdc0	0.06737852
169	0xbae68cf3	-0.0017589614
170	0x3d2c6720	0.042090535
171	0xbd9af2c5	-0.07565836
172	0x3d0879bd	0.033319224
173	0x3da591ec	0.08084473
174	0xbe0baf03	-0.1364098
175	0x3de12c1d	0.10994742
176	0xbe191811	-0.14950587
177	0xbd1b1190	-0.037858546
178	0x3cadf068	0.021232799
179	0x3d59273b	0.05301593
180	0xbded0b06	-0.11574368
181	0x3e76095d	0.2402701
182	0xbd80194f	-0.06254827
183	0x3dd9a79b	0.10627671
184	0xbc4c9490	-0.012486592
185	0x3d5f1238	0.054460734
186	0xbe23996b	-0.15976493
187	0x3d9656d4	0.0734078
188	0xbad8c301	-0.0016537608
189	0xbcebe189	-0.028794067
190	0xbcd78d3e	-0.026312467
191	0x3d09246a	0.033481993
192	0xbdc2d5e2	-0.09513451
193	0xbdb2d020	-0.08731103
194	0x3daaa072	0.08331384
195	0x3d296c82	0.041363247
196	0xbe681907	-0.22665797
197	0xbd2934e1	-0.041310195
198	0xbdc24d79	-0.09487433
199	0x3dc6a3aa	0.09699185

F.nbr.0.linears.0.bias f4 [20]
0	0x3d66df9f	0.056365605
1	0x3db07b60	0.08617282
2	0x3baa8987	0.005204383
3	0xbdadd557	-0.08487957
4	0x3d7e3c93	0.062069487
5	0xbd870862	-0.06593396
6	0x3c8c3c7f	0.01711869
7	0x3c20b2ff	0.009808301
8	0xbd214181	-0.03936911
9	0x3ce54983	0.027989155
10	0xbda5d54b	-0.08097323
11	0x3c8ab0ac	0.016929947
12	0xbd6305cf	-0.05542546
13	0xbbdf86f6	-0.0068215085
14	0x3c0a5b25	0.008444582
15	0x3d9d4346	0.07678847
16	0xbd24d3b8	-0.040240973
17	0x3d65b10f	0.05607706
18	0xbc08403c	-0.008316096
19	0xbd23f6f6	-0.040030442

F.out.weight f4 [3, 40]
0	0xbd56c3f5	-0.052432973
1	0xbd0c6312	-0.03427417
2	0xbd633c04	-0.055477157
3	0xbc935830	-0.017986387
4	0x3db1ce4a	0.08681925
5	0xbde4759a	-0.11155243
6	0xbe1661ca	-0.14685741
7	0xbdeb76f4	-0.11497298
8	0xbe1bc884	-0.1521321
9	0xbdee3c9e	-0.116326556
10	0x3d8d00a4	0.06884888
11	0xbd9f3400	-0.0777359
12	0xbdcee252	-0.10101761
13	0xbc300410	-0.010743156
14	0xbdddda16	-0.10832612
15	0xbcbe18a8	-0.023205116
16	0x3e48ba66	0.19602355
17	0x3c90a21d	0.017655427
18	0x3d817bf8	0.06322473
19	0xbdf22889	-0.11824138
20	0xbcecf74f	-0.02892652
21	0x3de19a8e	0.11015807
22	0xbc50063f	-0.012696802
23	0xbe314b51	-0.17313887
24	0x3d0cdc7c	0.034389958
25	0xbd8ecd3b	-0.06972738
26	0xba96fdce	-0.0011519731
27	0xbdaff2f3	-0.08591261
28	0x3b912b78	0.0044302307
29	0xbb53028e	-0.0032197568
30	0x3d8d589e	0.06901668
31	0x3d219cbd	0.039456118
32	0xbd836449	-0.06415612
33	0x3d906ede	0.07052396
34	0x3e029281	0.127512
35	0x3cf8e72d	0.03038367
36	0xbdbb41c0	-0.091434
37	0xb92703b1	-0.00015927736
38	0x3de08c93	0.109643124
39	0x3d89e421	0.06732965
40	0xbce1f963	-0.027584737
41	0xbda4b09f	-0.080415
42	0xbb13e56a	-0.0022567161
43	0x3de9f8ab	0.11424383
44	0x3c2203b6	0.00988858
45	0xbc0e3318	-0.008679174
46	0x3d2134ff	0.03935718
47	0x3dc6a738	0.09699863
48	0x3e73f2ef	0.2382314
49	0xbde1af3b	-0.11019751
50	0x3de573e6	0.112037465
51	0xbcec5ab9	-0.028851854
52	0x3a51fb60	0.0008010175
53	0x3e03358a	0.12813392
54	0xbe805b0f	-0.25069472
55	0xbd37f096	-0.044907175
56	0xbda35aea	-0.07976325
57	0xbe06f80f	-0.13180564
58	0xbe16c1c3	-0.14722352
59	0x3e3708a2	0.17874387
60	0xbd1ef6ab	-0.03880946
61	0x3d17529a	0.03694401
62	0x3d335254	0.043779686
63	0xbd5a5c44	-0.053310648
64	0xbd49acbf	-0.04923701
65	0xbe4da0d5	-0.20080884
66	0x3d02c031	0.03192157
67	0x3babeb25	0.0052465373
68	0xbd9e5ac3	-0.07732155
69	0xbe257f79	-0.16161908
70	0xbd8df67b	-0.06931778
71	0x3d1b0fb7	0.037856784
72	0x3dfe854f	0.1242777
73	0x3d8d6ed6	0.06905906
74	0x3e97a3f1	0.29617265
75	0xbe7522ef	-0.23939107
76	0xbe2456f8	-0.16048801
77	0xbdb0b11f	-0.08627533
78	0xbd85e8d9	-0.06538553
79	0xbc52f7be	-0.012876449
80	0x3d6bae89	0.057539497
81	0x3cc85c28	0.024458006
82	0x3d2bce02	0.04194451
83	0xbd48ca51	-0.04902107
84	0x3de16e2b	0.11007341
85	0x3e03d96a	0.12875906
86	0xbc283044	-0.010265414
87	0x3c93722d	0.01799878
88	0xbe072711	-0.13198496
89	0xbd2b3fab	-0.041808765
90	0x3bc4abba	0.0060019167
91	0xbe217ae4	-0.15769535
92	0x3dbd3cea	0.09240134
93	0xbde1b493	-0.1102077
94	0xbc55459a	-0.013017083
95	0x3c04ff25	0.008117472
96	0x3ae4c79c	0.0017454508
97	0xbcc25b27	-0.023725105
98	0x3dcb342f	0.099220626
99	0xbdb039da	-0.08604784
100	0xbe144e40	-0.14482975
101	0xbd5e6f90	-0.054305613
102	0xbceb814a	-0.028748173
103	0x3e3f92a5	0.18708284
104	0x3e21f62c	0.15816563
105	0x3df696c2	0.120404735
106	0xbd6d7151	-0.057969395
107	0x3dc6d484	0.09708503
108	0x3d092809	0.033485446
109	0xbd115256	-0.035478912
110	0x3d95af1a	0.073087886
111	0xbe07689e	-0.13223502
112	0x3ba93c31	0.005164646
113	0x3a8b850e	0.0010644512
114	0xbcb2357e	-0.021754023
115	0xbdc2ccee	-0.095117435
116	0x3dd8baa0	0.10582471
117	0xbce9a305	-0.028520117
118	0xbdcf386a	-0.10118182
119	0xbe48df75	-0.19616492

F.out.bias f4 [3]
0	0x3c5b0eb9	0.013370209
1	0x3db7eef6	0.08981125
2	0x3d99fe7f	0.075192444

G.0.linears.0.weight f4 [2, 3]
0	0x3dd72448	0.10504967
1	0xbdacd6b5	-0.084393896
2	0x3e19c4c3	0.15016465
3	0xba8a3e57	-0.0010547143
4	0xbdaff185	-0.08590988
5	0x3e15373e	0.14571854

G.0.linears.0.bias f4 [2]
0	0x3d8f989a	0.07011528
1	0x3c5839c2	0.013197364

W.0.linears.0.weight f4 [2, 3]
0	0x3d1ad392	0.037799425
1	0x3d594cd1	0.053051773
2	0x3e138993	0.14407949
3	0x3c45dc16	0.012076398
4	0x3e181f01	0.14855577
5	0x3c9c13fd	0.0190525

W.0.linears.0.bias f4 [2]
0	0x3daaf86a	0.083481625
1	0xbc82f6af	-0.015986769

L.0.linears.0.weight f4 [1, 5]
0	0xbc9eb7be	-0.019374724
1	0xbe117f5d	-0.14208741
2	0xbcdcc984	-0.026951559
3	0xbd16e7ae	-0.03684204
4	0xbd8173b7	-0.06320899

c0 f4 [1, 3]
0	0xbfd0198f	-1.62578
1	0x3f86809f	1.0508002
2	0x3e96280f	0.29327437

h0 f4 [1, 2]
0	0x00000000	0.0
1	0x00000000	0.0
