exponential_hawkes/params.pth (torch_old, 4728 bytes, 13 tensors)

F.cur.0.linears.0.weight f4 [20, 5]
0	0xbe3fd268	-0.18732607
1	0x3dfe4ee0	0.12417388
2	0x3c5c5b76	0.01344954
3	0xbe3cc0a3	-0.1843286
4	0xbdabc83b	-0.083878
5	0xbe666abe	-0.22501656
6	0x3d91be1d	0.07116339
7	0xbc041f99	-0.008064174
8	0x3ee4dee5	0.44701305
9	0xbdc00af6	-0.09377091
10	0x3e3ae2bf	0.1825056
11	0xbe01dc5f	-0.12681721
12	0x3e08984d	0.13339348
13	0xbea1ee22	-0.31626993
14	0xbe8e9fb1	-0.2785621
15	0x3c7ceb8d	0.015437019
16	0x3dc13b5d	0.09435151
17	0xbd3b08e3	-0.045662772
18	0x3d58d4d7	0.052937355
19	0xbe41cd79	-0.18926038
20	0xbe5be7cb	-0.21475141
21	0x3e35df8c	0.17761058
22	0x3eb4a0d1	0.35278943
23	0x3ea23c36	0.31686562
24	0xbcbfc3cf	-0.023408799
25	0x3cfb3a28	0.03066738
26	0xbe00cbe0	-0.12577772
27	0x3dcfb05a	0.10141058
28	0x3e5b0469	0.21388401
29	0x3cc59c76	0.024122458
30	0x3e836c88	0.2566874
31	0xbe0e4ea9	-0.13897194
32	0x3e350ec7	0.17681418
33	0xbf18e3d1	-0.5972262
34	0x3ea19be6	0.31564254
35	0x3dc3e9aa	0.09566052
36	0xbe8a59b3	-0.2702156
37	0x3c9d434e	0.019197132
38	0xbee1cd65	-0.44102016
39	0x3ded2145	0.11578611
40	0x3e244205	0.1604081
41	0x3d3a19df	0.04543483
42	0x3d06fba7	0.032954838
43	0xbdd27603	-0.10276415
44	0x3e2bdd22	0.16783574
45	0x3da68c53	0.081322335
46	0x3db235b7	0.087016515
47	0xbd58bc44	-0.05291392
48	0x3d46b7d3	0.048515152
49	0xbd8d8359	-0.06909818
50	0x3e5ca7ba	0.21548358
51	0x3d1852bd	0.03718828
52	0xbe9067d8	-0.28204226
53	0xbe208602	-0.1567612
54	0x3daa9f52	0.08331169
55	0x3d84ccf3	0.064844035
56	0xbcbed863	-0.02329654
57	0x3d92e4c2	0.07172538
58	0xbe946240	-0.2898121
59	0x3db63e13	0.088985585
60	0xbe17f852	-0.1484082
61	0x3da01aec	0.07817635
62	0x3de389be	0.111102566
63	0xbe9805af	-0.29691836
64	0x3e31d92e	0.17368004
65	0xbdfde0af	-0.123963706
66	0x3d286d78	0.041120023
67	0xbd154f8e	-0.036452822
68	0xbc3aa5b8	-0.0113920495
69	0x3ca4dacf	0.020123867
70	0x3de997bd	0.11405895
71	0xbe3335fa	-0.17501059
72	0x3e2d28d3	0.16910104
73	0x3cc706e4	0.024295278
74	0xbd598e62	-0.053114302
75	0xbe33bd13	-0.17552595
76	0x3d91779a	0.0710289
77	0xbd683ef4	-0.05670066
78	0x3f45fb25	0.7733634
79	0xbe009af9	-0.12559117
80	0xbea6635f	-0.3249769
81	0xbda952ac	-0.082677215
82	0xbcae2229	-0.021256523
83	0x3eca0198	0.3945434
84	0xbdf25c80	-0.11834049
85	0xbeb7c193	-0.35889873
86	0xbda5142f	-0.0806049
87	0x3e16df8d	0.14733715
88	0x3d21948a	0.0394483
89	0x3dcabd59	0.098993964
90	0xbe0aae64	-0.13543087
91	0x3da2e386	0.07953553
92	0x3e18e501	0.14931108
93	0x3ea7f0fe	0.3280105
94	0xbe248316	-0.1606563
95	0x3d80c337	0.06287234
96	0xbd9f85d5	-0.07789198
97	0xbd987de7	-0.07445889
98	0xbe2a9826	-0.16659603
99	0x3e293633	0.16524582

F.cur.0.linears.0.bias f4 [20]
0	0x3e085d77	0.13316904
1	0xbab5eb0e	-0.0013879256
2	0x3da09f95	0.07842938
3	0xbc4793be	-0.012181221
4	0x3df70411	0.120613225
5	0x3e3c1e70	0.18370986
6	0x3de6a280	0.11261463
7	0x3d3f95a8	0.046773583
8	0x3c68d539	0.0142109925
9	0xbd9c57ee	-0.07633959
10	0x3c50a009	0.012733468
11	0xbe1aef10	-0.15130258
12	0x3df5ea0a	0.1200753
13	0xbd9fa754	-0.07795587
14	0xbc480615	-0.012208481
15	0x3dcc5ec8	0.099790156
16	0x3ddcd2fe	0.10782431
17	0x3cafb8be	0.021450397
18	0x3ba47667	0.0050189975
19	0xbda0c45b	-0.07849952

F.nbr.0.linears.0.weight f4 [20, 10]
0	0x81b0f2f5	-6.5000816e-38
1	0x8143aa57	-3.5938056e-38
2	0x00846908	1.2159964e-38
3	0x019a83a7	5.675958e-38
4	0x0103b3e6	2.418997e-38
5	0x80a0d7a0	-1.4771031e-38
6	0x006579e0	9.319106e-39
7	0x809c52ee	-1.4356087e-38
8	0x017bc484	4.6242412e-38
9	0x818d5c54	-5.1927704e-38
10	0x00c957f4	1.8490486e-38
11	0x00efd54b	2.2025199e-38
12	0x81b5af84	-6.674075e-38
13	0x011478ec	2.7270064e-38
14	0x80e0d47c	-2.0647376e-38
15	0x0149b055	3.7044381e-38
16	0x814403be	-3.60022e-38
17	0x0019e8c6	2.379391e-39
18	0x01b2cf74	6.5684554e-38
19	0x01997efa	5.6385526e-38
20	0x800d5656	-1.224833e-39
21	0x00d139a8	1.9214302e-38
22	0x0142ed0a	3.580224e-38
23	0x819d8e9b	-5.787732e-38
24	0x816f0d76	-4.3907025e-38
25	0x002da9ca	4.193506e-39
26	0x80829ce2	-1.1994893e-38
27	0x01492686	3.694551e-38
28	0x00ea1648	2.1497499e-38
29	0x010360fe	2.4130488e-38
30	0x0127b29b	3.08012e-38
31	0x012520d4	3.0329267e-38
32	0x81c3297c	-7.1691214e-38
33	0x0119b336	2.823024e-38
34	0x019e971f	5.825688e-38
35	0x00184aaf	2.230843e-39
36	0x006ab3e8	9.799101e-39
37	0x80997c0a	-1.4095328e-38
38	0x001340fc	1.768186e-39
39	0x80665d3b	-9.400665e-39
40	0x018783d9	4.978036e-38
41	0x00578bc0	8.039821e-39
42	0x006c506f	9.947088e-39
43	0x80006154	-3.4915e-41
44	0x0170971f	4.4189462e-38
45	0x00c104aa	1.7725924e-38
46	0x81633ea8	-4.173827e-38
47	0x0103f8d2	2.423942e-38
48	0x01718da1	4.4366323e-38
49	0x01765863	4.5246478e-38
50	0x800942a8	-8.50431e-40
51	0x01b86130	6.773038e-38
52	0x810cddfa	-2.58732e-38
53	0x812f4e33	-3.219853e-38
54	0x0149e18e	3.7079697e-38
55	0x80014a52	-1.18497e-40
56	0x8198d201	-5.613732e-38
57	0x810e3189	-2.611682e-38
58	0x803a4b13	-5.35339e-39
59	0x81785290	-4.5609642e-38
60	0x81013799	-2.3733447e-38
61	0x8194be6d	-5.463986e-38
62	0x108fade0	5.667145e-29
63	0x813aecdc	-3.4332743e-38
64	0x00f93e50	2.2889392e-38
65	0x019e7c84	5.8218705e-38
66	0x80eb025f	-2.1582192e-38
67	0x002acf2f	3.931414e-39
68	0x80862fe5	-1.2323138e-38
69	0x81a26c52	-5.9664834e-38
70	0x81a9a294	-6.2314084e-38
71	0x8117f9ac	-2.791345e-38
72	0x803ee467	-5.775736e-39
73	0x81bf2b4e	-7.022446e-38
74	0x814b1fcc	-3.7308025e-38
75	0x0130d69c	3.248007e-38
76	0x008a44a0	1.2697916e-38
77	0x814453c0	-3.6059602e-38
78	0x0111c4f4	2.67736e-38
79	0x0158d5ee	3.982642e-38
80	0x80f5b678	-2.2565154e-38
81	0x803d998c	-5.657048e-39
82	0x804243ab	-6.085417e-39
83	0x01ab7475	6.2982587e-38
84	0x003d6bf0	5.640686e-39
85	0x818f7bb8	-5.270743e-38
86	0x0005a0ab	5.16814e-40
87	0x80b2fdfa	-1.6437828e-38
88	0x817583bc	-4.5093908e-38
89	0x00ee31fc	2.1874779e-38
90	0x8008fa3f	-8.24455e-40
91	0x80d2e31e	-1.9366928e-38
92	0x81a46c40	-6.0399417e-38
93	0x001adc15	2.466673e-39
94	0x80f08a6c	-2.2090175e-38
95	0x012a3532	3.1262234e-38
96	0x80c69036	-1.8235161e-38
97	0x01b8cc39	6.788397e-38
98	0x01a2765c	5.967924e-38
99	0x0038ed59	5.227932e-39
100	0x80bc3f02	-1.7287676e-38
101	0x8182d51c	-4.8060255e-38
102	0x819f2d7d	-5.847265e-38
103	0x81088461	-2.5074232e-38
104	0x80e07fd6	-2.061701e-38
105	0x017b5a76	4.6166322e-38
106	0x81b905ae	-6.7966417e-38
107	0x00b47f09	1.6575961e-38
108	0x80a6f7cc	-1.5333585e-38
109	0x00e7b7fc	2.1280001e-38
110	0x819d98b6	-5.789182e-38
111	0x00057310	5.00454e-40
112	0x00629103	9.051899e-39
113	0x81a8b9d0	-6.198008e-38
114	0x81859a5d	-4.9077984e-38
115	0x8014b8c6	-1.902994e-39
116	0x0063faa8	9.181633e-39
117	0x80d5be83	-1.9629303e-38
118	0x819b3ae9	-5.702254e-38
119	0x809b569b	-1.426557e-38
120	0x00663f4a	9.389924e-39
121	0x011c3761	2.8692407e-38
122	0x8045a0ac	-6.394287e-39
123	0x812090b4	-2.9491178e-38
124	0x8110add4	-2.6573338e-38
125	0x80d3d33d	-1.9453068e-38
126	0x81455fee	-3.6252012e-38
127	0x00a71914	1.5345524e-38
128	0x018dadda	5.2044685e-38
129	0x803f3b60	-5.806936e-39
130	0x81876f78	-4.975112e-38
131	0x81a0c27b	-5.9053783e-38
132	0x812641e0	-3.0536648e-38
133	0x81af22b4	-6.4334644e-38
134	0x007b5485	1.1326086e-38
135	0x80e31374	-2.0853636e-38
136	0x81bf29be	-7.0222216e-38
137	0x819ca6e4	-5.7544826e-38
138	0x81ac3557	-6.325936e-38
139	0x8036cf24	-5.033425e-39
140	0x807c6fe1	-1.1427736e-38
141	0x015620ca	3.9329117e-38
142	0x815c4318	-4.0455756e-38
143	0x80851a08	-1.2223459e-38
144	0x015ef5e4	4.0951378e-38
145	0x81662e8e	-4.227773e-38
146	0x80fa9c54	-2.3014954e-38
147	0x80e2916c	-2.080699e-38
148	0x0044d76e	6.322095e-39
149	0x00facf7a	2.3033303e-38
150	0x8166ded8	-4.240421e-38
151	0x8159c28e	-3.9996191e-38
152	0x01a5fdf8	6.0975855e-38
153	0x00f0490e	2.2066726e-38
154	0x80cefe37	-1.9009307e-38
155	0x00e8d5ec	2.1382576e-38
156	0x0135c414	3.338513e-38
157	0x014b10ae	3.7297179e-38
158	0x81a4eed1	-6.058677e-38
159	0x80cefede	-1.9009541e-38
160	0x81a52701	-6.0667395e-38
161	0x00a24398	1.4901598e-38
162	0x00734bcc	1.0588273e-38
163	0x00230bf1	3.218526e-39
164	0x81aefa72	-6.4276877e-38
165	0x008298ae	1.1993386e-38
166	0x00a41634	1.5068986e-38
167	0x8130e28f	-3.2488642e-38
168	0x01bce957	6.939512e-38
169	0x815aac44	-4.016387e-38
170	0x00c1b3b6	1.7788719e-38
171	0x018639be	4.930668e-38
172	0x8123241c	-2.996428e-38
173	0x818f1d2b	-5.257176e-38
174	0x017e17a0	4.6669382e-38
175	0x807033b6	-1.0304126e-38
176	0x017eb942	4.6785348e-38
177	0x017e06d3	4.6657328e-38
178	0x017ccbbe	4.6431268e-38
179	0x8174d08f	-4.4965356e-38
180	0x81140e3a	-2.7193514e-38
181	0x00520df7	7.53552e-39
182	0x81c0cccc	-7.082353e-38
183	0x013eeafa	3.5066076e-38
184	0x80e9ff20	-2.1489192e-38
185	0x017b2a01	4.6131555e-38
186	0x81a54128	-6.070492e-38
187	0x00da8628	2.0068264e-38
188	0x818ae560	-5.102233e-38
189	0x01020904	2.3883697e-38
190	0x800fd75c	-1.454789e-39
191	0x00908032	1.3270299e-38
192	0x016809d5	4.2618724e-38
193	0x01b926ef	6.8014134e-38
194	0x0163f946	4.187216e-38
195	0x010c9765	2.582256e-38
196	0x01a5f1ef	6.0958585e-38
197	0x8189d624	-5.063313e-38
198	0x019b9293	5.714833e-38
199	0x00ba59c7	1.7113608e-38

F.nbr.0.linears.0.bias f4 [20]
0	0x81849e35	-4.871616e-38
1	0x808fa033	-1.3189945e-38
2	0x000c5e58	1.13587e-39
3	0x816c322e	-4.3382356e-38
4	0x018e597d	5.229097e-38
5	0x00b5da3f	1.6700517e-38
6	0x01139934	2.7109554e-38
7	0x81917e3a	-5.3445714e-38
8	0x8128af4e	-3.0982502e-38
9	0x019e528e	5.8158494e-38
10	0x0197f5a5	5.582112e-38
11	0x01b84d82	6.7702143e-38
12	0x00383da4	5.1649e-39
13	0x01846543	4.8634445e-38
14	0x81111848	-2.6649715e-38
15	0x00cec2e8	1.8988031e-38
16	0x017f6b59	4.691312e-38
17	0x81a5f2b0	-6.0959667e-38
18	0x00ec9ae8	2.1728747e-38
19	0x012ed56e	3.211188e-38

F.out.weight f4 [3, 40]
0	0xbdb36c59	-0.087609
1	0x3ea879b3	0.3290535
2	0xbe969f50	-0.2941842
3	0xbcb87b81	-0.022519829
4	0x3e4dacff	0.20085524
5	0xbd1327e0	-0.0359267
6	0xbec32df1	-0.38120988
7	0xbed1c051	-0.40967038
8	0xbe9b8178	-0.30372214
9	0xbd3da7af	-0.046302494
10	0x3d6196d8	0.055075496
11	0xbeae71af	-0.3407111
12	0xbe5b7d53	-0.21434526
13	0x3dedde6e	0.11614691
14	0xbe443c1d	-0.19163556
15	0x3f0b4ded	0.5441578
16	0x3e8b052f	0.27152392
17	0x3d2322a5	0.03982796
18	0x3e79b984	0.24387175
19	0xbe5e3957	-0.21701561
20	0x01bc0182	6.9062457e-38
21	0x80ad2dfa	-1.5904034e-38
22	0x816453ce	-4.1937113e-38
23	0x0097e085	1.3947702e-38
24	0x00b6a092	1.6771662e-38
25	0x01b2ec26	6.572573e-38
26	0x017d3d88	4.6512908e-38
27	0x00523bce	7.551965e-39
28	0x012dbed4	3.1911994e-38
29	0x818c27b2	-5.148484e-38
30	0x812f2ed0	-3.217601e-38
31	0x00e5d66c	2.1107249e-38
32	0x01417d77	3.5538518e-38
33	0x815545c2	-3.917197e-38
34	0x0167ec65	4.2597604e-38
35	0x80e0949c	-2.0624462e-38
36	0x81523cd2	-3.8614545e-38
37	0x81ada414	-6.3785604e-38
38	0x00391394	5.241647e-39
39	0x01b3dddc	6.607257e-38
40	0x3d0c69d6	0.03428062
41	0xbe9d8d52	-0.3077188
42	0xbd7bc97a	-0.06147144
43	0xbdbab0a0	-0.0911572
44	0xbd04cc56	-0.032421432
45	0xbd5bad8f	-0.053632315
46	0x3e125d7a	0.14293471
47	0x3e49ce7b	0.19707672
48	0x3e83e848	0.25763154
49	0xbdf7554e	-0.120768175
50	0x3e253856	0.16134772
51	0x3dbc3927	0.091905884
52	0x3e0291cc	0.1275093
53	0x3dd20262	0.10254361
54	0xbe82a303	-0.25514993
55	0xbeb80495	-0.35940996
56	0xbe2bffda	-0.16796818
57	0xbdba9db4	-0.09112111
58	0xbe7de62f	-0.2479484
59	0x3e7e67eb	0.24844329
60	0x81a20acd	-5.95249e-38
61	0x803653c0	-4.98916e-39
62	0x80123960	-1.673621e-39
63	0x00f3a45a	2.2374984e-38
64	0x019314da	5.402919e-38
65	0x801e3885	-2.77534e-39
66	0x01114743	2.6683422e-38
67	0x8120ee8c	-2.9558508e-38
68	0x817c09b4	-4.6292052e-38
69	0x812eae0c	-3.2083625e-38
70	0x01b020f4	6.4699475e-38
71	0x80dd0244	-2.0296457e-38
72	0x810eb4da	-2.6211036e-38
73	0x818390e7	-4.8329725e-38
74	0x07ef65ab	3.6020478e-34
75	0x80663f25	-9.389873e-39
76	0x8167dfd2	-4.2588582e-38
77	0x00de637c	2.0423168e-38
78	0x01348482	3.3155848e-38
79	0x009f2214	1.4614069e-38
80	0x3e17322e	0.14765236
81	0x3d5cbe2b	0.053892296
82	0x3dc9f150	0.0986048
83	0x3d587ec3	0.052855264
84	0x3e28f582	0.16499904
85	0x3e044c23	0.12919669
86	0xbdb7d892	-0.089768544
87	0xbc26c15d	-0.010177937
88	0xbe1f589f	-0.1556115
89	0xbd81ddb4	-0.06341115
90	0xbe023737	-0.12716375
91	0xbe58e968	-0.21182787
92	0x3e101a30	0.1407249
93	0xbd724ba0	-0.059154153
94	0xbc10ac86	-0.008830195
95	0x3d51db82	0.05123473
96	0x3d921f30	0.07134855
97	0x3e071f08	0.13195431
98	0x3e49f091	0.19720675
99	0xbe417545	-0.18892391
100	0x810a3394	-2.5383602e-38
101	0x81baaa4b	-6.856997e-38
102	0x0104029a	2.4246438e-38
103	0x8014e6e0	-1.919532e-39
104	0x01840cb2	4.850736e-38
105	0x80640462	-9.185122e-39
106	0x81656f3f	-4.2140472e-38
107	0x00e6372c	2.1141956e-38
108	0x0046926c	6.481011e-39
109	0x00ee04ae	2.1858527e-38
110	0x00b34dd0	1.6466468e-38
111	0x803068b5	-4.445666e-39
112	0x80e1b998	-2.0729565e-38
113	0x0114f088	2.735588e-38
114	0x0185eebf	4.919907e-38
115	0x015837b4	3.97129e-38
116	0x011278ff	2.6902775e-38
117	0x00a81f4a	1.5439588e-38
118	0x004951f3	6.733389e-39
119	0x01485870	3.679765e-38

F.out.bias f4 [3]
0	0xbd3f32cd	-0.046679307
1	0x3d7dee97	0.061995115
2	0x3e19fbbb	0.15037434

G.0.linears.0.weight f4 [2, 3]
0	0x3f756533	0.9585754
1	0xbf07b566	-0.5301117
2	0x3e8c7f38	0.2744081
3	0xbdc67d13	-0.09691825
4	0xbd8d3561	-0.06894947
5	0x3e44e8d1	0.19229437

G.0.linears.0.bias f4 [2]
0	0x3e6c9242	0.23102668
1	0xbd68a493	-0.056797575

W.0.linears.0.weight f4 [2, 3]
0	0xbf32c3d9	-0.6983009
1	0xbd1b7579	-0.037953828
2	0x3f516771	0.81798464
3	0xbdb7c8a4	-0.08973816
4	0x3ecccbed	0.39999333
5	0xbee22c8c	-0.44174612

W.0.linears.0.bias f4 [2]
0	0x3f07c068	0.53027964
1	0xbeb8eb04	-0.36116803

L.0.linears.0.weight f4 [1, 5]
0	0x3ee490ea	0.4464181
1	0xbc2b6d85	-0.010463123
2	0xbeaf3099	-0.34216765
3	0x3e9f85aa	0.31156665
4	0xbeb01426	-0.34390372

c0 f4 [1, 3]
0	0xc0096a8a	-2.1471276
1	0x3fc87ad3	1.5662483
2	0x3f841bb8	1.0320959

h0 f4 [1, 2]
0	0x00000000	0.0
1	0x00000000	0.0
