exponential_hawkes/params.pth (torch_old, 4728 bytes, 13 tensors)

F.cur.0.linears.0.weight f4 [20, 5]
00000000: 0c4a 44be a830 f13d 2641 563c d5f1 52be
00000010: 0d6e b7bd a2eb 7abe 605d 953d 935d fdbb
00000020: 582c dd3e 4501 b9bd 9c9c 453e b46f 0bbe
00000030: 0422 063e bab3 9ebe 5890 97be 76b2 8f3c
00000040: 03da b83d f008 3abd 6d7b 733d a6cb 56be
00000050: 01b0 4bbe 5ad8 333e 1adc b73e b052 9b3e
00000060: 79d4 a53a 4ca3 f73c 7651 04be 1e8f cf3d
00000070: 2a0f 533e 8b61 ec3c b767 7d3e 3e97 14be
00000080: f325 3a3e 679a 1ebf cd71 9b3e 31f5 c53d
00000090: c52d 8cbe bbb6 a23c 8ab4 e7be f281 dc3d
000000a0: 7774 333e 3553 353d 5904 0f3d 9d5c cbbd
000000b0: 5d24 2e3e 7bfd 9a3d a3d9 b63d d325 5ebd
000000c0: 9b5d 5f3d 2b14 d7bd ca1d 603e 58b6 233d
000000d0: 5ded 8fbe bd21 1fbe 1dfa a43d 89c0 4f3d
000000e0: a189 b2bc c099 8a3d b207 98be 6fc3 cb3d
000000f0: 014e 18be 984a 8b3d bc5f 053e d230 a8be
00000100: 1bfc 303e 6201 debd 026d 293d 8d9e 16bd
00000110: 821e 0abc 899b a23c d309 de3d ed1f 32be
00000120: 0db9 2a3e efa6 d43c 9fab 76bd d39c 23be
00000130: 8baf 7a3d b6ff 63bd c07f 413f 7560 f0bd
00000140: 5140 aabe 98bf 9abd b190 9bbc 525b cf3e
00000150: dba5 bcbd 9fb3 bbbe 4e6c a7bd d408 163e
00000160: 455e 063d 289c c63d cedb 1cbe 23d6 a03d
00000170: 4cbd 193e 8690 a23e 4198 16be 99d8 a03d
00000180: 4feb a0bd d61a 95bd 4fec 25be 8147 2c3e
-0.19168872 0.117768586 0.013077056 -0.20600064 -0.089565374 -0.2450395 0.072932005 -0.007732102
0.43197894 -0.09033445 0.19298023 -0.1361683 0.13098913 -0.30996495 -0.29602313 0.017541151
0.090259574 -0.04541868 0.05944388 -0.20976123 -0.19891359 0.17563 0.35910112 0.30336523
0.0012651823 0.030229233 -0.129217 0.10134719 0.20611253 0.028855106 0.24746595 -0.1451082
0.18178539 -0.6195435 0.3036026 0.09665907 -0.2737867 0.019862523 -0.45254928 0.107669726
0.17524897 0.044268806 0.034916256 -0.09929774 0.17006059 0.07567879 0.0892823 -0.05423529
0.05453263 -0.105018936 0.21886364 0.03996882 -0.2811078 -0.15540214 0.08055518 0.050720725
-0.021794142 0.06767607 -0.2969337 0.099493854 -0.14873506 0.06801337 0.13024801 -0.32849747
0.1728367 -0.108401075 0.041363724 -0.0367723 -0.008430125 0.019849556 0.108417176 -0.17394991
0.16672154 0.025958506 -0.060222264 -0.15977792 0.061202567 -0.055663787 0.75585556 -0.11737148
-0.33252195 -0.07556075 -0.018989893 0.4049936 -0.09211322 -0.36660478 -0.08174954 0.14651805
0.032804746 0.09697753 -0.15318224 0.07853343 0.15013617 0.31750888 -0.14706518 0.07853813
-0.078573816 -0.07280509 -0.16203426 0.16824152

F.cur.0.linears.0.bias f4 [20]
00000000: ab0c 0c3e bb63 edbb ab2c a93d 1036 41bc
00000010: 3668 fb3d 414c 3d3e 7389 e53d 38fd 403d
00000020: 65fd 803c 1ce1 a3bd d440 503c 1aec 1abe
00000030: 92a8 063e 1304 a1bd 05db 76bc 8df1 b43d
00000040: a76a d73d 64cc b43c 7104 953b c301 9fbd
0.13676707 -0.007244555 0.08260473 -0.011792675 0.12275736 0.1848612 0.11207857 0.04711649
0.015745828 -0.080019206 0.012710769 -0.15129128 0.13150242 -0.07862105 -0.015066867 0.08835135
0.10518389 0.022070117 0.0045476486 -0.07764008

F.nbr.0.linears.0.weight f4 [20, 10]
00000000: f5f2 b081 57aa 4381 0869 8400 a783 9a01
00000010: e6b3 0301 a0d7 a080 e079 6500 ee52 9c80
00000020: 84c4 7b01 545c 8d81 f457 c900 4bd5 ef00
00000030: 84af b581 ec78 1401 7cd4 e080 55b0 4901
00000040: be03 4481 c6e8 1900 74cf b201 fa7e 9901
00000050: 5656 0d80 a839 d100 0aed 4201 9b8e 9d81
00000060: 760d 6f81 caa9 2d00 e29c 8280 8626 4901
00000070: 4816 ea00 fe60 0301 9bb2 2701 d420 2501
00000080: 7c29 c381 36b3 1901 1f97 9e01 af4a 1800
00000090: e8b3 6a00 0a7c 9980 fc40 1300 3b5d 6680
000000a0: d983 8701 c08b 5700 6f50 6c00 5461 0080
000000b0: 1f97 7001 aa04 c100 a83e 6381 d2f8 0301
000000c0: a18d 7101 6358 7601 a842 0980 3061 b801
000000d0: fadd 0c81 334e 2f81 8ee1 4901 524a 0180
000000e0: 01d2 9881 8931 0e81 134b 3a80 9052 7881
000000f0: 9937 0181 6dbe 9481 e0ad 8f10 dcec 3a81
00000100: 503e f900 847c 9e01 5f02 eb80 2fcf 2a00
00000110: e52f 8680 526c a281 94a2 a981 acf9 1781
00000120: 67e4 3e80 4e2b bf81 cc1f 4b81 9cd6 3001
00000130: a044 8a00 c053 4481 f4c4 1101 eed5 5801
00000140: 78b6 f580 8c99 3d80 ab43 4280 7574 ab01
00000150: f06b 3d00 b87b 8f81 aba0 0500 fafd b280
00000160: bc83 7581 fc31 ee00 3ffa 0880 1ee3 d280
00000170: 406c a481 15dc 1a00 6c8a f080 3235 2a01
00000180: 3690 c680 39cc b801 5c76 a201 59ed 3800
00000190: 023f bc80 1cd5 8281 7d2d 9f81 6184 0881
000001a0: d67f e080 765a 7b01 ae05 b981 097f b400
000001b0: ccf7 a680 fcb7 e700 b698 9d81 1073 0500
000001c0: 0391 6200 d0b9 a881 5d9a 8581 c6b8 1480
000001d0: a8fa 6300 83be d580 e93a 9b81 9b56 9b80
000001e0: 4a3f 6600 6137 1c01 aca0 4580 b490 2081
000001f0: d4ad 1081 3dd3 d380 ee5f 4581 1419 a700
00000200: daad 8d01 603b 3f80 786f 8781 7bc2 a081
00000210: e041 2681 b422 af81 8554 7b00 7413 e380
00000220: be29 bf81 e4a6 9c81 5735 ac81 24cf 3680
00000230: e16f 7c80 ca20 5601 1843 5c81 081a 8580
00000240: e4f5 5e01 8e2e 6681 549c fa80 6c91 e280
00000250: 6ed7 4400 7acf fa00 d8de 6681 8ec2 5981
00000260: f8fd a501 0e49 f000 37fe ce80 ecd5 e800
00000270: 14c4 3501 ae10 4b01 d1ee a481 defe ce80
00000280: 0127 a581 9843 a200 cc4b 7300 f10b 2300
00000290: 72fa ae81 ae98 8200 3416 a400 8fe2 3081
000002a0: 57e9 bc01 44ac 5a81 b6b3 c100 be39 8601
000002b0: 1c24 2381 2b1d 8f81 a017 7e01 b633 7080
000002c0: 42b9 7e01 d306 7e01 becb 7c01 8fd0 7481
000002d0: 3a0e 1481 f70d 5200 cccc c081 faea 3e01
000002e0: 20ff e980 012a 7b01 2841 a581 2886 da00
000002f0: 60e5 8a81 0409 0201 5cd7 0f80 3280 9000
00000300: d509 6801 ef26 b901 46f9 6301 6597 0c01
00000310: eff1 a501 24d6 8981 9392 9b01 c759 ba00
-6.5000816e-38 -3.5938056e-38 1.2159964e-38 5.675958e-38 2.418997e-38 -1.4771031e-38 9.319106e-39 -1.4356087e-38
4.6242412e-38 -5.1927704e-38 1.8490486e-38 2.2025199e-38 -6.674075e-38 2.7270064e-38 -2.0647376e-38 3.7044381e-38
-3.60022e-38 2.379391e-39 6.5684554e-38 5.6385526e-38 -1.224833e-39 1.9214302e-38 3.580224e-38 -5.787732e-38
-4.3907025e-38 4.193506e-39 -1.1994893e-38 3.694551e-38 2.1497499e-38 2.4130488e-38 3.08012e-38 3.0329267e-38
-7.1691214e-38 2.823024e-38 5.825688e-38 2.230843e-39 9.799101e-39 -1.4095328e-38 1.768186e-39 -9.400665e-39
4.978036e-38 8.039821e-39 9.947088e-39 -3.4915e-41 4.4189462e-38 1.7725924e-38 -4.173827e-38 2.423942e-38
4.4366323e-38 4.5246478e-38 -8.50431e-40 6.773038e-38 -2.58732e-38 -3.219853e-38 3.7079697e-38 -1.18497e-40
-5.613732e-38 -2.611682e-38 -5.35339e-39 -4.5609642e-38 -2.3733447e-38 -5.463986e-38 5.667145e-29 -3.4332743e-38
2.2889392e-38 5.8218705e-38 -2.1582192e-38 3.931414e-39 -1.2323138e-38 -5.9664834e-38 -6.2314084e-38 -2.791345e-38
-5.775736e-39 -7.022446e-38 -3.7308025e-38 3.248007e-38 1.2697916e-38 -3.6059602e-38 2.67736e-38 3.982642e-38
-2.2565154e-38 -5.657048e-39 -6.085417e-39 6.2982587e-38 5.640686e-39 -5.270743e-38 5.16814e-40 -1.6437828e-38
-4.5093908e-38 2.1874779e-38 -8.24455e-40 -1.9366928e-38 -6.0399417e-38 2.466673e-39 -2.2090175e-38 3.1262234e-38
-1.8235161e-38 6.788397e-38 5.967924e-38 5.227932e-39 -1.7287676e-38 -4.8060255e-38 -5.847265e-38 -2.5074232e-38
-2.061701e-38 4.6166322e-38 -6.7966417e-38 1.6575961e-38 -1.5333585e-38 2.1280001e-38 -5.789182e-38 5.00454e-40
9.051899e-39 -6.198008e-38 -4.9077984e-38 -1.902994e-39 9.181633e-39 -1.9629303e-38 -5.702254e-38 -1.426557e-38
9.389924e-39 2.8692407e-38 -6.394287e-39 -2.9491178e-38 -2.6573338e-38 -1.9453068e-38 -3.6252012e-38 1.5345524e-38
5.2044685e-38 -5.806936e-39 -4.975112e-38 -5.9053783e-38 -3.0536648e-38 -6.4334644e-38 1.1326086e-38 -2.0853636e-38
-7.0222216e-38 -5.7544826e-38 -6.325936e-38 -5.033425e-39 -1.1427736e-38 3.9329117e-38 -4.0455756e-38 -1.2223459e-38
4.0951378e-38 -4.227773e-38 -2.3014954e-38 -2.080699e-38 6.322095e-39 2.3033303e-38 -4.240421e-38 -3.9996191e-38
6.0975855e-38 2.2066726e-38 -1.9009307e-38 2.1382576e-38 3.338513e-38 3.7297179e-38 -6.058677e-38 -1.9009541e-38
-6.0667395e-38 1.4901598e-38 1.0588273e-38 3.218526e-39 -6.4276877e-38 1.1993386e-38 1.5068986e-38 -3.2488642e-38
6.939512e-38 -4.016387e-38 1.7788719e-38 4.930668e-38 -2.996428e-38 -5.257176e-38 4.6669382e-38 -1.0304126e-38
4.6785348e-38 4.6657328e-38 4.6431268e-38 -4.4965356e-38 -2.7193514e-38 7.53552e-39 -7.082353e-38 3.5066076e-38
-2.1489192e-38 4.6131555e-38 -6.070492e-38 2.0068264e-38 -5.102233e-38 2.3883697e-38 -1.454789e-39 1.3270299e-38
4.2618724e-38 6.8014134e-38 4.187216e-38 2.582256e-38 6.0958585e-38 -5.063313e-38 5.714833e-38 1.7113608e-38

F.nbr.0.linears.0.bias f4 [20]
00000000: 359e 8481 33a0 8f80 585e 0c00 2e32 6c81
00000010: 7d59 8e01 3fda b500 3499 1301 3a7e 9181
00000020: 4eaf 2881 8e52 9e01 a5f5 9701 824d b801
00000030: a43d 3800 4365 8401 4818 1181 e8c2 ce00
00000040: 596b 7f01 b0f2 a581 e89a ec00 6ed5 2e01
-4.871616e-38 -1.3189945e-38 1.13587e-39 -4.3382356e-38 5.229097e-38 1.6700517e-38 2.7109554e-38 -5.3445714e-38
-3.0982502e-38 5.8158494e-38 5.582112e-38 6.7702143e-38 5.1649e-39 4.8634445e-38 -2.6649715e-38 1.8988031e-38
4.691312e-38 -6.0959667e-38 2.1728747e-38 3.211188e-38

F.out.weight f4 [3, 40]
00000000: 1932 eebd 97cd 9f3e 78f4 9bbe 745d 22bd
00000010: e62f 4c3e f5af 0bbd f8b7 bfbe e256 d2be
00000020: 324c 9dbe 8171 66bd 8a4e 483d 5c0a aebe
00000030: 8c21 6ebe 2fa4 da3d cd80 3ebe b463 033f
00000040: 0e11 8e3e 647e 193d cd47 703e 096a 63be
00000050: 8201 bc01 fa2d ad80 ce53 6481 85e0 9700
00000060: 92a0 b600 26ec b201 883d 7d01 ce3b 5200
00000070: d4be 2d01 b227 8c81 d02e 2f81 6cd6 e500
00000080: 777d 4101 c245 5581 65ec 6701 9c94 e080
00000090: d23c 5281 14a4 ad81 9413 3900 dcdd b301
000000a0: 2369 003d af37 9fbe ba9d 8fbd 1ab6 f8bd
000000b0: b23f 00bd adc6 4dbd 99c8 0f3e 427c 4d3e
000000c0: 9a45 843e 2196 06be 84bd 223e eafd af3d
000000d0: 261e 123e 8026 b13d 28e4 80be cd16 acbe
000000e0: 5306 33be 712f bdbd a7d3 80be 7c88 7d3e
000000f0: cd0a a281 c053 3680 6039 1280 5aa4 f300
00000100: da14 9301 8538 1e80 4347 1101 8cee 2081
00000110: b409 7c81 0cae 2e81 f420 b001 4402 dd80
00000120: dab4 0e81 e790 8381 ab65 ef07 253f 6680
00000130: d2df 6781 7c63 de00 8284 3401 1422 9f00
00000140: d6e4 123e f9c0 253d 9e8d c43d b1d5 3a3d
00000150: c6ad 253e 891e 023e 23a5 cdbd befe 86bb
00000160: c6e4 23be 0e04 88bd 0c92 03be a40b 5bbe
00000170: 7c6c 0d3e 3622 93bd 3a4c f8bb 6c49 173c
00000180: 7b79 833d 2af0 073e b1f3 383e 3a9b 4dbe
00000190: 9433 0a81 4baa ba81 9a02 0401 e0e6 1480
000001a0: b20c 8401 6204 6480 3f6f 6581 2c37 e600
000001b0: 6c92 4600 ae04 ee00 d04d b300 b568 3080
000001c0: 98b9 e180 88f0 1401 bfee 8501 b437 5801
000001d0: ff78 1201 4a1f a800 f351 4900 7058 4801
-0.11630649 0.3121154 -0.30459952 -0.039639905 0.19940147 -0.034103353 -0.37445045 -0.4108191
-0.30722195 -0.05626059 0.048903026 -0.3399228 -0.23254985 0.10675847 -0.18603821 0.5132401
0.27747387 0.03747405 0.2346489 -0.22208418 6.9062457e-38 -1.5904034e-38 -4.1937113e-38 1.3947702e-38
1.6771662e-38 6.572573e-38 4.6512908e-38 7.551965e-39 3.1911994e-38 -5.148484e-38 -3.217601e-38 2.1107249e-38
3.5538518e-38 -3.917197e-38 4.2597604e-38 -2.0624462e-38 -3.8614545e-38 -6.3785604e-38 5.241647e-39 6.607257e-38
0.031350266 -0.3109717 -0.07012506 -0.12144108 -0.031310745 -0.0502383 0.14041366 0.20066932
0.25834352 -0.13143207 0.15892607 0.08593352 0.14269313 0.086499214 -0.2517407 -0.33611146
-0.17482881 -0.09237564 -0.25161478 0.24759096 -5.95249e-38 -4.98916e-39 -1.673621e-39 2.2374984e-38
5.402919e-38 -2.77534e-39 2.6683422e-38 -2.9558508e-38 -4.6292052e-38 -3.2083625e-38 6.4699475e-38 -2.0296457e-38
-2.6211036e-38 -4.8329725e-38 3.6020478e-34 -9.389873e-39 -4.2588582e-38 2.0423168e-38 3.3155848e-38 1.4614069e-38
0.14345106 0.040467236 0.09597324 0.04561395 0.1617957 0.1270696 -0.10041263 -0.004119723
-0.16005239 -0.06641398 -0.12848681 -0.2139116 0.13810915 -0.071842596 -0.0075774463 0.009233814
0.06419655 0.13275209 0.18061711 -0.20078745 -2.5383602e-38 -6.856997e-38 2.4246438e-38 -1.919532e-39
4.850736e-38 -9.185122e-39 -4.2140472e-38 2.1141956e-38 6.481011e-39 2.1858527e-38 1.6466468e-38 -4.445666e-39
-2.0729565e-38 2.735588e-38 4.919907e-38 3.97129e-38 2.6902775e-38 1.5439588e-38 6.733389e-39 3.679765e-38

F.out.bias f4 [3]
00000000: 6dde 3abd 5114 843d aeb7 1b3e
-0.045622278 0.064491875 0.15206787

G.0.linears.0.weight f4 [2, 3]
00000000: 9829 813f d0da 0cbf e832 833e 6736 f9bd
00000010: 8858 a0bd 6bae 2f3e
1.0090818 -0.5502138 0.25624776 -0.121685795 -0.07829386 0.17156379

G.0.linears.0.bias f4 [2]
00000000: da07 7b3e 6240 6cbd
0.24514714 -0.057678588

W.0.linears.0.weight f4 [2, 3]
00000000: df36 34bf dcf0 efbc 44e3 553f ccec c0bd
00000010: 1b56 cc3e 1fc1 e9be
-0.70396227 -0.029289655 0.83549905 -0.094201654 0.39909443 -0.45655152

W.0.linears.0.bias f4 [2]
00000000: 01af 043f fac4 babe
0.51829535 -0.36478406

L.0.linears.0.weight f4 [1, 5]
00000000: b978 e13e daae 99bc 6949 b2be 207a 9e3e
00000010: 50b6 b0be
0.44037417 -0.018760134 -0.34821633 0.3095255 -0.34514093

c0 f4 [1, 3]
00000000: bdad 09c0 75b2 c83f fa9c 863f
-2.1512291 1.5679461 1.0516655

h0 f4 [1, 2]
00000000: 0000 0000 0000 0000
0.0 0.0
