exponential_hawkes/params.pth (torch_old, 4727 bytes, 13 tensors)

F.cur.0.linears.0.weight f4 [20, 5]
000000 ed 72 7d bd ac f5 e8 3d 35 67 4e bd a3 71 f1 bd
       -0.06187718 0.11374983 -0.050391395 -0.117892526
000010 ca 54 9c 3c 54 8a 6c bd b1 12 91 3d cb 48 81 bd
       0.0190834 -0.057749107 0.07083643 -0.06312712
000020 56 11 17 3e 93 6c 9b 3d 24 27 67 3d f9 8e bb bd
       0.14752707 0.07589068 0.05643381 -0.09158129
000030 5b ff e5 3c 77 95 a9 3c 7c e2 86 bd af 1c 75 3c
       0.028075865 0.020701153 -0.06586167 0.014960452
000040 e1 11 d5 3d e9 c4 9a bc 54 ef 80 3d ca 14 47 be
       0.10403801 -0.018892722 0.06295648 -0.19441524
000050 da 4e 60 3b 15 4d 16 3e e4 04 8d 3e 0c a7 dd 3d
       0.0034226687 0.14677842 0.27542794 0.10822877
000060 6c 08 43 3d 35 d0 f2 3d a0 66 d5 bd b5 86 61 3c
       0.047615454 0.118561186 -0.10419965 0.013765027
000070 24 20 8f 3e 03 7f 08 3e a5 b5 37 3d 97 69 51 3d
       0.2795421 0.13329701 0.044850964 0.05112609
000080 8b ba b0 bd 35 c4 10 be 76 63 27 3e be eb f9 3b
       -0.0862933 -0.14137347 0.16346535 0.0076269796
000090 a1 28 28 be 12 22 6b bd 1d 84 c5 bc 6b f9 28 bd
       -0.16421749 -0.05740554 -0.024110848 -0.04125349
0000a0 fd 90 43 3d e5 01 b8 3d 7c 35 36 3d 5d ee 0b bb
       0.047745693 0.08984736 0.0444846 -0.0021351792
0000b0 1b 73 9c 3d 76 ab 81 3b 28 0c df 3d 51 f6 8a bd
       0.07639142 0.0039572073 0.108909905 -0.067852624
0000c0 00 68 a3 bc ac c0 13 bc 2a 9d 3c 3e d7 86 71 3d
       -0.019947052 -0.0090181045 0.18419328 0.058966484
0000d0 fd cb 77 be ab cf 04 be cf 85 1f 3c dd 9a fb bd
       -0.24198909 -0.12969844 0.009736492 -0.12285397
0000e0 67 49 bd 3a e2 33 ce 3d 00 da 18 be 0a 27 1a 3d
       0.0014441431 0.100684896 -0.1492691 0.037634887
0000f0 cb b6 98 bd 7f ec d1 3d ca b7 70 bc f1 d7 06 be
       -0.0745674 0.10250186 -0.014692256 -0.13168313
000100 7e fa dd 3d c6 09 22 be 04 57 47 3d 39 28 c2 3b
       0.10838793 -0.15824041 0.04866697 0.005925205
000110 53 d4 83 3a c0 ee bb bd d5 f0 93 3d eb 01 3a be
       0.0010057784 -0.09176397 0.072236694 -0.18164794
000120 c8 72 10 3e a4 15 34 bc 63 4e b4 3d 1d 3c dc 3d
       0.14106286 -0.010991488 0.088040136 0.10753653
000130 3d d0 52 3d a7 7c 10 be d9 bd 5a 3e ca ae bd 3c
       0.051468123 -0.14110051 0.21361484 0.023154635
000140 4f ef 28 bd 9c 4f 26 be bd a1 29 bd 68 d7 19 bd
       -0.041243847 -0.16241306 -0.04141401 -0.037558943
000150 da ff 39 bd 84 42 8f be a8 72 10 be 1c e2 e5 3d
       -0.045410015 -0.27980435 -0.14106238 0.112247676
000160 3a 50 c7 bc d6 13 2b 3e 39 6f eb 3c 5a 5c 44 3d
       -0.024330247 0.16706786 0.028739559 0.047939636
000170 7a 13 db 3d ce c5 1e 3e 0d 07 9b 3b da 69 94 bd
       0.10697074 0.15505144 0.004731065 -0.07246752
000180 68 81 c5 bc 00 91 81 bd 19 6a 7f bd 93 21 9c 3d
       -0.024109557 -0.06326485 -0.062357042 0.07623591

F.cur.0.linears.0.bias f4 [20]
000000 05 f9 60 3d 5e a8 78 bd 98 40 04 bd d6 34 9f 3c
       0.054924984 -0.060707442 -0.032288164 0.019434374
000010 7a 4f 2f 3d 65 4b ae 3d b6 b5 0a bd a4 4e 0d bc
       0.042800404 0.08510474 -0.0338647 -0.008624706
000020 55 34 2a 3d 27 74 b1 bd 61 48 7f 3d a6 8a bd bd
       0.041553814 -0.086647324 0.062324885 -0.09254961
000030 72 1e 3c 3c d1 05 dd bc 86 d4 2e bd 4e 7a bd 3c
       0.011481868 -0.026980313 -0.042683147 0.023129608
000040 f8 53 bc 3d c1 4d 9e bc 87 8c 4a bd 1c 00 40 bd
       0.09195703 -0.019324185 -0.049450424 -0.046875104

F.nbr.0.linears.0.weight f4 [20, 10]
000000 41 a8 f5 bc f5 67 e7 3d d0 cd 9e 3c 3b f0 ac 3c
       -0.029987456 0.11299125 0.019385248 0.021110645
000010 a2 05 46 bd f3 77 12 bd a1 cf d9 bc 9d 14 15 be
       -0.048345216 -0.035758924 -0.026588263 -0.14558645
000020 08 45 02 3c 84 b3 ca bd 60 ca 69 bd ec 8a 1c be
       0.007951029 -0.09897521 -0.057077765 -0.1528737
000030 42 cd 4b bb 4d 4f 61 3d f2 d2 aa 3c 27 d3 77 bd
       -0.0031097685 0.055007268 0.02085254 -0.060504105
000040 5d 22 1c 3e 7a d1 e0 3c 4e 14 b6 39 2c 98 c7 3c
       0.15247484 0.027443636 0.00034728873 0.024364553
000050 04 a1 f1 3c c3 d4 ad 3b 0a 6e f9 bd d4 fd 7f bd
       0.029495724 0.005304904 -0.121791914 -0.06249793
000060 69 9a fe 3c 70 2e 1c bd dd 63 5c be 7b 84 c3 bd
       0.031079488 -0.038130224 -0.2152247 -0.09546753
000070 f7 bc 5f bc 98 0e 82 3d 7d 58 43 be 45 27 6d be
       -0.013655893 0.0635044 -0.19076724 -0.23159511
000080 88 f6 d8 ba f4 e7 08 be 2e d3 8d 3c 5f f8 27 be
       -0.0016552964 -0.13369733 0.017312612 -0.1640334
000090 72 0f 40 bd 53 84 61 bd 40 4d 63 bd 33 0b b6 3d
       -0.04688973 -0.055057835 -0.055493593 0.08888855
0000a0 33 49 ad 3d 6f 49 09 bd 81 d2 a8 bd da 73 45 3d
       0.08461227 -0.033517297 -0.082432754 0.048206188
0000b0 77 7a 8d bd cb fa 53 3d 44 f3 ed bd 71 ab d8 3d
       -0.06908124 0.051752847 -0.11618665 0.10579575
0000c0 cc 88 28 3d f8 8a 5e 3d ba 80 32 3e b7 cc b1 bd
       0.041146085 0.05433175 0.17431918 -0.086816244
0000d0 5e 6d 96 bd a9 9c ee 3c 49 07 1c be 3b a9 73 be
       -0.07345079 0.029127436 -0.15237154 -0.23795025
0000e0 1a 90 23 3d b0 f3 0e 3d 7a 55 29 3e 52 15 28 3a
       0.039932348 0.034900367 0.16536513 0.00064118684
0000f0 9e 95 9b 3d 7b 94 76 3d f9 e7 a8 3e 2f 8c 21 be
       0.075968966 0.060200196 0.3298948 -0.15776132
000100 ce 7a bd bc d0 45 03 3e d0 e0 b5 3d 24 df 8b 3d
       -0.023129847 0.128196 0.0888077 0.0682967
000110 66 1c f7 3d cb 1c a5 3d 7a d6 29 bd 3f 29 de bd
       0.120659634 0.080621324 -0.041464306 -0.10847711
000120 96 21 74 3d 34 dc 9b bb 9c 32 32 3c 0f fc ca 3b
       0.059602343 -0.004756475 0.010876324 0.0061945985
000130 2e 54 57 bb e5 88 44 3e 6e 8a dc bc 4f 46 d4 3c
       -0.0032856571 0.19192846 -0.026921477 0.025912432
000140 f9 ef 18 3d b2 3c b6 3d c0 5a 07 be f3 25 c1 bd
       0.03733823 0.088982955 -0.13218212 -0.09431066
000150 1c d9 07 3c c0 26 72 39 3d a9 91 3d ca 71 09 3d
       0.008291509 0.00023093354 0.07112358 0.033555783
000160 4d 51 a6 3d f4 43 4c bc 1d 54 e1 3d c2 fb 69 3d
       0.08120976 -0.012467373 0.110023715 0.05712486
000170 fa 38 d1 bb 9f 3b 74 bd 43 cf 0a bd 28 6e 1c be
       -0.006384966 -0.05962717 -0.033889066 -0.15276396
000180 b2 43 4d bd 1e f6 35 3d f2 db c8 3d f7 bd 16 be
       -0.050113387 0.04442417 0.09807576 -0.14720903
000190 0a 92 a1 bd 2d 30 38 39 a7 77 ef bd 62 46 cc bd
       -0.07889183 0.00017565554 -0.11692744 -0.09974362
0001a0 71 0f 83 3d c9 ce c9 3c e1 64 d0 3c b5 57 17 be
       0.063994296 0.024634736 0.025438728 -0.14779551
0001b0 f7 15 7e 3c f2 6a ab 3c b1 60 ac bd 8b 18 87 be
       0.0155081665 0.020925019 -0.0841688 -0.26385912
0001c0 a3 e0 3d 3e 9a 1a 47 3e ba d8 c2 3d dc 9d d9 3c
       0.18542723 0.19443741 0.095139936 0.026564531
0001d0 6c 44 af 3c 29 60 b7 bd ae b4 a4 3d c6 61 17 3e
       0.02139493 -0.08953888 0.080422744 0.14783391
0001e0 19 60 a2 3d df d0 26 bd cb 42 47 bc b8 4e d7 bb
       0.079284854 -0.04072654 -0.012161921 -0.0065706633
0001f0 d3 be 24 3c 8a 14 6e 3e c0 b0 fd 3d 4f 5d a5 bc
       0.010055262 0.23250023 0.12387228 -0.020186095
000200 42 bb 80 3d c6 3f 22 bc 78 18 88 bd 7c e6 83 3d
       0.062857166 -0.0099029 -0.06645292 0.06440446
000210 5c b5 ea 39 62 75 ba bd cd d1 b6 3d 5e d3 16 bd
       0.0004476708 -0.0910442 0.08926735 -0.03682267
000220 68 24 0a bd 99 54 8f 3d 96 7a 12 be f0 aa cb bc
       -0.033726126 0.069985576 -0.14304575 -0.024861783
000230 1b c4 8b bd f4 fa 23 bd 2d f8 2b bd dc cc 6a bc
       -0.068245135 -0.04003425 -0.041984726 -0.014331069
000240 3e e6 8a 3d c7 1c 82 be 9c f2 3e 3d 87 07 dd bb
       0.067821965 -0.2541258 0.04661809 -0.006745282
000250 1c 34 33 bd b2 57 47 bd 74 aa aa bd 5e a9 88 bd
       -0.043750867 -0.048667617 -0.083332926 -0.06672929
000260 f1 e3 82 3c d4 a5 38 3d be 65 f3 bd c8 6f ee bb
       0.015977832 0.04508002 -0.1188464 -0.007276509
000270 ac 74 90 bd 26 00 42 bc c5 2c 55 be 38 c7 82 3d
       -0.070535034 -0.011840856 -0.2081786 0.06385654
000280 7a 19 fe 3c fb ef 9e 3c 78 16 0c 3c ec da 00 3e
       0.031018008 0.019401541 0.008550279 0.12583512
000290 1b f4 3d 3d 21 9d b0 bd a5 3a 70 3c a8 3f e7 bc
       0.046375375 -0.0862372 0.014662419 -0.028228596
0002a0 c0 fd 89 3d f3 8c e6 ba 20 67 2c 3d c5 f2 9a bd
       0.06737852 -0.0017589614 0.042090535 -0.07565836
0002b0 bd 79 08 3d ec 91 a5 3d 03 af 0b be 1d 2c e1 3d
       0.033319224 0.08084473 -0.1364098 0.10994742
0002c0 11 18 19 be 90 11 1b bd 68 f0 ad 3c 3b 27 59 3d
       -0.14950587 -0.037858546 0.021232799 0.05301593
0002d0 06 0b ed bd 5d 09 76 3e 4f 19 80 bd 9b a7 d9 3d
       -0.11574368 0.2402701 -0.06254827 0.10627671
0002e0 90 94 4c bc 38 12 5f 3d 6b 99 23 be d4 56 96 3d
       -0.012486592 0.054460734 -0.15976493 0.0734078
0002f0 01 c3 d8 ba 89 e1 eb bc 3e 8d d7 bc 6a 24 09 3d
       -0.0016537608 -0.028794067 -0.026312467 0.033481993
000300 e2 d5 c2 bd 20 d0 b2 bd 72 a0 aa 3d 82 6c 29 3d
       -0.09513451 -0.08731103 0.08331384 0.041363247
000310 07 19 68 be e1 34 29 bd 79 4d c2 bd aa a3 c6 3d
       -0.22665797 -0.041310195 -0.09487433 0.09699185

F.nbr.0.linears.0.bias f4 [20]
000000 9f df 66 3d 60 7b b0 3d 87 89 aa 3b 57 d5 ad bd
       0.056365605 0.08617282 0.005204383 -0.08487957
000010 93 3c 7e 3d 62 08 87 bd 7f 3c 8c 3c ff b2 20 3c
       0.062069487 -0.06593396 0.01711869 0.009808301
000020 81 41 21 bd 83 49 e5 3c 4b d5 a5 bd ac b0 8a 3c
       -0.03936911 0.027989155 -0.08097323 0.016929947
000030 cf 05 63 bd f6 86 df bb 25 5b 0a 3c 46 43 9d 3d
       -0.05542546 -0.0068215085 0.008444582 0.07678847
000040 b8 d3 24 bd 0f b1 65 3d 3c 40 08 bc f6 f6 23 bd
       -0.040240973 0.05607706 -0.008316096 -0.040030442

F.out.weight f4 [3, 40]
000000 97 8b 61 bd ce 95 09 bd ea d4 68 bd 9c 55 9e bc
       -0.055064764 -0.03359013 -0.056843676 -0.019327931
000010 32 c5 b5 3d 47 db e3 bd 70 34 17 be 36 3b f0 bd
       0.08875503 -0.11125808 -0.14766097 -0.117300436
000020 e5 b4 19 be 24 dc ee bd c4 4b 8c 3d 28 60 a0 bd
       -0.15010412 -0.11663082 0.06850389 -0.0783084
000030 47 ae d2 bd 64 45 5f bc 41 e5 db bd 63 ca ba bc
       -0.10287147 -0.013627384 -0.10737086 -0.022801584
000040 90 87 46 3e 17 80 ac 3c c0 35 83 3d 77 54 f7 bd
       0.1938765 0.021057172 0.064067364 -0.12076657
000050 4f f7 ec bc 8e 9a e1 3d 3f 06 50 bc 51 4b 31 be
       -0.02892652 0.11015807 -0.012696802 -0.17313887
000060 7c dc 0c 3d 3b cd 8e bd ce fd 96 ba f3 f2 af bd
       0.034389958 -0.06972738 -0.0011519731 -0.08591261
000070 78 2b 91 3b 8e 02 53 bb 9e 58 8d 3d bd 9c 21 3d
       0.0044302307 -0.0032197568 0.06901668 0.039456118
000080 49 64 83 bd de 6e 90 3d 81 92 02 3e 2d e7 f8 3c
       -0.06415612 0.07052396 0.127512 0.03038367
000090 c0 41 bb bd b1 03 27 b9 93 8c e0 3d 21 e4 89 3d
       -0.091434 -0.00015927736 0.109643124 0.06732965
0000a0 70 44 e3 bc a1 0a a5 bd 35 5d 0a bb c8 b4 e9 3d
       -0.027742594 -0.08058668 -0.0021112685 0.114114344
0000b0 e2 fe 21 3c 42 0e 10 bc 01 8c 21 3d 72 a2 c6 3d
       0.009887429 -0.008792462 0.03944016 0.09698953
0000c0 51 e6 73 3e 74 a1 e1 bd 91 72 e5 3d e3 6d eb bc
       0.23818327 -0.11017123 0.112034924 -0.028738922
0000d0 18 7f ee 3a c9 11 03 3e ec 29 7f be 2a f6 38 bd
       0.0018195836 0.12799753 -0.24918336 -0.045156635
0000e0 49 36 a3 bd 1c ab 03 be 7b cd 16 be 29 18 37 3e
       -0.079693384 -0.12858242 -0.14726822 0.1788031
0000f0 ab f6 1e bd 9a 52 17 3d 54 52 33 3d 44 5c 5a bd
       -0.03880946 0.03694401 0.043779686 -0.053310648
000100 bf ac 49 bd d5 a0 4d be 31 c0 02 3d 25 eb ab 3b
       -0.04923701 -0.20080884 0.03192157 0.0052465373
000110 c3 5a 9e bd 79 7f 25 be 7b f6 8d bd b7 0f 1b 3d
       -0.07732155 -0.16161908 -0.06931778 0.037856784
000120 4f 85 fe 3d d6 6e 8d 3d f1 a3 97 3e ef 22 75 be
       0.1242777 0.06905906 0.29617265 -0.23939107
000130 f8 56 24 be 1f b1 b0 bd d9 e8 85 bd be f7 52 bc
       -0.16048801 -0.08627533 -0.06538553 -0.012876449
000140 4d 1a 6f 3d 48 05 cb 3c 2f 64 2b 3d a9 1a 49 bd
       0.05837469 0.024782792 0.04184359 -0.04909769
000150 95 76 e1 3d 70 34 04 3e cb d6 06 bc 0a 72 93 3c
       0.11008946 0.12910628 -0.008229922 0.017998714
000160 2a 0e 07 be b1 7c 2c bd 24 4e c6 3b 66 d9 21 be
       -0.13188997 -0.042111102 0.0060517956 -0.15805587
000170 94 cb bc 3d 7b 80 e3 bd 6e 56 55 bc 07 19 0b 3c
       0.09218517 -0.1110849 -0.013021095 0.008489854
000180 80 c4 d7 3a f6 a6 c7 bc a7 6c cb 3d 27 2f b0 bd
       0.001646176 -0.024371605 0.09932833 -0.086027436
000190 40 4e 14 be 90 6f 5e bd 4a 81 eb bc a5 92 3f 3e
       -0.14482975 -0.054305613 -0.028748173 0.18708284
0001a0 2c f6 21 3e c2 96 f6 3d 51 71 6d bd 84 d4 c6 3d
       0.15816563 0.120404735 -0.057969395 0.09708503
0001b0 09 28 09 3d 56 52 11 bd 1a af 95 3d 9e 68 07 be
       0.033485446 -0.035478912 0.073087886 -0.13223502
0001c0 31 3c a9 3b 0e 85 8b 3a 7e 35 b2 bc ee cc c2 bd
       0.005164646 0.0010644512 -0.021754023 -0.095117435
0001d0 a0 ba d8 3d 05 a3 e9 bc 6a 38 cf bd 75 df 48 be
       0.10582471 -0.028520117 -0.10118182 -0.19616492

F.out.bias f4 [3]
000000 a7 48 81 3c 21 f9 b7 3d c2 ec 99 3d
       0.015781714 0.089830644 0.07515861

G.0.linears.0.weight f4 [2, 3]
000000 1e 3e c5 3d 4e 9b a8 bd 01 73 17 3e 1c c8 92 bb
       0.096309885 -0.08232747 0.14789964 -0.0044794213
000010 26 a2 ae bd ed be 15 3e
       -0.08527021 0.14623614

G.0.linears.0.bias f4 [2]
000000 92 13 8f 3d 23 72 61 3c
       0.069861546 0.0137601225

W.0.linears.0.weight f4 [2, 3]
000000 81 4a 42 3d 55 f8 50 3d 01 ec 14 3e 5d 58 5d 3c
       0.047434334 0.051018078 0.14543153 0.013509837
000010 9f 9c 17 3e 36 bb 98 3c
       0.1480584 0.018643957

W.0.linears.0.bias f4 [2]
000000 03 d4 a9 3d fc 35 86 bc
       0.08292391 -0.016383164

L.0.linears.0.weight f4 [1, 5]
000000 ec 36 9f bc 1c 1b 11 be c8 01 dc bc c4 36 16 bd
       -0.019435368 -0.14170498 -0.026856318 -0.036673322
000010 e6 e1 80 bd
       -0.06293087

c0 f4 [1, 3]
000000 c1 0e d0 bf 7e 76 86 3f 70 db 95 3e
       -1.6254503 1.0504911 0.2926898

h0 f4 [1, 2]
000000 00 00 00 00 00 00 00 00
       0.0 0.0
