exponential_hawkes/params.pth (torch_old, 4728 bytes, 13 tensors)

F.cur.0.linears.0.weight f4 [20, 5]
0	0xbe1ff87e	-0.15622136
1	0x3dcc8a97	0.099873714
2	0x3cd81d46	0.026381146
3	0xbe06c485	-0.13160904
4	0xbd8744ea	-0.06604941
5	0xbe3d1fb6	-0.18469128
6	0x3df3b87d	0.11900423
7	0xbc8b053d	-0.016970271
8	0x3ebfaf4c	0.37438428
9	0xbdb068bb	-0.08613726
10	0x3df62ddb	0.12020465
11	0xbe1a56e9	-0.15072216
12	0x3e11b869	0.14230503
13	0xbe796cb0	-0.24357867
14	0xbe78e436	-0.24305806
15	0x3bd1540c	0.006388193
16	0x3dcb7ebb	0.09936281
17	0xbd37d30a	-0.044878997
18	0x3d4b3daa	0.049619354
19	0xbe313473	-0.17305164
20	0xbe0dc47d	-0.13844486
21	0x3e28ebd4	0.16496211
22	0x3eb75bdd	0.35812274
23	0x3e88e1aa	0.26734668
24	0xbca1ae10	-0.01973632
25	0x3d4e18df	0.050316688
26	0xbe0c69d4	-0.13712245
27	0x3dde7897	0.108628444
28	0x3e63494e	0.22195932
29	0x3d355c21	0.044277314
30	0x3e2d49db	0.16922705
31	0xbe0862aa	-0.13318887
32	0x3df8057c	0.12110421
33	0xbef740d0	-0.48291636
34	0x3e918997	0.28425285
35	0x3da588cc	0.080827326
36	0xbe9b0c26	-0.30282706
37	0x3bac5c7b	0.005260048
38	0xbeaccf1f	-0.3375177
39	0x3da406cb	0.08009108
40	0x3e0dcc41	0.13847448
41	0x3d314bb0	0.04328507
42	0x3cd7aa10	0.02632621
43	0xbdb307ef	-0.087417476
44	0x3e1a3a36	0.15061268
45	0x3d1c51dd	0.03816401
46	0x3dfd6bfe	0.123741135
47	0xbd65204c	-0.055939004
48	0x3d2dff78	0.042479962
49	0xbd70fb47	-0.058833387
50	0x3e6064b3	0.21913414
51	0x3d14578d	0.036216307
52	0xbe9125e5	-0.28349224
53	0xbe287804	-0.16452032
54	0x3db3e792	0.08784403
55	0xba0781ad	-0.00051691645
56	0xbc599a10	-0.01328136
57	0x3d37e494	0.044895723
58	0xbe7bd02c	-0.2459113
59	0x3dace32c	0.08441767
60	0xbe29764b	-0.16549031
61	0x3d71296f	0.058877405
62	0x3dd154af	0.1022123
63	0xbe71b905	-0.23605736
64	0x3e0d82e0	0.13819456
65	0xbdd2baa3	-0.102895044
66	0x3d23d876	0.040001355
67	0xbd223f44	-0.039611116
68	0xbc9824a7	-0.018572165
69	0x3c58744d	0.013211322
70	0x3d9f3933	0.07774582
71	0xbe21cb46	-0.15800199
72	0x3e2cb9bd	0.16867729
73	0x3cd978a2	0.02654678
74	0xbcdd0fdf	-0.026985107
75	0xbdbd4b02	-0.09242822
76	0x3df88ae1	0.12135864
77	0xbd90384d	-0.070419885
78	0x3f22182c	0.63318133
79	0xbe0cdd88	-0.13756382
80	0xbe831a54	-0.25606024
81	0xbd84505c	-0.0646064
82	0xbce18488	-0.027529016
83	0x3ea00981	0.3125725
84	0xbdf29024	-0.11843899
85	0xbeb0f00b	-0.34558138
86	0xbdb068b8	-0.086137235
87	0x3e19e988	0.15030491
88	0x3d06ec37	0.032940116
89	0x3dcbf50b	0.099588476
90	0xbdbeff49	-0.093260355
91	0x3dae6e7a	0.085171655
92	0x3e18e8e4	0.1493259
93	0x3e98e079	0.2985876
94	0xbe135070	-0.14386153
95	0x3d258654	0.04041131
96	0xbda61054	-0.08108583
97	0xbda4c085	-0.08044533
98	0xbe1af972	-0.15134218
99	0x3e1bd839	0.15219201

F.cur.0.linears.0.bias f4 [20]
0	0x3e0fd606	0.14046487
1	0xbc4db5ce	-0.012555553
2	0x3dbd0395	0.09229199
3	0xbc3db927	-0.011579788
4	0x3df04b05	0.11733059
5	0x3e3f6448	0.18690598
6	0x3daaabfd	0.083335854
7	0x3d33aeb5	0.043867785
8	0x3c4d082d	0.012514156
9	0xbd9d3bb1	-0.07677401
10	0x3c3d9ce8	0.011573054
11	0xbe1fc2ce	-0.15601656
12	0x3df2594e	0.1183344
13	0xbda4aed0	-0.08041155
14	0xbc3760da	-0.011192525
15	0x3d9fa076	0.07794277
16	0x3dc68c97	0.09694784
17	0x3cb7a9b3	0.022419786
18	0x3b0c72c7	0.0021430717
19	0xbda3393a	-0.079698995

F.nbr.0.linears.0.weight f4 [20, 10]
0	0x01ac6438	6.332663e-38
1	0x0c82f93c	2.0179674e-31
2	0x022f3d33	1.2874533e-37
3	0x8190b3aa	-5.315505e-38
4	0x03af4d88	1.0303376e-36
5	0x0341436c	5.6795e-37
6	0x82700808	-1.763472e-37
7	0x14935542	1.4876835e-26
8	0x017bc484	4.6242412e-38
9	0x898b9c8e	-3.3610256e-33
10	0x84b2cd61	-4.203621e-36
11	0x9685809f	-2.156848e-25
12	0x81b5af84	-6.674075e-38
13	0x8488b94c	-3.2143615e-36
14	0x02470416	1.4621384e-37
15	0x850fe98e	-6.766725e-36
16	0x16734900	1.9652418e-25
17	0x827339fb	-1.786946e-37
18	0x81c45200	-7.2116693e-38
19	0x82c6804a	-2.916712e-37
20	0x82ea25bd	-3.440487e-37
21	0x81de3e2c	-8.1639133e-38
22	0x8edd67e9	-5.4580768e-30
23	0x053d73bc	8.907994e-36
24	0x81686542	-4.268432e-38
25	0x0353ee31	6.2280757e-37
26	0xa84fa1ae	-1.1525867e-14
27	0x877f8c58	-1.9225311e-34
28	0x00ea1648	2.1497499e-38
29	0x038211a0	7.64476e-37
30	0x21163294	5.0888916e-19
31	0xab8d9cd4	-1.0062181e-12
32	0x81c3297c	-7.1691214e-38
33	0x1058af95	4.2733752e-29
34	0x8281ffac	-1.9101595e-37
35	0x99719e89	-1.2491424e-23
36	0x83a0ccbf	-9.450962e-37
37	0x048c37bb	3.2965022e-36
38	0x0483fb8c	3.102896e-36
39	0x0864d33f	6.8859573e-34
40	0x8793a0dc	-2.2212646e-34
41	0x03201890	4.704797e-37
42	0x87993a83	-2.3055271e-34
43	0x8354e24f	-6.256099e-37
44	0x85bdf18d	-1.7862206e-35
45	0x84413236	-2.2710097e-36
46	0x8b23644c	-3.1468113e-32
47	0x0b12c362	2.8265567e-32
48	0x01c8a552	7.370562e-38
49	0x01385f40	3.38638e-38
50	0x9c61cbe8	-7.47098e-22
51	0x85301108	-8.2786084e-36
52	0x865441b6	-3.9921045e-35
53	0x81cac2c2	-7.4482545e-38
54	0x966bcb20	-1.9047244e-25
55	0xac8d16e2	-4.0100015e-12
56	0x822311ea	-1.198049e-37
57	0x02ec1ac8	3.4692455e-37
58	0x19f4a594	2.5295885e-23
59	0x81785290	-4.5609642e-38
60	0x86854c53	-5.014119e-35
61	0x04e1628c	5.2987747e-36
62	0x349d3eb3	2.9289149e-07
63	0x17cd4013	1.3263989e-24
64	0x01cc2521	7.499104e-38
65	0x8fb9ec66	-1.8333466e-29
66	0x0873e30f	7.339206e-34
67	0x05c93c82	1.8924176e-35
68	0x0ddf8d84	1.3777505e-30
69	0x874f2556	-1.5583921e-34
70	0x8361db8c	-6.6373585e-37
71	0x8b143cc7	-2.8549487e-32
72	0x82f00062	-3.526505e-37
73	0x81bf2b4e	-7.022446e-38
74	0x814b1fcc	-3.7308025e-38
75	0x0130d69c	3.248007e-38
76	0x008a44a0	1.2697916e-38
77	0xa189e7c0	-9.344825e-19
78	0x82c6c5e0	-2.920706e-37
79	0x82c70180	-2.9241283e-37
80	0x025194f4	1.5397642e-37
81	0x08502471	6.263556e-34
82	0x911a27c6	-1.2160714e-28
83	0x89813637	-3.1106604e-33
84	0x81e081e7	-8.2471005e-38
85	0x818f7bb8	-5.270743e-38
86	0x86188260	-2.8683807e-35
87	0x832fe590	-5.1691403e-37
88	0x86b28b2e	-6.7160664e-35
89	0x00ee31fc	2.1874779e-38
90	0x8c572720	-1.6574771e-31
91	0x04aec263	4.108572e-36
92	0x81a46c40	-6.0399417e-38
93	0x01ec0330	8.669728e-38
94	0x02b8f61b	2.7177628e-37
95	0x9682b7db	-2.1118662e-25
96	0x841bd0d2	-1.8316048e-36
97	0x03bc463e	1.1065774e-36
98	0x89b00734	-4.2377233e-33
99	0x15019de7	2.6175906e-26
100	0x8580d56c	-1.2115461e-35
101	0x8182d51c	-4.8060255e-38
102	0x0d69d234	7.205169e-31
103	0x8a6177c5	-1.0855882e-32
104	0x052fac86	8.260148e-36
105	0x8191733e	-5.342995e-38
106	0x0120a384	2.9504675e-38
107	0x14fba2e3	2.540877e-26
108	0x027a13d2	1.8372787e-37
109	0x02340d4c	1.3228127e-37
110	0x0616f8d8	2.8394686e-35
111	0xafbb1aa7	-3.403404e-10
112	0x1f217bb8	3.4195414e-20
113	0xa23856e0	-2.4982641e-18
114	0x08f72da8	1.48765055e-33
115	0x01f69b28	9.0588767e-38
116	0x828e4a46	-2.0907656e-37
117	0x86d39820	-7.9592906e-35
118	0x875bf4f2	-1.6547712e-34
119	0x94f99893	-2.5202755e-26
120	0x868f4806	-5.389645e-35
121	0x035ad0c0	6.4304075e-37
122	0x8045a0ac	-6.394287e-39
123	0x812090b4	-2.9491178e-38
124	0x8110add4	-2.6573338e-38
125	0x2bae0f95	1.2367768e-12
126	0x0eacecbf	4.262925e-30
127	0x022f7fb0	1.2893614e-37
128	0x8522d553	-7.656385e-36
129	0x01d50f84	7.8266107e-38
130	0x05a70950	1.5708025e-35
131	0x057693f2	1.1594038e-35
132	0x812641e0	-3.0536648e-38
133	0x09015ac4	1.5570488e-33
134	0x07fd900c	3.8151872e-34
135	0x83480dca	-5.8790547e-37
136	0x030510dc	3.910454e-37
137	0x857c51d2	-1.1864011e-35
138	0x932b8dc8	-2.1653138e-27
139	0x820b3454	-1.0227125e-37
140	0x85bf4143	-1.7985527e-35
141	0x02cc280a	2.9998087e-37
142	0x83871fe8	-7.941912e-37
143	0x81dda168	-8.1414185e-38
144	0x052bba64	8.074616e-36
145	0xaea98fea	-7.7107945e-11
146	0x029ba52d	2.287001e-37
147	0x01d3573b	7.763433e-38
148	0x80eb9068	-2.1633145e-38
149	0x040e8b4d	1.6755984e-36
150	0x879f5611	-2.3974246e-34
151	0x05a2e4b3	1.5318418e-35
152	0x81bd2e9a	-6.9494505e-38
153	0x02191b57	1.1248511e-37
154	0x0e29267d	2.084939e-30
155	0x00e8d5ec	2.1382576e-38
156	0x0615a5c2	2.8145565e-35
157	0x021a4e73	1.1336647e-37
158	0xa67091bf	-8.346425e-16
159	0x05071cf0	6.3529845e-36
160	0x00fac9e0	2.3031293e-38
161	0x0232d6ff	1.3139076e-37
162	0x0204a553	9.745274e-38
163	0x8fb55074	-1.7878967e-29
164	0x83317df0	-5.2160194e-37
165	0x07dd0d60	3.3260245e-34
166	0x01e48d4e	8.3956735e-38
167	0x812b171e	-3.1424325e-38
168	0x84b139c4	-4.166555e-36
169	0x815aac44	-4.016387e-38
170	0x035b81be	6.4507252e-37
171	0x06abbd5f	6.4601307e-35
172	0x83007dc2	-3.776018e-37
173	0x872fc105	-1.322226e-34
174	0x124917f4	6.345394e-28
175	0x8c4b4ca0	-1.566161e-31
176	0x944cbe0b	-1.0336847e-26
177	0x033fffc1	5.6423446e-37
178	0x829ac5b2	-2.2741738e-37
179	0x040924b2	1.6121122e-36
180	0x8ce867c2	-3.5807707e-31
181	0x2ce1a1b6	6.412838e-12
182	0x053d8003	8.910249e-36
183	0x0b8b5a96	5.367715e-32
184	0x80e9ff20	-2.1489192e-38
185	0x837ac6c2	-7.369656e-37
186	0x183fa950	2.4771652e-24
187	0x065aedb0	4.1175868e-35
188	0x01cdea4a	7.5641295e-38
189	0x82bb4ab1	-2.7520051e-37
190	0x017bede1	4.627209e-38
191	0x8319045c	-4.4967663e-37
192	0x88fa4b69	-1.50640565e-33
193	0x87f9b008	-3.7568818e-34
194	0x07a17983	2.4296006e-34
195	0x033572cc	5.33229e-37
196	0xaaaca88c	-3.067029e-13
197	0x8307ad98	-3.987221e-37
198	0x893e172f	-2.2881319e-33
199	0x8a00eecc	-6.2078885e-33

F.nbr.0.linears.0.bias f4 [20]
0	0x0436e329	2.1498304e-36
1	0x87eeb5fb	-3.5917218e-34
2	0x000c5e58	1.13587e-39
3	0x07da57db	3.2852631e-34
4	0x850bf671	-6.581013e-36
5	0x054cc8bb	9.628902e-36
6	0x8141b840	-3.5580694e-38
7	0x81917e3a	-5.3445714e-38
8	0x836d8bfb	-6.980873e-37
9	0x828fcfc0	-2.1131204e-37
10	0x0715f8f8	1.128268e-34
11	0x01b84d82	6.7702143e-38
12	0x048a4997	3.2511226e-36
13	0x01846543	4.8634445e-38
14	0x81111848	-2.6649715e-38
15	0x061b3602	2.919194e-35
16	0x0357ad83	6.3382003e-37
17	0x028eb5fe	2.0969483e-37
18	0x02150620	1.0948549e-37
19	0x02dda59a	3.2568082e-37

F.out.weight f4 [3, 40]
0	0xbda7a75b	-0.081862174
1	0x3e7dafb1	0.24774052
2	0xbe810b41	-0.252039
3	0xb9439f94	-0.00018656097
4	0x3e1ce431	0.15321423
5	0xbd87d4fd	-0.06632421
6	0xbe933c21	-0.28756812
7	0xbeae8b8d	-0.34090844
8	0xbe778eac	-0.24175519
9	0xbcef19c5	-0.029187093
10	0x3da8f27b	0.082493745
11	0xbe835064	-0.2564727
12	0xbe419ad2	-0.18906716
13	0x3dcfa728	0.101393044
14	0xbe414a2b	-0.18875949
15	0x3edc5ad9	0.4303806
16	0x3e5cf151	0.2157643
17	0xbcaaa6c9	-0.020831482
18	0x3e501282	0.2031956
19	0xbe34c192	-0.17651966
20	0x8283b98e	-1.9355223e-37
21	0x8c6ab04d	-1.8079758e-31
22	0x816453ce	-4.1937113e-38
23	0x1c1c80e1	5.178264e-22
24	0x0305a791	3.9277544e-37
25	0x0430e5c6	2.0794207e-36
26	0x017d3d88	4.6512908e-38
27	0x0811be6e	4.38582e-34
28	0x012dbed4	3.1911994e-38
29	0x818c27b2	-5.148484e-38
30	0x05ca39b8	1.9017191e-35
31	0x035e873c	6.539518e-37
32	0x8556014f	-1.0062472e-35
33	0x86148ad5	-2.7937704e-35
34	0x900dcda8	-2.796578e-29
35	0x02f2593a	3.5609918e-37
36	0x0900a044	1.5482796e-33
37	0x81ada414	-6.3785604e-38
38	0x8c180eed	-1.1714146e-31
39	0x84e559f9	-5.3920268e-36
40	0xbac51ae0	-0.0015037917
41	0xbe976dcd	-0.2957596
42	0xbc733b02	-0.0148456115
43	0xbda95fea	-0.08270247
44	0xbd099475	-0.033588845
45	0xbd27e941	-0.040993933
46	0x3e08f279	0.13373746
47	0x3e50c91d	0.20389219
48	0x3e7fa2a6	0.24964389
49	0xbdfd3e28	-0.12365371
50	0x3e21bf17	0.15795551
51	0x3d936b06	0.071981475
52	0x3d9d882e	0.0769199
53	0x3d985922	0.07438876
54	0xbe681551	-0.22664382
55	0xbea25cd2	-0.3171144
56	0xbe176ae2	-0.14786866
57	0xbdde21ca	-0.108462885
58	0xbe753ef2	-0.23949793
59	0x3e79b1c7	0.24384223
60	0x82f61e32	-3.6163783e-37
61	0x034afccc	5.965266e-37
62	0x021e72f0	1.1640992e-37
63	0x845c4d1e	-2.5896286e-36
64	0x03a4b2d3	9.68011e-37
65	0xa329b0f7	-9.198982e-18
66	0x820166eb	-9.506959e-38
67	0x8120ee8c	-2.9558508e-38
68	0x86dac7a6	-8.2295843e-35
69	0x1756f5cd	6.9457374e-25
70	0x858065fe	-1.2074528e-35
71	0x83372270	-5.38184e-37
72	0x0dc016d7	1.1838412e-30
73	0x05c21605	1.8251761e-35
74	0x328bc180	1.6269723e-08
75	0xacbd3e52	-5.378622e-12
76	0x1834da43	2.3374649e-24
77	0x07d1cdef	3.1567862e-34
78	0x8408ed56	-1.6095702e-36
79	0x01ef7261	8.795886e-38
80	0x3df0cbb4	0.11757603
81	0x3cefb4e2	0.029261056
82	0x3dd66d9c	0.10470125
83	0x3cdc4029	0.026886063
84	0x3e23b9a0	0.15988779
85	0x3e1d4e35	0.15361865
86	0xbdb5ef5b	-0.08883544
87	0xbafa9e31	-0.0019120631
88	0xbe210a30	-0.15726542
89	0xbda460cd	-0.08026276
90	0xbe05b8d0	-0.13058782
91	0xbe642bad	-0.22282286
92	0x3dfc0940	0.12306452
93	0xbdb9992f	-0.090624206
94	0x3c398c69	0.01132498
95	0x3c9c901f	0.019111691
96	0x3d7ea625	0.062170167
97	0x3defbe91	0.117062695
98	0x3e3991c9	0.18122019
99	0xbe4377d5	-0.19088681
100	0x14207a50	8.1020576e-27
101	0x826b2490	-1.7275566e-37
102	0x82de1798	-3.263351e-37
103	0x1d81ef63	3.4393536e-21
104	0x97fb3fa8	-1.6236564e-24
105	0x0d328ed2	5.50224e-31
106	0x03e82bd2	1.3645795e-36
107	0x8a041842	-6.360131e-33
108	0x831b4a17	-4.5635457e-37
109	0x0303d962	3.8746983e-37
110	0x067066b3	4.5214435e-35
111	0x9117db46	-1.1979369e-28
112	0x01dc2fda	8.08839e-38
113	0x0114f088	2.735588e-38
114	0x802ef5ec	-4.312653e-39
115	0x8901ff98	-1.564799e-33
116	0x0b1ae183	2.9828977e-32
117	0x82c73baa	-2.9274667e-37
118	0x8a5f78ed	-1.0759803e-32
119	0x228cf6d8	3.820843e-18

F.out.bias f4 [3]
0	0xbd643f31	-0.055724327
1	0x3d814a05	0.06312946
2	0x3e1b87b5	0.15188487

G.0.linears.0.weight f4 [2, 3]
0	0x3f599286	0.849892
1	0xbeee9155	-0.46595255
2	0x3e0bb81a	0.13644448
3	0xbdd7b23d	-0.10532043
4	0xbcdfc53f	-0.027315734
5	0x3e2f36cd	0.17110749

G.0.linears.0.bias f4 [2]
0	0x3e1db12b	0.15399615
1	0xbd97071e	-0.07374404

W.0.linears.0.weight f4 [2, 3]
0	0xbf04df33	-0.51903075
1	0xbdb22c0a	-0.08699806
2	0x3f4fbae9	0.8114458
3	0xbd5f873f	-0.05457234
4	0x3ec46152	0.383555
5	0xbed8674a	-0.42266303

W.0.linears.0.bias f4 [2]
0	0x3f021755	0.5081685
1	0xbeab9cfd	-0.3351821

L.0.linears.0.weight f4 [1, 5]
0	0x3ed75065	0.42053524
1	0xbbfe0362	-0.007751868
2	0xbea4befe	-0.32176965
3	0x3e9dde03	0.30833444
4	0xbea72386	-0.3264429

c0 f4 [1, 3]
0	0xc0063dd1	-2.097523
1	0x3fc12cf2	1.5091841
2	0x3f62efd7	0.88647217

h0 f4 [1, 2]
0	0x00000000	0.0
1	0x00000000	0.0
