future/three_body/params_012000.pth (torch_old, 35075 bytes, 54 tensors)

F.cur.0.linears.0.weight f4 [20, 5]
000000 69 c1 43 3d 89 e1 36 3d 64 06 f9 3d ff a6 64 3e
       0.047791872 0.04464868 0.12159422 0.22329329
000010 b5 79 14 bd 43 a0 f2 3b d6 a3 ec bd 22 a2 08 be
       -0.03624888 0.0074043586 -0.11554687 -0.13343099
000020 3b 2e 1d 3e ab be 32 be f7 35 1b b9 63 7f 1e ba
       0.15349667 -0.17455547 -0.00014802055 -0.0006046204
000030 c6 88 2d be 2f b7 58 be c9 81 1c 3e 7e 2a d1 bb
       -0.16946706 -0.21163629 0.15283884 -0.0063832393
000040 e2 4a 4a be 0b a9 b0 3e 9b 4a f5 3b 37 db e2 bd
       -0.19755128 0.3450397 0.0074857003 -0.11076968
000050 b4 62 b4 3c e6 b8 06 bc d1 17 33 3d de bb 31 3e
       0.022019722 -0.008222794 0.043723885 0.17356822
000060 d1 f7 65 bd 08 9f b7 3c 4d 81 a6 bc 0f 3a 14 3e
       -0.05614454 0.0224147 -0.020325327 0.14475273
000070 c9 3e 56 3e 7e ac c7 bd 0f de d4 3c 4d c9 41 be
       0.20922388 -0.09749697 0.025984792 -0.18924446
000080 a6 94 71 3d 39 07 96 3e 92 22 3a be 67 8a 24 bd
       0.058979653 0.29302385 -0.1817725 -0.040171053
000090 1a da 47 be 0d 93 3d 3e ad e1 8d bd 00 05 42 bd
       -0.19516793 0.18513127 -0.0692781 -0.04736805
0000a0 b9 5e b5 bd 43 ae 55 be ea b1 a0 bc 6b ce 56 be
       -0.088559575 -0.20867257 -0.019616086 -0.2097718
0000b0 e5 b3 0c be 15 27 c3 bd a4 d3 e1 bd 75 3f 1d bd
       -0.137405 -0.09528939 -0.11026695 -0.038390595
0000c0 16 50 8e be f3 c9 80 3d 83 85 8c 3c 9f 9a 0d 3e
       -0.27795476 0.06288519 0.017153507 0.13828515
0000d0 3c d6 52 be 5f 36 28 bd fb 04 58 3d 47 6e 4c bd
       -0.20589536 -0.041067477 0.052739125 -0.049909856
0000e0 17 ed 54 3d 71 ce df be f0 9c 01 be c7 9d fa bc
       0.05198392 -0.4371219 -0.12657523 -0.030592812
0000f0 1a 83 63 3c b7 25 28 3e 25 13 54 3e c9 81 25 be
       0.0138862375 0.16420637 0.20710428 -0.1616279
000100 00 a8 34 3e 30 72 6e 3c f9 12 f8 3d 26 70 d2 bd
       0.17642212 0.014553592 0.12112994 -0.10275297
000110 f6 c6 93 3e 62 e8 4a bd 15 b2 f3 3d ff f3 50 3e
       0.28862733 -0.049538024 0.11899201 0.20405577
000120 16 17 de bd b9 1c 94 bc 94 f3 b6 3d 06 ae c9 bc
       -0.10844247 -0.018080102 0.089331776 -0.024619114
000130 3b 96 87 be e1 86 26 3e 17 9f b6 bd 48 6b 93 bd
       -0.26481804 0.1626239 -0.08917063 -0.07198197
000140 57 d5 45 bd 9c fd 11 be 3a 36 55 3e 73 61 06 3d
       -0.04829916 -0.142569 0.20821467 0.03280778
000150 0a 93 bb 3d 57 9c e3 3c 62 37 76 3e bf e7 16 3e
       0.09158905 0.02778451 0.24044564 0.14736842
000160 c3 d1 48 be 91 7b 6f 3e d5 a7 80 3d 21 3e 51 3d
       -0.19611268 0.2338698 0.062820114 0.05108464
000170 a1 9f 60 3e 88 d1 60 3e 34 24 49 bd 37 cf 72 3c
       0.21935894 0.2195493 -0.04910679 0.014819912
000180 6b af 84 3d 34 ea 08 be fb 2b 9f 3e f3 4a 83 bd
       0.06478771 -0.13370591 0.31088242 -0.0641078

F.cur.0.linears.0.bias f4 [20]
000000 de f4 54 be 18 81 2d be 22 7f 4f be a0 e0 29 3e
       -0.20796534 -0.16943777 -0.20263341 0.16589594
000010 9d aa 1d 3e 60 49 20 3e cd dd 83 be 8b 99 3c be
       0.15397115 0.1565299 -0.25755158 -0.18417947
000020 22 ca 6b be a3 13 28 3e 50 d1 58 3e 99 b4 5c be
       -0.23026326 0.16413741 0.21173596 -0.21553268
000030 f6 b3 87 be 6a d4 8e be 05 78 07 bd f6 61 50 3e
       -0.26504487 -0.27896434 -0.033073444 0.20349869
000040 ec 0d 18 be c7 22 89 3e bf 34 1f 3e 42 76 93 3e
       -0.14849061 0.26784346 0.15547465 0.2880116

F.cur.0.linears.1.weight f4 [20, 20]
000000 a6 ad 75 3e 5f 58 de 3d 44 b6 78 bd 7b 1b e1 3c
       0.23992023 0.10856699 -0.060720697 0.027478924
000010 00 bb 8b 3d e7 b8 70 3e a2 fe 64 3e be ad e1 3d
       0.06822777 0.23508035 0.2236276 0.11019467
000020 33 96 03 3e 14 a4 84 be 2e 8a fb 3d 68 cf 35 3c
       0.12850265 -0.25906432 0.12282215 0.011096813
000030 11 a1 0b 3e 67 c1 27 3d a7 14 28 3d b1 2d 0c be
       0.1363566 0.040955927 0.04103532 -0.13689305
000040 e1 04 a5 bd 77 15 27 bd 98 0f 35 3e 3c 06 1e 3d
       -0.08057571 -0.040791955 0.1768173 0.038580164
000050 0b 17 2c 3e ca 30 52 be aa 71 33 be 31 e0 03 bd
       0.16805665 -0.20526424 -0.17523828 -0.032196227
000060 90 16 a1 bd ab 14 96 3e 92 34 0f 3e 49 c5 2c 3e
       -0.078656316 0.29312643 0.13984898 0.16872133
000070 af 7f 80 3c 90 c6 9e be 22 1d b6 bd f9 67 0b be
       0.015685884 -0.31010866 -0.088922754 -0.13613881
000080 09 e2 82 3d 54 bf 36 3e 75 07 b7 3d fd 5c a3 bb
       0.06390769 0.17846423 0.08936969 -0.0049854503
000090 61 ed 60 3e ff bc 99 bd 0e 79 9e 3e db 34 31 be
       0.21965553 -0.07506751 0.30951732 -0.17305319
0000a0 50 15 36 3d 99 6d 38 3e 4b 5b b6 bc 4c 12 e0 be
       0.04445392 0.18010558 -0.022260329 -0.4376396
0000b0 bc df 79 3d 20 34 5f bd a8 f3 60 3d e2 ce 87 be
       0.061004385 -0.05449307 0.05491987 -0.26525027
0000c0 10 38 f2 3d be 87 d1 be f2 9e 84 3d 12 3a b0 3e
       0.11827099 -0.40923876 0.06475629 0.34419304
0000d0 64 fc b3 3d 0e 18 bb 3e bb 8b b4 3e e3 8e 1b bf
       0.08788374 0.3654179 0.35262856 -0.607649
0000e0 ad 90 ce bd 3d 55 54 bd 3f 70 a3 3d 6e 2d 7f 3e
       -0.100861885 -0.051839102 0.079803936 0.24919674
0000f0 58 c5 dd 3d 83 3a 5e bd 8b 09 c7 bd e5 fe 5d 3d
       0.10828656 -0.05425502 -0.09718617 0.054198164
000100 4d 74 ee 3d a7 47 0e 3e bb 6e ac 3d 89 05 85 3c
       0.11643276 0.1389452 0.08419558 0.01623799
000110 d6 09 c1 bd 46 ae c2 3c 2f cd 1c be 30 94 b0 be
       -0.09425704 0.02376474 -0.15312646 -0.34488058
000120 ca 29 ba 3d 64 a3 06 3e 3f d0 3a 3d aa 61 85 3d
       0.09090002 0.13148266 0.045608755 0.065127686
000130 4f d8 58 3c bc 5a 41 3d 1e 80 26 3e e8 ba 44 3e
       0.013235166 0.04720567 0.1625981 0.19211924
000140 db 46 3d 3d 65 07 d6 bd 23 a1 86 3e 6d 8a 89 3e
       0.04621015 -0.10450629 0.26294813 0.26863423
000150 49 e3 31 be cb 40 49 be c3 22 03 be 19 5e f3 3e
       -0.17371859 -0.19653623 -0.1280623 0.47532728
000160 3e ca ef 3e 97 20 72 3e f7 93 9b be 06 1a 88 3e
       0.46833986 0.23645245 -0.30386326 0.26582354
000170 e0 1b 0a 3f 3c 31 de bd 3e e0 6d 3d 86 48 03 3e
       0.53948784 -0.108492345 0.058075182 0.12820634
000180 03 04 74 3e 1b 44 32 3e 16 c0 e5 bd 37 b7 b0 be
       0.23829655 0.17408793 -0.11218278 -0.34514782
000190 55 00 0e 3e 98 9d ad 3d 7f d8 5e 3c 64 c1 73 bd
       0.13867314 0.08477324 0.013601421 -0.059510604
0001a0 80 65 39 3d 86 eb af 3c 76 77 22 be c7 a0 5a be
       0.045262814 0.021474611 -0.15865883 -0.21350394
0001b0 a2 c4 ec bd 51 04 e4 bd 2f b9 95 bd 20 82 45 bb
       -0.11560942 -0.11133636 -0.073107116 -0.0030137375
0001c0 70 68 94 3e 7d 4b 65 3d 55 0e 54 3e 8f b2 36 be
       0.2898593 0.055980194 0.20708592 -0.17841552
0001d0 c8 b9 ee 3d c1 b3 66 3e ee 97 31 3d 4f 66 cb 3d
       0.11656529 0.22529508 0.043357782 0.09931623
0001e0 45 5e ea bd 0e f9 99 bd 7e 43 41 3e 07 ec 64 bc
       -0.11443762 -0.075182065 0.18873402 -0.013972289
0001f0 e1 44 9a bd 91 68 35 bd 20 65 94 3c 6d 8a aa 3d
       -0.07532669 -0.044289175 0.018114626 0.08327184
000200 a0 59 32 3e 56 b5 76 3e f4 ef 03 3d e9 05 41 3e
       0.17417002 0.24092612 0.03221126 0.18849911
000210 0d bb dc bc e4 4e 35 be 70 10 15 be 55 49 8b 3a
       -0.026944662 -0.17705876 -0.14557052 0.0010626713
000220 5b 79 60 3c 52 31 e7 bd 53 99 b1 3c 4e 2f 18 be
       0.013700808 -0.11288704 0.021679556 -0.14861795
000230 9a 7f e8 3c 42 13 02 bf 23 66 45 3d 65 ed 9e 3d
       0.028381158 -0.50810635 0.04819311 0.07760123
000240 f6 e5 94 bd d6 a3 ec 3b b3 a8 2c be a3 fa 0f 3e
       -0.07270424 0.007221679 -0.16861229 0.14060454
000250 69 fd 54 bd 3a 74 89 3e c1 50 5a 3d 66 28 4c be
       -0.051999483 0.26846486 0.05329967 -0.19937286
000260 96 4e 61 3e b3 f5 a3 be 8a 7e 63 3e 38 cf 4e 3e
       0.22002634 -0.3202339 0.2221624 0.20196235
000270 a2 2f b3 3c 99 e7 c6 3e af 0d 55 3e a4 3b 67 be
       0.021873299 0.3884857 0.20806001 -0.22581345
000280 4e c6 93 bd a9 51 7e bd df 36 ff bb 87 27 e9 3c
       -0.07215558 -0.062089596 -0.0077885236 0.02846123
000290 35 3e cd 3c 4c a7 04 bd 6e 34 ff 3d a7 38 97 3e
       0.025054077 -0.03238611 0.12461172 0.2953541
0002a0 46 b6 83 3e 16 53 65 3e 66 a6 65 bd de d8 a5 3d
       0.25725 0.22394976 -0.056066893 0.08098005
0002b0 c1 06 8d 3e ce ac bc be db 85 2d 3c a7 c5 24 3e
       0.27544215 -0.3685059 0.010590996 0.16091023
0002c0 40 99 00 3e 1d 21 2e 3d e4 66 8d bc 29 4f b8 bd
       0.1255846 0.042512048 -0.017260976 -0.089994736
0002d0 ef 6b 55 be 85 2d a1 3e bd 18 50 be 73 c7 95 3e
       -0.20841955 0.3148004 -0.20321937 0.2925373
0002e0 f8 ca 66 3d 02 63 a0 3d ea 21 2f 3e c8 e2 00 3e
       0.05634591 0.07831384 0.17102781 0.1258651
0002f0 67 7b 93 bd 0c 3e 1b 3e dc 24 1c be bf 36 8b be
       -0.072012715 0.15160388 -0.15248436 -0.27190205
000300 8d 42 87 be 8e c3 ed bc 51 31 aa be 51 90 df 3e
       -0.26417962 -0.029023912 -0.3324075 0.43664792
000310 8f 0a d6 3d 88 75 7e be c8 91 6e 3d 39 4f a9 bd
       0.10451233 -0.24849522 0.058244497 -0.08267064
000320 0a a9 df 3d df 4a c4 3d 67 73 f2 3d a4 0d b5 be
       0.109209135 0.09584593 0.118384175 -0.3536197
000330 9a 99 82 3c a9 bd 15 3d 65 db 07 be ce 08 9b 3d
       0.015942384 0.036557827 -0.13267286 0.07570039
000340 e5 74 0c bd 21 1f df 3c 29 1d 18 3e b6 40 9b 3e
       -0.034291167 0.027236523 0.14854874 0.30322808
000350 04 43 35 bd a2 69 81 3e 7e 3e 46 3c b2 e3 64 bd
       -0.044253364 0.25275904 0.01209986 -0.05588121
000360 88 da 90 be 22 1c 46 be a1 67 1e bd 5a ae 6f 3e
       -0.28291726 -0.1934667 -0.038673047 0.23406354
000370 3b 44 b7 3e 4b a0 b1 3e a2 62 a1 bd 4b e7 a4 bd
       0.35794243 0.34692606 -0.07880141 -0.08051928
000380 8b 0b 40 3d c5 63 41 3e ad 24 12 3f 03 ec 9e 3d
       0.04688601 0.18885715 0.5708721 0.077598594
000390 ea 0b 90 3e 4f b9 bf be ae 31 54 be 88 52 dc 3d
       0.2813409 -0.37446067 -0.20722076 0.10757929
0003a0 a1 28 f4 bd 7c 9d c6 3e 15 2a eb bd 0e 17 30 bd
       -0.11921812 0.38792026 -0.11482636 -0.042990737
0003b0 4d 8a 4a 3e 93 0c a3 be 5e 12 7d 3e 6c b1 ef 3e
       0.1977932 -0.3184553 0.24714038 0.4681505
0003c0 e9 d6 da bd d5 d6 72 bc 30 ad 98 3e 05 59 45 be
       -0.10685522 -0.014821728 0.29819632 -0.1927224
0003d0 f9 9d 49 be f6 14 e0 bd de b5 05 be f4 dc 23 3e
       -0.19689168 -0.10941498 -0.13057658 0.16002256
0003e0 fb 02 b6 3e 66 ce d9 3e d8 91 9f 3d 13 c5 a2 3e
       0.3554915 0.42540282 0.07791489 0.3179098
0003f0 42 a5 c9 3d 3f b7 f9 bd c5 f7 08 3e b4 bf f8 3d
       0.098459736 -0.121931545 0.13375767 0.121459395

F.cur.0.linears.1.bias f4 [20]
000000 fa 6f eb 3c c7 d6 23 be fd c6 06 be 58 a4 76 3d
       0.028739918 -0.159999 -0.13161846 0.060215324
000010 19 0a 6f be 80 8b 0a 3d e0 e5 f9 3c 83 f7 08 3e
       -0.23343696 0.033824444 0.03050512 0.13375668
000020 45 ac 9c bd 2d 93 12 3e 88 91 e0 3b 09 1d 57 be
       -0.07650045 0.14313956 0.006853286 -0.2100717
000030 87 e2 1f be 99 b4 9e bd 3a 73 ee 3d 5b 47 35 bd
       -0.15613757 -0.0774929 0.116430715 -0.044257503
000040 9b 94 0c 3e f2 ba d5 bd 08 89 77 bd 75 96 8e bd
       0.13728563 -0.104360476 -0.060433418 -0.06962291

F.nbr.0.linears.0.weight f4 [20, 10]
000000 0c c2 27 3b cc 87 90 3d 40 a6 26 bc 84 2e 4d be
       0.0025597839 0.07057151 -0.010171473 -0.20037276
000010 6e 1a 03 be bd fd 38 bd 28 3f db bd b2 5b ad be
       -0.12803051 -0.04516386 -0.107054055 -0.3385902
000020 f6 5e e8 3d 36 c6 c3 3d b0 00 01 3d e2 a2 6e bc
       0.11346237 0.0955929 0.031494796 -0.0145652015
000030 c8 c2 26 bd 04 e9 3e be 07 ab 22 be b3 63 d4 bd
       -0.0407131 -0.18643576 -0.15885554 -0.103705786
000040 96 eb ff bc e6 ba 28 be 50 71 8a 3c 40 73 31 3e
       -0.031240266 -0.16477546 0.016899735 0.1732912
000050 62 9e c2 bd 68 6d 4a bc b1 79 e6 3c 7f c8 30 bd
       -0.095028654 -0.012355186 0.028134199 -0.043159958
000060 b1 ff 70 be d7 e8 9a 3c f9 a7 67 bd 58 28 82 be
       -0.23535039 0.018909855 -0.056556676 -0.25421405
000070 55 4f 1f 3e 2a 47 27 3d 76 ad eb bd 27 4a e8 bc
       0.15557607 0.04083935 -0.115076944 -0.028355671
000080 24 93 57 be 0a c2 a4 bd bd 86 fd bc d1 0e 27 3d
       -0.21052223 -0.080448225 -0.030948037 0.040785614
000090 1e c7 2b be c8 0b 6e 3e be 2d 86 3e 11 99 b6 bc
       -0.16775176 0.23246682 0.26206774 -0.022289785
0000a0 46 45 68 3c 87 b4 94 be 1c 87 e3 3c b5 83 2c bd
       0.014176672 -0.2904398 0.027774386 -0.042117793
0000b0 b7 a1 1a be 11 09 8e bd c4 71 03 bb d1 d9 90 bc
       -0.15100752 -0.06935323 -0.0020056823 -0.017681988
0000c0 fe 13 0a bd 55 a1 f7 3b 70 44 ea bd 19 a2 20 be
       -0.033710472 0.007557074 -0.11438835 -0.15686835
0000d0 00 26 f1 bc 40 a0 b9 3c 52 e3 cc 3d 01 67 27 3d
       -0.029437065 0.022659421 0.100042954 0.040869717
0000e0 d0 d2 14 be 9a ae d6 3d ed fc 25 be 69 eb 77 be
       -0.14533544 0.10482521 -0.16209765 -0.24210896
0000f0 d3 6b 02 3e 1e 19 c4 3d 91 d2 15 be 97 c6 20 bd
       0.12736444 0.09575103 -0.14631106 -0.03925189
000100 36 12 fd 3d 56 67 9a bc df a8 64 3c c4 f6 b2 3e
       0.12356989 -0.018848103 0.013956278 0.34953892
000110 0a c1 8f bd e1 f0 7b bc be 14 02 3e ca b7 91 3d
       -0.07019241 -0.015377254 0.12703225 0.07115133
000120 cf 89 a6 3d 3c df 9e bd 02 a4 20 be 79 ef 1a 3d
       0.08131754 -0.07757422 -0.15687564 0.037826035
000130 8c 0e d5 3d ab b9 45 bd 5a a2 c2 3c 5f 9d 8a 3e
       0.10403165 -0.04827277 0.023759056 0.2707319
000140 64 9e bb bd 3a 22 7b 3c e2 4f cd bc 78 3a db 3b
       -0.0916107 0.0153279845 -0.025062505 0.0066903196
000150 cc b9 12 3e d8 66 c2 3d 39 48 ee bd cc bb 3e 3e
       0.14328688 0.09492272 -0.11634869 0.18626326
000160 5e 6e 2b 3e b5 4f 88 be b5 6e ee 3d c8 a0 3b be
       0.1674132 -0.26623312 0.116422094 -0.18323052
000170 94 ba 17 bd 8a 28 63 3d 3e 5f 0a 3d 1f da 43 be
       -0.03704317 0.055458583 0.033782236 -0.19126175
000180 7c c0 82 3c b1 b1 81 be 8a fe 21 bd 53 6c 1c be
       0.015960924 -0.2533088 -0.039549388 -0.15275697
000190 d7 46 4a be 56 84 68 3d 75 55 1a be 71 ef 5b bd
       -0.19753586 0.05676683 -0.15071662 -0.053695146
0001a0 a7 bc 00 3e 8e a9 1b 3e e1 3b 22 be 29 34 b1 3e
       0.12571965 0.15201399 -0.15843154 0.34610108
0001b0 c0 55 80 bd 2a 5e 27 bd 0f 66 08 3d 31 16 81 be
       -0.062663555 -0.040861286 0.033300456 -0.25212243
0001c0 e0 e1 37 bd de 41 a4 3d ab 16 5d 3d 25 ee bc bd
       -0.044893146 0.08020376 0.053976696 -0.0922511
0001d0 5a 6b 6f 3d 68 21 69 3e d6 48 1a bc 15 46 6d be
       0.058451988 0.2276665 -0.0094167795 -0.23171265
0001e0 7f 7d f3 bc 84 54 79 3d f2 de d9 3d 98 73 62 3b
       -0.029722927 0.060871616 0.106382266 0.0034553763
0001f0 2f fe 32 3e bc c4 26 3e 14 8d 1d 3e 8e f6 df 3d
       0.17479776 0.16285986 0.15385848 0.109356984
000200 c5 01 7b 3e b9 5c 14 be 79 4c df bd 82 2c 17 bd
       0.24512394 -0.14488496 -0.10903258 -0.03690768
000210 69 6d 03 3e 8f 81 2b bd db 19 5f be ed 76 eb 3d
       0.12834705 -0.041871604 -0.21787207 0.11497293
000220 27 8d f6 3c 12 d2 c7 bd 57 1b a1 3d 3f 80 44 3e
       0.030096604 -0.097568646 0.07866543 0.19189547
000230 03 28 ec 3b d1 c2 20 3e 14 02 c2 b8 a6 3d f5 3c
       0.007206918 0.15699317 -9.251028e-05 0.029936623
000240 67 ef 52 bd 23 c6 24 3c 8c 12 e5 bd 26 ee 92 be
       -0.051497843 0.010057005 -0.11185178 -0.28697318
000250 04 39 37 3e 78 8d 98 3b a5 25 95 bd ae 85 b1 3d
       0.17892843 0.0046555363 -0.07282571 0.086680755
000260 25 19 d7 3d e2 38 41 bd 6c ca 82 bc eb 12 6c 3d
       0.10502843 -0.04717339 -0.015965663 0.05763523
000270 8c 62 8b bd 12 97 2e bd 98 00 87 bd 5e 97 31 3d
       -0.06805906 -0.04262454 -0.0659191 0.043357246
000280 8c d1 96 bb 7a 4d 84 3e fe 32 c4 bc 29 18 9a 3c
       -0.0046026167 0.2584036 -0.023950096 0.018810349
000290 97 bc 50 3e 98 1b 0f 3c cd d1 ba bd 35 85 83 bd
       0.20384441 0.008734606 -0.091220476 -0.064218916
0002a0 9c a5 8e 3d 0a ee 42 be 49 c5 98 3c c0 0b 7d be
       0.06965181 -0.19036117 0.01864876 -0.24711514
0002b0 ef a2 7d bd cc 6d 23 3d 81 ae 29 3e 2f 4e 49 bd
       -0.061922964 0.039899632 0.16570474 -0.049146827
0002c0 15 a0 2d bc fd 18 cf bc 85 0b c2 bd e1 23 54 be
       -0.010597249 -0.02528047 -0.094748534 -0.20716812
0002d0 22 0e d9 3d 2c 75 0d be fa a9 2d 3c 15 ec bb bc
       0.10598399 -0.13814229 0.010599608 -0.022939721
0002e0 b5 8d ad 3d 9c 7f 32 be ac 7e 01 bc a9 19 79 3b
       0.08474294 -0.17431492 -0.007903736 0.003800968
0002f0 df fe 1d be 1f d6 b6 bd 1b 3a 4d 3e d5 09 ca 3c
       -0.15429257 -0.08927559 0.20041697 0.024662891
000300 01 d2 57 3d d9 e3 78 bc 8c 44 38 bd dc 5f 2b be
       0.05269051 -0.015191042 -0.044987246 -0.16735786
000310 b5 7a af 3b 75 c7 c8 bd 09 36 9c 3d 4e 2c 6a 3d
       0.005355204 -0.098036684 0.07627494 0.05717116

F.nbr.0.linears.0.bias f4 [20]
000000 74 13 8b 3b da 7a cc 3d 67 91 65 bd 45 7f 13 bd
       0.0042442624 0.099843696 -0.05604687 -0.036010046
000010 c4 ed ea bb 80 36 40 bd 8f 4b 0c bd 90 4b bd bd
       -0.007169457 -0.046926975 -0.034251746 -0.09242928
000020 ff b4 b2 3b 2b 63 89 bc 6f 71 03 bb 9a c3 5a bd
       0.0054537053 -0.01677092 -0.0020056625 -0.053409196
000030 82 d0 04 bd 83 3d c0 bc 37 d0 f9 bd b9 0c b0 3d
       -0.03242541 -0.023466831 -0.12197917 0.08596177
000040 f1 af 1b be b1 b9 3a bd 9f 18 d7 bd 30 0e 12 3c
       -0.15203835 -0.045587245 -0.10502743 0.008914515

F.nbr.0.linears.1.weight f4 [20, 20]
000000 34 34 c3 3c 64 87 32 3e 66 a9 da bd 36 19 ce bd
       0.023828603 0.1743446 -0.106768414 -0.10063402
000010 ee 5e 65 3d d4 9a 9e be e6 0b 7f bd 99 19 80 3b
       0.055998735 -0.309775 -0.062267207 0.0039093015
000020 83 7b 4e 3e 0a 83 14 3e 09 c8 a9 be 17 1c 2f 3d
       0.20164303 0.14503112 -0.33160427 0.042751398
000030 25 d1 17 be a7 c7 11 3d 64 37 8d 3d e8 46 c7 3c
       -0.14825876 0.035590794 0.068953305 0.024325803
000040 9d 2f 05 3e 5a 8c a9 bd 3a 2a 35 bc e8 f5 3c 3e
       0.13006444 -0.08278723 -0.011057431 0.18453181
000050 ae b1 37 be 25 28 d3 3c ca 6b 0e be 25 f7 2a 3e
       -0.17938873 0.025775978 -0.13908306 0.1669584
000060 e1 f5 9e 3d 0a 25 7b 3e 17 02 5c ba 68 df 29 3d
       0.077617414 0.24525848 -0.00083926454 0.041472822
000070 74 37 41 3e 05 f1 85 3d 9b b2 06 3d 44 d9 21 3e
       0.1886881 0.065401115 0.032885175 0.15805537
000080 3c 39 a4 bd c0 9f 3f 3e 40 da 89 bd 34 9f 26 3b
       -0.08018729 0.18713284 -0.06731081 0.0025424482
000090 c8 24 4a 3b 9c 9d 76 3d 60 ce 18 ba 02 dc a0 3c
       0.0030844677 0.0602089 -0.0005829092 0.019636158
0000a0 29 a7 ae bd 8d b0 54 be 61 0e 92 3b f5 4c 25 3c
       -0.08527977 -0.20770474 0.0044572805 0.010089149
0000b0 17 1c 26 3d 6e 27 38 3e cf 1e 4b 3e 7d 77 4f bc
       0.040554132 0.17983791 0.19835971 -0.012662766
0000c0 d8 3b 13 3e 0c fc d1 bb c4 99 51 bd 8a 47 5f bd
       0.14378297 -0.00640822 -0.051172033 -0.054511584
0000d0 e2 96 3c 3e 94 fb a9 bd 8e c1 8e be e8 e0 bc 3c
       0.18416932 -0.08299938 -0.27882046 0.023056462
0000e0 ef 16 a9 3d a4 1a 89 3e 25 3c 65 3d 81 29 a3 3d
       0.08256327 0.26778138 0.05596556 0.079669006
0000f0 50 49 f2 bd 66 b4 4c be bb ea 83 be 5e 5e 12 be
       -0.118303895 -0.19990692 -0.25765023 -0.1429381
000100 66 0d 1e 3d 86 f6 eb 3d ed a5 0e 3e 1b b9 1b bd
       0.038586996 0.1152163 0.13930483 -0.038018327
000110 dc b7 ec 3d 3a 50 41 3d 54 50 15 be 09 42 67 3e
       0.11558506 0.04719565 -0.14581424 0.22583784
000120 d4 27 e5 3c 94 64 15 be 19 21 29 3d e8 40 33 bd
       0.027973093 -0.14589149 0.04129133 -0.04376307
000130 99 73 05 be cb 25 83 ba fc 79 f6 3c 16 62 3d 3d
       -0.13032378 -0.001000577 0.030087464 0.04623612
000140 79 5e 6c 3c 5a ec 79 3e 63 d4 26 3e bd 90 34 3b
       0.014426821 0.24406567 0.16291957 0.002755209
000150 3c 36 66 3e 15 e9 ac bd f5 ba 9f 3c 43 91 87 bd
       0.22481626 -0.08442894 0.019498328 -0.06619503
000160 1f d3 8e 3d ca 5a 89 3d 6e 67 68 3d f2 06 38 3e
       0.06973862 0.0670677 0.056739263 0.179714
000170 f7 f1 30 be b2 19 d2 3d 14 99 92 be ac 51 b1 bd
       -0.17279802 0.10258807 -0.28632414 -0.08658156
000180 72 21 21 bd 5d 10 86 3d 96 44 88 3e b2 48 5f 3d
       -0.039338537 0.0654609 0.26614827 0.054512687
000190 d2 5a 3f 3e 9e fd ef bd 61 0d 3f be 9b 9c 63 bd
       0.18686989 -0.117182955 -0.18657447 -0.055569272
0001a0 eb ce c4 bc c4 b2 99 3d e7 ef 99 bc 41 27 30 bd
       -0.024024447 0.075048 -0.018791152 -0.043006185
0001b0 d3 a6 09 be db 60 1b 3e 01 8d c5 3c 1d cc b9 3d
       -0.13442545 0.15173666 0.024115087 0.09072135
0001c0 03 1b 4b bd 5a 1b 60 3d 1c 92 44 be 2f 23 1d be
       -0.049586307 0.054713584 -0.19196361 -0.15345453
0001d0 98 8c 32 be ca 2e 02 3e 01 2f 0e be a4 c8 58 bd
       -0.17436445 0.12713161 -0.13885118 -0.05292572
0001e0 f1 5d 96 bd d4 16 d1 3d 90 ad 3b bd 25 71 e9 3d
       -0.07342137 0.10209432 -0.04581982 0.11398534
0001f0 a0 a1 09 3e 83 60 8f 3e c9 44 50 3c e7 ad c0 bc
       0.13440561 0.2800332 0.012711712 -0.023520423
000200 c0 fd 1c bd de 55 24 3e d8 40 d5 bd 6e 5d 5b 3e
       -0.038327932 0.1604838 -0.104127586 0.2142236
000210 17 0c 83 bd f0 af a5 bc 1a 2d 8d bd 27 09 11 3d
       -0.0639879 -0.020225495 -0.06893368 0.03540912
000220 c0 e8 09 be 01 6e b1 3d 0f c3 a6 3e 22 8f 33 bd
       -0.13467693 0.0866356 0.32570693 -0.043837674
000230 42 ab 48 3e 8e bc c3 3d d9 c3 e9 3d dd df e2 3c
       0.1959658 0.09557448 0.11414308 0.027694637
000240 dc f6 9b bd 3c 89 b0 bd 5a 94 ca 3d 15 e8 10 3d
       -0.07615444 -0.086199254 0.09891577 0.03537758
000250 76 24 6d bd b1 f6 90 bd a3 e6 9e bd 7b 35 c1 bd
       -0.0578961 -0.07078303 -0.07758834 -0.09434029
000260 f2 53 58 3e d6 2a fa 3d 30 71 6c 3e 92 e3 c3 3d
       0.21125773 0.122152016 0.23090053 0.0956489
000270 12 49 a9 3d 31 e9 3d be 5c 32 84 be b8 fd 88 3d
       0.0826589 -0.18545987 -0.2581967 0.06689018
000280 d9 cd 48 3e 38 2c 85 be 6c 9b da bd bf 65 c8 3c
       0.19609775 -0.260103 -0.106741756 0.024462579
000290 c1 2b 8e be 6c 45 18 3d 2e 71 08 3e 10 c6 10 be
       -0.27767757 0.03717558 0.13324425 -0.14138055
0002a0 d3 09 2e 3e 6e 95 25 3e 21 d5 46 bd ca d3 f5 bc
       0.16995935 0.16170284 -0.0485431 -0.030008215
0002b0 54 43 bf 3e 6b 84 14 be 19 86 19 3e 41 82 1b 3e
       0.37356055 -0.14503638 0.1499256 0.15186407
0002c0 1a 7c 37 3e b3 10 1a be a3 6b 68 bd 23 10 6d bd
       0.17918435 -0.15045433 -0.056743275 -0.057876717
0002d0 c2 3d 0f bd ab 3c 19 be bb 15 dc bd 5a 1a 8a bd
       -0.034971006 -0.14964549 -0.10746332 -0.067433074
0002e0 03 62 16 3e bc ee f7 3b 35 16 a0 bd d3 00 c3 3c
       0.14685826 0.007566301 -0.07816736 0.023804104
0002f0 f2 8d 49 3d 5a 05 ad 3d 46 5a ac 3d 8a 93 94 3e
       0.049207635 0.08448286 0.08415656 0.29018813
000300 0b 9b 81 bd 06 ef 32 3d c1 89 0f be 6a b6 0b 3d
       -0.063284 0.04368498 -0.14017393 0.03410951
000310 b4 a9 09 be 1b 7b 37 3e 5a 7e b1 3c a8 a8 88 be
       -0.13443643 0.17918055 0.021666694 -0.26691175
000320 e9 8e 06 bd 23 26 56 3d b5 53 80 bd 0e 43 ec bd
       -0.032851133 0.052282464 -0.06265966 -0.11536227
000330 c3 77 fc 3d 26 21 06 3d a0 ee 8e bc dd 80 41 be
       0.1232753 0.032746457 -0.01744777 -0.18896814
000340 be 94 c6 bd e6 5a bf 3a f7 fd d3 bd 92 a1 b3 bc
       -0.09696339 0.0014599233 -0.10351174 -0.021927629
000350 ce 9f 87 be 11 44 f2 3d d0 54 8b 3d 98 2a 45 bc
       -0.2648911 0.11829389 0.06803286 -0.012034081
000360 bb 27 68 bd ab e8 3d be 3b 81 ae 3d 88 a6 3e 3d
       -0.056678515 -0.18545787 0.085207425 0.046545535
000370 ae 2f c9 3d c0 37 82 3e 4b 13 37 3e 41 7d b6 bd
       0.09823547 0.2543316 0.17878453 -0.08910609
000380 a3 e7 81 3e 2e 10 92 bc a7 12 2b be 31 c6 1a bb
       0.25372037 -0.01782998 -0.16706334 -0.0023616666
000390 c9 c8 98 be 3f 68 cd 3d 0c 5b 9c be 13 fe ad be
       -0.29840687 0.10029649 -0.30538213 -0.33982906
0003a0 66 7c 79 be 9c 6b 78 3e e3 51 44 3b 9a bd 0a 3e
       -0.2436386 0.242598 0.0029956035 0.1354889
0003b0 b7 be 1d be cd f6 0f be 66 8f 25 bc 82 ac 1a bd
       -0.15404783 -0.14058991 -0.01010499 -0.037762173
0003c0 8a 4e 74 bd a6 c6 06 be 54 88 57 3d 71 99 44 bd
       -0.059645213 -0.13161716 0.052620247 -0.047997896
0003d0 0f 7f ce bd 94 75 2c 3e 46 1d 2a bd fc da d8 3d
       -0.10082828 0.16841727 -0.041531824 0.10588643
0003e0 ea 5b 5b bd f0 69 05 3e a4 02 05 3d a5 ba 68 bd
       -0.053554453 0.13028693 0.03247322 -0.056818623
0003f0 cf 21 36 be be 6f b7 bd 06 f5 e3 bd d0 c1 fe 3c
       -0.17786334 -0.0895686 -0.11130719 0.031098276

F.nbr.0.linears.1.bias f4 [20]
000000 05 73 64 bc 42 f2 7b bc c6 f5 10 bd 25 c3 a5 3d
       -0.013943438 -0.015377583 -0.035390638 0.080938615
000010 9d 81 aa bc 27 97 73 bd 0a 32 ef bd f8 b0 5b 3c
       -0.020813758 -0.059470322 -0.11679466 0.013408892
000020 75 73 12 3b 42 16 a0 3d 2b e4 eb 3b 8e e8 70 bd
       0.002234665 0.07816745 0.0071988306 -0.05881553
000030 44 a0 4b 3d c1 1f bb bc ea 81 c6 bc 9b a9 3e bd
       0.049713388 -0.02284229 -0.02423187 -0.046548467
000040 39 6d cd bc 55 15 8e 3c 3f 8b 22 bd 38 6b d5 bb
       -0.025076495 0.017344156 -0.039683577 -0.0065130256

F.out.weight f4 [5, 40]
000000 51 96 0f be 84 54 3b bd 36 eb aa bd f9 1f 12 be
       -0.14022185 -0.045734897 -0.08345644 -0.14270009
000010 23 0c e2 bc 7c 02 0c be 55 d5 f7 3d 9b de 0e bd
       -0.027593678 -0.13672823 0.12101237 -0.034880262
000020 75 1a 3d 3d 2b 43 07 bc 0b 4d 10 3e 43 c9 b4 bc
       0.04616781 -0.00825576 0.1409189 -0.022068625
000030 91 b2 9c 3c 45 8e f6 bd a6 d7 82 bc 84 50 23 be
       0.019128116 -0.120388545 -0.01597197 -0.15948683
000040 ea ff bd bd 69 56 cf bd ff 9f 10 3e fb f5 a9 bd
       -0.09277327 -0.10123903 0.14123534 -0.0829887
000050 f0 b2 ac bd b5 34 0c 3e 0c 43 0b 3d 5e 6d a1 bd
       -0.08432567 0.13691981 0.033999488 -0.07882188
000060 2b 33 95 bd c5 d9 4d bc ff 7e 08 3d 9e c5 83 3d
       -0.0728515 -0.012564127 0.033324238 0.06434177
000070 f9 a5 cc 3c ad 05 ad 3d 40 13 bd bd 4d 1b ab 3c
       0.024981486 0.08448348 -0.09232187 0.020887041
000080 6a d4 bd 3c 8a 51 54 3d 98 8b 8f 3d 0e 7a 29 3c
       0.023172576 0.051835574 0.07009047 0.0103440415
000090 8b 21 54 be 0c 8a f2 bb de c9 be bc 0c 97 e1 3c
       -0.2071592 -0.0074017104 -0.023289617 0.027537845
0000a0 e5 85 66 3e 67 87 4d 3e b0 08 38 3e 43 52 60 3e
       0.22512014 0.20071183 0.17972064 0.2190638
0000b0 b0 b5 d4 be 3c f1 5a bd f1 e5 6e be 54 70 e9 be
       -0.41544867 -0.053452715 -0.23329903 -0.45593512
0000c0 5b 07 70 be 94 17 22 3e d7 b6 5c 3d ac 4f ee 3e
       -0.23440306 0.15829307 0.053885307 0.4654516
0000d0 75 0f e8 be 74 94 e0 3c 23 34 af 3e b3 c6 10 be
       -0.45324293 0.027414538 0.34219465 -0.14138298
0000e0 37 9b a8 3e 51 d9 98 3e 22 dd a7 bd ef 64 e1 3d
       0.3293092 0.298533 -0.081964746 0.1100558
0000f0 bb 4e ca bd 57 b5 83 3c 2d c1 71 3c 38 2b 96 3d
       -0.09878298 0.01607768 0.014755529 0.07332462
000100 81 88 64 bd c5 e7 16 3e d3 68 00 bc df 3b 4b be
       -0.055794243 0.1473685 -0.007837492 -0.19847058
000110 eb 46 85 3c ca 7f ba 3d ed d2 9b 3d b1 2e b8 bd
       0.016269168 0.09106405 0.0760859 -0.08993281
000120 89 d5 a8 3d 8d c1 57 bc 45 5f ea bd bd 46 3f 3b
       0.082438536 -0.013168705 -0.114439525 0.002918645
000130 29 82 a1 be d8 60 a8 3c f5 76 c8 3d 61 71 14 3e
       -0.31544617 0.020553991 0.09788314 0.14496376
000140 03 cf b7 3d 91 5f 3a be 7a be 61 3e ed f2 a5 bd
       0.08975031 -0.18200518 0.22045317 -0.08102975
000150 02 60 9c be 42 f5 fa bd ac 8a 46 bb f4 63 f5 be
       -0.30541998 -0.122538105 -0.0030295057 -0.4792782
000160 85 d5 34 be 88 a0 f0 b9 37 ba 91 3e 1d a4 23 3e
       -0.17659576 -0.00045895972 0.28462383 0.15980573
000170 d5 39 a4 bd de 87 a3 be 66 93 40 bd 70 2a e0 be
       -0.08018843 -0.31939596 -0.04701557 -0.43782377
000180 a4 1c e6 bb 25 93 87 bd 21 42 ba bd 3e a1 a6 be
       -0.007022457 -0.066198625 -0.09094644 -0.32544893
000190 08 57 53 3e 4f cd 2b bd 31 b3 8e be 21 42 63 be
       0.20638669 -0.041943844 -0.27871087 -0.22193195
0001a0 b7 76 12 3a 0f c3 91 bd 26 9f f0 bd 3e 82 b0 3e
       0.0005587148 -0.071172826 -0.11749105 0.34474367
0001b0 35 53 85 be 7c f7 c0 bd c2 63 aa 3d 74 ab 47 3f
       -0.26040044 -0.09422204 0.083198085 0.7799599
0001c0 88 cb 03 be b1 d6 08 be 37 0c 62 bd d7 63 7e be
       -0.1287061 -0.13363148 -0.05518743 -0.24842773
0001d0 1c 91 04 3f 2d 7a 12 3f b0 09 be 3e c8 8b 25 be
       0.5178392 0.57217675 0.37116766 -0.16166604
0001e0 69 c4 fb bd 30 a3 cf bd e9 64 e4 be 7d ed 23 bd
       -0.12293322 -0.101385474 -0.44608238 -0.04002141
0001f0 42 d2 cf 3d 8c a6 85 be 89 97 27 3e 74 3f e8 bd
       0.10147525 -0.26103628 0.163664 -0.11340228
000200 d3 a4 1e 3e fd 6f d8 3e 94 88 56 be e4 8c a7 3d
       0.15492563 0.4227294 -0.20950538 0.0818117
000210 f2 30 4d 3e 02 26 06 3e 5a 1a 91 3b 7d ca 6b bd
       0.20038202 0.13100436 0.00442819 -0.057566155
000220 59 bf 04 bd 7e 93 ef 3d a6 b0 0c 3f bc 64 02 3e
       -0.032409046 0.11698054 0.54957044 0.1273374
000230 98 cc 8b bd de 14 38 3e ff ab cc 3d 41 1d 98 3d
       -0.068261325 0.1797671 0.09993743 0.07427455
000240 cd f9 8b 3e 29 90 30 3e 1e 8b a3 3e 15 6a f7 be
       0.2733902 0.17242493 0.31942075 -0.48323122
000250 45 06 e9 be f4 d8 4a 3e 4f 2a 1f 3e e6 f3 aa 3d
       -0.45512596 0.19809324 0.15543483 0.08347301
000260 d4 aa a2 bc 4a 7b 5f be 9f de 67 be c9 ec 7b 3d
       -0.019856848 -0.21824375 -0.22643517 0.061505113
000270 0a 3a 31 3e 1b df 52 bd 84 48 0c bd 65 8d 97 3e
       0.17307296 -0.0514823 -0.034248844 0.29600063
000280 46 d1 6b 3d bf b9 59 3e cc 48 d7 bd 69 22 32 3e
       0.057572626 0.21262263 -0.10511932 0.17395939
000290 2e c9 43 ba dc f0 29 3d 2d 97 86 bd 35 cf 9d 3d
       -0.0007468638 0.041489467 -0.06571803 0.07705537
0002a0 33 a6 e6 3c f0 61 a8 3d 33 a5 73 be 98 9b 3e 3d
       0.028155422 0.08221805 -0.23793487 0.046535105
0002b0 29 35 16 be fa de a1 3e 1c 12 8e 3e e1 59 42 3e
       -0.14668716 0.3161543 0.2774819 0.18979599
0002c0 58 42 0b 3c a3 91 24 3e cc b4 69 3d 56 31 a4 3e
       0.008499704 0.16071181 0.057057187 0.3206889
0002d0 6f 69 59 3c 7d 98 3d be 1a ef bd bd 29 0e 8f bd
       0.013269766 -0.18515201 -0.09274121 -0.06985123
0002e0 28 7b 9f bd 63 c5 24 bd 0b 88 ba bd 5b 77 85 3e
       -0.07787162 -0.040227305 -0.091079794 0.26067623
0002f0 6e 9a 53 3d f4 60 94 bd aa 16 32 3d d8 0d 2b bc
       0.051660948 -0.07245055 0.043478645 -0.010440312
000300 79 16 7e bc 60 a7 1c 3d 42 f6 81 bd f3 13 43 be
       -0.015508288 0.03824556 -0.06345798 -0.19050579
000310 1c 76 8d bc a2 e8 1e bc ad 6b 28 3d e0 3b 85 be
       -0.017268233 -0.009699019 0.041118313 -0.26022243

F.out.bias f4 [5]
000000 3a 2d 38 3c 30 5d be bd ff 69 36 3d ad 41 33 3d
       0.011241252 -0.09295118 0.04453468 0.043763805
000010 00 ca a1 bd
       -0.078998566

i2h.linears.0.weight f4 [20, 22]
000000 fd ab 0b bd a3 23 9f 3e 31 b7 65 3e 64 74 b4 3c
       -0.034099568 0.31081876 0.22433163 0.022028156
000010 09 d3 37 bd cd 07 3b 3e bb f7 8d 3e e9 bd 69 bd
       -0.044878993 0.18264695 0.27728066 -0.057065878
000020 d7 6a 9e be df 20 27 be f9 6b 4c bc 17 7a 97 3d
       -0.30940887 -0.16321133 -0.012476915 0.07396334
000030 20 62 85 bb 69 6a bc be ac 7b 3f 3d 68 19 cb 3a
       -0.0040705353 -0.36799935 0.046748802 0.0015495243
000040 86 99 26 be 3e 6f 67 bd d5 4a 75 be 48 89 8d bd
       -0.16269502 -0.056502573 -0.23954327 -0.0691095
000050 01 2d 9e bd 3d 28 ef 3c 56 e0 83 3e 20 dd ae 3d
       -0.077234276 0.029193992 0.25757092 0.0853827
000060 26 ba 49 3e 4a 7f 77 3d eb db 33 be 4a 6e f9 3d
       0.19699916 0.060424127 -0.17564361 0.12179239
000070 88 26 ee 3d a1 28 56 be 32 9f 91 3c 2b a1 32 be
       0.11628443 -0.20913936 0.017776106 -0.17444293
000080 71 15 9a 3e f0 fd 97 3e aa 7f 72 bd 74 99 38 3e
       0.30094483 0.29685926 -0.05920378 0.18027288
000090 c5 3d 0b 3e 15 b0 c9 3d ef 25 80 bd a7 31 2b 3d
       0.13597782 0.09848038 -0.06257235 0.0417954
0000a0 c7 e3 be 3d 2f f6 48 3e 91 d7 f0 bd 35 35 33 3d
       0.09320789 0.19625162 -0.11759866 0.043751914
0000b0 41 1c 8e be ba b4 e7 3d 33 b3 2f be 0c b9 97 bd
       -0.2775593 0.11313768 -0.17158203 -0.07408342
0000c0 ed ba 1d 3e ac 76 2e be c1 79 9a be 76 e2 20 3e
       0.15403338 -0.17037457 -0.30171016 0.15711388
0000d0 70 db 05 be a9 ac 8d 3d dc 0b 92 bd 69 c7 be be
       -0.1307199 0.06917698 -0.07131168 -0.37261513
0000e0 fe 38 b5 bb 65 6d ca bd ac ae 6b bc 02 ee cd bc
       -0.0055304756 -0.098841466 -0.014384907 -0.025137905
0000f0 88 58 95 be 1d 82 b0 bd 91 44 12 3d 89 dc 63 3e
       -0.29169106 -0.08618567 0.03570992 0.22252096
000100 de ee f4 3d 24 9a 25 bc 94 e4 1c 3e 81 8d 91 3e
       0.11959623 -0.010107551 0.1532157 0.2842827
000110 c9 8c 5f 3e 57 72 3c 3e 5c 1d 97 be 39 f9 1e 3e
       0.21831049 0.18402992 -0.29514587 0.15524758
000120 d7 5f ae 3e 7f 62 e1 bd 59 66 3d be 89 f5 d0 bd
       0.34057495 -0.11005115 -0.18496074 -0.10203082
000130 a2 3a 4e be 16 d4 76 3e 67 43 18 be 67 a7 ac bb
       -0.20139554 0.24104342 -0.14869462 -0.0052689794
000140 09 df 3f 3d 6b e8 8e 3d 38 1f 67 3e ce 3a bd 3d
       0.046843562 0.06977924 0.22570503 0.09239732
000150 42 06 94 3d 5f 30 0a 3e 48 62 fd bd 61 cf c3 3c
       0.07227756 0.13495015 -0.12372261 0.023902597
000160 8b 8c 09 be ad 91 08 3e bf a9 77 3e bf 6b ad 3d
       -0.13432519 0.13336821 0.24185847 0.084678166
000170 f1 99 4f bd 89 a8 2a 3d 79 14 22 3e be 55 a6 be
       -0.05068392 0.041664634 0.15828122 -0.3248729
000180 12 20 16 be cb 92 de bd 17 2e 7e be 2b 09 51 3d
       -0.14660671 -0.10867842 -0.2482227 0.051034134
000190 6d 6e 1b bc 13 65 9b be 0e 05 bd 3d f9 c0 fb bd
       -0.009486777 -0.3035055 0.0922948 -0.12292666
0001a0 4b 9b 21 3e 06 c5 76 3e 1a 1a a7 be c8 b4 02 bc
       0.15781896 0.24098596 -0.326371 -0.007977672
0001b0 6c 31 77 be 0b c6 b1 bc 0e 6f 04 bc cd ab e9 3c
       -0.24139947 -0.02170088 -0.008083118 0.028524304
0001c0 01 a1 70 be b6 4e bd bd 66 ba 0b 3e 40 b5 26 bd
       -0.23498918 -0.092435285 0.13645324 -0.040700197
0001d0 49 25 39 be 2f 5f 32 3e 21 6b d3 be b1 ec c6 3d
       -0.1808063 0.17419122 -0.4129267 0.09713114
0001e0 ae fc 46 bd fc 32 d8 3e ab 07 90 bd 32 9b 94 3c
       -0.048580818 0.42226398 -0.070327125 0.01814041
0001f0 40 ba 5b be e7 f8 21 3d 99 59 93 bb d7 9c c7 3e
       -0.21457767 0.039544012 -0.004496765 0.38986847
000200 65 4b 98 3c f1 19 c6 3e 5c d2 60 3e 96 db 33 be
       0.018590638 0.38691667 0.21955246 -0.17564234
000210 e1 76 80 3d c5 74 52 be 96 d9 fa bd 6d 94 c9 3d
       0.06272674 -0.20552357 -0.122485325 0.09842763
000220 2b 19 e4 bd a0 f7 83 bd 96 03 f0 bd ef 70 dc bd
       -0.11137613 -0.06443715 -0.11719434 -0.10763728
000230 13 7b b6 3e 7d 75 d1 3b 32 a0 3a 3d 01 4a 89 3e
       0.35640773 0.0063921795 0.04556293 0.26814273
000240 10 ab df bc ba e3 67 3e 21 ec 58 be f6 33 21 3e
       -0.027303249 0.22645465 -0.21183826 0.15742478
000250 16 61 1a 3d bf 01 9d be bc 4d c5 3d 64 1e c6 bd
       0.037690245 -0.30665395 0.09633967 -0.09673765
000260 c7 93 c9 3d 24 f2 1f 3e 7e 13 6a bd 33 5e 0f 3e
       0.098426394 0.15619713 -0.057147495 0.14000778
000270 e2 b0 6c be 00 43 75 be d7 81 ed 3d 07 57 19 3d
       -0.2311435 -0.2395134 0.115970306 0.03743651
000280 c2 b5 79 bd 03 c4 5d 3c 31 01 4b 3c 81 7e 88 3e
       -0.060964353 0.013535502 0.012390421 0.26659015
000290 31 d2 35 3d 62 29 49 be e9 0e 38 3e ef 2a 36 3e
       0.044389907 -0.19644693 0.17974438 0.17789815
0002a0 90 4f 9b bc 0e 37 d2 bd 20 cf f5 bd 01 df e2 be
       -0.018958837 -0.10264407 -0.120023966 -0.44310763
0002b0 93 fd 0c bc 90 5d 0a 3e 97 01 21 3d 24 f1 7f b8
       -0.008605379 0.13512254 0.039308157 -6.1021317e-05
0002c0 a1 ec b9 3c 09 7d d7 3d b4 74 5a 3e 86 d9 55 3c
       0.022695841 0.105218954 0.21333581 0.01305235
0002d0 da 10 3a 3d 1d 40 78 bd 88 84 a7 3c 40 ae 71 3d
       0.045426227 -0.06060802 0.020448938 0.05900407
0002e0 32 31 c2 bd 55 fa e2 3c b3 c6 4a 3e 1b 1b 35 bd
       -0.094820395 0.027707258 0.1980236 -0.044215303
0002f0 8d 1b 8f 3d c4 1c b6 bc 71 2b 50 be 38 68 f1 3d
       0.06987677 -0.022230513 -0.20329072 0.11787456
000300 b2 e7 07 bd 21 8a 90 be ce 6c bf 3d 7d 1d 16 3e
       -0.033179946 -0.28230384 0.09346925 0.14659686
000310 01 e2 fc 3c 4a 9d c2 bc d1 91 ee be f7 ac 56 bc
       0.030869486 -0.023756642 -0.46595624 -0.0131027615
000320 cd 93 8f bd 04 7e f6 bd ef 06 64 3c d5 19 ec 3c
       -0.07010613 -0.12035754 0.013917669 0.028820911
000330 ea b2 03 be 15 ee 00 be 8f 1e c0 3e 0c 71 38 3d
       -0.12861219 -0.12590821 0.37523314 0.045029685
000340 e9 20 b0 be 72 2c d3 bd 81 e9 3c 3d 01 55 03 3f
       -0.34400108 -0.10311212 0.046121124 0.5130158
000350 0c ce eb 3c f3 75 34 bd cd a7 32 3e 52 77 6f be
       0.028784774 -0.044057798 0.17446823 -0.23385361
000360 d6 6b 8d 3e 06 d9 17 be 8b 67 6a bd 54 15 7e 38
       0.27621335 -0.14828882 -0.057227653 6.0578182e-05
000370 e7 58 19 3e 89 37 d6 bc 02 70 74 3e b4 72 cf bb
       0.1497532 -0.026149528 0.23870853 -0.0063308123
000380 67 aa e2 3c d2 3a 9a bd e9 7b d1 bd 06 30 a3 3d
       0.027669145 -0.0753075 -0.10228712 0.07968144
000390 d8 a5 93 be 5c ff 4c 3e 0c 61 86 3e c8 be e4 3d
       -0.28837466 0.20019287 0.26245916 0.11169201
0003a0 8f 7d 8f 3e 4a 77 de 3d 43 f1 9a be b7 7c da 3d
       0.2802548 0.10862596 -0.30262193 0.10668319
0003b0 21 3b be 39 07 27 ef 3d ac ca c0 bb da 61 1e 3e
       0.00036283678 0.11677366 -0.0058835354 0.15467015
0003c0 35 b5 79 3e f6 75 5b bd e7 b1 a6 be b0 83 59 3e
       0.24385531 -0.053579293 -0.32557604 0.21241641
0003d0 4f 59 71 3b a2 8e 25 3c 98 23 22 be 04 1a 11 3e
       0.0036826914 0.010104807 -0.1583389 0.1417008
0003e0 be 95 23 be 07 00 65 be 87 bf fb 3e e5 21 13 bd
       -0.15975091 -0.22363292 0.4916956 -0.035920996
0003f0 82 00 57 bd c0 cf 65 be 1e 38 1f be dc 10 af 3d
       -0.05249072 -0.22442532 -0.15548751 0.085481375

i2h.linears.0.bias f4 [20]
000000 de d1 e4 3d 1c b4 75 3e d5 4c 88 be 47 06 c6 3d
       0.111728415 0.23994488 -0.26621118 0.09669166
000010 49 0c a0 3e b3 f4 6d be fc 4e 84 bd f1 76 24 be
       0.31259373 -0.23237877 -0.064603776 -0.16060998
000020 5b bd 0e 3e 9f fd 39 3e 0a 53 3b be 65 7d 30 be
       0.13939421 0.18163155 -0.18293396 -0.17235334
000030 9c 30 b2 3d d5 1e 20 3e 44 21 8f 3d 3d 13 53 3d
       0.08700678 0.15636761 0.06988767 0.05153202
000040 18 92 df bd 4c 8b 5a bd 95 4c 5f be 84 3b fe 3d
       -0.10916537 -0.0533555 -0.21806557 0.124136955

h2o.linears.0.weight f4 [10, 20]
000000 0c 33 ee be 1d 2e a4 be c2 ab 12 be 04 be d0 be
       -0.4652332 -0.32066432 -0.14323333 -0.4076997
000010 67 2b 35 3e 26 47 20 be 52 7b 01 3d 3d 2c fc bd
       0.17692338 -0.15652141 0.031611748 -0.12313125
000020 e5 57 cb be 02 8b 9b 3d ef cb ab be e5 75 51 bf
       -0.39715496 0.07594873 -0.33554026 -0.8182052
000030 80 17 f0 3e 75 98 70 bd 0b 38 bd be a7 71 24 3f
       0.4689293 -0.058739144 -0.3695682 0.6423592
000040 57 ec 23 bf c5 6f af bd 34 50 05 bf ea a3 04 bf
       -0.640325 -0.0856624 -0.52075505 -0.51812613
000050 50 e8 43 3e 23 a7 83 3b ac 4e a5 3e 06 b3 c7 bc
       0.19131589 0.004017727 0.32286584 -0.024377357
000060 92 b2 35 3e b7 3b 40 be a9 81 8c bd 49 32 11 3e
       0.177439 -0.1877278 -0.06860668 0.14179339
000070 8c 79 99 3e e2 0e 42 3d 6e a7 bb bd c2 30 65 3e
       0.29975545 0.047377475 -0.09162794 0.22381881
000080 ce 50 02 bc 61 d6 69 3e 3c a1 45 be cf 7a 78 be
       -0.007953836 0.22835685 -0.19299787 -0.24265598
000090 c0 d7 e0 3c ed ac b3 3e af bd bc 3e c3 b4 26 be
       0.027446628 0.3509287 0.36863467 -0.16279893
0000a0 7c bb 43 3e e2 a5 80 3e aa 74 5d be d6 0b 0b 3e
       0.19114488 0.2512656 -0.21626535 0.13578734
0000b0 2d 18 7e be 63 f5 8e 3e 9f ba 94 3e 93 41 38 be
       -0.2481391 0.2792159 0.2904863 -0.17993765
0000c0 74 c2 48 3e 75 fc a7 bf c5 62 cb 3e c7 1e 89 bf
       0.19605428 -1.3123919 0.39723793 -1.0712517
0000d0 4d 2a b4 bc ed a3 34 bd 5f 01 6c 3e b7 fd b2 3d
       -0.021992827 -0.044101644 0.23047398 0.087397985
0000e0 e1 ba 05 3e 93 64 6b be 61 5d 92 3e 33 1e b9 3e
       0.1305957 -0.22987585 0.28586867 0.36155853
0000f0 32 8e 6e 3e 3a 23 c8 ba a9 f1 96 be 3a ba df 3e
       0.2329643 -0.0015269287 -0.29481247 0.43696767
000100 a4 ec a6 3d 60 7d 46 3e b0 da 37 bf 5e 25 ac be
       0.08150604 0.19383764 -0.71818066 -0.3362226
000110 11 11 d4 bd 27 6f a5 3e 8e dc 01 3e 8b 81 30 3f
       -0.10354818 0.32311365 0.12681791 0.68947667
000120 9c f0 fa be 97 f3 18 bf a8 65 28 3f 4d 4a 99 3e
       -0.49011695 -0.5974669 0.65780115 0.299395
000130 c2 d5 af 3e 8f b8 b9 be 5f 4a 89 3e 60 84 80 3e
       0.34342772 -0.3627362 0.26814553 0.25100994
000140 1c 9c d7 be 5e 97 b5 3e d3 d2 f7 be b3 c0 8a 3e
       -0.4211129 0.35467046 -0.48403034 0.27100143
000150 46 57 00 bf b8 b3 ef 3e 24 cd 2d 3f 32 d7 bf be
       -0.5013317 0.46816802 0.67891145 -0.37468868
000160 4b cd d9 be 2c 2e be bd aa 60 69 3e 18 34 10 be
       -0.4253944 -0.0928615 0.2279078 -0.14082372
000170 aa ca 08 3e 3f 04 06 bf 91 51 0e bf ba f4 14 bf
       0.1335856 -0.5235023 -0.5559321 -0.58185923
000180 37 08 f7 bd 1c 79 ed be 46 4c 71 be fc 2f e4 3e
       -0.12062114 -0.46381462 -0.23564252 0.4456786
000190 90 d4 03 bf 8f ab 30 bf a8 86 2c 3f 00 e2 04 bf
       -0.5149622 -0.6901178 0.6739297 -0.5190735
0001a0 15 51 2c bf e5 66 34 3f 8d 5c 4d 3e db 03 b7 3e
       -0.6731122 0.70469505 0.20054837 0.3574513
0001b0 23 5a 08 be 3e cf 04 bf d2 50 93 3e 0f 34 d7 3e
       -0.13315634 -0.51878726 0.28772599 0.42031905
0001c0 8e a3 46 3c 59 33 cc bd 8e d0 72 be 1c fa b3 3e
       0.012123955 -0.09970731 -0.2371237 0.35151756
0001d0 a9 d6 91 3e 9d 64 60 3d fe a7 b6 3e eb 74 c6 be
       0.28484085 0.054783452 0.35675043 -0.38761076
0001e0 76 e8 11 bf 9f 7f 4d bf 92 7f 4a 3f ab b7 2b bf
       -0.5699533 -0.8027286 0.79100907 -0.6707713
0001f0 25 93 28 bf 67 e4 3b 3f cd f8 e6 3d 9e f2 d5 3e
       -0.65849525 0.7339539 0.11277924 0.41786665
000200 59 a8 be be 6b 3a d9 be 83 c3 c4 3e 43 24 c6 3e
       -0.37237814 -0.42427382 0.38430414 0.3869954
000210 d4 fc 88 be 24 ce ff be 93 d4 2d be ad d3 00 3f
       -0.26755393 -0.4996196 -0.16975622 0.5032299
000220 fd ca 21 3f df 75 83 3e 91 9c 61 3f 5b d6 d6 be
       0.6320036 0.25675866 0.88129526 -0.41960415
000230 c9 dc ee be 6f 68 3b bf 40 4f 3c 3f d6 5b 26 bf
       -0.4665282 -0.7320623 0.73558426 -0.6498388
000240 f1 56 22 bf 98 1f 16 3f a7 5e ce 3d 1b 77 de 3e
       -0.6341391 0.5864196 0.10076647 0.43450245
000250 74 02 b6 be 62 73 a2 be 12 4b c5 3e 81 42 60 3e
       -0.35548747 -0.31728655 0.38533837 0.21900369
000260 cd ae 55 be bc 4d 9e be 67 13 b5 be ab f0 ae 3e
       -0.20867462 -0.30918682 -0.35366365 0.3416799
000270 5e 41 06 3f 8c b6 87 3d ac 45 08 3f 36 59 bd be
       0.5244349 0.06626615 0.5323131 -0.36982125
000280 68 ab 00 bf 94 0f 6d bf 00 58 30 3f 55 59 00 bf
       -0.50261545 -0.92601895 0.6888428 -0.5013631
000290 89 b6 41 bf d3 fb 40 3f ee b1 56 3e db 06 16 3f
       -0.7566915 0.75384253 0.20966312 0.5860421
0002a0 8a 3f fe be 20 2c 1c bf 54 76 a9 3e b4 df 05 3f
       -0.4965785 -0.6100483 0.3309809 0.5229447
0002b0 3c 4a 2b be 01 2f a9 be 90 12 98 be 2d b8 b7 3e
       -0.16727537 -0.33043674 -0.29701662 0.35882702
0002c0 bb 37 e3 3e aa 2e 70 3e ad 48 0e 3f 2d 9e fb be
       0.44378456 0.23455301 0.55579644 -0.49144116
0002d0 8d 3b 5c bf 53 12 74 bf 40 21 5b 3f 0c a1 15 bf
       -0.8602837 -0.9534046 0.8559761 -0.58448863
0002e0 33 52 41 bf df f4 50 3f 30 60 d9 3c b1 dc ee 3e
       -0.7551605 0.81623644 0.026535124 0.4665275
0002f0 9f 10 78 be 31 e6 01 bf a4 bb b5 3e 26 ca cf 3e
       -0.2422509 -0.5074187 0.3549472 0.40583915
000300 52 5d 84 bd 3f ff 4c be 2c db ab be be 9b 06 3f
       -0.06463112 -0.20019244 -0.33565652 0.52581394
000310 5c 2b 1f 3f 18 3f 03 3e 81 7b 65 3f b4 5c 01 bf
       0.62175536 0.12817037 0.89641577 -0.5053208

h2o.linears.0.bias f4 [10]
000000 0c 0c 82 3d 39 9c db 3c 28 db 15 3d 92 11 d5 bd
       0.06349954 0.026807891 0.036585957 -0.10403742
000010 17 12 04 3d 9c 69 5f bf 53 60 70 bf 56 75 5d bf
       0.032243814 -0.8727052 -0.9389698 -0.86507165
000020 56 f3 86 bf 9a 80 8a bf
       -1.054301 -1.0820496

linears.0.weight f4 [20, 5]
000000 94 aa 23 be 77 0f 8b 3e e4 a9 32 3d 95 c2 8e 3e
       -0.15983039 0.27160236 0.04361905 0.2788283
000010 d5 90 55 3e cd 83 0d 3b 09 7c 12 be fa 0c ca be
       0.2085603 0.0021593452 -0.14305128 -0.39463025
000020 df fa 9b be 71 91 bc bd 04 dc 00 be 84 e6 b9 be
       -0.30464837 -0.09207428 -0.1258393 -0.36308682
000030 70 5e 81 3e 68 7e 4e 3e 94 e1 46 3e 91 e2 5c bd
       0.25267363 0.20165408 0.19421989 -0.053927008
000040 48 ba 28 bd 9f 19 9d 3e 55 cc 1a be 0a e4 d1 3e
       -0.041193277 0.3068361 -0.15117009 0.40994292
000050 8a 8f 36 3c 7d ee 7e 3c b9 99 83 be 06 64 3d be
       0.011142621 0.01555979 -0.2570322 -0.18495187
000060 31 84 b2 be 66 7d ea 3d 3b 88 c8 be 94 78 04 be
       -0.3486648 0.11449699 -0.39166436 -0.12936622
000070 fa 0b 7e be 8b 95 e1 bd 03 4a d0 bd ff 05 6c 3e
       -0.24809256 -0.11014851 -0.101703666 0.23049162
000080 23 bc e2 3e 31 9d a2 3e 2e 4c 71 3e 8a d3 51 bd
       0.44284162 0.31760553 0.23564216 -0.05122713
000090 1d 9e aa be 11 b5 a5 3d 8f 34 94 be bf 6c 46 3e
       -0.33323756 0.08091176 -0.2894635 0.19377421
0000a0 8f fd 8c bd 21 be b7 3e 85 89 45 3e f0 33 c7 3d
       -0.068843 0.35887244 0.19290741 0.09726703
0000b0 cf d8 0c 3e a0 74 88 bc 3c 64 a2 3e 8b da 39 be
       0.13754581 -0.016657174 0.31717098 -0.18149774
0000c0 23 17 2c bd b8 3c 06 bf 48 0f 36 be b3 97 99 bc
       -0.042014252 -0.524364 -0.17779267 -0.018749094
0000d0 a5 f9 a8 3d 5e f8 9c 3e 1f ef 71 3e dd a2 3c bd
       0.08250741 0.3065824 0.23626374 -0.046053756
0000e0 a4 10 04 3f 50 c2 21 be 10 15 d8 3d d2 b8 a1 bd
       0.5158789 -0.1579678 0.10550892 -0.0789658
0000f0 6d f4 cd bc 80 89 a9 be 9c a5 6e be df 26 66 be
       -0.025140965 -0.33112717 -0.23305362 -0.22475766
000100 6e 07 cd bd f0 0e 39 3d 7a c7 e8 be e4 46 05 bd
       -0.10011183 0.04518026 -0.4546469 -0.03253831
000110 99 21 62 be 42 7b 0b be 59 21 98 3d 70 01 9e be
       -0.22083129 -0.13621238 0.074282356 -0.30860472
000120 bb ca 36 be c5 98 5c be 74 77 4d be ae 49 41 3e
       -0.17850773 -0.21542652 -0.20065099 0.18875763
000130 d8 03 a5 be 3a 29 b8 3e 2b 1a 48 3c c1 32 51 3e
       -0.32229495 0.35968953 0.01221327 0.20429517
000140 cb db 66 bd a2 8d da 3e 77 ab 52 be ed db 6d 3e
       -0.056361955 0.42686182 -0.20573221 0.23228426
000150 44 86 e6 bd 8c da 4a 3e 32 b4 92 3d 9f ce e3 bd
       -0.11256078 0.19809932 0.07163276 -0.11123394
000160 d1 ac b5 bd 5a 14 79 be c8 84 00 bc a2 a4 f9 3e
       -0.08870853 -0.2432417 -0.0078441575 0.48758417
000170 08 10 a3 3d 2e 7c a5 3e af 37 0c bd d3 c2 91 be
       0.07962042 0.32321304 -0.03423279 -0.28468952
000180 9c 60 73 be 5f b3 9e 3e 7a c3 83 bd 46 5b 82 3e
       -0.23767322 0.30996224 -0.064337686 0.2546026

linears.0.bias f4 [20]
000000 b9 a7 7f 3c 5a 36 0f 3e 81 74 a8 3d a2 1b ce bc
       0.015603953 0.13985577 0.08225346 -0.02515966
000010 96 08 f7 3d 74 c4 2d bd 1c 61 d2 3d 9e c7 ce 3d
       0.120621845 -0.04242368 0.102724284 0.10096668
000020 9a 8b c4 bc 63 56 03 3e 1d e0 45 bd 00 cf ff 3d
       -0.023992348 0.12825923 -0.048309434 0.12490654
000030 0e 8e 0d 3e b1 22 26 3e 60 74 b5 3d cf a0 09 3e
       0.13823721 0.16224171 0.088600874 0.1344025
000040 51 43 0e 3e b6 8d f3 3d c8 11 7d 3e 17 8f c1 3d
       0.13892867 0.118922636 0.24713814 0.0945112

linears.1.weight f4 [2, 20]
000000 cb 34 23 3e 89 13 99 be 47 ae 8d 3e 8d c4 f5 3e
       0.15938108 -0.29897717 0.27672026 0.4800152
000010 58 3f 2a bf 7b 8b b6 bc cf f3 b9 3e 98 e5 33 3e
       -0.66502905 -0.022283306 0.36318824 0.17568052
000020 74 db 56 3e b1 4a b6 be 4a 2d 8d 3e fc 2d 0c be
       0.20982152 -0.3560386 0.27573615 -0.13689417
000030 b2 e2 bf bd 01 95 36 bd 95 fe 84 be 80 0e fd 3e
       -0.093694106 -0.044575695 -0.2597548 0.49425125
000040 21 ea 22 be d4 f6 b8 be 8e 22 b0 bc 74 5b c5 3e
       -0.15909626 -0.36125815 -0.021500852 0.38546336
000050 20 b1 77 3e d9 ba a9 be bd 3d ee bd 33 ff 0b be
       0.24188662 -0.33150366 -0.116328694 -0.1367157
000060 f4 80 54 be 71 41 e8 be 77 b1 b0 3e 54 b6 8e be
       -0.20752317 -0.45362428 0.34510395 -0.2787348
000070 87 11 df 3e d0 d6 2f 3e 3f bd a3 3d 70 b6 ff 3e
       0.4356806 0.17171788 0.0799508 0.49943876
000080 00 d1 98 be 9f 07 13 bf e7 50 dc be cf 44 e3 be
       -0.29846954 -0.57433504 -0.43030474 -0.44388434
000090 fa 1d 10 3f c2 07 b8 bd 05 70 d8 3e 0e af 29 be
       0.5629574 -0.08985855 0.42272964 -0.16570684

linears.1.bias f4 [2]
000000 e0 8a 52 bd 7c 7f a5 3b
       -0.051401973 0.0050505977
